beergame/double_dueling_dqn/models/dqn_agent_firm_1_episode_2500.pth (torch, 105254 bytes, 28 tensors)

fc1.weight f4 [64, 3]
000000 66 2d 13 bf 38 c9 fd bd 26 f0 a4 be 51 cf 19 b9
       -0.5749115 -0.12391895 -0.3221447 -0.00014668448
000010 30 45 b2 3d 7a b3 d3 3c 68 c9 e0 be 6f f0 a0 be
       0.08704603 0.025842417 -0.4390366 -0.31433436
000020 26 6b ae 3e 49 4b 7a 3e aa e8 0a 3e 32 58 62 be
       0.34066123 0.24442782 0.13565317 -0.22103956
000030 19 be b5 be c8 1a 00 bd b6 50 b8 3d e6 fc ff 3d
       -0.35496596 -0.03127554 0.089997694 0.124994084
000040 53 4a 8e 3e c2 3e 97 3c 55 bb d4 3c d0 75 4b 3e
       0.2779108 0.018462542 0.025968233 0.1986916
000050 29 4b d6 bb 00 fc ff 3e d5 a7 da 3d a1 ac 20 be
       -0.0065397215 0.49996948 0.10676543 -0.15690853
000060 3b 3c 2e 3e c9 53 5b be 8b de 3e bd e0 3b 74 bd
       0.17015164 -0.2141868 -0.046598952 -0.059627414
000070 76 65 fd be 46 73 68 be 8c 77 66 be b5 fe 22 3e
       -0.4949147 -0.22700223 -0.22506541 0.15917476
000080 18 2d b7 3d ac 73 fa 3d 17 b9 57 bf 67 17 1b bd
       0.08944148 0.12229094 -0.842668 -0.037864115
000090 ea 30 a1 3e 93 89 d7 be c4 1b 00 3e 6b 76 18 3f
       0.3148263 -0.42097148 0.12510592 0.5955569
0000a0 b6 1f 31 3f ef 26 95 3d 0c d0 19 3e ee 50 8c 3c
       0.6918901 0.072828166 0.1502077 0.017128434
0000b0 83 3c dc 3c e7 8d 2b bd fc 86 14 be bb 29 1b be
       0.026884323 -0.041883375 -0.14504617 -0.15152638
0000c0 f0 98 a6 be 95 fd 95 be e8 73 09 bf b1 0d 95 be
       -0.32538557 -0.2929503 -0.53692484 -0.29112008
0000d0 1a 41 0f bf 60 2e 9e bd 58 d9 6b ba 71 7a ed be
       -0.5595871 -0.07723689 -0.00089969253 -0.46382478
0000e0 1b b4 a8 3c ec d4 4b be 3c aa f6 3e 8a b8 51 3e
       0.020593693 -0.19905442 0.48176754 0.20480552
0000f0 37 0a a9 3d 7d e6 3f 3e d2 e4 0d be b0 f4 ed bd
       0.082539015 0.18740268 -0.1385682 -0.11618936
000100 12 a8 3b be f0 56 b6 be 82 aa c5 3e 00 60 bd b8
       -0.18325832 -0.35613203 0.3860665 -9.030104e-05
000110 2e 82 08 bf 41 7f eb 3d e1 b2 a5 3c b3 1d 7e be
       -0.5332364 0.11498881 0.020226898 -0.24816017
000120 30 bf fb 3d 9c cc b2 be df ed f6 be cc 34 7f 3e
       0.122923255 -0.3492173 -0.48228356 0.24922484
000130 76 71 15 3f 15 a8 50 bc a5 3a 22 be d6 10 cc 3e
       0.5837625 -0.012735386 -0.15842684 0.39856595
000140 8e f3 e5 bd 2b d8 5a be 59 d2 89 3e 10 d2 9b 3e
       -0.11228095 -0.21371524 0.26918295 0.30433702
000150 ba 4a 41 be 6a 9c 6d bf 7b 57 82 3d a9 67 00 be
       -0.18876162 -0.92816794 0.06364342 -0.12539543
000160 f1 93 87 3e b1 00 71 bd 81 c1 18 be 67 fe cf be
       0.26480058 -0.05883855 -0.14917566 -0.4062378
000170 82 81 03 bc 1e 8b cd be fd fb 51 3c 44 29 9f 3d
       -0.008026483 -0.401452 0.012816426 0.07771543
000180 30 d4 f6 be a0 85 48 bd 4f 23 e5 be 11 ee 13 3f
       -0.4820876 -0.04895556 -0.447535 0.57785136
000190 42 7c 03 bf b2 1e 59 3e c2 a4 04 3f 7c d5 40 be
       -0.5136148 0.21203116 0.518139 -0.18831438
0001a0 36 1f 7a 3d f6 75 87 bf 64 7a 2b bf 96 78 4e 3c
       0.06106492 -1.0582874 -0.6698363 0.012601992
0001b0 40 4f 84 3d f8 58 cb bd 0a 39 53 be 5c f7 3b be
       0.06460428 -0.09929079 -0.20627227 -0.18356079
0001c0 f4 5b 9d bd 4e 4c 5a bd bd 3c 1a bf 32 3f 61 bf
       -0.07683554 -0.053295426 -0.6024893 -0.87987053
0001d0 93 92 54 3c aa f1 b9 be 40 35 50 3c 8c 34 f1 be
       0.012974399 -0.36317188 0.012708008 -0.47110403
0001e0 4d 7a 8a bd a9 04 33 be c2 33 56 bd 28 58 01 3e
       -0.06761608 -0.17482246 -0.052295454 0.12631285
0001f0 a7 48 ed be b6 98 c3 be 6c 42 9c 3e 3d 91 97 be
       -0.46344492 -0.38202447 0.30519426 -0.29602996
000200 72 e5 8e be 83 92 ad 3e d3 3f 3b bf c3 0d a3 be
       -0.27909428 0.33900842 -0.73144263 -0.31846437
000210 27 27 52 3e cc aa bf 3e df 28 98 3e 16 a2 83 be
       0.20522748 0.37434995 0.29718682 -0.257096
000220 86 0e b4 3c 24 60 06 be 69 fd 0c 3d c8 11 90 3d
       0.021979582 -0.13122612 0.03442136 0.070346415
000230 67 fd 8d bd fa 96 85 be 17 ef 9b 3e 0e 74 4f 3d
       -0.06933098 -0.26091748 0.3045585 0.050647788
000240 b9 6f 72 be 1e d3 10 3f 8e 0d 44 3c 0e 56 81 3e
       -0.23675431 0.5657214 0.011966122 0.25260967
000250 48 b8 ee be 8d bb b4 be 7c 01 a0 bf 2c 0a 34 3e
       -0.4662497 -0.3529934 -1.2500453 0.17582005
000260 0d 90 f9 bc c2 15 64 be 83 70 f2 be 3f 76 df be
       -0.030464197 -0.22273925 -0.47351465 -0.43644902
000270 18 6e e7 be e6 a9 db be d0 be b3 bd 0f 47 c2 be
       -0.45201182 -0.4290306 -0.08776629 -0.37944838
000280 80 26 89 3e d4 80 c5 be 12 a8 27 3e 36 27 14 bf
       0.26787186 -0.3857485 0.16372707 -0.5787233
000290 d2 bf 9d 3d 0c 63 01 bf 41 3b f6 bd 0c 91 a8 bc
       0.077026024 -0.5054176 -0.120230205 -0.020576976
0002a0 ce 92 30 bf 60 c5 ab 3e c4 01 26 bd 6a a2 84 3e
       -0.68974006 0.33549023 -0.040529028 0.25905162
0002b0 4a f9 c7 be b9 0c 0a bf e6 57 49 be 17 0b 91 3e
       -0.3905738 -0.53925663 -0.19662437 0.28328773
0002c0 c2 fd 98 be f9 72 2f bf 82 a9 2e bf 0e 43 27 3e
       -0.29881102 -0.6853481 -0.682274 0.16334173
0002d0 55 4f dd bd 0a 46 06 bf fc 05 d4 bc 10 bd b4 3d
       -0.10806147 -0.5245062 -0.02588176 0.08825123
0002e0 96 c2 01 be 08 20 e2 be a0 10 d0 3e 27 9e 48 3b
       -0.12671885 -0.44165063 0.40637684 0.0030611844
0002f0 f1 43 0e 3e e7 49 81 3d 45 72 d5 be 77 4b 90 bc
       0.13893105 0.06312924 -0.41688743 -0.01761411

fc1.bias f4 [64]
000000 17 80 96 be ec fc 6c 40 8a 01 3a c0 db 1a 1d 40
       -0.293946 3.7029371 -2.906344 2.4547641
000010 4c a7 78 40 29 79 43 40 04 e5 a4 3f ec 8f 0e 40
       3.885211 3.05427 1.288239 2.2275343
000020 21 f0 e6 3f 7c 8d ff 3e c4 1c 60 40 21 23 49 bf
       1.8042032 0.49912632 3.5017557 -0.7856923
000030 6f 13 6a 40 5e 02 12 c0 d6 8f 37 40 c0 90 02 40
       3.6574361 -2.2813945 2.868154 2.0400848
000040 7c 38 cf 3e b0 7f c9 3d 7b ee 04 c0 ec 66 f5 bf
       0.40472782 0.098388076 -2.0770557 -1.9172034
000050 4b f4 47 40 2e de 93 3e 34 0f e2 bd 3b 2d 32 40
       3.1242855 0.28880447 -0.11038056 2.7840106
000060 56 34 cc 3e 25 d4 16 3e 0d da 3c 40 e1 5a b6 bf
       0.3988368 0.14729364 2.9508088 -1.4246484
000070 32 82 94 3f 1b a3 b3 bf dd 09 07 40 ca 2d 6e 40
       1.1602232 -1.4034151 2.109977 3.7215447
000080 88 5c 99 3e 5d a9 06 c0 7a ec 1d 40 a7 ed ed bf
       0.29953408 -2.104087 2.4675584 -1.8588151
000090 fa 4c 05 bf a8 df 1a 40 da ab cd 3e 49 6b a3 be
       -0.5207058 2.419901 0.40170175 -0.3191779
0000a0 01 c3 56 40 88 37 7e be 9c 8a c7 be 48 44 69 3e
       3.355652 -0.24825871 -0.38972938 0.22779953
0000b0 f7 f5 21 c0 73 da 58 40 e0 cc 43 40 0a c4 5d 40
       -2.5306375 3.388333 3.0593796 3.4650903
0000c0 1a 55 2f c0 9a 82 bd 3e e1 2c 0d c0 a0 11 30 3e
       -2.7395692 0.37013704 -2.2058642 0.17194223
0000d0 0f 0f db be 69 65 0b 3f ab 53 23 c0 fb 8f ef 3f
       -0.42784926 0.54451615 -2.5519817 1.8715814
0000e0 73 d4 45 40 f5 1a 13 bf 7c ee 16 40 45 aa 8b bf
       3.0910919 -0.5746301 2.358306 -1.0911337
0000f0 25 ca 10 40 e8 31 c1 be ea f1 c0 bf 5a 07 4c 3f
       2.262338 -0.37733388 -1.5073826 0.7969872

fc2.weight f4 [64, 64]
000000 30 7a 03 bc 00 0c 20 b9 18 c3 d4 3d 20 42 2e bd
       -0.008024737 -0.0001526326 0.10388774 -0.04254353
000010 f2 ed bc 3d fc 96 eb bd 64 79 7d 3d 60 4e 99 3d
       0.09225072 -0.11503407 0.061883345 0.07485652
000020 b0 b4 61 bd 80 8a a1 ba 00 ee a2 3a 16 28 fa 3d
       -0.055103958 -0.0012324601 0.0012430549 0.12214677
000030 90 64 b8 3c 70 6f 05 3c 54 58 dc bd 36 f7 f4 3d
       0.02250889 0.008144245 -0.10759035 0.11961214
000040 ec 97 d1 bd 38 23 a9 3c 96 78 8d 3d 24 46 a6 bd
       -0.10234055 0.020646676 0.069077656 -0.08118847
000050 74 54 d8 3d 00 cb 86 bb b0 63 ba 3d 68 a2 aa bd
       0.10562983 -0.004113555 0.09101045 -0.08331758
000060 c0 76 23 bc ee 1e 8c bd a4 9d 10 3d fa cd cf bd
       -0.009977043 -0.06841837 0.035306588 -0.10146709
000070 80 57 89 3a 80 9b 69 3d 68 6b 5a bd d0 b8 ec 3d
       0.0010478348 0.057033062 -0.053325087 0.11558688
000080 94 28 2e 3d 20 e1 65 3c 7c ff b4 3d 82 9b 80 bd
       0.042519167 0.014030725 0.08837792 -0.06279661
000090 60 cc 37 3c 9a 63 fd bd a8 84 fb bd 78 49 af 3d
       0.01121816 -0.12372513 -0.122811615 0.08558935
0000a0 d8 a0 5f bd bc 09 72 bd ec 83 3e bd 9e 17 e0 3d
       -0.054596752 -0.059091315 -0.04651253 0.109420046
0000b0 80 54 98 bd 94 31 a6 bd e0 0e 60 3c bc 52 af bd
       -0.07437992 -0.08114925 0.0136754215 -0.08560702
0000c0 7e c5 e1 bd 60 13 f8 3d c4 7c 71 3d 80 16 d2 bb
       -0.11023997 0.121130705 0.058956876 -0.0064113736
0000d0 fe 06 e4 bd 3e f5 d4 3d a0 a8 48 3c c4 3b 45 bd
       -0.11134146 0.10398339 0.012247235 -0.0481527
0000e0 90 86 94 bd 68 e1 f1 3c ec b6 2a 3d c8 fb d2 bd
       -0.07252228 0.029526427 0.041678354 -0.1030193
0000f0 92 bf 95 3d 38 40 f7 3c 44 17 f0 bd e4 3c 47 3d
       0.0731193 0.03018199 -0.117231876 0.048642054
000100 84 44 ab 3d 01 2b b9 3e 8c 6d 8d be 34 e5 ec 3e
       0.08362678 0.36165622 -0.2762264 0.46268618
000110 5e 86 79 3f 65 b9 44 3d 3f e5 82 be a7 00 63 bd
       0.97470653 0.04802837 -0.25565526 -0.055420544
000120 b2 ad 77 bc 00 12 7a 3d bd 38 65 3e 0b 7d 1b be
       -0.015117096 0.061052322 0.22384925 -0.15184419
000130 53 b5 2e 3e 5a ae 15 bf 05 4a 16 3e 94 1d ab 3d
       0.17061357 -0.58469164 0.14676674 0.08355251
000140 32 08 fd 3d 44 50 d7 bd 20 29 34 be b9 c8 0e bf
       0.12355079 -0.10513356 -0.17593813 -0.5577503
000150 80 95 3c bd 50 e4 a1 3c 18 8f da bd 9f 78 fb 3e
       -0.04604101 0.019762188 -0.10671824 0.49115464
000160 e0 55 0c bc d0 9e 9c be f6 62 c9 be 16 bf ad be
       -0.008565396 -0.30589914 -0.39333314 -0.3393485
000170 dd 52 77 3f a6 74 6f be 4c e0 40 3e 3a 26 1d 3f
       0.96610814 -0.23384342 0.18835562 0.61386454
000180 7c 70 cc 3d 73 1f 57 be ef df 48 3e 06 6e 00 3e
       0.09982392 -0.2100809 0.19616674 0.1254197
000190 20 22 95 bb 93 c3 12 be dc 31 83 3e d4 de b6 bd
       -0.004551187 -0.14332418 0.25623977 -0.0892922
0001a0 b2 b2 a0 3e 2e 66 89 bd de ef be 3d e6 7a 05 be
       0.31386334 -0.06708942 0.09323095 -0.13035163
0001b0 8b c4 0c bf 2c e7 22 3e c7 ba 4c 3f ec 85 71 3e
       -0.549874 0.15908498 0.799725 0.23586243
0001c0 98 77 b9 be 00 04 79 39 ee e7 7d be 00 0a fc ba
       -0.36224055 0.0002374798 -0.24795505 -0.0019229054
0001d0 f8 19 c4 3d 58 c4 d0 be ee d4 13 bd ee ad c6 3d
       0.09575266 -0.40774798 -0.036091737 0.09701143
0001e0 3c 3a 89 3d a6 92 b0 3d f8 47 e1 be 9e 52 c4 3e
       0.067005605 0.08621721 -0.4400022 0.38344282
0001f0 d3 81 5d 3f 40 e6 3b bd cd e9 40 be 64 dd 85 3e
       0.8652622 -0.04587388 -0.18839188 0.2614547
000200 f2 56 d7 bd 89 02 04 bf 08 28 8d 3c 85 34 7b 3e
       -0.105146304 -0.5156637 0.017231002 0.24531753
000210 2e d7 01 bf 6a 91 99 bd aa 01 39 be ed ef cb be
       -0.50718963 -0.07498439 -0.18067041 -0.39831486
000220 4a cb e7 bd 68 f9 4a 3d 0c 98 b3 be 18 62 23 be
       -0.11318071 0.04955426 -0.3507694 -0.15955389
000230 e4 e5 b4 be f4 32 7c 3e 1e e0 94 be 08 d3 19 bf
       -0.35331643 0.24628812 -0.29077238 -0.60087633
000240 80 57 a6 bc 10 f9 f9 bd 20 e9 4b bd d4 02 61 3e
       -0.020305395 -0.12205708 -0.049782872 0.21973735
000250 b5 45 36 bf 58 b7 9f bc b0 9a 3b 3c 7e 5a 63 3f
       -0.71200114 -0.019496605 0.011450455 0.88809955
000260 d8 5f 35 bd 2e 41 22 be 2d 8d bd be 83 b3 74 3d
       -0.044280857 -0.15845177 -0.3702177 0.05974151
000270 5b 79 3e bf 37 e4 e8 3d 3f 6b 7c be 81 98 08 bf
       -0.74403924 0.113716535 -0.24650286 -0.533577
000280 be cf e8 bd 24 73 0e 3e b1 85 0d be 48 75 b2 bc
       -0.11367749 0.1391111 -0.1382053 -0.02178444
000290 10 43 6c 3d 44 f7 97 be bd 4c 9a be e0 0e 03 bd
       0.057681143 -0.29680836 -0.30136672 -0.031996608
0002a0 9d e2 0a bf 98 9a 03 bd 00 5c 3f 3a aa f6 d0 be
       -0.54252034 -0.032129854 0.0007299781 -0.4081319
0002b0 38 c8 c1 3d 02 e6 90 be 7c b1 21 bf 9e 98 ba be
       0.09462017 -0.28300482 -0.63161445 -0.36444563
0002c0 fe 9a 2d 3e a0 8c a8 bb e1 ac f9 3d da 62 98 3d
       0.16953656 -0.005143717 0.12191177 0.074407294
0002d0 08 d3 a5 bc 52 38 73 bd 0c 0c e7 3c 0f a8 5a be
       -0.02024223 -0.059379883 0.028203987 -0.21353172
0002e0 b8 8d b1 be bc 1e 32 3d 8c 52 a9 3e 6c a9 a0 bd
       -0.34678435 0.04348634 0.3307079 -0.07844815
0002f0 f8 ca e9 be 88 22 08 3d 8d 19 52 3e 7c 3e 3c be
       -0.45662665 0.033236057 0.2051756 -0.18383211
000300 9e 11 df bd 0b 1a 3a 3d 43 5e 71 3d f2 55 5a bd
       -0.10892032 0.045434993 0.058927786 -0.05330462
000310 dc 08 e7 bc df 03 0b bc 90 bc e7 3c 5a 97 aa bd
       -0.028202467 -0.00848481 0.028288156 -0.08329649
000320 3d f0 30 bd 6c 0a 98 bd fe 87 8b bd be e1 9b bd
       -0.04319786 -0.07423863 -0.06813048 -0.07611416
000330 58 73 88 3d 31 6a 75 bd 5f 75 9a bd c3 04 b1 bd
       0.06662625 -0.059915725 -0.07541918 -0.08643486
000340 40 44 45 bd 28 0d 92 bc c9 04 ef bd 68 b2 13 bd
       -0.04816079 -0.017828539 -0.116708346 -0.036058813
000350 ad 72 4b bd d0 f3 55 3c 2e 14 e4 3d e8 63 89 3c
       -0.04966991 0.013058618 0.111366615 0.016771272
000360 90 e6 3c bc ed 6b fb 3c 5c 06 e4 bb 5a 54 c1 bd
       -0.01152958 0.030691111 -0.006958766 -0.09439917
000370 d5 e0 e7 bd 1a 8c e0 bc a2 45 84 3d 2c 44 3f bd
       -0.1132218 -0.027410556 0.06458594 -0.046695873
000380 76 0a ac 3d 16 f8 4a 3d d1 f4 a4 ba a3 59 37 3d
       0.08400433 0.049553 -0.0012585168 0.04476322
000390 9c 18 51 3d 58 55 d3 bd da 3a 07 bb 18 ca 7a 3d
       0.05104886 -0.103190124 -0.0020634443 0.061227888
0003a0 d5 ed a2 3b 46 9a f1 3d c0 b7 ca 3b 2e 00 03 bd
       0.0049721994 0.117970034 0.0061864555 -0.031982593
0003b0 d6 81 5d bd e6 50 d1 bd 60 d1 c3 3c 32 2c 84 bd
       -0.0540789 -0.10220508 0.023903549 -0.06453742
0003c0 93 d5 ca bd 28 79 ac 3d c5 ec a4 bb c0 7f e1 3d
       -0.09904017 0.08421546 -0.005033108 0.110106945
0003d0 44 77 6b 3d 90 78 0f be 03 83 fd bd 35 38 b6 bd
       0.057486787 -0.14010835 -0.12378504 -0.088974394
0003e0 5b 0c 93 bd 84 05 57 bd a0 63 ee bd cd cf 28 3d
       -0.07180091 -0.052495494 -0.11640096 0.0412138
0003f0 42 27 6a 3d 30 67 27 bc 56 6e c6 bd a9 e7 c0 3d
       0.057166345 -0.010217473 -0.09689014 0.09419186

fc2.bias f4 [64]
000000 9e 2c 8a bd 89 a5 7a 3f 9c d6 05 bf 99 d2 07 be
       -0.06746791 0.97908837 -0.5228059 -0.1326393
000010 75 d1 71 3d 11 12 f7 3f 19 10 d1 bd e6 fe fb 3f
       0.059037644 1.9302388 -0.102081485 1.9687164
000020 cd 96 1e 3d 98 1d 95 be 4f 67 d3 3d 7d 7b 2a 3e
       0.038718034 -0.2912414 0.10322439 0.1664867
000030 c0 f3 09 40 81 1e f8 3d 58 f0 f1 3f e7 f3 05 40
       2.1555023 0.12115193 1.8901472 2.0930116
000040 be 89 fb bd c9 92 40 bb c8 d0 0f 40 a0 7b d4 3f
       -0.122821316 -0.0029384366 2.247118 1.6600227
000050 c0 8c 08 40 9b d6 c0 3f 0c 60 9f bd f3 50 0e bd
       2.1335907 1.5065492 -0.07781991 -0.034745168
000060 8c 5f 26 bd 76 4f e4 3f 3f 5f a8 bd 67 06 b2 3d
       -0.040618464 1.783675 -0.08221292 0.086926274
000070 67 dd 00 40 3b 9a 02 be 6f 05 05 be c1 ba e1 3f
       2.0135133 -0.12754147 -0.12990354 1.7635118
000080 81 15 3f bd 02 0d c4 bd bf 58 27 be f3 53 85 3e
       -0.046651367 -0.095727935 -0.16342448 0.2604061
000090 5c 12 9f bd 7f 76 b5 bc a2 99 8e 3c ea dc c7 bd
       -0.07767174 -0.02215123 0.017407242 -0.09758933
0000a0 a5 00 19 bd a9 13 b1 3f 20 90 d6 bf da 4b 07 40
       -0.03735413 1.3834125 -1.6762733 2.1140046
0000b0 ff 97 55 bf 78 b2 ca 3c 1e 82 b2 3f ce 92 fe 3f
       -0.8343505 0.024743304 1.3945959 1.9888551
0000c0 1d e2 a5 3d e7 0a f1 3f a4 0a 75 bf eb 72 6c 3f
       0.08099768 1.8831452 -0.9571936 0.9236285
0000d0 7a d5 f2 3f 71 3b 59 3d fb 14 11 3d 2d 1f 96 3d
       1.8971398 0.053035203 0.0354204 0.07330165
0000e0 19 96 50 3b 15 a8 2e bf 13 ac 01 40 9a 3c 7e 3f
       0.0031827746 -0.6822522 2.0261276 0.9931122
0000f0 0d 28 9e 3f f5 5d 64 3f da 27 06 40 f9 fb d9 3f
       1.2355973 0.8920587 2.0961823 1.7030021

fc_A.weight f4 [20, 64]
000000 30 79 cc 3c fd 4f 2e 3b 14 58 4f 3e b3 7d b3 3d
       0.02496013 0.002659797 0.20248443 0.087642096
000010 d6 e9 9c 3d d7 9c 75 3f da 97 83 bd 97 5a 06 3f
       0.07661788 0.95942444 -0.06425448 0.5248198
000020 46 dd b5 3d cd 0b 1f be 96 54 c9 bd 82 2c f5 bc
       0.08880095 -0.15531845 -0.098305866 -0.02992845
000030 75 11 32 3e e4 64 fd 3d 33 87 00 3e 44 b9 4b bf
       0.17389472 0.12372759 0.12551574 -0.7957957
000040 83 dd c4 bd 61 1f 9d bd 5a 59 65 3e 8b 77 52 3e
       -0.096125625 -0.07672001 0.22397366 0.20553415
000050 85 70 23 3e ad d9 b8 3c 1d fe f9 3d 46 ac 18 3e
       0.15960892 0.022564733 0.122066714 0.14909467
000060 5c 34 b8 bd f9 86 cc 3d 76 a8 16 bd 30 cc a2 3d
       -0.08994362 0.099866815 -0.03678175 0.07949102
000070 fc 9a 87 3e f1 62 61 3e 19 dc 11 bd 59 ee 1e bf
       0.2648543 0.220104 -0.035610292 -0.6208244
000080 ac f3 40 3e 68 f5 63 bd 33 f7 c3 3d b9 89 0f 3d
       0.18842953 -0.05565396 0.09568634 0.035043452
000090 16 5b 99 bd f4 83 a6 3d c2 49 bd bd 80 10 f3 bd
       -0.074880764 0.08130637 -0.09242584 -0.118683815
0000a0 7a f1 83 3a ed 76 23 be ab eb 69 bd 80 96 dd 3d
       0.0010066472 -0.15963335 -0.057109516 0.10819721
0000b0 3f 36 4b bd 12 a0 de bd 74 c1 8b 3e 53 18 f0 3d
       -0.04961228 -0.10870375 0.2729603 0.117233895
0000c0 fd 6e 91 bd 39 51 2c 3e 8f 36 fb 3d 60 c0 df 3e
       -0.071012475 0.16827859 0.122662656 0.43701458
0000d0 29 98 de 3d d6 f3 27 bd b7 c7 29 3d e7 1a f5 bc
       0.10868866 -0.041004024 0.04145023 -0.029920055
0000e0 5a 79 d5 3c 8e 0d a2 3e 7d 1f a4 3e 19 d0 84 bf
       0.026058841 0.31650966 0.32055274 -1.0376006
0000f0 9d 33 49 3f 7f 07 83 3e 48 2e 34 3e 0e ed da bd
       0.7859438 0.25591657 0.1759578 -0.10689746
000100 c2 82 ed bd d2 b3 f7 bd 80 9c a3 3e 32 f8 2a 3d
       -0.11597206 -0.12094845 0.31955338 0.041740604
000110 38 1e be bd b2 83 f2 3e 72 9b f9 3d c9 28 62 3e
       -0.092831075 0.473661 0.12187852 0.22085871
000120 b6 c6 38 3c 84 a7 3a be 31 98 1b bd f5 0f e4 bd
       0.011277845 -0.18227965 -0.037986938 -0.11135856
000130 25 3f 63 3e 94 00 0a be 87 f4 86 3b 05 8a 55 be
       0.22192056 -0.13476783 0.0041185054 -0.20853432
000140 c1 20 5c bd c6 3a 71 3c 22 d6 97 3e f5 93 3b 3e
       -0.053742174 0.014723485 0.29655558 0.1831816
000150 b4 1e 57 3e ed 6b 7e bd 95 46 9f 3d 54 ee 9b bd
       0.21007806 -0.062114645 0.07777134 -0.07613817
000160 20 ee 4b bc 8b f1 4d 3e fe 0f 1c 3d 5a b6 26 3e
       -0.01244691 0.20111673 0.03810119 0.16280499
000170 b6 13 d8 3d 3f 13 4a 3e 60 66 f3 3d 77 e1 c8 be
       0.105506346 0.19733904 0.11884761 -0.39234516
000180 62 f6 4e 3e 64 13 ae 3d 91 d7 c5 3d 21 32 09 bd
       0.20211175 0.08499792 0.09660257 -0.033495072
000190 a8 76 0c bd bd 80 ab 3c af 07 00 be e4 ab 09 3d
       -0.034292847 0.02093541 -0.12502931 0.033611193
0001a0 9f 42 ad bd 53 c8 1d 3d 21 c5 99 be 28 5e a0 3d
       -0.084599726 0.038521122 -0.3003321 0.07830459
0001b0 76 31 a4 3e d8 25 4f bd ad 59 b8 3e a1 9b 2c 3e
       0.32068986 -0.0505732 0.36005917 0.16856243
0001c0 06 fd bc bd 28 c6 06 3d 6d 8f 4b be ec 6c 70 3e
       -0.09227948 0.03290382 -0.19878931 0.2347905
0001d0 a9 ac 06 3e c4 ef ca bd aa e3 1d 3c d0 60 19 3e
       0.13151802 -0.09909013 0.009636799 0.14978337
0001e0 d0 04 19 be 3f cc 3a 3e c4 5a cc bd 8d da 99 be
       -0.14943242 0.18241976 -0.0997825 -0.30049554
0001f0 df ed 69 3e 48 63 31 3f db 44 48 3e 2f 81 62 3d
       0.22844647 0.69292116 0.19557516 0.05529898
000200 80 10 2a 3d bd f4 22 bc ca 04 5f 3e 58 47 51 bb
       0.041519642 -0.0099460455 0.2177917 -0.0031933393
000210 2c c5 b1 3b 79 c3 d2 3d 43 31 7a bd 3c ee 8b 3e
       0.005425116 0.1029119 -0.061082136 0.27330196
000220 b3 6e 6b 3d db 03 94 be 6a 33 93 bd 47 4e cb bd
       0.057478618 -0.2890919 -0.07187541 -0.099270396
000230 74 34 47 3e 66 1f bd 3d b6 c1 88 3d df 58 1c 3e
       0.19453603 0.092345044 0.066775724 0.15268277
000240 58 b7 c3 bd 6c 37 93 3d 01 1e f6 3d e9 93 7e 3d
       -0.095564544 0.07188305 0.120174415 0.062152777
000250 45 ec f4 3d 77 97 80 3d c1 43 84 3d e1 62 3e bd
       0.11959127 0.062788896 0.064582355 -0.046481017
000260 72 d8 e6 3d 9b 2f ca 3d d8 c9 87 3d f4 d5 7e 3e
       0.112717524 0.09872361 0.066302955 0.24886304
000270 e5 48 b9 3c 7d c8 0a 3e f8 d4 02 3e 96 fa bf be
       0.022617767 0.13553043 0.12776554 -0.3749587
000280 ef d8 72 3e bd 3b 1a bd 9c c5 cd 3d 6c 3f 2c bc
       0.23715566 -0.037654627 0.100474566 -0.010513168
000290 d4 22 88 bd 59 06 ec 3d 10 fe 1e 3c 00 e8 a4 b9
       -0.06647268 0.11524648 0.009704128 -0.0003145337
0002a0 f6 fc 3e bc 3b c5 ad bd 52 1c 80 be 28 10 8a 3d
       -0.01165699 -0.08484884 -0.25021607 0.06741363
0002b0 61 43 64 bd 18 7e 8e 3d 39 fc ad 3d bb 52 43 3e
       -0.05572832 0.06957644 0.08495373 0.19074528
0002c0 42 ed 87 3c 0d a7 8a 3d 2a 7a 6a be bb f8 69 3f
       0.016592626 0.06770144 -0.22898164 0.9139516
0002d0 9f 54 82 3e 6f da 0d 3e 3b b3 ea bd 93 f0 16 3e
       0.25455186 0.13852857 -0.11459967 0.1474021
0002e0 3f 8c 1d 3d eb 13 e3 3d 15 2b e4 3c dc 07 86 be
       0.038463827 0.110877834 0.027852574 -0.2617787
0002f0 07 4f e9 3e b2 9f 20 3f 2f 86 8c 3d 31 9b 0e 3e
       0.45568106 0.62743676 0.06861531 0.13926388
000300 d0 a9 16 3d 1a 61 29 3e e3 52 78 3e 5f c8 ea bd
       0.03678304 0.16540948 0.24250369 -0.11463999
000310 19 18 10 bd 4c 42 64 3d 59 c5 0c bd ce c3 4d 3e
       -0.03517923 0.055727288 -0.034367893 0.20094225
000320 aa 46 8a bd 73 ee 19 be 32 8f e8 3c bf 72 09 bc
       -0.06751759 -0.15032367 0.028388593 -0.008389174
000330 57 16 fd 3d 63 6a 4b 3d 55 c4 cc 3d 46 bd 34 3d
       0.123577766 0.049662005 0.09998385 0.044125818
000340 92 f3 df 3d e5 f8 b6 3c 73 8c 85 3e 54 ff 9f 3c
       0.10935129 0.022335479 0.26083717 0.01953093
000350 fb dc 21 3e 43 04 02 3e 11 a9 e5 3c 69 d0 aa 3c
       0.15806954 0.12696938 0.028034719 0.02085133
000360 18 12 c0 3d eb 9f e5 3d 25 6a 03 bd 7c a0 e5 3d
       0.09378451 0.112121426 -0.03208365 0.112122506
000370 1e 0c 7b 3d 54 1b 25 3e 80 90 8e bd 20 55 1c be
       0.061290853 0.16123706 -0.06961155 -0.15266848
000380 67 a6 56 3e fb d9 00 3e 6b 22 ee 3d fd 85 af bd
       0.20961915 0.12583153 0.116276585 -0.08570478
000390 ac a2 fb bd 15 da 08 3e 73 eb af bc a4 9a 2b bd
       -0.122868866 0.13364442 -0.021474576 -0.041895524
0003a0 9c 3a 8a bb e0 64 e0 bd 9b ae a4 3c 9f bb 45 bd
       -0.0042184126 -0.109567404 0.02010279 -0.048274633
0003b0 dc 6b e1 bd 38 7f e3 3d c5 86 46 bd 39 78 08 3e
       -0.11006901 0.111082494 -0.04846837 0.13327111
0003c0 31 28 4f bd 90 6b d9 bc 97 07 89 3d e3 12 7a 3e
       -0.05057544 -0.026540548 0.06690901 0.24421267
0003d0 0e bf c9 3d 11 14 58 3d c2 3c 7c 3d 27 83 20 3e
       0.09850894 0.05275351 0.06158138 0.1567503
0003e0 23 93 80 bd 3b 49 8e 3e 1c e8 b3 bc 19 65 8a be
       -0.06278064 0.27790245 -0.021961264 -0.27030256
0003f0 3c 68 49 3f f1 bb e2 3e 58 fc 97 3d e5 28 2c 3e
       0.78674674 0.44284013 0.074211776 0.16812475

fc_A.bias f4 [20]
000000 8a 95 c9 3f 5c 32 c4 3e 67 7f 48 3e cf 2d 2b 3e
       1.5748761 0.3831967 0.1957985 0.16716693
000010 43 27 8f 3e c7 af d6 3d b8 5b b0 bd e1 cc cb bd
       0.27959642 0.104827456 -0.08611244 -0.09951187
000020 4b fa aa bd 23 af f9 bd 94 1f 6d be 02 8b d9 be
       -0.08348521 -0.12191608 -0.23156577 -0.42488867
000030 95 98 fa be 02 00 cf be b9 8e d5 be da 8f 24 bf
       -0.48944536 -0.40429693 -0.4171045 -0.64282
000040 22 de 2d bf 16 cd 60 bf 5f 56 44 bf f5 c9 8a bf
       -0.6791707 -0.87812936 -0.7669429 -1.0842882

fc_V.weight f4 [1, 64]
000000 a2 75 a6 3d 0e b8 ca be e6 d6 93 be 9e 3b b2 bc
       0.081279054 -0.39593548 -0.28874892 -0.021756943
000010 da cb 7f 3d 2d c1 f4 bf bd 95 b3 3d 24 08 08 3f
       0.062450267 -1.9121453 0.08768795 0.5313742
000020 b7 7c 75 3d 71 b4 92 bd ff 27 35 3d 77 46 cf be
       0.05993339 -0.07163323 0.044227596 -0.40483448
000030 cb 36 f1 3e cb 2c b0 3d 0f c4 6b 3f 71 f2 c1 bf
       0.47112116 0.086022936 0.92096037 -1.5152112
000040 85 c3 e0 3c af 5a 59 3d 1b 16 14 3f 32 e6 58 3f
       0.027436981 0.053065 0.5784623 0.8472625
000050 d6 08 df 3e 65 dd 2c 3f 29 0e d4 bd cf 38 9e 3d
       0.4356143 0.6752532 -0.10354263 0.07725679
000060 e8 88 1d bd 1d e4 d1 3e dd af 4c 3d a9 fb d5 bd
       -0.038460642 0.4099435 0.049972404 -0.10448391
000070 6a 1f 2b 3f 7a d8 5b be 57 b6 83 3d 48 80 9c bf
       0.6684481 -0.21469298 0.06431263 -1.2226648
000080 4d c7 32 be 54 0f d8 3c 82 7f 35 bd d4 f3 f9 3c
       -0.1745884 0.026374497 -0.044311054 0.030511774
000090 e0 32 19 3c 31 f8 8c 3c cf 81 10 3e a0 88 fe 3b
       0.009350508 0.01720819 0.14112018 0.007767752
0000a0 45 da 84 3b b0 71 b2 3e 06 c9 f7 be 51 7e ec 3e
       0.00405434 0.34852362 -0.48395556 0.46190122
0000b0 a1 2f 48 be 48 b4 c4 bd 0e 57 90 3e e4 ce b6 3e
       -0.19549419 -0.096046984 0.28191417 0.3570472
0000c0 a1 a7 35 3d 41 11 ac 3e e9 cf 83 be 33 7f 67 be
       0.044349317 0.33606914 -0.2574456 -0.22607116
0000d0 ab c9 72 3e 2d e2 42 bd 8e a1 c2 3c f2 25 14 3d
       0.23709743 -0.04757898 0.023758676 0.036169
0000e0 53 51 8e 3c e0 06 97 be 72 f2 59 3f 16 20 a7 be
       0.017372763 -0.29497433 0.8513557 -0.32641667
0000f0 28 9d 1f bf c8 cb c9 be 4a 43 b5 3e 20 00 39 3f
       -0.62349176 -0.39413285 0.354029 0.72265816

fc1.weight f4 [64, 3]
000000 66 2d 13 bf 38 c9 fd bd 26 f0 a4 be 4c 5c 5d 3c
       -0.5749115 -0.12391895 -0.3221447 0.013510775
000010 b5 15 c1 3d 9f 49 b8 3c 6d e1 ed be 1f 23 9a be
       0.094279684 0.022496043 -0.4646105 -0.3010492
000020 0f 0d b2 3e 1d a9 7b 3e 57 6b 0f 3e a0 24 64 be
       0.34775588 0.2457623 0.1400579 -0.22279596
000030 fc 17 b2 be 17 aa 23 bd 53 19 b8 3d 87 84 0d 3e
       -0.34783924 -0.039957132 0.08989205 0.13820086
000040 ec 53 94 3e 5e 05 81 3c 20 b0 64 3d bf 0b 75 3e
       0.28970277 0.01574963 0.05583203 0.23930262
000050 90 1e 85 bc f2 09 00 3f 24 3c 13 3e b9 81 1c be
       -0.016249925 0.50015175 0.1437841 -0.1528386
000060 a7 01 50 3e a3 26 34 be 21 d5 91 bc e0 3b 74 bd
       0.2031313 -0.17592864 -0.017801823 -0.059627414
000070 fa 65 fd be 46 73 68 be b9 3e 5a be 91 0c 29 3e
       -0.49491864 -0.22700223 -0.2131299 0.165087
000080 aa 19 b3 3d 65 97 fa 3d b2 b0 57 bf ab 86 1a bd
       0.087451294 0.122359075 -0.8425399 -0.037726086
000090 97 0f ac 3e 15 07 de be 14 ef f6 3d 2b 15 17 3f
       0.33605644 -0.43364778 0.12057319 0.59016675
0000a0 1c 57 32 3f ef 8e 8f 3d a5 91 29 3e 84 2a e1 3c
       0.6966417 0.07009684 0.16559465 0.027486093
0000b0 55 87 c4 3c bb 8c 24 bd af 3f f0 bd bf 27 13 be
       0.023990313 -0.040173274 -0.11730897 -0.1437063
0000c0 f0 98 a6 be 95 fd 95 be e8 73 09 bf b1 0d 95 be
       -0.32538557 -0.2929503 -0.53692484 -0.29112008
0000d0 1a 41 0f bf aa 2e 9e bd b2 7c ca 3c be 53 e4 be
       -0.5595871 -0.07723744 0.024717662 -0.4459514
0000e0 9e 8e 42 3d f8 83 4e be 4c 1d f8 3e 69 3b 57 3e
       0.04749929 -0.2016753 0.48459852 0.21018757
0000f0 32 2a b2 3d 61 93 58 3e 7a 6e 06 be cd f4 ed bd
       0.08699454 0.2114997 -0.13128081 -0.11618958
000100 12 a8 3b be f0 56 b6 be 82 aa c5 3e 00 60 bd b8
       -0.18325832 -0.35613203 0.3860665 -9.030104e-05
000110 2e 82 08 bf c0 01 e6 3d 50 ab 88 3c c4 76 84 be
       -0.5332364 0.112308025 0.01668325 -0.2587186
000120 30 bf fb 3d 9c cc b2 be df ed f6 be fe 99 78 3e
       0.122923255 -0.3492173 -0.48228356 0.24277493
000130 23 bb 19 3f b6 77 d9 bc e1 bb 35 be b4 e2 d3 3e
       0.6005117 -0.02654634 -0.17747451 0.41383898
000140 33 45 d7 bd 6e e8 63 be f5 47 8a 3e 99 8a 9d 3e
       -0.105112456 -0.22256634 0.27008024 0.30769804
000150 34 d8 0c be 83 1d 5b bf a8 bc 9d 3d e0 6a b5 bd
       -0.1375435 -0.85591906 0.07701999 -0.088582754
000160 b1 90 94 3e c7 15 22 bd 7c 2e 3d be 74 18 cd be
       0.2901664 -0.03957155 -0.18474764 -0.4005772
000170 a5 4b b1 3c 60 1d c4 be 95 ae 89 3c 33 a6 9b 3d
       0.021642515 -0.3830366 0.01680688 0.07600059
000180 30 d4 f6 be a0 85 48 bd 4f 23 e5 be d9 cb 0d 3f
       -0.4820876 -0.04895556 -0.447535 0.5538917
000190 53 8e 0a bf 78 c1 65 3e 44 8a 07 3f b7 01 38 be
       -0.5412342 0.22437084 0.5294535 -0.17969404
0001a0 fd 34 70 3d 40 03 85 bf 8f 58 29 bf 30 5c a2 3c
       0.058644284 -1.0391617 -0.66150755 0.019819349
0001b0 40 4f 84 3d 50 59 cb bd 0a 39 53 be 52 d2 13 be
       0.06460428 -0.099291444 -0.20627227 -0.144357
0001c0 9f 30 9d bd 3b 95 66 bd 62 86 10 bf 70 50 54 bf
       -0.07675289 -0.05629466 -0.5645505 -0.8293524
0001d0 e1 95 0d 3d aa f1 b9 be 40 35 50 3c d8 34 f1 be
       0.034566764 -0.36317188 0.012708008 -0.4711063
0001e0 ac 3c 9f bd b7 10 44 be 2e 06 34 bd 28 58 01 3e
       -0.07775244 -0.19147001 -0.043951206 0.12631285
0001f0 ed 48 ed be ea 98 c3 be 78 42 9c 3e 3d 91 97 be
       -0.463447 -0.38202602 0.30519462 -0.29602996
000200 72 e5 8e be 61 c2 b5 3e b8 98 37 bf b7 f6 99 be
       -0.27909428 0.35499862 -0.71717405 -0.3007104
000210 9d a8 48 3e 69 05 c0 3e 36 38 98 3e 43 b3 7a be
       0.19595571 0.37504128 0.29730386 -0.24482445
000220 63 4d 08 3d 4b a5 f9 bd 75 79 fd 3c 5d dc 79 3d
       0.033276927 -0.1218973 0.030941704 0.06100117
000230 15 e6 7b bd d4 2c 77 be 5f a6 a1 3e 56 64 50 3d
       -0.06149872 -0.24138194 0.31572244 0.050876938
000240 7b 86 8d be 7f 2b 16 3f dd 8b ac 3c 0e 56 81 3e
       -0.27641663 0.5866012 0.021062786 0.25260967
000250 48 b8 ee be 8d bb b4 be 68 e9 9c bf 8c df 44 3e
       -0.4662497 -0.3529934 -1.225873 0.19225901
000260 20 94 b1 bc c2 15 64 be 41 71 f2 be 3f 76 df be
       -0.021677077 -0.22273925 -0.4735203 -0.43644902
000270 18 6e e7 be e6 a9 db be d0 be b3 bd 09 97 b1 be
       -0.45201182 -0.4290306 -0.08776629 -0.34685543
000280 56 6c 94 3e 83 a3 b2 be bf bb 00 3e 95 d6 03 bf
       0.28988904 -0.34890375 0.1257162 -0.514993
000290 87 5e c1 3d fa 27 f9 be 38 c2 a1 bd 2d ac e8 bc
       0.09441858 -0.48663312 -0.078983724 -0.028402412
0002a0 d2 0d 33 bf 3e 85 a5 3e da cc 18 bd 6a a2 84 3e
       -0.69942963 0.32328218 -0.037304737 0.25905162
0002b0 4a f9 c7 be b9 0c 0a bf 62 5c 50 be 27 e2 93 3e
       -0.3905738 -0.53925663 -0.20347741 0.28883478
0002c0 99 e8 8a be 3a 1b 38 bf ea 6a 33 bf 73 cc 1c 3e
       -0.27130583 -0.71916544 -0.7008501 0.15312366
0002d0 70 6d 05 be a2 6a 01 bf 0b f6 62 bc 10 bd b4 3d
       -0.13030028 -0.50553334 -0.0138526065 0.08825123
0002e0 96 c2 01 be 08 20 e2 be 66 bd cd 3e de 82 c0 ba
       -0.12671885 -0.44165063 0.40183562 -0.0014687439
0002f0 b6 b9 14 3e ce 57 85 3d 34 07 b5 be fd 60 84 bc
       0.14523968 0.06510888 -0.35357058 -0.016159529

fc1.bias f4 [64]
000000 17 80 96 be ea 18 6e 40 13 9c 3b c0 07 5a 1c 40
       -0.293946 3.7202706 -2.931401 2.4429948
000010 e6 b1 7a 40 2f e4 44 40 79 94 ad 3f 21 5b 0d 40
       3.917108 3.0764272 1.3560935 2.208687
000020 ae 45 ee 3f 7c 8d ff 3e 95 3f 61 40 25 1f 49 bf
       1.8615015 0.49912632 3.5195057 -0.7856315
000030 d6 b0 6a 40 77 ef 11 c0 fc e5 38 40 87 c0 03 40
       3.6670432 -2.2802408 2.8890371 2.058626
000040 7c 38 cf 3e b0 7f c9 3d 30 1d 03 c0 79 17 f5 bf
       0.40472782 0.098388076 -2.0486565 -1.9147788
000050 dd 69 47 40 2e de 93 3e 34 0f e2 bd 2a 06 30 40
       3.1158364 0.28880447 -0.11038056 2.7503762
000060 56 34 cc 3e 86 05 1e 3e 1e 69 3b 40 78 63 b6 bf
       0.3988368 0.15431795 2.9282908 -1.4249105
000070 24 ec 94 3f 92 6a af bf cb ce 07 40 10 07 70 40
       1.1634564 -1.3704398 2.1219966 3.750431
000080 88 5c 99 3e f9 43 08 c0 2c 1e 1f 40 34 b4 ec bf
       0.29953408 -2.1291487 2.4862165 -1.8492494
000090 fa 4c 05 bf 12 fe 19 40 5c 62 d8 3e 49 6b a3 be
       -0.5207058 2.4061322 0.42262542 -0.3191779
0000a0 20 25 56 40 88 37 7e be 9c 8a c7 be cc 24 6d 3e
       3.346016 -0.24825871 -0.38972938 0.23158568
0000b0 91 1b 22 c0 a8 ea 58 40 82 26 43 40 44 79 5f 40
       -2.5329325 3.3893223 3.0492253 3.4917765
0000c0 42 e2 2e c0 9a 82 bd 3e 88 e9 0b c0 a0 11 30 3e
       -2.7325597 0.37013704 -2.1861286 0.17194223
0000d0 0f 0f db be c1 0f 0d 3f b7 54 24 c0 79 20 ef 3f
       -0.42784926 0.55102164 -2.5676706 1.8681785
0000e0 48 af 49 40 f5 1a 13 bf c7 e8 16 40 b7 5d 95 bf
       3.1513233 -0.5746301 2.3579576 -1.1669225
0000f0 c4 33 0f 40 e8 31 c1 be 24 e7 c0 bf e3 db 48 3f
       2.2375345 -0.37733388 -1.5070539 0.7846052

fc2.weight f4 [64, 64]
000000 30 7a 03 bc 00 0c 20 b9 80 c3 d4 3d 20 42 2e bd
       -0.008024737 -0.0001526326 0.10388851 -0.04254353
000010 f2 ed bc 3d 53 97 eb bd 82 79 7d 3d 60 4e 99 3d
       0.09225072 -0.11503472 0.061883457 0.07485652
000020 b0 b4 61 bd 80 8a a1 ba 00 ee a2 3a 16 28 fa 3d
       -0.055103958 -0.0012324601 0.0012430549 0.12214677
000030 90 64 b8 3c 70 6f 05 3c ee 58 dc bd 36 f7 f4 3d
       0.02250889 0.008144245 -0.107591495 0.11961214
000040 ec 97 d1 bd 63 23 a9 3c 96 78 8d 3d 24 46 a6 bd
       -0.10234055 0.020646757 0.069077656 -0.08118847
000050 74 54 d8 3d 00 cb 86 bb b0 63 ba 3d 68 a2 aa bd
       0.10562983 -0.004113555 0.09101045 -0.08331758
000060 c0 76 23 bc ee 1e 8c bd f7 9d 10 3d fa cd cf bd
       -0.009977043 -0.06841837 0.035306897 -0.10146709
000070 80 57 89 3a 82 9b 69 3d 68 6b 5a bd d0 b8 ec 3d
       0.0010478348 0.05703307 -0.053325087 0.11558688
000080 94 28 2e 3d 20 e1 65 3c 7c ff b4 3d 82 9b 80 bd
       0.042519167 0.014030725 0.08837792 -0.06279661
000090 60 cc 37 3c 9a 63 fd bd a8 84 fb bd a0 49 af 3d
       0.01121816 -0.12372513 -0.122811615 0.08558965
0000a0 d8 a0 5f bd bc 09 72 bd 1d 84 3e bd 9e 17 e0 3d
       -0.054596752 -0.059091315 -0.04651271 0.109420046
0000b0 80 54 98 bd 94 31 a6 bd e0 0e 60 3c bc 52 af bd
       -0.07437992 -0.08114925 0.0136754215 -0.08560702
0000c0 7e c5 e1 bd 60 13 f8 3d c4 7c 71 3d 80 16 d2 bb
       -0.11023997 0.121130705 0.058956876 -0.0064113736
0000d0 fe 06 e4 bd 3e f5 d4 3d a0 a8 48 3c c4 3b 45 bd
       -0.11134146 0.10398339 0.012247235 -0.0481527
0000e0 90 86 94 bd 68 e1 f1 3c ec b6 2a 3d c8 fb d2 bd
       -0.07252228 0.029526427 0.041678354 -0.1030193
0000f0 92 bf 95 3d 38 40 f7 3c af 17 f0 bd e4 3c 47 3d
       0.0731193 0.03018199 -0.11723267 0.048642054
000100 84 44 ab 3d 7e f8 b5 3e 5b 9e 9a be 9f bc 02 3f
       0.08362678 0.35541147 -0.3019894 0.5106906
000110 4f b8 74 3f 42 4f 3d 3d 6f 8a 80 be 9b e6 23 3c
       0.9559373 0.046218164 -0.25105616 0.010003711
000120 52 d4 c7 3c 67 12 7a 3d 4d d9 54 3e 27 7f 1b be
       0.024393234 0.061052706 0.20786019 -0.15185224
000130 dd 1e 38 3e f4 05 11 bf 89 53 19 3e 3f 92 18 3e
       0.17980523 -0.5664971 0.14973272 0.14899538
000140 3a 08 fd 3d 44 50 d7 bd a5 1f 5e be 4b 84 14 bf
       0.12355085 -0.10513356 -0.21691759 -0.58014363
000150 d0 3d da bb 50 e4 a1 3c 18 8f da bd eb d6 d5 3e
       -0.0066602007 0.019762188 -0.10671824 0.41765532
000160 e0 55 0c bc 05 d9 96 be 0d 70 e0 be 77 b4 b2 be
       -0.008565396 -0.29462448 -0.43835488 -0.3490331
000170 0a e5 6a 3f 44 21 78 be 64 22 1e 3e 57 2f 16 3f
       0.91755736 -0.2423144 0.15442806 0.58665985
000180 7c 70 cc 3d 11 d3 40 be 5a 51 58 3e 46 fc fe 3d
       0.09982392 -0.18830515 0.21124783 0.12450461
000190 3a 22 95 bb 5d 87 34 be e1 bf 74 3e 0f df b6 bd
       -0.0045511993 -0.17629762 0.23901321 -0.08929264
0001a0 53 86 a5 3e 48 66 89 bd de ef be 3d 87 d5 15 be
       0.32329044 -0.06708962 0.09323095 -0.14632235
0001b0 5f 7b 0b bf 67 99 2e 3e 03 58 4e 3f 6e d6 59 3e
       -0.54485124 0.17050706 0.80603045 0.21273205
0001c0 d4 17 db be 00 04 79 39 cd 42 7e be 51 0a fc ba
       -0.42791617 0.0002374798 -0.2483017 -0.0019229149
0001d0 f8 19 c4 3d c9 3d 86 be 87 7d c1 bd f9 91 19 3e
       0.09575266 -0.26219013 -0.094477706 0.1499709
0001e0 e2 d3 0b 3d a6 92 b0 3d f0 18 a9 be 9b 62 d7 3e
       0.034137614 0.08621721 -0.33026838 0.42067418
0001f0 4b ce 5b 3f 40 e6 3b bd 7a 03 2e be 90 7c 83 3e
       0.85861653 -0.04587388 -0.16993514 0.2568097
000200 f2 56 d7 bd d3 f6 03 bf 8f 1a 8e 3c 58 31 7b 3e
       -0.105146304 -0.515485 0.017346648 0.24530542
000210 86 ce 01 bf 91 48 99 bd 9d da 38 be 7d f5 cb be
       -0.50705755 -0.07484544 -0.18052144 -0.3983573
000220 c4 6c e7 bd 68 f9 4a 3d e2 88 b3 be 68 5a 23 be
       -0.11300042 0.04955426 -0.3506537 -0.15952456
000230 17 cd b4 be 07 55 7c 3e e9 ca 94 be 76 d1 19 bf
       -0.3531272 0.2464181 -0.29061058 -0.6008524
000240 80 57 a6 bc 10 f9 f9 bd 82 43 4b bd 05 20 61 3e
       -0.020305395 -0.12205708 -0.049624927 0.2198487
000250 e3 39 36 bf 58 b7 9f bc b0 9a 3b 3c ec 59 63 3f
       -0.7118208 -0.019496605 0.011450455 0.88809085
000260 3e 60 35 bd a8 2d 22 be 5e 85 bd be ec 30 75 3d
       -0.044281237 -0.15837729 -0.37015814 0.05986111
000270 d2 6e 3e bf 29 17 e9 3d 0f 48 7c be 12 92 08 bf
       -0.7438785 0.113813706 -0.24636863 -0.53347886
000280 61 d0 e8 bd 5a 9d 0e 3e ed 53 0d be f9 33 b2 bc
       -0.1136787 0.13927212 -0.13801546 -0.021753298
000290 34 43 6c 3d 95 e2 97 be 40 42 9a be e0 0e 03 bd
       0.057681277 -0.29665056 -0.3012867 -0.031996608
0002a0 04 d9 0a bf 98 9a 03 bd 00 5c 3f 3a d5 f6 d0 be
       -0.5423739 -0.032129854 0.0007299781 -0.40813318
0002b0 1e 0c c2 3d 60 d8 90 be b0 a2 21 bf 81 8b ba be
       0.094749674 -0.2829008 -0.63138866 -0.36434558
0002c0 24 b1 2d 3e a0 8c a8 bb 5e ce f9 3d da 62 98 3d
       0.16962105 -0.005143717 0.121975645 0.074407294
0002d0 08 d3 a5 bc 7a 38 73 bd e0 35 e8 3c ef 99 5a be
       -0.02024223 -0.059380032 0.028346002 -0.21347784
0002e0 db 84 b1 be bc 1e 32 3d 43 52 a9 3e e4 5d a0 bd
       -0.34671673 0.04348634 0.33070573 -0.07830408
0002f0 02 c6 e9 be 88 22 08 3d 53 3e 52 3e e0 25 3c be
       -0.4565888 0.033236057 0.20531587 -0.18373823
000300 9e 11 df bd 31 1b 3a 3d cf 5f 71 3d 4d 55 5a bd
       -0.10892032 0.045436088 0.05892926 -0.053304005
000310 57 07 e7 bc 72 00 0b bc ef be e7 3c 7c 96 aa bd
       -0.028201742 -0.008483993 0.028289286 -0.08329484
000320 82 ef 30 bd 6c 0a 98 bd 42 85 8b bd d0 e0 9b bd
       -0.043197162 -0.07423863 -0.06812526 -0.07611239
000330 17 74 88 3d fc 6a 75 bd 87 75 9a bd 0a 03 b1 bd
       0.066627674 -0.05991648 -0.07541948 -0.08643158
000340 40 44 45 bd 28 0d 92 bc 56 02 ef bd 21 af 13 bd
       -0.04816079 -0.017828539 -0.116703674 -0.036055688
000350 c0 70 4b bd 31 f4 55 3c 2e 14 e4 3d 47 66 89 3c
       -0.049668074 0.013058708 0.111366615 0.016772402
000360 90 e6 3c bc 10 6e fb 3c cd 05 e4 bb e0 52 c1 bd
       -0.01152958 0.03069213 -0.0069586993 -0.09439635
000370 30 de e7 bd 2a 8b e0 bc ab 49 84 3d 86 43 3f bd
       -0.11321676 -0.027410109 0.064593635 -0.046695255
000380 76 0a ac 3d 8f fb 4a 3d 10 f5 a4 ba 0e 5c 37 3d
       0.08400433 0.04955631 -0.0012585241 0.044765525
000390 9c 18 51 3d 4f 54 d3 bd af 37 07 bb 18 ca 7a 3d
       0.05104886 -0.10318815 -0.0020632555 0.061227888
0003a0 6d f1 a2 3b 68 9a f1 3d c0 b7 ca 3b a3 fd 02 bd
       0.004972628 0.11797029 0.0061864555 -0.031980168
0003b0 cf 81 5d bd ad 50 d1 bd 81 d3 c3 3c 6c 2a 84 bd
       -0.054078873 -0.10220466 0.023904564 -0.06453404
0003c0 80 d4 ca bd 28 79 ac 3d 40 ed a4 bb c0 7f e1 3d
       -0.099038124 0.08421546 -0.005033165 0.110106945
0003d0 44 77 6b 3d fe 78 0f be 52 81 fd bd 16 37 b6 bd
       0.057486787 -0.14010999 -0.123781815 -0.088972256
0003e0 11 0b 93 bd a2 05 57 bd a0 63 ee bd 5a d1 28 3d
       -0.07179845 -0.052495606 -0.11640096 0.04121528
0003f0 21 28 6a 3d 30 67 27 bc 94 6b c6 bd 66 e9 c0 3d
       0.057167176 -0.010217473 -0.09688488 0.09419517

fc2.bias f4 [64]
000000 9e 2c 8a bd 7e 7f 79 3f 0f ca 05 bf 07 d0 07 be
       -0.06746791 0.9746016 -0.5226144 -0.1326295
000010 00 d5 71 3d 4f de f6 3f 45 0e d1 bd 0a 91 fc 3f
       0.059041023 1.9286593 -0.102078 1.9731762
000020 21 98 1e 3d bd e2 94 be be 6b d3 3d b4 d6 26 3e
       0.0387193 -0.29079238 0.103232846 0.1629284
000030 72 e0 09 40 66 1e f8 3d c2 6d f1 3f 13 af 06 40
       2.154324 0.12115173 1.886162 2.1044357
000040 69 89 fb bd 38 8f 40 bb 9f a3 0f 40 89 11 d4 3f
       -0.12282068 -0.002938224 2.2443616 1.6567851
000050 a2 82 08 40 0d 9b c0 3f 42 63 9f bd 1d 50 0e bd
       2.1329732 1.5047318 -0.07782604 -0.03474437
000060 8c 5f 26 bd 2e 08 e4 3f 85 51 a8 bd 73 0b b2 3d
       -0.040618464 1.7814996 -0.082186736 0.0869359
000070 c9 9e 00 40 0c 97 02 be c3 0f 03 be 4b 98 e3 3f
       2.0096915 -0.12752932 -0.12798981 1.7780851
000080 da 0c 3f bd 32 0a c4 bd f4 54 27 be 4d 53 85 3e
       -0.046643116 -0.09572257 -0.16341001 0.26040116
000090 5c 12 9f bd c1 18 b4 bc 61 ed d4 3c ea dc c7 bd
       -0.07767174 -0.02198446 0.025992097 -0.09758933
0000a0 86 fe 18 bd 19 17 b6 3f b7 87 d6 bf c4 5c 07 40
       -0.037352107 1.4225799 -1.6760167 2.115037
0000b0 71 96 55 bf 78 b2 ca 3c 92 1f b0 3f 9b fc fe 3f
       -0.8343268 0.024743304 1.3759634 1.9920839
0000c0 57 e3 a5 3d 7b c0 f1 3f 52 01 75 bf af 9b 6f 3f
       0.08100002 1.8886865 -0.9570514 0.9359693
0000d0 5a 03 f3 3f f3 3f 59 3d 0e 17 11 3d b5 4c 96 3d
       1.8985398 0.053039502 0.035422377 0.073388495
0000e0 e4 93 50 3b 76 a2 2e bf 60 5c 01 40 e0 6b 80 3f
       0.003182643 -0.68216646 2.0212631 1.0032921
0000f0 ef 87 9e 3f eb 02 61 3f d3 3c 06 40 18 d7 d9 3f
       1.2385234 0.8789508 2.0974624 1.7018766

fc_A.weight f4 [20, 64]
000000 30 79 cc 3c 6a a7 90 bd 67 62 4f 3e c3 7f b3 3d
       0.02496013 -0.07063182 0.20252381 0.08764603
000010 89 e6 9c 3d a2 a0 7c 3f e3 99 83 bd 06 1d 06 3f
       0.076611586 0.98682606 -0.06425836 0.52388036
000020 25 e1 b5 3d 58 82 1f be ad 55 c9 bd aa e6 42 bd
       0.088808335 -0.15577066 -0.098307945 -0.04758326
000030 6d 4e 35 3e 12 62 fd 3d 39 d7 03 3e 82 b3 55 bf
       0.17705698 0.12372221 0.1287507 -0.8347703
000040 23 dd c4 bd 39 1d 9d bd 20 59 69 3e 13 da 5a 3e
       -0.09612491 -0.076715894 0.22787905 0.21372251
000050 f0 33 27 3e aa a3 cc 3c df fe f9 3d 7d ac 18 3e
       0.16328406 0.024980385 0.12206816 0.14909549
000060 5c 34 b8 bd db a9 c9 3d ab fb 15 bd 5e ca a2 3d
       -0.08994362 0.098468505 -0.036616962 0.07948755
000070 96 53 88 3e 03 62 61 3e 68 9c 19 bd 45 a0 23 bf
       0.2662627 0.22010045 -0.037502676 -0.63916427
000080 37 f1 40 3e 2c f6 63 bd 8f ee c3 3d 85 8c 0f 3d
       0.18842016 -0.05565469 0.09566986 0.03504612
000090 16 5b 99 bd be 86 a5 3d a0 39 c1 bd 80 10 f3 bd
       -0.074880764 0.08082341 -0.09434819 -0.118683815
0000a0 d4 ef 83 3a 44 bc 26 be 09 0b 6c bd 57 51 e4 3d
       0.0010065981 -0.16282755 -0.05762771 0.11148327
0000b0 5f 41 4b bd 12 a0 de bd 55 f2 33 3e a7 18 f8 3d
       -0.04962289 -0.10870375 0.17572911 0.12114077
0000c0 e6 70 91 bd fc 9f 30 3e 40 27 fa 3d 61 47 c3 3e
       -0.07101612 0.17248529 0.122145176 0.38140395
0000d0 64 94 e2 3d 99 f6 27 bd 5b cb 29 3d f6 60 f4 bc
       0.110634595 -0.04100666 0.0414537 -0.02983139
0000e0 18 7b d5 3c f7 09 a2 3e f8 74 aa 3e 0e 19 87 bf
       0.026059672 0.31648228 0.33292365 -1.0554521
0000f0 0a 5d 65 3f 8b fd 5a 3e a6 29 38 3e 6b 44 d6 bd
       0.8959509 0.21385781 0.17984638 -0.104622684
000100 85 83 ed bd 2a 45 e7 bc 12 95 a3 3e 0c fc 2a 3d
       -0.11597351 -0.028231222 0.3194967 0.041744277
000110 74 22 be bd ad 74 ea 3e 4f 99 f9 3d eb 67 6b 3e
       -0.09283915 0.45792142 0.121874444 0.2298886
000120 70 c3 38 3c 5a 23 3a be 7f 9a 1b bd 95 6e 0f be
       0.011277065 -0.18177548 -0.037989136 -0.14007027
000130 97 be 5f 3e a1 fe 09 be 79 13 3b ba bf ea 4a be
       0.21850048 -0.1347604 -0.00071363855 -0.19816111
000140 3d 22 5c bd a7 3c 71 3c 34 9c 94 3e d7 1d 30 3e
       -0.05374359 0.014723933 0.29025424 0.17198883
000150 5f 41 54 3e 13 2c 82 bd 03 44 9f 3d 6f f0 9b bd
       0.20728062 -0.06356063 0.07776644 -0.076142184
000160 20 ee 4b bc 26 e9 53 3e fd de 1b 3d 49 b6 26 3e
       -0.01244691 0.20694408 0.038054455 0.16280474
000170 3b fe d7 3d 2f 11 4a 3e 6e 85 ef 3d 50 58 c8 be
       0.105465375 0.19733118 0.116953716 -0.39129877
000180 33 f3 4e 3e 1f 11 ae 3d b5 d2 c5 3d 98 2f 09 bd
       0.2020996 0.08499359 0.0965933 -0.033492655
000190 a8 76 0c bd 38 65 b4 3c a5 8d ef bd e4 ab 09 3d
       -0.034292847 0.022020921 -0.116969384 0.033611193
0001a0 17 42 ad bd cb 34 2b 3d 82 5e 99 be 03 6a 9d 3d
       -0.08459871 0.041798394 -0.29954916 0.07686236
0001b0 a6 35 a4 3e fb 25 4f bd 66 16 ad 3e 0f a5 28 3e
       0.3207218 -0.05057333 0.3380615 0.16469215
0001c0 63 01 bd bd e7 24 0b 3d 36 0a 4b be af 57 38 3e
       -0.0922878 0.03397074 -0.19828114 0.18002199
0001d0 9e 2b 07 3e bf f3 ca bd 71 e4 1d 3c d5 4a 19 3e
       0.13200232 -0.09909772 0.009636984 0.14969952
0001e0 6e 02 19 be fa ca 3a 3e 87 b9 db bd 66 3c a8 be
       -0.14942333 0.18241492 -0.10728746 -0.3285858
0001f0 d5 51 a8 3e 5e c8 24 3f c6 d2 45 3e 9b 83 44 3d
       0.32874933 0.64368236 0.19318685 0.04797707
000200 80 10 2a 3d 2f 81 02 be 33 fe 5e 3e dc 48 51 bb
       0.041519642 -0.12744592 0.21776657 -0.0031934297
000210 59 c6 b1 3b a5 cc fd 3d 8f 35 7a bd 2d 43 7f 3e
       0.005425256 0.123925485 -0.061086234 0.2492797
000220 5b 6c 6b 3d 2a c5 93 be 08 36 93 bd 6d 62 04 be
       0.057476383 -0.28861362 -0.0718804 -0.12928171
000230 d6 f8 42 3e bc 1c bd 3d 96 7d 80 3d 78 04 21 3e
       0.19040236 0.09233996 0.062739536 0.15724361
000240 29 b8 c3 bd f0 39 93 3d 92 37 0b 3e f8 6f 58 3d
       -0.0955661 0.07188785 0.13595417 0.052841157
000250 6c df fa 3d b1 ec 27 3d dc 41 84 3d f5 60 3e bd
       0.122496456 0.04099721 0.06457874 -0.046479184
000260 77 d8 e6 3d de d9 00 3e ee b8 87 3d 2c d5 7e 3e
       0.11271756 0.1258311 0.066270694 0.24886006
000270 20 13 d3 3b c1 c9 0a 3e a9 e4 00 3e 8d a5 b8 be
       0.006441489 0.13553526 0.12587227 -0.36063805
000280 b8 da 72 3e d6 3e 1a bd 00 be cd 3d 5e 3c 2c bc
       0.23716247 -0.03765758 0.10046005 -0.0105124395
000290 d4 22 88 bd b0 2f ec 3d 4d 87 91 3c 00 e8 a4 b9
       -0.06647268 0.11532533 0.017764712 -0.0003145337
0002a0 36 fd 3e bc fe 33 7f bd dc 9d 7f be 1a 49 73 3d
       -0.01165705 -0.062305443 -0.24962562 0.059395887
0002b0 88 39 64 bd 18 7e 8e 3d ce cc 79 3d ae 61 3e 3e
       -0.05571893 0.06957644 0.060986333 0.1859195
0002c0 46 ef 87 3c 32 1c 8a 3d 96 f4 69 be 6a a5 59 3f
       0.016593587 0.06743659 -0.22847208 0.85018027
0002d0 47 ee 84 3e 04 d7 0d 3e db b0 ea bd d3 d9 16 3e
       0.2596304 0.13851553 -0.11459514 0.14731531
0002e0 99 8a 1d 3d cf 1b e3 3d 0f 1a 9e 3c bb 8c 87 be
       0.038462255 0.110892884 0.019299535 -0.26474556
0002f0 99 a9 f6 3e 6e 6d 15 3f 72 5a 8b 3d 78 e2 13 3e
       0.48176268 0.583701 0.068043604 0.1444186
000300 d0 a9 16 3d 74 72 a8 3d ca 44 78 3e 4b c8 ea bd
       0.03678304 0.08224955 0.24244991 -0.11463984
000310 25 19 10 bd 56 94 ba 3c 7a c9 0c bd 5a 81 56 3e
       -0.03518023 0.02277581 -0.03437183 0.20947781
000320 d8 48 8a bd 3b 88 19 be f9 8d e8 3c 55 8b 87 bc
       -0.06752175 -0.14993374 0.02838801 -0.01654593
000330 6b dc 00 3e f0 68 4b 3d 67 5e c7 3d de 79 ca 3c
       0.12584083 0.049660623 0.09734803 0.024716314
000340 d1 f2 df 3d 66 fa b6 3c 8f 04 83 3e a5 d5 10 bc
       0.109349854 0.022336196 0.25589415 -0.008839999
000350 60 4f 20 3e de a6 02 3e c6 a7 e5 3c 2d cd aa 3c
       0.15655279 0.12758967 0.028034102 0.020849789
000360 8f 12 c0 3d f6 ee 17 3e 1b 67 03 bd f6 9f e5 3d
       0.0937854 0.1483725 -0.03208075 0.11212151
000370 36 9e 86 3d 38 18 25 3e 9d 70 92 bd 1b e2 30 be
       0.06573145 0.1612252 -0.071503855 -0.17273752
000380 e1 a7 56 3e d9 d6 00 3e 56 1b ee 3d 39 84 af bd
       0.20962478 0.12581958 0.11626308 -0.08570141
000390 ac a2 fb bd a7 91 07 3e 03 c8 5b bc a4 9a 2b bd
       -0.122868866 0.13239156 -0.013414386 -0.041895524
0003a0 39 39 8a bb 5b 24 bb bd c3 13 a8 3c f5 7f 40 bd
       -0.0042182473 -0.09137794 0.020517236 -0.04699703
0003b0 d3 69 e1 bd 38 7f e3 3d 3e 93 43 bb 92 30 0c 3e
       -0.110065125 0.111082494 -0.0029842402 0.13690403
0003c0 fb 25 4f bd 53 9e d3 bc 26 f0 89 3d 1e 87 4d 3e
       -0.05057333 -0.02583233 0.06735258 0.20071074
0003d0 c4 21 c5 3d 12 17 58 3d 00 41 7c 3d 13 6b 20 3e
       0.09625581 0.052756377 0.061585426 0.15665846
0003e0 70 94 80 bd 4d 48 8e 3e 86 8d 26 bd 91 bd 99 be
       -0.06278312 0.27789536 -0.04066231 -0.3002744
0003f0 f6 70 44 3f 59 f6 e2 3e e6 52 9c 3d a7 fe 29 3e
       0.76734865 0.44328573 0.07632999 0.16601048

fc_A.bias f4 [20]
000000 0c 23 c7 3f ab 8f c2 3e 95 c0 48 3e 20 06 27 3e
       1.555757 0.38000235 0.19604714 0.1631093
000010 ce b6 91 3e 7a cb ec 3d 30 dc b5 bd f2 c4 dc bd
       0.2845978 0.115622476 -0.08879888 -0.10779752
000020 53 f5 bb bd 61 c8 dc bd 19 ee 66 be 56 8c d0 be
       -0.09177651 -0.10780407 -0.22551765 -0.40732068
000030 ef ca fd be e7 0a d3 be e9 f2 ce be 05 ac 25 bf
       -0.4956889 -0.41219255 -0.404197 -0.64715606
000040 24 18 2f bf 42 26 5c bf d6 d8 3d bf bf 4a 8a bf
       -0.6839621 -0.85995877 -0.7415899 -1.0804061

fc_V.weight f4 [1, 64]
000000 a2 75 a6 3d 3b ca cf be 2d d3 93 be 72 3f b2 bc
       0.081279054 -0.40583977 -0.28872052 -0.021758769
000010 2b cf 7f 3d 5d 23 f6 bf 33 97 b3 3d 6e 1b 0b 3f
       0.06245343 -1.9229542 0.08769073 0.5433873
000020 83 7e 75 3d 35 a8 93 bd 8c 29 35 3d fc e7 c3 be
       0.059935104 -0.07209817 0.044229075 -0.38262928
000030 6c e9 f3 3e 18 30 b0 3d 48 d1 6c 3f f8 07 c3 bf
       0.47639024 0.08602923 0.9250684 -1.5236807
000040 c1 c5 e0 3c 4c 5b 59 3d 77 fa 14 3f bd 54 5d 3f
       0.027438046 0.053065583 0.5819468 0.86457425
000050 ec 8b e1 3e 52 23 2e 3f e7 0b d4 bd 61 3a 9e 3d
       0.44052064 0.68022645 -0.10353833 0.07725979
000060 e8 88 1d bd 90 e0 d5 3e 68 96 4c 3d e8 ff d5 bd
       -0.038460642 0.4177289 0.049948126 -0.10449201
000070 f4 59 2c 3f 06 d8 5b be b1 a3 87 3d 6d a3 9d bf
       0.6732476 -0.21469125 0.066230185 -1.2315499
000080 43 c4 32 be 2a 13 d8 3c a7 74 35 bd 27 f3 f9 3c
       -0.1745768 0.026376326 -0.0443007 0.030511452
000090 e0 32 19 3c 23 ee 90 3c a7 3f 08 3e a0 88 fe 3b
       0.009350508 0.017691677 0.13305531 0.007767752
0000a0 35 da 84 3b 24 73 b5 3e 5c 17 f8 be 1a ac ee 3e
       0.0040543326 0.35439408 -0.48455322 0.46615678
0000b0 b4 30 48 be 48 b4 c4 bd 43 a0 73 3e 91 df b9 3e
       -0.19549829 -0.096046984 0.23791604 0.3630338
0000c0 8e a6 35 3d 22 ab af 3e c3 11 84 be 53 e6 2d be
       0.044348292 0.3431025 -0.257948 -0.16982393
0000d0 ce 12 7e 3e 51 e1 42 bd e9 9e c2 3c 44 83 14 3d
       0.24811861 -0.04757816 0.023757415 0.036257997
0000e0 04 54 8e 3c 83 0a 97 be 93 0e 5e 3f fb a6 aa be
       0.017374046 -0.29500207 0.8674099 -0.3333052
0000f0 a8 fc 1d bf 08 fe b6 be a0 d8 b7 3e 55 3c 3a 3f
       -0.6171365 -0.35740685 0.3590746 0.7274831
