beergame/double_dueling_dqn/models/dqn_agent_firm_1_episode_500.pth (torch, 105210 bytes, 28 tensors)

fc1.weight f4 [64, 3]
-0.5749115 -0.12391895 -0.3221447 0.022082003 0.14098294 -0.029151047 -0.43615702 -0.23233752
0.43973938 0.2428714 0.1456443 -0.31781295 -0.2404187 0.024863735 0.06258459 0.20052588
0.36777642 -0.024094792 0.62165886 0.55233616 -0.1495059 0.5388563 0.21270508 -0.30170533
0.5266998 -0.013967149 -0.016506616 -0.059627414 -0.4949147 -0.22700223 -0.21083441 0.21234427
0.04256721 0.24449413 -0.6275996 0.26400295 0.36768377 -0.46051267 0.063023366 0.64015716
0.78197974 0.14341913 0.21727283 0.09554343 -0.021848205 0.08003236 0.22527254 -0.04717541
-0.32538557 -0.2929503 -0.53692484 -0.29112008 -0.5595871 -0.07723689 0.25353527 -0.2222144
0.10658442 -0.25464705 0.55310076 0.37012058 0.13533719 0.31261334 -0.20826995 -0.11618936
-0.18325832 -0.35613203 0.3860665 -9.030104e-05 -0.5332364 0.1880887 0.08910453 -0.41772667
0.122923255 -0.3492173 -0.48228356 0.22622597 0.6732866 -0.076503605 -0.24658115 0.47316536
-0.22406232 -0.3090563 0.3096154 0.4683731 -0.34096947 -0.56265527 0.14161152 -0.18105046
0.49230677 0.27003074 -0.20160747 -0.4069645 0.25076675 -0.29585662 0.10558186 0.039179917
-0.4820876 -0.04895556 -0.447535 0.5856298 -0.61653507 0.4160625 0.61815447 -0.12854566
0.0029481493 -0.3201007 -0.034429215 0.37331122 0.06460428 -0.09929079 -0.20627227 0.20705761
0.095876716 -0.020086661 -0.026167588 -0.49298462 0.26426712 -0.36317188 0.012708008 -0.47110403
-0.010084296 -0.13303496 0.034915 0.12631285 -0.46344492 -0.38202447 0.30519426 -0.29602996
-0.27909428 0.5894983 -0.37818852 -0.16215771 0.19398165 0.3911562 0.39791894 0.24143353
0.28016776 -0.030088328 0.04262032 0.111465394 -0.12854446 -0.21354385 0.39411193 0.01648176
-0.3286539 0.7466679 0.17593879 0.25260967 -0.4662497 -0.3529934 -0.39815882 0.53146636
0.23050639 -0.22273925 -0.47351465 -0.43644902 -0.45201182 -0.4290306 -0.08776629 -0.33344942
0.2505676 -0.065498106 0.2156199 -0.30862063 0.19731057 -0.38005912 0.07209844 0.055706188
-0.516278 0.46104363 0.03742188 0.25905162 -0.3905738 -0.53925663 -0.28404772 0.36150202
-0.4775446 0.037872843 -0.4751455 0.34788242 -0.24766392 -0.45005313 0.09819107 0.08825123
-0.12671885 -0.44165063 0.49659044 -0.05623062 0.35702744 0.335847 0.1102448 -0.047892306
00000000: 662d 13bf 38c9 fdbd 26f0 a4be 51e5 b43c
00000010: d55d 103e 2dce eebc f94f dfbe e3e9 6dbe
00000020: 8525 e13e 48b3 783e c823 153e 61b8 a2be
00000030: 5230 76be 08af cb3c 592c 803d a856 4d3e
00000040: 314d bc3e 7162 c5bc 0925 1f3f e765 0d3f
00000050: 1318 19be 7df2 093f 5ccf 593e 1f79 9abe
00000060: ccd5 063f 78d6 64bc e238 87bc e03b 74bd
00000070: 7665 fdbe 4673 68be fae4 57be c770 593e
00000080: f45a 2e3d ab5c 7a3e 5eaa 20bf 652b 873e
00000090: 0c41 bc3e 51c8 ebbe 6512 813d 57e1 233f
000000a0: d32f 483f 77dc 123e c57c 5e3e 46ac c33d
000000b0: 02fb b2bc 02e8 a33d d8ad 663e 013b 41bd
000000c0: f098 a6be 95fd 95be e873 09bf b10d 95be
000000d0: 1a41 0fbf 602e 9ebd 60cf 813e 2c8c 63be
000000e0: ef48 da3d 1961 82be 0398 0d3f 7280 bd3e
000000f0: d595 0a3e db0e a03e b844 55be b0f4 edbd
00000100: 12a8 3bbe f056 b6be 82aa c53e 0060 bdb8
00000110: 2e82 08bf 539a 403e 707c b63d 45e0 d5be
00000120: 30bf fb3d 9ccc b2be dfed f6be c8a7 673e
00000130: 835c 2c3f ecad 9cbd c57f 7cbe bb42 f23e
00000140: 9870 65be a13c 9ebe e985 9e3e 99ce ef3e
00000150: 8d93 aebe 2d0a 10bf 9c02 113e 4b65 39be
00000160: a20f fc3e 7841 8a3e 3072 4ebe a75d d0be
00000170: 8064 803e 857a 97be 4d3b d83d 1f7b 203d
00000180: 30d4 f6be a085 48bd 4f23 e5be d6eb 153f
00000190: 3ed5 1dbf 2506 d53e 5f3f 1e3f 79a1 03be
000001a0: bd35 413b 3de4 a3be a605 0dbd a622 bf3e
000001b0: 404f 843d f858 cbbd 0a39 53be e906 543e
000001c0: 035b c43d c88c a4bc 695d d6bc 7b68 fcbe
000001d0: 054e 873e aaf1 b9be 4035 503c 8c34 f1be
000001e0: 9a38 25bc 513a 08be 0803 0f3d 2858 013e
000001f0: a748 edbe b698 c3be 6c42 9c3e 3d91 97be
00000200: 72e5 8ebe 5ce9 163f eda1 c1be ac0c 26be
00000210: 20a3 463e a045 c83e 08bc cb3e 5a3a 773e
00000220: 2672 8f3e cc7b f6bc a592 2e3d f847 e43d
00000230: 29a1 03be 3dab 5abe 0ac9 c93e c204 873c
00000240: 5345 a8be a125 3f3f 4c29 343e 0e56 813e
00000250: 48b8 eebe 8dbb b4be 79db cbbe 2e0e 083f
00000260: de09 6c3e c215 64be 8370 f2be 3f76 dfbe
00000270: 186e e7be e6a9 dbbe d0be b3bd e2b9 aabe
00000280: 654a 803e df23 86bd 77cb 5c3e 8603 9ebe
00000290: c80b 4a3e 1c97 c2be 59a8 933d 2c2c 643d
000002a0: cc2a 04bf e90d ec3e af47 193d 6aa2 843e
000002b0: 4af9 c7be b90c 0abf b46e 91be cb16 b93e
000002c0: ba80 f4be 8e20 1b3d 4546 f3be a51d b23e
000002d0: 9c9b 7dbe 5d6d e6be 6618 c93d 10bd b43d
000002e0: 96c2 01be 0820 e2be 1a41 fe3e 1452 66bd
000002f0: 4dcc b63e 23f4 ab3e 07c8 e13d b92a 44bd

fc1.bias f4 [64]
-0.293946 3.1906993 -2.2995524 1.9451813 3.3512135 2.6234694 1.8560244 1.689737
1.6245676 0.49912632 2.993065 -0.37521502 3.0737662 -1.6006733 2.400264 1.5897095
0.40472782 0.098388076 -1.3395038 -1.2784904 2.7441578 0.28880447 -0.11038056 1.9034877
0.3988368 0.52645 2.576959 -0.989693 0.8366158 -0.71647197 1.7209566 3.2071486
0.29953408 -1.4668196 1.9901495 -0.83942497 -0.5207058 1.894077 0.5139466 -0.3191779
2.7035456 -0.24825871 -0.38972938 0.24739954 -1.9481007 2.8642511 2.6751754 2.9811447
-1.8943619 0.37013704 -1.0405416 0.17194223 -0.42784926 0.41984794 -1.7993258 1.2418628
2.7627766 -0.5746301 1.6985193 -0.5345869 1.5435573 -0.37733388 -0.9361295 0.66503614
00000000: 1780 96be 6b34 4c40 de2b 13c0 b3fb f83f
00000010: 487a 5640 ece6 2740 3592 ed3f 4d49 d83f
00000020: d5f1 cf3f 7c8d ff3e 618e 3f40 2f1c c0be
00000030: 96b8 4440 dde2 ccbf ed9d 1940 9a7b cb3f
00000040: 7c38 cf3e b07f c93d dc74 abbf 93a5 a3bf
00000050: 48a0 2f40 2ede 933e 340f e2bd 7ca5 f33f
00000060: 5634 cc3e 6dc5 063f e5ec 2440 855c 7dbf
00000070: 742c 563f b56a 37bf 4e48 dc3f ec41 4d40
00000080: 885c 993e bfc0 bbbf 38bd fe3f 8ee4 56bf
00000090: fa4c 05bf 1d71 f23f 0192 033f 496b a3be
000000a0: e406 2d40 8837 7ebe 9c8a c7be 4e56 7d3e
000000b0: 5d5b f9bf e44f 3740 1336 2b40 13cb 3e40
000000c0: 737a f2bf 9a82 bd3e 7830 85bf a011 303e
000000d0: 0f0f dbbe 4ff6 d63e 4f50 e6bf 5cf5 9e3f
000000e0: 55d1 3040 f51a 13bf 1569 d93f b0da 08bf
000000f0: 4993 c53f e831 c1be 2fa6 6fbf cf3f 2a3f

fc2.weight f4 [64, 64]
-0.008024737 -0.0001526326 0.10388774 -0.04254353 0.09225072 -0.11503407 0.061883345 0.07485652
-0.055103958 -0.0012324601 0.0012430549 0.12214677 0.02250889 0.008144245 -0.10759035 0.11961214
-0.10234055 0.020646676 0.069077656 -0.08118847 0.10562983 -0.004113555 0.09101045 -0.08331758
-0.009977043 -0.06841837 0.035306588 -0.10146709 0.0010478348 0.057033062 -0.053325087 0.11558688
0.042519167 0.014030725 0.08837792 -0.06279661 0.01121816 -0.12372513 -0.122811615 0.08558935
-0.054596752 -0.059091315 -0.04651253 0.109420046 -0.07437992 -0.08114925 0.0136754215 -0.08560702
-0.11023997 0.121130705 0.058956876 -0.0064113736 -0.11134146 0.10398339 0.012247235 -0.0481527
-0.07252228 0.029526427 0.041678354 -0.1030193 0.0731193 0.03018199 -0.117231876 0.048642054
0.08362678 0.3212909 -0.2905978 0.5762829 0.95939475 0.104463905 -0.074102886 0.2837076
0.14990999 0.061052322 0.19993173 0.0685804 0.28667837 -0.3732519 0.1923894 0.06608354
0.12355079 -0.10513356 -0.19041663 -0.3863249 0.17646071 0.019762188 -0.10671824 0.41387445
-0.008565396 -0.2284948 0.071155205 -0.18208064 0.23291594 -0.26230296 0.23530325 0.5250578
0.09982392 -0.02261126 0.33464175 -0.090002164 -0.004551187 -0.03772641 0.11925941 -0.0892922
0.40405583 -0.06708942 0.09323095 0.18858229 -0.31863162 0.23508091 0.9422237 0.20055044
-0.40539646 0.0002374798 -0.34473836 -0.0019229054 0.09575266 -0.09632651 -0.080274336 -0.034314316
-0.10908316 0.08621721 -0.07069319 0.06446128 0.84281373 -0.04587388 -0.021912418 0.058716275
-0.105146304 -0.18911606 0.054202694 0.4027263 -0.28346825 -0.0118785575 0.11135356 -0.22072543
-0.058180116 0.04955426 -0.20181637 0.12718311 -0.042248603 0.15237556 -0.09661716 -0.24564837
-0.020305395 -0.12205708 0.05889418 0.2081484 -0.0543884 -0.019496605 0.011450455 0.98506916
-0.044280857 -0.081145816 0.043770913 0.073203094 -0.13553587 0.09774539 -0.05616489 -0.30561757
-0.11367749 0.20686258 0.011614837 0.019854419 0.057681143 -0.13961905 0.12948635 -0.031996608
-0.10076287 -0.032129854 0.0007299781 -0.56615955 0.07881013 -0.16260913 0.06954103 -0.26121625
0.08215119 -0.005143717 0.10056038 0.074407294 -0.02024223 -0.025739523 0.088734224 -0.13416782
-0.31688637 0.04348634 0.4126606 0.11326652 -0.07764453 0.033236057 0.22134763 0.06364539
-0.10892032 0.045434993 0.058927786 -0.05330462 -0.028202467 -0.00848481 0.028288156 -0.08329649
-0.04319786 -0.07423863 -0.06813048 -0.07611416 0.06662625 -0.059915725 -0.07541918 -0.08643486
-0.04816079 -0.017828539 -0.116708346 -0.036058813 -0.04966991 0.013058618 0.111366615 0.016771272
-0.01152958 0.030691111 -0.006958766 -0.09439917 -0.1132218 -0.027410556 0.06458594 -0.046695873
0.08400433 0.049553 -0.0012585168 0.04476322 0.05104886 -0.103190124 -0.0020634443 0.061227888
0.0049721994 0.117970034 0.0061864555 -0.031982593 -0.0540789 -0.10220508 0.023903549 -0.06453742
-0.09904017 0.08421546 -0.005033108 0.110106945 0.057486787 -0.14010835 -0.12378504 -0.088974394
-0.07180091 -0.052495494 -0.11640096 0.0412138 0.057166345 -0.010217473 -0.09689014 0.09419186
00000000: 307a 03bc 000c 20b9 18c3 d43d 2042 2ebd
00000010: f2ed bc3d fc96 ebbd 6479 7d3d 604e 993d
00000020: b0b4 61bd 808a a1ba 00ee a23a 1628 fa3d
00000030: 9064 b83c 706f 053c 5458 dcbd 36f7 f43d
00000040: ec97 d1bd 3823 a93c 9678 8d3d 2446 a6bd
00000050: 7454 d83d 00cb 86bb b063 ba3d 68a2 aabd
00000060: c076 23bc ee1e 8cbd a49d 103d facd cfbd
00000070: 8057 893a 809b 693d 686b 5abd d0b8 ec3d
00000080: 9428 2e3d 20e1 653c 7cff b43d 829b 80bd
00000090: 60cc 373c 9a63 fdbd a884 fbbd 7849 af3d
000000a0: d8a0 5fbd bc09 72bd ec83 3ebd 9e17 e03d
000000b0: 8054 98bd 9431 a6bd e00e 603c bc52 afbd
000000c0: 7ec5 e1bd 6013 f83d c47c 713d 8016 d2bb
000000d0: fe06 e4bd 3ef5 d43d a0a8 483c c43b 45bd
000000e0: 9086 94bd 68e1 f13c ecb6 2a3d c8fb d2bd
000000f0: 92bf 953d 3840 f73c 4417 f0bd e43c 473d
00000100: 8444 ab3d 3e80 a43e 3cc9 94be 4787 133f
00000110: e59a 753f 2cf1 d53d 41c3 97bd 1f42 913e
00000120: 0182 193e 0012 7a3d e7ba 4c3e e173 8c3d
00000130: 82c7 923e df1a bfbe ba01 453e cf56 873d
00000140: 3208 fd3d 4450 d7bd 94fc 42be 61cc c5be
00000150: 1eb2 343e 50e4 a13c 188f dabd 5ae7 d33e
00000160: e055 0cbc 8afa 69be d2b9 913d 5973 3abe
00000170: 8481 6e3e 934c 86be 56f3 703e 306a 063f
00000180: 7c70 cc3d 403b b9bc 2a56 ab3e 0e53 b8bd
00000190: 2022 95bb 0287 1abd 473e f43d d4de b6bd
000001a0: 68e0 ce3e 2e66 89bd deef be3d b71b 413e
000001b0: af23 a3be 0db9 703e 9335 713f 185d 4d3e
000001c0: 2090 cfbe 0004 7939 8c81 b0be 000a fcba
000001d0: f819 c43d d546 c5bd df66 a4bd 2b8d 0cbd
000001e0: fe66 dfbd a692 b03d 97c7 90bd 4704 843d
000001f0: a4c2 573f 40e6 3bbd ac81 b3bc 7a80 703d
00000200: f256 d7bd a4a7 41be a503 5e3d 2432 ce3e
00000210: c022 91be 489e 42bc 560d e43d d905 62be
00000220: 464e 6ebd 68f9 4a3d f3a8 4ebe 4a3c 023e
00000230: df0c 2dbd 5708 1c3e 38df c5bd 3f8b 7bbe
00000240: 8057 a6bc 10f9 f9bd 063b 713d db24 553e
00000250: 5fc6 5ebd 58b7 9fbc b09a 3b3c 7e2d 7c3f
00000260: d85f 35bd c72f a6bd 2149 333d 81eb 953d
00000270: eac9 0abe bc2e c83d 280d 66bd e879 9cbe
00000280: becf e8bd c9d3 533e 284c 3e3c bca5 a23c
00000290: 1043 6c3d 4cf8 0ebe 1298 043e e00e 03bd
000002a0: c35c cebd 989a 03bd 005c 3f3a d5ef 10bf
000002b0: 3567 a13d 0283 26be 876b 8e3d 23be 85be
000002c0: e23e a83d a08c a8bb 9af2 cd3d da62 983d
000002d0: 08d3 a5bc b1db d2bc 4aba b53d 4a63 09be
000002e0: ee3e a2be bc1e 323d 4048 d33e 47f8 e73d
000002f0: 1804 9fbd 8822 083d f4a8 623e 8458 823d
00000300: 9e11 dfbd 0b1a 3a3d 435e 713d f255 5abd
00000310: dc08 e7bc df03 0bbc 90bc e73c 5a97 aabd
00000320: 3df0 30bd 6c0a 98bd fe87 8bbd bee1 9bbd
00000330: 5873 883d 316a 75bd 5f75 9abd c304 b1bd
00000340: 4044 45bd 280d 92bc c904 efbd 68b2 13bd
00000350: ad72 4bbd d0f3 553c 2e14 e43d e863 893c
00000360: 90e6 3cbc ed6b fb3c 5c06 e4bb 5a54 c1bd
00000370: d5e0 e7bd 1a8c e0bc a245 843d 2c44 3fbd
00000380: 760a ac3d 16f8 4a3d d1f4 a4ba a359 373d
00000390: 9c18 513d 5855 d3bd da3a 07bb 18ca 7a3d
000003a0: d5ed a23b 469a f13d c0b7 ca3b 2e00 03bd
000003b0: d681 5dbd e650 d1bd 60d1 c33c 322c 84bd
000003c0: 93d5 cabd 2879 ac3d c5ec a4bb c07f e13d
000003d0: 4477 6b3d 9078 0fbe 0383 fdbd 3538 b6bd
000003e0: 5b0c 93bd 8405 57bd a063 eebd cdcf 283d
000003f0: 4227 6a3d 3067 27bc 566e c6bd a9e7 c03d

fc2.bias f4 [64]
-0.06746791 0.9674825 -0.021175971 -0.1326393 0.059037644 1.6468593 -0.102081485 1.5155106
0.038718034 0.12924933 0.10322439 -0.08249288 1.7319671 0.12115193 1.4020334 1.977478
-0.09109999 0.02882721 1.7972382 1.3022747 1.7183318 1.0512667 -0.07781991 -0.0029860307
-0.040618464 1.2991693 -0.07481061 0.4286419 1.5370533 0.2216568 -0.098138735 1.6269342
0.29444113 -0.095727935 -0.13529119 0.2604061 -0.07767174 -0.014872951 0.046637192 -0.09758933
-0.03735413 1.0782192 -1.1102222 1.7021537 -0.5129451 0.024743304 1.1762059 1.6220989
0.08099768 1.4973782 -0.4555055 0.90546227 1.5516099 0.084792204 0.0354204 0.10506735
-0.009497553 -0.20615278 1.627973 1.1030971 0.68471354 0.8738852 1.705815 1.270457
00000000: 9e2c 8abd efac 773f 3b79 adbc 99d2 07be
00000010: 75d1 713d 49cc d23f 1910 d1bd 40fc c13f
00000020: cd96 1e3d f059 043e 4f67 d33d 07f2 a8bd
00000030: 19b1 dd3f 811e f83d d575 b33f 001e fd3f
00000040: a292 babd 0b27 ec3c e70b e63f f0b0 a63f
00000050: 4cf2 db3f e88f 863f 0c60 9fbd 48b1 43bb
00000060: 8c5f 26bd 2e4b a63f 4e36 99bd f376 db3e
00000070: 2abe c43f 00fa 623e f6fc c8bd 613f d03f
00000080: fdc0 963e 020d c4bd c689 0abe f353 853e
00000090: 5c12 9fbd aead 73bc a406 3f3d eadc c7bd
000000a0: a500 19bd 1603 8a3f c31b 8ebf 2ce0 d93f
000000b0: 5f50 03bf 78b2 ca3c ea8d 963f f0a0 cf3f
000000c0: 1de2 a53d 17aa bf3f 0438 e9be 60cc 673f
000000d0: 279b c63f 89a7 ad3d fb14 113d 8d2d d73d
000000e0: a09b 1bbc b719 53be 6b61 d03f 4932 8d3f
000000f0: 6349 2f3f f1b6 5f3f 2558 da3f 569e a23f

fc_A.weight f4 [20, 64]
0.02496013 -0.38739282 0.13945636 0.087642096 0.07661788 0.3032921 -0.06425448 0.5391585
0.08880095 -0.24362934 -0.098305866 0.13770169 0.22378524 0.12372759 0.1533187 -0.9761504
-0.064455986 -0.045005303 0.2935286 0.16131872 0.22633362 0.06094648 0.122066714 0.11790459
-0.08994362 0.22142689 0.015675236 0.067048326 0.29732016 0.20112993 -0.06695816 -0.5120418
0.18719175 -0.05565396 0.0515331 0.035043452 -0.074880764 0.052153025 -0.098956004 -0.118683815
0.0010066472 -0.015140881 -0.17525546 0.15678363 -0.074307375 -0.10870375 0.16889186 0.16503981
-0.071012475 0.24497947 -0.07401231 0.26913136 0.17087217 -0.040961597 0.04145023 0.0018456759
0.081448525 0.20718558 0.29971233 -1.0372276 0.3398068 0.2093005 0.23230802 -0.014487509
-0.11597206 -0.23401196 0.22636682 0.041740604 -0.092831075 0.016244108 0.12187852 0.3055763
0.011277845 0.046557333 -0.037986938 0.10324906 0.18143973 -0.13476783 0.008348656 -0.16284089
-0.06870418 0.04646098 0.23970771 0.13733853 0.17753199 -0.100022405 0.07777134 -0.107328236
-0.01244691 0.1947712 0.022991596 0.08755999 0.1277696 0.15495482 0.08749978 -0.36961877
0.15024115 0.08499792 0.06866264 -0.033495072 -0.034292847 0.08599318 -0.09756088 0.033611193
-0.084599726 0.17353204 -0.035470434 0.091040544 0.26079053 -0.0505732 0.15189429 0.1466295
-0.09227948 0.06551484 0.05333412 0.2262375 0.12007567 -0.09904738 0.009636799 0.1180192
-0.09998214 0.13030459 -0.15755822 -0.34186065 0.110718794 0.15415579 0.17620899 -0.057675634
0.041519642 -0.33945435 0.21764643 -0.0031933393 0.005425116 -0.11929675 -0.061082136 0.1375494
0.057478618 0.02001839 -0.07187541 -0.027407033 0.17196357 0.092345044 0.053348187 0.18482266
-0.12662563 0.10362057 0.1328493 0.06292383 0.11160042 -0.030746896 0.064582355 -0.014717721
0.112717524 0.16541496 0.055972695 0.15971312 -0.03554779 0.11896945 0.096417695 -0.312367
0.20348641 -0.037654627 0.072278336 -0.010513168 -0.06647268 0.11940556 0.037172586 -0.0003145337
-0.01165699 0.15675576 0.07023992 0.042854507 -0.06324169 0.06957644 0.2773266 0.18525137
0.016592626 0.08318672 0.065241955 0.2679642 0.2057871 0.13857964 -0.11459967 0.11563791
-0.023697063 0.16707735 0.07085299 -0.17627466 0.30854148 0.03646741 0.05878913 0.14882761
0.03678304 -0.23677428 0.040714536 -0.11463999 -0.03517923 -0.14666867 -0.034367893 0.21669178
-0.06751759 -0.087370925 0.028388593 0.016167479 0.11804647 0.049662005 0.16247137 0.020391589
0.08201521 0.054072984 0.25148624 0.0024146251 0.16708583 0.14518318 0.028034719 -0.010338764
0.09378451 0.262594 -0.031962167 0.0900012 0.075479105 0.15217915 -0.100959376 -0.17301616
0.21428266 0.12583153 0.08833986 -0.08570478 -0.122868866 0.059092436 0.005993873 -0.041895524
-0.0042184126 -0.006149182 0.0019287263 -0.042324543 -0.10861033 0.111082494 0.14391972 0.13741314
-0.05057544 -0.02215679 0.092928134 0.09650679 0.089294694 0.05280819 0.06158138 0.124986134
-0.07355894 0.14508466 -0.03459883 -0.33219105 0.38420194 0.1218667 0.08970529 0.16444989
00000000: 3079 cc3c 5a58 c6be a6cd 0e3e b37d b33d
00000010: d6e9 9c3d 1a49 9b3e da97 83bd 4b06 0a3f
00000020: 46dd b53d f879 79be 9654 c9bd ac01 0d3e
00000030: f527 653e e464 fd3d 94ff 1c3e fee4 79bf
00000040: 8001 84bd 7b57 38bd 6149 963e bc30 253e
00000050: 00c4 673e 04a3 793d 1dfe f93d f677 f13d
00000060: 5c34 b8bd bbbd 623e 5a69 803c a250 893d
00000070: 593a 983e 01f5 4d3e 5c21 89bd 2c15 03bf
00000080: 32af 3f3e 68f5 63bd 5f14 533d b989 0f3d
00000090: 165b 99bd 699e 553d 72a9 cabd 8010 f3bd
000000a0: 7af1 833a 7511 78bc 2b76 33be e38b 203e
000000b0: 772e 98bd 12a0 debd fdf1 2c3e 3200 293e
000000c0: fd6e 91bd e6db 7a3e c493 97bd 96cb 893e
000000d0: 1df9 2e3e 59c7 27bd b7c7 293d 9bea f13a
000000e0: 7cce a63d 7528 543e e573 993e e0c3 84bf
000000f0: 28fb ad3e df52 563e 27e2 6d3e 045d 6dbc
00000100: c282 edbd d5a0 6fbe b4cc 673e 32f8 2a3d
00000110: 381e bebd 5d12 853c 729b f93d 7f74 9c3e
00000120: b6c6 383c e7b2 3e3d 3198 1bbd 3e74 d33d
00000130: 56cb 393e 9400 0abe cdc8 083c c3bf 26be
00000140: c7b4 8cbd de4d 3e3d f075 753e 79a2 0c3e
00000150: f2ca 353e 8cd8 ccbd 9546 9f3d e8ce dbbd
00000160: 20ee 4bbc 1a72 473e df58 bc3c a752 b33d
00000170: 09d6 023e 7aac 1e3e 1633 b33d ac3e bdbe
00000180: d1d8 193e 6413 ae3d 009f 8c3d 2132 09bd
00000190: a876 0cbd 311d b03d 00ce c7bd e4ab 093d
000001a0: 9f42 adbd 62b2 313e 7249 11bd 7773 ba3d
000001b0: 5686 853e d825 4fbd 2d8a 1b3e 0b26 163e
000001c0: 06fd bcbd a52c 863d e174 5a3d ceaa 673e
000001d0: 3cea f53d 5ad9 cabd aae3 1d3c 0db4 f13d
000001e0: 70c3 ccbd 916e 053e f156 21be 5c08 afbe
000001f0: 89c0 e23d 04db 1d3e 2170 343e 493d 6cbd
00000200: 8010 2a3d f6cc adbe b5de 5e3e 5847 51bb
00000210: 2cc5 b13b db51 f4bd 4331 7abd c0d9 0c3e
00000220: b36e 6b3d 9bfd a33c 6a33 93bd b784 e0bc
00000230: 3817 303e 661f bd3d a183 5a3d 2742 3d3e
00000240: 26aa 01be 0537 d43d a609 083e 35de 803d
00000250: c38e e43d eae0 fbbc c143 843d 9922 71bc
00000260: 72d8 e63d 8a62 293e a043 653d d68b 233e
00000270: 8f9a 11bd 41a6 f33d a476 c53d 91ee 9fbe
00000280: be5e 503e bd3b 1abd aa06 943d 6c3f 2cbc
00000290: d422 88bd e78a f43d 4842 183d 00e8 a4b9
000002a0: f6fc 3ebc 9584 203e f2d9 8f3d 3588 2f3d
000002b0: dc84 81bd 187e 8e3d c1fd 8d3e 89b2 3d3e
000002c0: 42ed 873c cd5d aa3d 939d 853d 9b32 893e
000002d0: dbb9 523e d2e7 0d3e 3bb3 eabd 92d3 ec3d
000002e0: 5820 c2bc 5316 2b3e 5f1b 913d 5881 34be
000002f0: 26f9 9d3e da5e 153d dfcc 703d 4466 183e
00000300: d0a9 163d f574 72be 49c4 263d 5fc8 eabd
00000310: 1918 10bd 5030 16be 59c5 0cbd 73e4 5d3e
00000320: aa46 8abd 87ef b2bd 328f e83c a971 843c
00000330: 59c2 f13d 636a 4b3d e55e 263e 430c a73c
00000340: 97f7 a73d a27b 5d3d cec2 803e b03e 1e3b
00000350: 8c18 2b3e e6aa 143e 11a9 e53c eb63 29bc
00000360: 1812 c03d b972 863e c3ea 02bd 8d52 b83d
00000370: ca94 9a3d dad4 1b3e cac3 cebd 262b 31be
00000380: ea6c 5b3e fbd9 003e 87eb b43d fd85 afbd
00000390: aca2 fbbd e90a 723d 4068 c43b a49a 2bbd
000003a0: 9c3a 8abb 147f c9bb 51cd fc3a 805c 2dbd
000003b0: 186f debd 387f e33d b15f 133e 08b6 0c3e
000003c0: 3128 4fbd 2882 b5bc 1b51 be3d 5aa5 c53d
000003d0: 23e0 b63d 674d 583d c23c 7c3d bbf8 ff3d
000003e0: 12a6 96bd 1391 143e 81b7 0dbd f214 aabe
000003f0: 1eb6 c43e 4095 f93d 68b7 b73d 8d65 283e

fc_A.bias f4 [20]
1.0567101 0.48314503 0.3578962 0.30623317 0.41171128 0.3811662 -0.006518691 -0.008369916
0.028787682 -0.0032650554 -0.07322291 -0.29919285 -0.3515892 -0.3359652 -0.29430598 -0.44698042
-0.5153671 -0.63714767 -0.5811787 -0.8545273
00000000: 4742 873f c95e f73e 2c3e b73e 98ca 9c3e
00000010: d2cb d23e 3728 c33e be9a d5bb f921 09bc
00000020: 25d4 eb3c 8afa 55bb e5f5 95bd ce2f 99be
00000030: 8003 b4be a103 acbe 46af 96be 9eda e4be
00000040: 19ef 03bf 1c1c 23bf 21c8 14bf 4dc2 5abf

fc_V.weight f4 [1, 64]
0.081279054 -0.4629434 -0.17833015 -0.021756943 0.062450267 -1.5375261 0.08768795 0.39360106
0.05993339 -0.11535989 0.044227596 -0.087456174 0.30311987 0.086022936 0.6569879 -1.3784715
0.058520447 0.021325497 0.3889866 0.7007903 0.27353022 0.4693888 -0.10354263 0.10846198
-0.038460642 0.20793274 0.04254042 -0.08448667 0.46063656 -0.15719445 0.09605722 -1.0561746
-0.1347718 0.026374497 -0.016437452 0.030511774 0.009350508 0.045017023 0.11364031 0.007767752
0.00405434 0.21754313 -0.42732304 0.2876846 -0.12420185 -0.096046984 0.08416693 0.20149235
0.044349317 0.19889224 -0.3115797 0.007627028 0.13051032 -0.047794458 0.023758676 0.06793474
0.08045675 -0.25344816 0.6805977 -0.2790551 -0.07063115 -0.019907722 0.19989526 0.4705946
00000000: a275 a63d eb06 edbe 2e9c 36be 9e3b b2bc
00000010: dacb 7f3d a8cd c4bf bd95 b33d 1486 c93e
00000020: b77c 753d ce41 ecbd ff27 353d 391c b3bd
00000030: 8732 9b3e cb2c b03d 5c30 283f c171 b0bf
00000040: 23b3 6f3d cfb2 ae3c 4029 c73e fe66 333f
00000050: 270c 8c3e bb53 f03e 290e d4bd 5121 de3d
00000060: e888 1dbd 52ec 543e dd3e 2e3d 5907 adbd
00000070: 8ed8 eb3e 95f7 20be a6b9 c43d bb30 87bf
00000080: 9e01 0abe 540f d83c d6a7 86bc d4f3 f93c
00000090: e032 193c c563 383d 40bc e83d a088 fe3b
000000a0: 45da 843b a0c3 5e3e 16ca dabe 654b 933e
000000b0: 8a5d febd 48b4 c4bd b65f ac3d 0354 4e3e
000000c0: a1a7 353d 68aa 4b3e 6087 9fbe 26ec f93b
000000d0: 7fa4 053e 1fc4 43bd 8ea1 c23c 5e21 8b3d
000000e0: 82c6 a43d f5c3 81be a73b 2e3f 4fe0 8ebe
000000f0: 10a7 90bd 8515 a3bc 58b1 4c3e c7f1 f03e

fc1.weight f4 [64, 3]
-0.5749115 -0.12391895 -0.3221447 0.027850635 0.16138563 -0.03831336 -0.4245413 -0.20516977
0.4455674 0.26166856 0.13801588 -0.36717325 -0.26343292 0.02922223 0.057376865 0.21047229
0.3870853 -0.03390693 0.63287514 0.6000576 -0.13058785 0.5454329 0.24973291 -0.27789053
0.5531024 0.004824131 -0.024860594 -0.059627414 -0.49491864 -0.22700223 -0.23471184 0.22072761
0.03492966 0.29693854 -0.60247695 0.3315387 0.38030142 -0.4391807 0.06879668 0.6308146
0.794153 0.16125345 0.22739136 0.11018692 -0.031090733 0.10038409 0.22857702 -0.06998895
-0.32538557 -0.2929503 -0.53692484 -0.29112008 -0.5595871 -0.07723744 0.26254424 -0.25294366
0.10659311 -0.29104733 0.5491578 0.38642904 0.12052749 0.37401003 -0.26856685 -0.11618958
-0.18325832 -0.35613203 0.3860665 -9.030104e-05 -0.5332364 0.141158 0.057189785 -0.40631697
0.122923255 -0.3492173 -0.48228356 0.237362 0.5886258 -0.13469471 -0.30510545 0.53235096
-0.22834618 -0.3380967 0.30840653 0.4959222 -0.422779 -0.501468 0.14516942 -0.16358867
0.53889257 0.32144755 -0.14661416 -0.397659 0.30557093 -0.2799808 0.11562726 0.04323335
-0.4820876 -0.04895556 -0.447535 0.6039446 -0.58650553 0.43722612 0.62308604 -0.14897414
-0.010155544 -0.3607263 0.0152078755 0.4228435 0.06460428 -0.099291444 -0.20627227 0.22492263
0.12580599 -0.02690931 0.090318285 -0.38878933 0.35355318 -0.36317188 0.012708008 -0.4711063
0.016938344 -0.16130729 0.058257394 0.12631285 -0.463447 -0.38202602 0.30519462 -0.29602996
-0.27909428 0.5655952 -0.36041963 -0.1404312 0.15969537 0.37435064 0.4085472 0.2578836
0.30739653 -0.057161354 0.023349823 0.14960642 -0.17862396 -0.2531672 0.40265384 0.0018001515
-0.38088542 0.7306126 0.18279573 0.25260967 -0.4662497 -0.3529934 -0.44892886 0.5363947
0.24493925 -0.22273925 -0.4735203 -0.43644902 -0.45201182 -0.4290306 -0.08776629 -0.26674306
0.33502424 -0.0010341806 0.23164982 -0.2890449 0.21377625 -0.33252767 0.069679394 0.044184145
-0.5481531 0.46550617 0.020906791 0.25905162 -0.3905738 -0.53925663 -0.2839716 0.36532524
-0.47808403 0.12770356 -0.39159372 0.40524662 -0.32507598 -0.47287485 0.098745205 0.08825123
-0.12671885 -0.44165063 0.5166126 -0.05476834 0.38898274 0.35047245 0.1954645 -0.015688978
00000000: 662d 13bf 38c9 fdbd 26f0 a4be 0427 e43c
00000010: 4642 253e 78ee 1cbd 7a5d d9be 0618 52be
00000020: 6921 e43e 6cf9 853e 0954 0d3e 22fe bbbe
00000030: aee0 86be 7563 ef3c 0104 6b3d 0c86 573e
00000040: 0b30 c63e fee1 0abd 1b04 223f 609d 193f
00000050: d2b8 05be 7ea1 0b3f fcb9 7f3e ab47 8ebe
00000060: 1e98 0d3f be13 9e3b 72a8 cbbc e03b 74bd
00000070: fa65 fdbe 4673 68be 4d58 70be 6b06 623e
00000080: 6712 0f3d 5408 983e ee3b 1abf 71bf a93e
00000090: deb6 c23e 4bdc e0be 46e5 8c3d 117d 213f
000000a0: 9c4d 4b3f a01f 253e 48d9 683e aea9 e13d
000000b0: feb1 febc 2c96 cd3d 1810 6a3e 5e56 8fbd
000000c0: f098 a6be 95fd 95be e873 09bf b10d 95be
000000d0: 1a41 0fbf aa2e 9ebd 336c 863e d581 81be
000000e0: 7d4d da3d 2804 95be 9b95 0c3f 07da c53e
000000f0: 1ed7 f63d 3e7e bf3e 9881 89be cdf4 edbd
00000100: 12a8 3bbe f056 b6be 82aa c53e 0060 bdb8
00000110: 2e82 08bf b98b 103e d63f 6a3d c708 d0be
00000120: 30bf fb3d 9ccc b2be dfed f6be 060f 733e
00000130: 2eb0 163f 69ed 09be c836 9cbe 2748 083f
00000140: 95d3 69be 031b adbe 76e7 9d3e 84e9 fd3e
00000150: 7d76 d8be 3560 00bf 4ba7 143e ca83 27be
00000160: ddf4 093f c694 a43e 0622 16be f699 cbbe
00000170: cb73 9c3e a559 8fbe fccd ec3d 7415 313d
00000180: 30d4 f6be a085 48bd 4f23 e5be 1d9c 1a3f
00000190: 3a25 16bf 1adc df3e 9182 1f3f ad8c 18be
000001a0: 7063 26bc 1eb1 b8be 742a 793c f17e d83e
000001b0: 404f 843d 5059 cbbd 0a39 53be 1e52 663e
000001c0: 49d3 003e ea70 dcbc cbf8 b83d 650f c7be
000001d0: ec04 b53e aaf1 b9be 4035 503c d834 f1be
000001e0: 48c2 8a3c bd2d 25be 4e9f 6e3d 2858 013e
000001f0: ed48 edbe ea98 c3be 7842 9c3e 3d91 97be
00000200: 72e5 8ebe d9ca 103f ec88 b8be 32cd 0fbe
00000210: 2f87 233e e3aa bf3e 192d d13e 5209 843e
00000220: 1463 9d3e 0622 6abd 2148 bf3c 6d32 193e
00000230: 33e9 36be 229f 81be a528 ce3e 10f3 eb3a
00000240: 6a03 c3be 6d09 3b3f ce2e 3b3e 0e56 813e
00000250: 48b8 eebe 8dbb b4be 01da e5be 2a51 093f
00000260: 5bd1 7a3e c215 64be 4171 f2be 3f76 dfbe
00000270: 186e e7be e6a9 dbbe d0be b3bd 8c92 88be
00000280: 4c88 ab3e 588d 87ba 9c35 6d3e b1fd 93be
00000290: 29e8 5a3e 1141 aabe 12b4 8e3d 6ffa 343d
000002a0: c353 0cbf d356 ee3e b844 ab3c 6aa2 843e
000002b0: 4af9 c7be b90c 0abf ba64 91be e90b bb3e
000002c0: 6ec7 f4be b9c4 023e f97e c8be 7c7c cf3e
000002d0: 5c70 a6be a71c f2be ed3a ca3d 10bd b43d
000002e0: 96c2 01be 0820 e2be b940 043f c454 60bd
000002f0: bf28 c73e 2071 b33e d927 483e 2c86 80bc

fc1.bias f4 [64]
-0.293946 2.860287 -1.9244423 1.680957 2.9739501 2.3329782 1.7236431 1.4389235
1.3802736 0.49912632 2.654043 0.027352966 2.74963 -1.299016 2.1074083 1.1929735
0.40472782 0.098388076 -1.0175825 -1.0255203 2.4340436 0.28880447 -0.11038056 1.5966167
0.3988368 0.42200738 2.3016872 -0.7569782 0.73972183 -0.37958756 1.4971406 2.8549256
0.29953408 -1.1035775 1.7195911 -0.43952894 -0.5207058 1.6199203 0.648185 -0.3191779
2.3337684 -0.24825871 -0.38972938 0.20548303 -1.671227 2.5065494 2.3483562 2.6387486
-1.5914496 0.37013704 -0.74180925 0.17194223 -0.42784926 0.4877805 -1.446172 1.0060633
2.4423895 -0.5746301 1.4280359 -0.15309036 1.2779033 -0.37733388 -0.5985364 0.7348078
00000000: 1780 96be f10e 3740 2054 f6bf 9929 d73f
00000010: 3355 3e40 844f 1540 56a0 dc3f a52e b83f
00000020: ceac b03f 7c8d ff3e d7db 2940 5413 e03c
00000030: f0f9 2f40 2846 a6bf c7df 0640 5bb3 983f
00000040: 7c38 cf3e b07f c93d 2540 82bf 4044 83bf
00000050: 5fc7 1b40 2ede 933e 340f e2bd f05d cc3f
00000060: 5634 cc3e 5a11 d83e d84e 1340 53c9 41bf
00000070: 695e 3d3f 4d59 c2be 4ea2 bf3f 1ab7 3640
00000080: 885c 993e 0742 8dbf 901b dc3f f009 e1be
00000090: fa4c 05bf 8c59 cf3f 74ef 253f 496b a3be
000000a0: 765c 1540 8837 7ebe 9c8a c7be 256a 523e
000000b0: c4ea d5bf 4e6b 2040 784b 1640 42e1 2840
000000c0: 9fb4 cbbf 9a82 bd3e 36e7 3dbf a011 303e
000000d0: 0f0f dbbe 5ebe f93e 2a1c b9bf afc6 803f
000000e0: 1c50 1c40 f51a 13bf e1c9 b63f b8c3 1cbe
000000f0: 5692 a33f e831 c1be ae39 19bf 5d1c 3c3f

fc2.weight f4 [64, 64]
-0.008024737 -0.0001526326 0.10388851 -0.04254353 0.09225072 -0.11503472 0.061883457 0.07485652
-0.055103958 -0.0012324601 0.0012430549 0.12214677 0.02250889 0.008144245 -0.107591495 0.11961214
-0.10234055 0.020646757 0.069077656 -0.08118847 0.10562983 -0.004113555 0.09101045 -0.08331758
-0.009977043 -0.06841837 0.035306897 -0.10146709 0.0010478348 0.05703307 -0.053325087 0.11558688
0.042519167 0.014030725 0.08837792 -0.06279661 0.01121816 -0.12372513 -0.122811615 0.08558965
-0.054596752 -0.059091315 -0.04651271 0.109420046 -0.07437992 -0.08114925 0.0136754215 -0.08560702
-0.11023997 0.121130705 0.058956876 -0.0064113736 -0.11134146 0.10398339 0.012247235 -0.0481527
-0.07252228 0.029526427 0.041678354 -0.1030193 0.0731193 0.03018199 -0.11723267 0.048642054
0.08362678 0.20285068 -0.2123375 0.5800587 0.7879077 0.043793295 -0.11002491 0.22878042
0.10141648 0.061052706 0.102120645 0.07348026 0.19713809 -0.3469422 0.111968845 -0.009767165
0.12355085 -0.10513356 -0.13993663 -0.32493228 0.11666919 0.019762188 -0.10671824 0.49949965
-0.008565396 -0.23122016 0.10555533 -0.15296711 0.21907821 -0.22683434 0.18581624 0.39148504
0.09982392 -0.006152898 0.2726745 -0.06558347 -0.0045511993 -0.102238074 0.115057945 -0.08929264
0.29924142 -0.06708962 0.09323095 0.09408459 -0.27868053 0.16485374 0.783736 0.119994044
-0.42694134 0.0002374798 -0.35616997 -0.0019229149 0.09575266 -0.10117712 -0.017652856 -0.11921577
-0.15263951 0.08621721 0.08185457 0.07282171 0.68520516 -0.04587388 -0.021279706 0.023947919
-0.105146304 -0.04299354 0.02274888 0.40345868 -0.17380886 0.041189652 0.13421686 -0.14731096
-0.036951844 0.04955426 -0.109807506 0.10845707 0.019753804 0.12291852 -0.023292065 -0.12453803
-0.020305395 -0.12205708 0.002851848 0.18461843 0.039029915 -0.019496605 0.011450455 0.66143876
-0.044281237 -0.049157955 0.154727 0.05216196 -0.11981015 0.080614574 -0.054653063 -0.18941033
-0.1136787 0.16868356 0.04109473 0.0025872022 0.057681277 -0.06981542 0.11896253 -0.031996608
-0.0012663456 -0.032129854 0.0007299781 -0.42976967 0.0460425 -0.099517174 0.25866374 -0.17002977
0.072607726 -0.005143717 0.097763464 0.074407294 -0.02024223 0.0458837 0.030612944 -0.0833099
-0.21580333 0.04348634 0.26462924 0.08864282 -0.074465744 0.033236057 0.1940192 0.07557624
-0.10892032 0.06324378 0.060013436 -0.034257542 -0.009154078 0.0089697875 0.045348596 -0.065582804
-0.028580017 -0.07423863 -0.0490829 -0.07469335 0.08258227 -0.057452794 -0.05775686 -0.07745837
-0.04816079 -0.017828539 -0.115672916 -0.034978576 -0.030621614 0.013058708 0.111366615 0.035816923
-0.01152958 0.04848455 0.01208878 -0.093320236 -0.1119814 -0.026155751 0.06632727 -0.027647931
0.08400433 0.051098417 0.014987162 0.045838628 0.05104886 -0.08587227 -0.0006128782 0.061227888
0.009475722 0.11797029 0.0061864555 -0.01699114 -0.052822616 -0.084398836 0.04295268 -0.04548914
-0.09793815 0.08421546 -0.0039364137 0.110106945 0.057486787 -0.13905458 -0.122740656 -0.085462295
-0.052754115 -0.052495606 -0.11640096 0.042530578 0.059322692 -0.010217473 -0.095100045 0.097858906
00000000: 307a 03bc 000c 20b9 80c3 d43d 2042 2ebd
00000010: f2ed bc3d 5397 ebbd 8279 7d3d 604e 993d
00000020: b0b4 61bd 808a a1ba 00ee a23a 1628 fa3d
00000030: 9064 b83c 706f 053c ee58 dcbd 36f7 f43d
00000040: ec97 d1bd 6323 a93c 9678 8d3d 2446 a6bd
00000050: 7454 d83d 00cb 86bb b063 ba3d 68a2 aabd
00000060: c076 23bc ee1e 8cbd f79d 103d facd cfbd
00000070: 8057 893a 829b 693d 686b 5abd d0b8 ec3d
00000080: 9428 2e3d 20e1 653c 7cff b43d 829b 80bd
00000090: 60cc 373c 9a63 fdbd a884 fbbd a049 af3d
000000a0: d8a0 5fbd bc09 72bd 1d84 3ebd 9e17 e03d
000000b0: 8054 98bd 9431 a6bd e00e 603c bc52 afbd
000000c0: 7ec5 e1bd 6013 f83d c47c 713d 8016 d2bb
000000d0: fe06 e4bd 3ef5 d43d a0a8 483c c43b 45bd
000000e0: 9086 94bd 68e1 f13c ecb6 2a3d c8fb d2bd
000000f0: 92bf 953d 3840 f73c af17 f0bd e43c 473d
00000100: 8444 ab3d 17b8 4f3e 006f 59be ba7e 143f
00000110: 52b4 493f 9960 333d bd54 e1bd 6a45 6a3e
00000120: 72b3 cf3d 6712 7a3d a124 d13d d27c 963d
00000130: 91de 493e 68a2 b1be ec4f e53d 7606 20bc
00000140: 3a08 fd3d 4450 d7bd 8c4b 0fbe 865d a6be
00000150: 42f0 ee3d 50e4 a13c 188f dabd 6bbe ff3e
00000160: e055 0cbc fac4 6cbe 652d d83d 69a3 1cbe
00000170: 0a56 603e 4347 68be 9d46 3e3e ba70 c83e
00000180: 7c70 cc3d 409e c9bb fe9b 8b3e a050 86bd
00000190: 3a22 95bb 3262 d1bd 80a3 eb3d 0fdf b6bd
000001a0: 2c36 993e 4866 89bd deef be3d 6caf c03d
000001b0: 37af 8ebe 6bcf 283e eca2 483f 70bf f53d
000001c0: 0e98 dabe 0004 7939 e95b b6be 510a fcba
000001d0: f819 c43d f335 cfbd b99c 90bc 6627 f4bd
000001e0: 884d 1cbe a692 b03d 5ea3 a73d 8c23 953d
000001f0: 9b69 2f3f 40e6 3bbd c752 aebc 6d2e c43c
00000200: f256 d7bd ff19 30bd dc5b ba3c 2392 ce3e
00000210: f3fa 31be 7bb6 283d 2570 093e afd8 16be
00000220: d15a 17bd 68f9 4a3d c2e2 e0bd be1e de3d
00000230: bbd2 a13c b4bc fb3d 00cf bebc cb0d ffbd
00000240: 8057 a6bc 10f9 f9bd 12e6 3a3b 9d0c 3d3e
00000250: d5dd 1f3d 58b7 9fbc b09a 3b3c 0d54 293f
00000260: 3e60 35bd da59 49bd c170 1e3e c8a7 553d
00000270: 065f f5bd 4119 a53d e4db 5fbd c8f4 41be
00000280: 61d0 e8bd 62bb 2c3e f352 283d 0d8e 293b
00000290: 3443 6c3d 63fb 8ebd a0a2 f33d e00e 03bd
000002a0: 82fb a5ba 989a 03bd 005c 3f3a c50a dcbe
000002b0: 0f97 3c3d a9cf cbbd 936f 843e 491c 2ebe
000002c0: 5cb3 943d a08c a8bb 3638 c83d da62 983d
000002d0: 08d3 a5bc 8cf0 3b3d ffc7 fa3c 619e aabd
000002e0: 8cfb 5cbe bc1e 323d 7c7d 873e 5e8a b53d
000002f0: 7f81 98bd 8822 083d f8ac 463e b7c7 9a3d
00000300: 9e11 dfbd f485 813d a6d0 753d a351 0cbd
00000310: fcfa 15bc 04f6 123c 73bf 393d 4750 86bd
00000320: a420 eabc 6c0a 98bd 270b 49bd d4f8 98bd
00000330: e520 a93d 9f53 6bbd 7592 6cbd 7ea2 9ebd
00000340: 4044 45bd 280d 92bc ece5 ecbd b245 0fbd
00000350: 2eda fabc 31f4 553c 2e14 e43d c4b4 123d
00000360: 90e6 3cbc bc97 463d 0510 463c ae1e bfbd
00000370: 8156 e5bd 9644 d6bc 97d6 873d ea7d e2bc
00000380: 760a ac3d 934c 513d b78c 753c 49c1 3b3d
00000390: 9c18 513d cddd afbd 8fa9 20ba 18ca 7a3d
000003a0: 0f40 1b3c 689a f13d c0b7 ca3b 0131 8bbc
000003b0: 875c 58bd 4cd9 acbd 26ef 2f3d d252 3abd
000003c0: cc93 c8bd 2879 ac3d 08fd 80bb c07f e13d
000003d0: 4477 6b3d 5364 0ebe 745f fbbd db06 afbd
000003e0: b314 58bd a205 57bd a063 eebd 8b34 2e3d
000003f0: 5afc 723d 3067 27bc d0c3 c2bd 406a c83d

fc2.bias f4 [64]
-0.06746791 0.8014531 0.1289162 -0.11622916 0.059621297 1.457907 -0.09665849 1.3370602
0.047775976 0.20000467 0.103996284 -0.079727 1.541112 0.118972525 1.2028904 1.7597538
-0.08829947 0.030665962 1.5940436 1.1316063 1.5264385 0.8832981 -0.078119054 -0.0024080037
-0.040618464 1.150119 -0.07061617 0.54569364 1.3318596 0.34872195 -0.098138735 1.411699
0.40839097 -0.0764445 -0.13362493 0.24921028 -0.07767174 -0.013380394 0.046637192 -0.09758933
-0.03417297 0.949528 -0.88853055 1.5034385 -0.36923695 0.024743304 1.0792648 1.4520766
0.0993708 1.3285336 -0.27238247 0.8112369 1.4001412 0.08759966 0.04629453 0.105923556
-0.009497553 -0.054704454 1.41941 0.8578003 0.6213095 0.84297425 1.5334724 1.0652906
00000000: 9e2c 8abd 082c 4d3f 9c02 043e 8e09 eebd
00000010: 7635 743d b29c ba3f e3f4 c5bd ca24 ab3f
00000020: beb0 433d 06ce 4c3e 01fc d43d e947 a3bd
00000030: 2843 c53f dea7 f33d 50f8 993f 9d3f e13f
00000040: 5ad6 b4bd 2f37 fb3c 9f09 cc3f 7ad8 903f
00000050: 5662 c33f d31f 623f e2fc 9fbd 99cf 1dbb
00000060: 8c5f 26bd 1937 933f 369f 90bd 94b2 0b3f
00000070: 607a aa3f af8b b23e f6fc c8bd 8eb2 b43f
00000080: 9f18 d13e ef8e 9cbd f9d4 08be fb30 7f3e
00000090: 5c12 9fbd 7139 5bbc a406 3f3d eadc c7bd
000000a0: f5f8 0bbd 4414 733f bd76 63bf ac70 c03f
000000b0: a00c bdbe 78b2 ca3c 5925 8a3f a5dd b93f
000000c0: eb82 cb3d 640d aa3f b775 8bbe 39ad 4f3f
000000d0: d437 b33f 7367 b33d 559f 3d3d 73ee d83d
000000e0: a09b 1bbc c711 60bd 3aaf b53f cd98 5b3f
000000f0: 240e 1f3f 29cd 573f d348 c43f 715b 883f

fc_A.weight f4 [20, 64]
0.02496013 -0.2193491 0.13269036 0.08908177 0.07614472 0.25588956 -0.06967588 0.49993017
0.08957123 -0.22119133 -0.09878913 0.10740556 0.21916565 0.12100047 0.14516476 -0.635221
-0.06514954 -0.041303642 0.26950175 0.14856084 0.21948205 0.08207238 0.121530004 0.11739004
-0.08994362 0.20712392 0.008133274 0.05504568 0.30602074 0.1967051 -0.06695816 -0.25614914
0.18072419 -0.074933685 0.05107127 0.037754174 -0.074880764 0.05158099 -0.09895616 -0.118683815
-0.002174228 0.028338833 -0.107617855 0.15430348 -0.047102377 -0.10870375 0.17011389 0.16667162
-0.075739264 0.23705047 -0.05980345 0.2525558 0.16429377 -0.041707482 0.056006998 0.0013302623
0.081448525 0.19364128 0.2722847 -0.63925874 0.18216023 0.20275174 0.2219911 0.026053354
-0.11597351 -0.1983676 0.19575098 0.043179728 -0.09328364 0.09611494 0.116457015 0.35381794
0.0108116865 0.04380732 -0.0384267 0.037102476 0.17975579 -0.13361935 0.077252045 -0.059709966
-0.0693965 0.046480343 0.25890312 0.183304 0.18344885 -0.078991614 0.077228606 -0.10784384
-0.01244691 0.1790003 0.024063244 0.0693567 0.16639717 0.12725775 0.08749978 -0.24217129
0.12111812 0.06572011 0.06969551 -0.03290498 -0.034292847 0.08542195 -0.09756088 0.033611193
-0.08142384 0.15282601 -0.08257596 0.119284935 0.15404858 -0.05057333 0.12425902 0.14638992
-0.10306127 0.10942375 0.036781732 0.21941173 0.124670856 -0.10029196 0.015065703 0.117516585
-0.09998214 0.09463576 -0.016579054 -0.21512842 0.07263862 0.15812242 0.1762173 0.01910673
0.041519642 -0.16638197 0.17450671 -0.0049385666 0.0058995695 -0.030855794 -0.066502176 0.09396756
0.05701241 -0.056985874 -0.07221056 -0.05506184 0.16788599 0.09069377 0.10443871 0.26008397
-0.12631477 0.10364171 0.12501352 0.12381865 0.113630615 0.029160907 0.06404086 -0.015235143
0.11271756 0.11416827 0.063780464 0.11441438 -0.029591944 0.06129963 0.096417695 -0.20644894
0.15541632 -0.056932915 0.07103313 -0.00381619 -0.06647268 0.11883099 0.037172586 -0.0003145337
-0.008478809 0.1280844 0.055641823 0.04677797 -0.11475119 0.06957644 0.24131502 0.17803921
0.021428362 0.060977325 0.032182876 0.15541857 0.17657259 0.1379357 -0.106880896 0.11599941
-0.023697063 0.123477116 0.10455525 -0.05877241 0.15401974 -0.016330669 0.051967397 0.13856484
0.03678304 -0.19817437 -0.004700464 -0.11320391 -0.035547223 -0.08720188 -0.03979081 0.16520582
-0.06798389 -0.066725865 0.02782294 0.048243877 0.12799093 0.048992343 0.20786405 0.13112631
0.081552595 0.05409143 0.2811639 0.04486873 0.18852924 0.17520905 0.027493404 -0.010855583
0.0937854 0.20005046 -0.023915414 0.047476366 0.08380182 0.11283912 -0.100960396 -0.050382916
0.17602009 0.10655707 0.08717752 -0.08334472 -0.122868866 0.05852125 0.005993873 -0.041895524
-0.0010400987 -0.019520495 -0.0221595 -0.023465302 -0.058012787 0.111082494 0.13160947 0.14307284
0.025381396 -0.011465213 0.062316116 0.021447385 0.07767045 0.0529024 0.06700876 0.12443156
-0.07355894 0.10369612 0.016339611 -0.19406563 0.22126304 0.09458769 0.099128835 0.19766462
00000000: 3079 cc3c 0d9d 60be fbdf 073e 8170 b63d
00000010: c3f1 9b3d f503 833e 3ab2 8ebd d9f6 ff3e
00000020: 1f71 b73d fb7f 62be f551 cabd 72f7 db3d
00000030: f66c 603e 18cf f73d 12a6 143e d89d 22bf
00000040: 1f6d 85bd 022e 29bd 22fc 893e 5520 183e
00000050: e7bf 603e 9015 a83d b9e4 f83d 306a f03d
00000060: 5c34 b8bd 4b18 543e 6c41 053c 9477 613d
00000070: c0ae 9c3e 106d 493e 5c21 89bd fb25 83be
00000080: c30f 393e d576 99bd 1c30 513d 1fa4 1a3d
00000090: 165b 99bd 9746 533d 87a9 cabd 8010 f3bd
000000a0: 7e7d 0ebb d726 e83c c066 dcbd bb01 1e3e
000000b0: 6cee 40bd 12a0 debd 5632 2e3e f7ab 2a3e
000000c0: 301d 9bbd 5cbd 723e 76f4 74bd fe4e 813e
000000d0: a03c 283e 77d5 2abd 9867 653d 325c ae3a
000000e0: 7cce a63d e649 463e e668 8b3e 76a6 23bf
000000f0: 3688 3a3e 279e 4f3e a351 633e d86d d53c
00000100: 8583 edbd e020 4bbe f272 483e 3add 303d
00000110: 7e0b bfbd e9d7 c43d 0481 ee3d a027 b53e
00000120: 8023 313c 4e6f 333d 5165 1dbd c4f8 173d
00000130: e711 383e 83d3 08be 5236 9e3d 7092 74bd
00000140: c11f 8ebd 2c62 3e3d f38e 843e 0bb4 3b3e
00000150: 04da 3b3e 5bc6 a1bd 082a 9e3d 3bdd dcbd
00000160: 20ee 4bbc db4b 373e 4820 c53c e30a 8e3d
00000170: 0564 2a3e db4f 023e 1633 b33d c0fb 77be
00000180: c70c f83d 4498 863d 85bc 8e3d 5fc7 06bd
00000190: a876 0cbd b4f1 ae3d 00ce c7bd e4ab 093d
000001a0: 8bc1 a6bd 6c7e 1c3e 961d a9bd a94b f43d
000001b0: e9be 1d3e fb25 4fbd 837b fe3d 3de7 153e
000001c0: ca11 d3bd 8f19 e03d 71a8 163d 78ad 603e
000001d0: 6f53 ff3d df65 cdbd 23d6 763c 89ac f03d
000001e0: 70c3 ccbd 65d0 c13d ccd0 87bc a04a 5cbe
000001f0: 8fc3 943d d8ea 213e 4f72 343e b885 9c3c
00000200: 8010 2a3d 0960 2abe e3b1 323e b3d3 a1bb
00000210: 2d51 c13b 4ac5 fcbc 4b32 88bd 1072 c03d
00000220: d885 693d 056a 69bd 21e3 93bd 8688 61bd
00000230: 4eea 2b3e a8bd b93d f6e3 d53d ba29 853e
00000240: a958 01be 1b42 d43d 8b03 003e a294 fd3d
00000250: 2bb7 e83d dbe2 ee3c db27 833d d29c 79bc
00000260: 77d8 e63d 0ed1 e93d 559f 823d 1652 ea3d
00000270: ce6a f2bc 5215 7b3d a476 c53d 5a67 53be
00000280: 7525 1f3e 7d32 69bd d179 913d 0b19 7abb
00000290: d422 88bd a95d f33d 4842 183d 00e8 a4b9
000002a0: b4ea 0abc 8f28 033e aee8 633d 429a 3f3d
000002b0: ac02 ebbd 187e 8e3d 491b 773e e94f 363e
000002c0: 888a af3c 5cc3 793d 31d2 033d 0c26 1f3e
000002d0: 72cf 343e 043f 0d3e 5fe4 dabd 1991 ed3d
000002e0: 5820 c2bc 92e1 fc3d 1021 d63d 57bb 70bd
000002f0: 5ab7 1d3e e5c7 85bc c4db 543d f1e3 0d3e
00000300: d0a9 163d 39ee 4abe 5a06 9abb 74d7 e7bd
00000310: f799 11bd e696 b2bd b0fb 22bd b72b 293e
00000320: 233b 8bbd 92a7 88bd efec e33c 5f9b 453d
00000330: 0e10 033e 32ac 483d 50da 543e fa45 063e
00000340: 0c05 a73d fa8e 5d3d b7f4 8f3e 46c8 373d
00000350: cf0d 413e 006a 333e d939 e13c 9ddb 31bc
00000360: 8f12 c03d 07da 4c3e 42ea c3bc 9476 423d
00000370: 4aa0 ab3d 3218 e73d 53c4 cebd 515e 4ebd
00000380: 9c3e 343e 983a da3d 218a b23d a3b0 aabd
00000390: aca2 fbbd fab3 6f3d 4068 c43b a49a 2bbd
000003a0: ec53 88ba 72e9 9fbc d787 b5bc 4e3a c0bc
000003b0: d19e 6dbd 387f e33d a2c4 063e b081 123e
000003c0: a5ec cf3c 97d8 3bbc 2f3f 7f3d 6db2 af3c
000003d0: af11 9f3d 30b0 583d e43b 893d f9d5 fe3d
000003e0: 12a6 96bd a25e d43d a6da 853c 24b9 46be
000003f0: c792 623e 31b7 c13d 0f04 cb3d 9868 4a3e

fc_A.bias f4 [20]
0.9248819 0.48350278 0.34493536 0.32003915 0.41841224 0.3660864 0.007881464 0.016849866
0.033983633 0.034281544 -0.05282802 -0.2660117 -0.36572522 -0.3051776 -0.2626693 -0.41246444
-0.48341897 -0.5993498 -0.52765644 -0.81360847
00000000: 0fc5 6c3f ad8d f73e 5e9b b03e 2cdc a33e
00000010: 213a d63e ad6f bb3e 4221 013c bb08 8a3c
00000020: 6c32 0b3d ce6a 0c3d 3262 58bd af32 88be
00000030: 5640 bbbe 3d40 9cbe 977c 86be 8a2e d3be
00000040: b182 f7be fd6e 19bf 7e14 07bf a548 50bf

fc_V.weight f4 [1, 64]
0.081279054 -0.42298004 -0.15027034 -0.023195067 0.06292298 -1.3390882 0.09311028 0.27417755
0.060399145 -0.07645993 0.04498208 -0.09182346 0.22373071 0.08846627 0.4866294 -1.2459717
0.059191052 0.021307651 0.26991156 0.5602423 0.19107188 0.37059003 -0.10300045 0.108983494
-0.038460642 0.1160895 0.034735728 -0.08660932 0.33774105 -0.14182284 0.09605785 -0.91996163
-0.13110562 0.045659073 -0.016114864 0.030484932 0.009350508 0.045590624 0.11364145 0.007767752
0.0008734757 0.15484828 -0.32449695 0.19769122 -0.10763517 -0.096046984 0.03720471 0.1461486
0.023950344 0.1211202 -0.2585767 -0.023327759 0.076996766 -0.04668033 0.018351 0.06845476
0.08045675 -0.2228431 0.4904746 -0.24154946 0.016719535 -0.036551878 0.1323944 0.29942453
00000000: a275 a63d d790 d8be 78e0 19be 9503 bebc
00000010: c3dd 803d 3e67 abbf 9ab0 be3d 0061 8c3e
00000020: 1865 773d 0697 9cbd 213f 383d f00d bcbd
00000030: aa19 653e ce2d b53d 7d27 f93e 007c 9fbf
00000040: 5172 723d 628d ae3c d931 8a3e 0a6c 0f3f
00000050: 59a8 433e fabd bd3e e6f1 d2bd bd32 df3d
00000060: e888 1dbd 55c0 ed3d 0d47 0e3d 3a60 b1bd
00000070: 65ec ac3e 023a 11be fab9 c43d 9b82 6bbf
00000080: 8d40 06be 0205 3b3d 5203 84bc 89bb f93c
00000090: e032 193c 3cbd 3a3d d9bc e83d a088 fe3b
000000a0: f6f9 643a 8c90 1e3e 7724 a6be 916f 4a3e
000000b0: d46f dcbd 48b4 c4bd f763 183d fba7 153e
000000c0: 8333 c43c de0d f83d 2a64 84be db19 bfbc
000000d0: 7bb0 9d3d e033 3fbd d654 963c 0232 8c3d
000000e0: 82c6 a43d fb30 64be 7d1f fb3e be58 77be
000000f0: 68f7 883c 6cb7 15bd 6692 073e 2c4e 993e

exp_avg f4 [64, 3]
0.0 0.0 0.0 -42.71597 -93.87347 -93.88714 12.401708 18.755257
59.197815 66.814804 90.86764 71.64968 -33.031445 -77.19117 -157.90323 -22.594034
-47.87441 -52.45274 -14.63341 -19.397196 -21.934237 17.835497 30.720535 15.552262
-7.155972 -15.664726 -17.94571 0.0 0.0 0.0 -42.03054 -97.09851
-112.10248 3.379288 3.2140272 4.488032 -38.92551 -65.225006 -87.803925 -1.0571433
-2.3034976 24.140713 -27.89225 -60.593113 -54.129524 -6.636027 -4.8842745 -31.245708
0.0 0.0 0.0 0.0 0.0 0.0 6.136299 10.799405
25.819864 0.6153622 -2.7509975 23.023888 33.260178 48.234776 -5.309399 0.0
0.0 0.0 0.0 0.0 0.0 18.528315 24.012651 18.160288
0.0 0.0 0.0 -3.604312 6.6324377 14.908965 34.20234 68.423935
55.856453 -0.8223778 -9.211888 26.302153 3.3183136 5.8513117 43.91382 0.5857571
-1.9455281 14.785704 -1.5853237 -6.421542 -13.664481 -3.8536086 -83.53563 -74.42054
0.0 0.0 0.0 6.456685 8.642855 24.577234 -24.741255 -51.28116
-58.902977 2.3990297 3.7815273 14.815423 0.0 0.0 0.0 -15.350624
-22.649399 -41.651455 2.740932 0.3081234 9.1545315 0.0 0.0 0.0
-0.8080414 8.248838 -69.373 0.0 0.0 0.0 0.0 0.0
0.0 -11.235022 -4.6976404 -11.8627 -1.2318747 -11.058087 41.242485 -8.669463
-14.225959 -44.874847 132.03363 165.00235 49.4956 -31.734356 -64.06766 -86.25436
0.26209888 7.533984 36.306885 0.0 0.0 0.0 4.197754 6.89937
24.744568 0.0 0.0 0.0 0.0 0.0 0.0 -0.30696064
-1.5514477 -0.8659338 9.312505 14.890451 34.248817 2.0865235 -3.7584596 -12.819059
-2.308035 -35.839394 -15.323742 0.0 0.0 0.0 1.6235727 6.2888684
0.24978904 6.603908 3.5886972 26.02731 -5.5086064 -2.8292496 -20.955055 0.0
0.0 0.0 0.97115874 -2.0748491 19.516539 -3.2994099 -3.775786 -5.794285
00000000: 0000 0000 0000 0000 0000 0000 27dd 2ac2
00000010: 37bf bbc2 37c6 bbc2 656d 4641 c40a 9641
00000020: 90ca 6c42 2ea1 8542 3bbc b542 a34c 8f42
00000030: 3320 04c2 e161 9ac2 3ae7 1dc3 95c0 b4c1
00000040: 657f 3fc2 9bcf 51c2 7322 6ac1 752d 9bc1
00000050: 5179 afc1 19af 8e41 a8c3 f541 11d6 7841
00000060: b9fd e4c0 b8a2 7ac1 d090 8fc1 0000 0000
00000070: 0000 0000 0000 0000 461f 28c2 7032 c2c2
00000080: 7834 e0c2 4146 5840 9fb2 4d40 f59d 8f40
00000090: b9b3 1bc2 3473 82c2 9c9b afc2 7950 87bf
000000a0: 816c 13c0 2e20 c141 5423 dfc1 595f 72c2
000000b0: a284 58c2 555a d4c0 fa4b 9cc0 36f7 f9c1
000000c0: 0000 0000 0000 0000 0000 0000 0000 0000
000000d0: 0000 0000 0000 0000 905c c440 5dca 2c41
000000e0: 158f ce41 6188 1d3f 5810 30c0 ec30 b841
000000f0: 6c0a 0542 69f0 4042 99e6 a9c0 0000 0000
00000100: 0000 0000 0000 0000 0000 0000 0000 0000
00000110: 0000 0000 fd39 9441 e919 c041 4548 9141
00000120: 0000 0000 0000 0000 0000 0000 0cad 66c0
00000130: ee3c d440 1f8b 6e41 32cf 0842 0ed9 8842
00000140: 026d 5f42 5a87 52bf e563 13c1 cf6a d241
00000150: 405f 5440 f23d bb40 c0a7 2f42 2df4 153f
00000160: 1107 f9bf 3e92 6c41 e3eb cabf 467d cdc0
00000170: b7a1 5ac1 86a1 76c0 3e12 a7c2 51d7 94c2
00000180: 0000 0000 0000 0000 0000 0000 2a9d ce40
00000190: 2249 0a41 2d9e c441 17ee c5c1 e81f 4dc2
000001a0: a69c 6bc2 b489 1940 8b04 7240 f90b 6d41
000001b0: 0000 0000 0000 0000 0000 0000 289c 75c1
000001c0: f831 b5c1 179b 26c2 6e6b 2f40 5ac2 9d3e
000001d0: f678 1241 0000 0000 0000 0000 0000 0000
000001e0: cddb 4ebf 3efb 0341 fabe 8ac2 0000 0000
000001f0: 0000 0000 0000 0000 0000 0000 0000 0000
00000200: 0000 0000 a6c2 33c1 1253 96c0 9fcd 3dc1
00000210: 12ae 9dbf eded 30c1 4ef8 2442 1fb6 0ac1
00000220: 879d 63c1 d87f 33c2 9c08 0443 9a00 2543
00000230: 7ffb 4542 f6df fdc1 a422 80c2 3b82 acc2
00000240: d331 863e 6616 f140 403a 1142 0000 0000
00000250: 0000 0000 0000 0000 0054 8640 a4c7 dc40
00000260: e0f4 c541 0000 0000 0000 0000 0000 0000
00000270: 0000 0000 0000 0000 0000 0000 f229 9dbe
00000280: d795 c6bf d6ad 5dbf 0500 1541 4a3f 6e41
00000290: cafe 0842 9a89 0540 9a8a 70c0 de1a 4dc1
000002a0: d8b6 13c0 8a5b 0fc2 0c2e 75c1 0000 0000
000002b0: 0000 0000 0000 0000 3bd1 cf3f 693e c940
000002c0: b3c8 7f3e 3753 d340 37ad 6540 ee37 d041
000002d0: 8146 b0c0 6d12 35c0 f4a3 a7c1 0000 0000
000002e0: 0000 0000 0000 0000 dc9d 783f 54ca 04c0
000002f0: df21 9c41 8829 53c0 7aa6 71c0 c86a b9c0
