beergame/double_dueling_dqn/models/dqn_agent_firm_1_episode_4000.pth (torch, 105254 bytes, 28 tensors)

fc1.weight f4 [64, 3]
000000 66 2d 13 bf 38 c9 fd bd 26 f0 a4 be 9a 70 f7 bc
       -0.5749115 -0.12391895 -0.3221447 -0.03020506
000010 26 a4 27 3d e6 94 77 3d 3c 8f d0 be b7 36 d7 be
       0.04092803 0.060444735 -0.4073428 -0.42033932
000020 4f 3d a1 3e be 3b 68 3e 92 02 1d 3e 33 cb 60 be
       0.31492087 0.2267904 0.15333012 -0.21952514
000030 9e e3 60 be 1c 4c b3 bd b4 6f 83 3d 9e 5e 7d bc
       -0.21961829 -0.08754751 0.0641779 -0.015464453
000040 eb 58 04 3e 31 78 9f 3c 73 1b a1 be e2 2e ad 3d
       0.12924545 0.019466491 -0.31466255 0.08456208
000050 d6 29 35 bd 7a e4 d8 3e ce 20 12 3e 16 6a ea bd
       -0.04422935 0.42361814 0.14270326 -0.114460155
000060 d0 d6 bd 3d 78 c9 d4 be b2 83 39 be e0 3b 74 bd
       0.09269488 -0.41559958 -0.18116644 -0.059627414
000070 76 65 fd be 46 73 68 be da 20 4e be a4 21 ee 3d
       -0.4949147 -0.22700223 -0.2012972 0.1162751
000080 02 16 f1 3d ac 73 fa 3d 17 b9 57 bf 67 17 1b bd
       0.11771776 0.12229094 -0.842668 -0.037864115
000090 82 cb aa 3e a5 5a bd be 4f c0 25 3e 05 a3 10 3f
       0.3335839 -0.3698322 0.16186641 0.5649875
0000a0 53 63 20 3f 71 0b f8 3d ac b0 93 bd e4 a1 90 bd
       0.62651557 0.12111557 -0.07211432 -0.07062128
0000b0 20 e1 ce 3c 3e 08 5d be e6 6f ee bd f0 97 89 be
       0.025253832 -0.21585175 -0.11642437 -0.26873732
0000c0 f0 98 a6 be 95 fd 95 be e8 73 09 bf b1 0d 95 be
       -0.32538557 -0.2929503 -0.53692484 -0.29112008
0000d0 1a 41 0f bf 60 2e 9e bd 58 d9 6b ba 71 7a ed be
       -0.5595871 -0.07723689 -0.00089969253 -0.46382478
0000e0 1b b4 a8 3c ec 87 10 be 5e a6 e1 3e b1 04 5b 3e
       0.020593693 -0.1411435 0.4407224 0.21388508
0000f0 d4 f1 a8 3d c1 23 1a 3e b3 d8 14 be b0 f4 ed bd
       0.0824925 0.15052702 -0.14535789 -0.11618936
000100 12 a8 3b be f0 56 b6 be 82 aa c5 3e 00 60 bd b8
       -0.18325832 -0.35613203 0.3860665 -9.030104e-05
000110 2e 82 08 bf 9f b0 f2 3d 16 04 30 3d 4a 94 82 be
       -0.5332364 0.11850094 0.042972647 -0.2550376
000120 30 bf fb 3d 9c cc b2 be df ed f6 be 70 68 14 be
       0.122923255 -0.3492173 -0.48228356 -0.14492965
000130 66 f6 96 3e d2 fb 1a be 2f 9d 1e be 03 34 b0 3e
       0.29484862 -0.15135124 -0.15489648 0.34414682
000140 95 11 82 bd c1 09 42 be e4 d3 7a 3e 39 15 a4 3e
       -0.0635101 -0.18949033 0.24494892 0.32047442
000150 bc 02 24 bf ee 47 9a bf d1 24 69 bc 6a 96 91 be
       -0.6406667 -1.2053201 -0.014229969 -0.2843507
000160 dd c9 9d 3d bb 49 82 be ec 5a c3 be d0 5c 6c be
       0.07704518 -0.25446877 -0.38155305 -0.2308228
000170 4f f6 8d bd 2e 98 8f be 45 aa d2 bc 47 cd 8c 3d
       -0.06931745 -0.2804579 -0.025715956 0.06875091
000180 30 d4 f6 be a0 85 48 bd 4f 23 e5 be 19 07 01 3f
       -0.4820876 -0.04895556 -0.447535 0.50401455
000190 be 82 da be f8 72 05 3e cd b4 ea 3e bd 18 4a be
       -0.42677873 0.13032138 0.45841065 -0.19736
0001a0 92 d5 cc 3d f6 75 87 bf 64 7a 2b bf 96 78 4e 3c
       0.10001673 -1.0582874 -0.6698363 0.012601992
0001b0 40 4f 84 3d f8 58 cb bd 0a 39 53 be bc 9e 96 bd
       0.06460428 -0.09929079 -0.20627227 -0.07354495
0001c0 a9 4c 9f bd 0d c4 41 be b9 31 57 bf b1 da 8c bf
       -0.07778294 -0.18922444 -0.84060246 -1.1004239
0001d0 cc 52 9b bb aa f1 b9 be 40 35 50 3c 8c 34 f1 be
       -0.0047400948 -0.36317188 0.012708008 -0.47110403
0001e0 44 22 07 be 2a 41 86 be 7a b2 c0 bd 28 58 01 3e
       -0.13196665 -0.2622159 -0.09409042 0.12631285
0001f0 a7 48 ed be b6 98 c3 be 6c 42 9c 3e 3d 91 97 be
       -0.46344492 -0.38202447 0.30519426 -0.29602996
000200 72 e5 8e be 83 92 ad 3e d3 3f 3b bf c3 0d a3 be
       -0.27909428 0.33900842 -0.73144263 -0.31846437
000210 71 93 63 3e e5 e1 b4 3e c4 20 ab 3e c3 53 2d be
       0.22224213 0.35328594 0.33423436 -0.16926484
000220 11 d8 9d 3d b8 db 27 be 8b 70 01 3d c5 7c 9a 3d
       0.07707227 -0.1639241 0.03160147 0.07543329
000230 60 ea 8c bd 6a 66 e7 be 11 bb 32 3e 90 3d 0c 3d
       -0.06880641 -0.45195323 0.17454173 0.034238398
000240 d7 6e ae be cd 4b dd 3e ef b8 06 be 0e 56 81 3e
       -0.3406894 0.43221894 -0.13156484 0.25260967
000250 48 b8 ee be 8d bb b4 be 3b f0 a3 bf 8a 5e 14 3e
       -0.4662497 -0.3529934 -1.2807688 0.14489189
000260 1f a7 03 bd c2 15 64 be 83 70 f2 be 3f 76 df be
       -0.0321418 -0.22273925 -0.47351465 -0.43644902
000270 18 6e e7 be e6 a9 db be d0 be b3 bd e3 a7 11 be
       -0.45201182 -0.4290306 -0.08776629 -0.142242
000280 5e eb 92 3e dc 73 0a bf 27 87 ce 3d d7 7a 55 bf
       0.28695196 -0.5408304 0.10084372 -0.83390564
000290 19 5f 14 bc b8 23 0e bd e7 7e 7e 3b a3 51 80 be
       -0.009055876 -0.034702033 0.0038832964 -0.25062284
0002a0 07 6b 81 bf b5 e8 10 3d 67 62 ae be 6a a2 84 3e
       -1.0110787 0.035378177 -0.3405945 0.25905162
0002b0 4a f9 c7 be b9 0c 0a bf a8 c4 85 bd 51 1f 6f 3e
       -0.3905738 -0.53925663 -0.0653165 0.2335179
0002c0 db 2a c0 be ca 1d 36 bf b5 78 24 bf 39 8a 42 3e
       -0.37532696 -0.71139205 -0.64246684 0.1899804
0002d0 50 b9 cb be 59 c0 4c bf 70 37 2f bd 10 bd b4 3d
       -0.3978982 -0.79981 -0.04277748 0.08825123
0002e0 96 c2 01 be 08 20 e2 be 41 97 c4 3e c2 4a 89 bc
       -0.12671885 -0.44165063 0.38396648 -0.01675928
0002f0 ba aa fe 3d 63 32 8b 3c 33 3f 1a bf 47 6a 3d bd
       0.12434907 0.0169918 -0.60252684 -0.046243932

fc1.bias f4 [64]
000000 17 80 96 be 0b 7c 67 40 62 aa 2f c0 50 e1 27 40
       -0.293946 3.616946 -2.7447743 2.623127
000010 3a e2 6d 40 6f 2b 34 40 87 96 8b 3f a3 12 20 40
       3.7169328 2.815151 1.0905312 2.5011375
000020 3a af e2 3f 7c 8d ff 3e 90 e9 5b 40 21 23 49 bf
       1.7709725 0.49912632 3.4361305 -0.7856923
000030 f3 c6 68 40 06 eb 15 c0 66 49 2b 40 5a 35 0c 40
       3.637143 -2.3424697 2.676355 2.1907563
000040 7c 38 cf 3e b0 7f c9 3d 7b ee 04 c0 0b 9f f5 bf
       0.40472782 0.098388076 -2.0770557 -1.9189161
000050 de 11 53 40 2e de 93 3e 34 0f e2 bd 5c bf 3d 40
       3.2979655 0.28880447 -0.11038056 2.9648046
000060 56 34 cc 3e 8c 84 0e be eb 91 43 40 8a e4 b7 bf
       0.3988368 -0.1391775 3.0557811 -1.436662
000070 ad 27 9c 3f 6b eb c9 bf 99 36 0d 40 27 c3 66 40
       1.2199608 -1.5774969 2.2064574 3.6056612
000080 88 5c 99 3e b8 07 0b c0 92 03 18 40 a7 ed ed bf
       0.29953408 -2.172346 2.375218 -1.8588151
000090 fa 4c 05 bf 24 48 23 40 c2 3f b8 3e 49 6b a3 be
       -0.5207058 2.551278 0.35986143 -0.3191779
0000a0 08 28 5a 40 88 37 7e be 9c 8a c7 be 48 44 69 3e
       3.4086933 -0.24825871 -0.38972938 0.22779953
0000b0 f8 2c 22 c0 42 ed 63 40 97 0c 4e 40 15 4a 50 40
       -2.5339947 3.561356 3.2195184 3.2545216
0000c0 d1 cd 3a c0 9a 82 bd 3e 66 24 0f c0 a0 11 30 3e
       -2.918812 0.37013704 -2.2365966 0.17194223
0000d0 0f 0f db be 21 6a 10 3f bd 78 28 c0 4a c6 02 40
       -0.42784926 0.5641194 -2.6323693 2.0433526
0000e0 37 5f 2a 40 f5 1a 13 bf e7 03 1f 40 b0 2b 90 bf
       2.6620615 -0.5746301 2.4846132 -1.1263332
0000f0 b4 8d 12 40 e8 31 c1 be 53 98 c7 bf 1b 5e 4d 3f
       2.2898989 -0.37733388 -1.5593361 0.8022172

fc2.weight f4 [64, 64]
000000 30 7a 03 bc e4 bc 02 bd 18 c3 d4 3d 78 2f 98 bd
       -0.008024737 -0.03191842 0.10388774 -0.07430929
000010 19 bf 77 3d b6 52 16 be 64 79 7d 3d e6 7f 30 3d
       0.06048498 -0.14679989 0.061883345 0.043090723
000020 9e e8 b1 bd 80 8a a1 ba d2 0a fa bc 16 28 fa 3d
       -0.08686946 -0.0012324601 -0.030522738 0.12214677
000030 66 aa 17 bc 02 82 c1 bc 61 b3 0e be 36 f7 f4 3d
       -0.009256935 -0.023621563 -0.13935615 0.11961214
000040 ec 97 d1 bd 38 23 a9 3c 96 78 8d 3d 24 46 a6 bd
       -0.10234055 0.020646676 0.069077656 -0.08118847
000050 0d 46 97 3d 00 cb 86 bb b0 63 ba 3d cc b0 eb bd
       0.07386408 -0.004113555 0.09101045 -0.11508331
000060 c0 76 23 bc ee 1e 8c bd 79 0d 68 3b 62 6d 08 be
       -0.009977043 -0.06841837 0.003540842 -0.13322976
000070 80 57 89 3a 80 9b 69 3d 68 6b 5a bd 6c aa ab 3d
       0.0010478348 0.057033062 -0.053325087 0.08382115
000080 94 28 2e 3d 24 49 91 bc 22 e2 67 3d 82 9b 80 bd
       0.042519167 -0.017735071 0.05661214 -0.06279661
000090 60 cc 37 3c 9a 63 fd bd a8 84 fb bd 78 49 af 3d
       0.01121816 -0.12372513 -0.122811615 0.08558935
0000a0 d1 de b0 bd bc 09 72 bd ec 83 3e bd 9e 17 e0 3d
       -0.08636249 -0.059091315 -0.04651253 0.109420046
0000b0 e7 62 d9 bd de 3f e7 bd 41 32 94 bc 20 61 f0 bd
       -0.10614567 -0.112914786 -0.01809037 -0.11737275
0000c0 7e c5 e1 bd 60 13 f8 3d c4 7c 71 3d 80 16 d2 bb
       -0.11023997 0.121130705 0.058956876 -0.0064113736
0000d0 fe 06 e4 bd 3e f5 d4 3d a0 a8 48 3c c4 3b 45 bd
       -0.11134146 0.10398339 0.012247235 -0.0481527
0000e0 90 86 94 bd 68 e1 f1 3c ec b6 2a 3d c8 fb d2 bd
       -0.07252228 0.029526427 0.041678354 -0.1030193
0000f0 92 bf 95 3d 38 40 f7 3c da 92 18 be 5d 52 8a 3c
       0.0731193 0.03018199 -0.1489977 0.016884977
000100 84 44 ab 3d 37 6e e0 3e a8 d8 7a be cc 6c fb 3e
       0.08362678 0.43834087 -0.2449671 0.49106443
000110 18 65 87 3f f6 b1 f5 3d 03 fa 86 be dc 44 7e be
       1.0577726 0.11996834 -0.2636262 -0.24830955
000120 48 10 28 bf 00 12 7a 3d ea d5 9d 3e 0b 7d 1b be
       -0.65649843 0.061052322 0.30827266 -0.15184419
000130 0c d9 26 3e c4 5f 0f bf 49 c4 3f 3e 27 d4 ad be
       0.16293734 -0.560055 0.1872722 -0.33950922
000140 32 08 fd 3d 44 50 d7 bd 20 29 34 be 05 a9 f6 be
       0.12355079 -0.10513356 -0.17593813 -0.48175827
000150 d7 96 cf bd 50 e4 a1 3c 18 8f da bd b9 6c 34 3e
       -0.10136192 0.019762188 -0.10671824 0.176196
000160 e0 55 0c bc 6e 97 3b be 47 0a 86 be f0 b6 8e be
       -0.008565396 -0.18319485 -0.26179716 -0.27873945
000170 2d 8d 86 3f 66 6a e9 be a9 a8 84 3e 96 ee 3a 3f
       1.0511833 -0.45588988 0.25909927 0.73020303
000180 7c 70 cc 3d 6d 3e bc be 67 7b 44 3e 06 6e 00 3e
       0.09982392 -0.36766377 0.191877 0.1254197
000190 20 22 95 bb 28 63 68 3e d5 0e 98 3e d4 de b6 bd
       -0.004551187 0.22694075 0.29698816 -0.0892922
0001a0 32 d6 c7 bd 2e 66 89 bd de ef be 3d e6 7a 05 be
       -0.097576514 -0.06708942 0.09323095 -0.13035163
0001b0 9f c9 05 bf 73 04 54 3e f5 d3 62 3f 25 2e a4 3e
       -0.52260774 0.20704822 0.8860467 0.32066455
0001c0 9d e5 e9 be 00 04 79 39 ee e7 7d be 00 0a fc ba
       -0.45682994 0.0002374798 -0.24795505 -0.0019229054
0001d0 f8 19 c4 3d 76 c0 49 bf 09 24 8f 3c e6 49 45 3e
       0.09575266 -0.788093 0.017473238 0.19266471
0001e0 11 48 a4 3e a6 92 b0 3d 54 70 29 bf 59 4e ba 3e
       0.32086232 0.08621721 -0.66187024 0.363879
0001f0 8c e4 50 3f 40 e6 3b bd 23 77 45 be 9f da ec 3e
       0.81598735 -0.04587388 -0.19283728 0.46260545
000200 f2 56 d7 bd 89 02 04 bf 08 28 8d 3c 85 34 7b 3e
       -0.105146304 -0.5156637 0.017231002 0.24531753
000210 2e d7 01 bf 6a 91 99 bd aa 01 39 be ed ef cb be
       -0.50718963 -0.07498439 -0.18067041 -0.39831486
000220 4a cb e7 bd 68 f9 4a 3d 0c 98 b3 be 18 62 23 be
       -0.11318071 0.04955426 -0.3507694 -0.15955389
000230 e4 e5 b4 be f4 32 7c 3e 1e e0 94 be 08 d3 19 bf
       -0.35331643 0.24628812 -0.29077238 -0.60087633
000240 80 57 a6 bc 10 f9 f9 bd 20 e9 4b bd d4 02 61 3e
       -0.020305395 -0.12205708 -0.049782872 0.21973735
000250 b5 45 36 bf 58 b7 9f bc b0 9a 3b 3c 7e 5a 63 3f
       -0.71200114 -0.019496605 0.011450455 0.88809955
000260 d8 5f 35 bd 2e 41 22 be 2d 8d bd be 83 b3 74 3d
       -0.044280857 -0.15845177 -0.3702177 0.05974151
000270 5b 79 3e bf 37 e4 e8 3d 3f 6b 7c be 81 98 08 bf
       -0.74403924 0.113716535 -0.24650286 -0.533577
000280 be cf e8 bd 24 73 0e 3e b1 85 0d be 48 75 b2 bc
       -0.11367749 0.1391111 -0.1382053 -0.02178444
000290 10 43 6c 3d 44 f7 97 be bd 4c 9a be e0 0e 03 bd
       0.057681143 -0.29680836 -0.30136672 -0.031996608
0002a0 9d e2 0a bf 98 9a 03 bd 00 5c 3f 3a aa f6 d0 be
       -0.54252034 -0.032129854 0.0007299781 -0.4081319
0002b0 38 c8 c1 3d 02 e6 90 be 7c b1 21 bf 9e 98 ba be
       0.09462017 -0.28300482 -0.63161445 -0.36444563
0002c0 fe 9a 2d 3e a0 8c a8 bb e1 ac f9 3d da 62 98 3d
       0.16953656 -0.005143717 0.12191177 0.074407294
0002d0 08 d3 a5 bc 52 38 73 bd 0c 0c e7 3c 0f a8 5a be
       -0.02024223 -0.059379883 0.028203987 -0.21353172
0002e0 b8 8d b1 be bc 1e 32 3d 8c 52 a9 3e 6c a9 a0 bd
       -0.34678435 0.04348634 0.3307079 -0.07844815
0002f0 f8 ca e9 be 88 22 08 3d 8d 19 52 3e 7c 3e 3c be
       -0.45662665 0.033236057 0.2051756 -0.18383211
000300 9e 11 df bd 0b 1a 3a 3d 43 5e 71 3d f2 55 5a bd
       -0.10892032 0.045434993 0.058927786 -0.05330462
000310 dc 08 e7 bc df 03 0b bc 90 bc e7 3c 5a 97 aa bd
       -0.028202467 -0.00848481 0.028288156 -0.08329649
000320 3d f0 30 bd 6c 0a 98 bd fe 87 8b bd be e1 9b bd
       -0.04319786 -0.07423863 -0.06813048 -0.07611416
000330 58 73 88 3d 31 6a 75 bd 5f 75 9a bd c3 04 b1 bd
       0.06662625 -0.059915725 -0.07541918 -0.08643486
000340 40 44 45 bd 28 0d 92 bc c9 04 ef bd 68 b2 13 bd
       -0.04816079 -0.017828539 -0.116708346 -0.036058813
000350 ad 72 4b bd d0 f3 55 3c 2e 14 e4 3d e8 63 89 3c
       -0.04966991 0.013058618 0.111366615 0.016771272
000360 90 e6 3c bc ed 6b fb 3c 5c 06 e4 bb 5a 54 c1 bd
       -0.01152958 0.030691111 -0.006958766 -0.09439917
000370 d5 e0 e7 bd 1a 8c e0 bc a2 45 84 3d 2c 44 3f bd
       -0.1132218 -0.027410556 0.06458594 -0.046695873
000380 76 0a ac 3d 16 f8 4a 3d d1 f4 a4 ba a3 59 37 3d
       0.08400433 0.049553 -0.0012585168 0.04476322
000390 9c 18 51 3d 58 55 d3 bd da 3a 07 bb 18 ca 7a 3d
       0.05104886 -0.103190124 -0.0020634443 0.061227888
0003a0 d5 ed a2 3b 46 9a f1 3d c0 b7 ca 3b 2e 00 03 bd
       0.0049721994 0.117970034 0.0061864555 -0.031982593
0003b0 d6 81 5d bd e6 50 d1 bd 60 d1 c3 3c 32 2c 84 bd
       -0.0540789 -0.10220508 0.023903549 -0.06453742
0003c0 93 d5 ca bd 28 79 ac 3d c5 ec a4 bb c0 7f e1 3d
       -0.09904017 0.08421546 -0.005033108 0.110106945
0003d0 44 77 6b 3d 90 78 0f be 03 83 fd bd 35 38 b6 bd
       0.057486787 -0.14010835 -0.12378504 -0.088974394
0003e0 5b 0c 93 bd 84 05 57 bd a0 63 ee bd cd cf 28 3d
       -0.07180091 -0.052495494 -0.11640096 0.0412138
0003f0 42 27 6a 3d 30 67 27 bc 56 6e c6 bd a9 e7 c0 3d
       0.057166345 -0.010217473 -0.09689014 0.09419186

fc2.bias f4 [64]
000000 fe 3a cb bd 20 39 86 3f 9c d6 05 bf 99 d2 07 be
       -0.09923361 1.0486183 -0.5228059 -0.1326393
000010 e4 2b 3d 3d fe 38 01 40 19 10 d1 bd 3f 3b 01 40
       0.046184435 2.0191035 -0.102081485 2.019241
000020 cd 96 1e 3d 98 1d 95 be 4f 67 d3 3d d1 db d7 3d
       0.038718034 -0.2912414 0.10322439 0.105399735
000030 8b 2d 0c 40 81 1e f8 3d 7c fb f8 3f e8 c5 fa 3f
       2.1902797 0.12115193 1.9451747 1.9591646
000040 be 89 fb bd c9 92 40 bb 39 e6 12 40 95 21 e0 3f
       -0.122821316 -0.0029384366 2.2953017 1.7510248
000050 c0 c1 08 40 61 4e c4 3f 0c 60 9f bd f3 50 0e bd
       2.1368256 1.5336419 -0.07781991 -0.034745168
000060 8c 5f 26 bd dc c6 f3 3f 7d 1f de bd 67 06 b2 3d
       -0.040618464 1.9045062 -0.1084585 0.086926274
000070 22 c3 04 40 3b 9a 02 be 6f 05 05 be 6e d8 ce 3f
       2.07441 -0.12754147 -0.12990354 1.6159799
000080 81 15 3f bd 02 0d c4 bd bf 58 27 be f3 53 85 3e
       -0.046651367 -0.095727935 -0.16342448 0.2604061
000090 5c 12 9f bd 7f 76 b5 bc a2 99 8e 3c ea dc c7 bd
       -0.07767174 -0.02215123 0.017407242 -0.09758933
0000a0 a5 00 19 bd 0d 63 8c 3f 20 90 d6 bf 6e 68 07 40
       -0.03735413 1.0967728 -1.6762733 2.115749
0000b0 4d 03 66 bf 78 b2 ca 3c cd fe d3 3f da 1c fe 3f
       -0.89848787 0.024743304 1.6562134 1.9852555
0000c0 1d e2 a5 3d 65 ca ec 3f a4 0a 75 bf 7f e9 61 3f
       0.08099768 1.8499266 -0.9571936 0.8824691
0000d0 02 b5 ee 3f 71 3b 59 3d fb 14 11 3d 2d 1f 96 3d
       1.8648989 0.053035203 0.0354204 0.07330165
0000e0 19 96 50 3b 15 a8 2e bf 79 4a 06 40 75 ec 64 3f
       0.0031827746 -0.6822522 2.0982955 0.89423305
0000f0 4e 4d a5 3f c1 e3 6b 3f cc 21 07 40 5d 9e df 3f
       1.2914217 0.921444 2.1114378 1.7470204

fc_A.weight f4 [20, 64]
000000 25 ab 67 3d e8 ab 22 3e 14 58 4f 3e b3 7d b3 3d
       0.0565597 0.1588589 0.20248443 0.087642096
000010 4f 97 6f 3d af a6 3a 3f da 97 83 bd e3 4f 00 3f
       0.05849391 0.7291059 -0.06425448 0.501219
000020 46 dd b5 3d cd 0b 1f be 96 54 c9 bd 73 fb bc 3e
       0.08880095 -0.15531845 -0.098305866 0.3691059
000030 42 fc 28 3e e4 64 fd 3d e5 4a f7 3d 32 00 16 bf
       0.16502479 0.12372759 0.12074832 -0.5859405
000040 83 dd c4 bd 61 1f 9d bd ab d9 65 3e f0 04 70 3e
       -0.096125625 -0.07672001 0.22446315 0.23439384
000050 c3 0c 17 3e 4d c3 8c 3a 1d fe f9 3d 46 ac 18 3e
       0.14750962 0.0010739357 0.122066714 0.14909467
000060 5c 34 b8 bd d2 f2 e4 3d 0d 62 8c bd 30 cc a2 3d
       -0.08994362 0.11179127 -0.06854639 0.07949102
000070 20 4b 81 3e f1 62 61 3e 19 dc 11 bd 18 49 d7 be
       0.25252628 0.220104 -0.035610292 -0.42047954
000080 ac f3 40 3e 68 f5 63 bd 33 f7 c3 3d b9 89 0f 3d
       0.18842953 -0.05565396 0.09568634 0.035043452
000090 16 5b 99 bd f4 83 a6 3d c2 49 bd bd 80 10 f3 bd
       -0.074880764 0.08130637 -0.09242584 -0.118683815
0000a0 7a f1 83 3a 69 39 41 be ab eb 69 bd 0e 1b bf 3d
       0.0010066472 -0.18869556 -0.057109516 0.09331332
0000b0 86 d7 9f bd 12 a0 de bd d8 30 27 3f 96 f1 e2 3d
       -0.0780478 -0.10870375 0.65308905 0.11081235
0000c0 fd 6e 91 bd ca 7e 12 3e 8f 36 fb 3d 0c c3 c9 3e
       -0.071012475 0.14306179 0.122662656 0.3940662
0000d0 9e d9 d9 3d d6 f3 27 bd b7 c7 29 3d e7 1a f5 bc
       0.1063721 -0.041004024 0.04145023 -0.029920055
0000e0 5a 79 d5 3c 8e 0d a2 3e 6b 8f a3 3e 30 0c 56 bf
       0.026058841 0.31650966 0.31945357 -0.83612347
0000f0 27 2d 06 3e 83 f6 3c 3f 21 cd 25 3e f8 55 bc bd
       0.13103162 0.7381365 0.16191532 -0.09196085
000100 7b cb ac bd 61 8d a4 3e 80 9c a3 3e 32 f8 2a 3d
       -0.08437248 0.32139114 0.31955338 0.041740604
000110 a4 50 01 be cb 44 ff 3e 72 9b f9 3d d3 f9 99 3e
       -0.12628418 0.49857172 0.12187852 0.30073413
000120 b6 c6 38 3c 84 a7 3a be 31 98 1b bd 98 f4 aa 3d
       0.011277845 -0.18227965 -0.037986938 0.08347434
000130 d9 55 6d 3e 94 00 0a be d9 05 8e 3b a5 4e 3b be
       0.2317728 -0.13476783 0.004334193 -0.1829172
000140 c1 20 5c bd c6 3a 71 3c df 3f 89 3e 40 36 07 3e
       -0.053742174 0.014723485 0.26806542 0.13204288
000150 70 d2 55 3e 44 96 03 bd 95 46 9f 3d 54 ee 9b bd
       0.20881057 -0.032125726 0.07777134 -0.07613817
000160 20 ee 4b bc 74 d4 53 3e 7d f3 ca 3b 5a b6 26 3e
       -0.01244691 0.20686513 0.006193577 0.16280499
000170 47 82 08 3e 3f 13 4a 3e 60 66 f3 3d 6a b5 c9 be
       0.13330947 0.19733904 0.11884761 -0.3939622
000180 62 f6 4e 3e 64 13 ae 3d 91 d7 c5 3d 21 32 09 bd
       0.20211175 0.08499792 0.09660257 -0.033495072
000190 a8 76 0c bd bd 80 ab 3c af 07 00 be e4 ab 09 3d
       -0.034292847 0.02093541 -0.12502931 0.033611193
0001a0 9f 42 ad bd 84 5a cf 3d 21 c5 99 be 0b ca b3 3d
       -0.084599726 0.10124686 -0.3003321 0.08778771
0001b0 69 a2 95 3e d8 25 4f bd 6e b5 91 3e 3c 63 3c 3e
       0.29225472 -0.0505732 0.28458732 0.1839723
0001c0 06 fd bc bd 6d e9 1c 3d 6d 8f 4b be bd c2 35 3d
       -0.09227948 0.03830855 -0.19878931 0.04437517
0001d0 07 87 0e 3e c4 ef ca bd aa e3 1d 3c d0 60 19 3e
       0.13918696 -0.09909013 0.009636799 0.14978337
0001e0 d0 04 19 be 3f cc 3a 3e 69 d6 0b be ee 08 a6 be
       -0.14943242 0.18241976 -0.1365601 -0.32428688
0001f0 be d4 89 3e 11 93 b0 3f 27 7a 53 3e af 5d 28 3d
       0.26920122 1.3794881 0.20652066 0.04110497
000200 89 bf 95 3d 74 0f 6f 3e ca 04 5f 3e 58 47 51 bb
       0.07311923 0.23345739 0.2177917 -0.0031933393
000210 cf 06 0f 3d 9f 9e 0f 3e 43 31 7a bd c4 20 a0 3e
       0.034918603 0.14025353 -0.061082136 0.31274998
000220 b3 6e 6b 3d db 03 94 be 6a 33 93 bd c2 77 31 be
       0.057478618 -0.2890919 -0.07187541 -0.1733084
000230 58 be 54 3e 66 1f bd 3d 77 e2 92 3d d2 b9 18 3e
       0.20775735 0.092345044 0.07172101 0.14914635
000240 58 b7 c3 bd 6c 37 93 3d 6c f2 fb 3d 84 95 77 3d
       -0.095564544 0.07188305 0.12302098 0.060445324
000250 c8 59 00 3e 35 29 93 3d c1 43 84 3d e1 62 3e bd
       0.12534249 0.07185594 0.064582355 -0.046481017
000260 72 d8 e6 3d 64 85 fe 3d f5 d9 0c 3d f4 d5 7e 3e
       0.112717524 0.12427786 0.034387548 0.24886304
000270 42 8a 06 3d 7d c8 0a 3e f8 d4 02 3e e9 16 c5 be
       0.032846697 0.13553043 0.12776554 -0.38494042
000280 ef d8 72 3e bd 3b 1a bd 9c c5 cd 3d 6c 3f 2c bc
       0.23715566 -0.037654627 0.100474566 -0.010513168
000290 d4 22 88 bd 59 06 ec 3d 10 fe 1e 3c 00 e8 a4 b9
       -0.06647268 0.11524648 0.009704128 -0.0003145337
0002a0 f6 fc 3e bc 1c 25 e8 3d 52 1c 80 be b3 82 8b 3d
       -0.01165699 0.11335203 -0.25021607 0.06812038
0002b0 16 5e ac bd 18 7e 8e 3d 3c 51 3f 3e e3 a4 51 3e
       -0.08416383 0.06957644 0.18683332 0.20473056
0002c0 42 ed 87 3c ef 1c 8d 3d 2a 7a 6a be 59 5e 70 3f
       0.016592626 0.06890284 -0.22898164 0.93893963
0002d0 06 5d 89 3e 6f da 0d 3e 3b b3 ea bd 93 f0 16 3e
       0.26828784 0.13852857 -0.11459967 0.1474021
0002e0 3f 8c 1d 3d eb 13 e3 3d 2c b8 c9 3c 3b 8d 0f be
       0.038463827 0.110877834 0.024623953 -0.14018719
0002f0 65 d7 6d 3e 2e 5c 62 3f a1 86 9e 3d 67 77 21 3e
       0.23226698 0.88421905 0.07740522 0.15768205
000300 32 0c 8c 3d 0a 30 5c 3f e3 52 78 3e 5f c8 ea bd
       0.068382636 0.860108 0.24250369 -0.11463999
000310 9e 95 86 3c 84 8f 4a bb 59 c5 0c bd 49 1a 96 3e
       0.016428765 -0.0030908296 -0.034367893 0.2931693
000320 aa 46 8a bd 73 ee 19 be 32 8f e8 3c e3 40 72 3e
       -0.06751759 -0.15032367 0.028388593 0.23657565
000330 97 9d 04 3e 63 6a 4b 3d 86 e0 ba 3d 77 c9 45 bd
       0.12950741 0.049662005 0.09124856 -0.048287835
000340 92 f3 df 3d e5 f8 b6 3c 89 17 5a 3e 5d 6c d1 3d
       0.10935129 0.022335479 0.2129804 0.10225747
000350 74 84 16 3e a5 e8 2b 3e 11 a9 e5 3c 69 d0 aa 3c
       0.14698964 0.16787966 0.028034719 0.02085133
000360 18 12 c0 3d de dc ae 3d cb 44 83 bd 7c a0 e5 3d
       0.09378451 0.08538221 -0.064096056 0.112122506
000370 4e 35 a5 3d 54 1b 25 3e 80 90 8e bd ca 67 8e be
       0.08066808 0.16123706 -0.06961155 -0.2781356
000380 67 a6 56 3e fb d9 00 3e 6b 22 ee 3d fd 85 af bd
       0.20961915 0.12583153 0.116276585 -0.08570478
000390 ac a2 fb bd 15 da 08 3e 73 eb af bc a4 9a 2b bd
       -0.122868866 0.13364442 -0.021474576 -0.041895524
0003a0 9c 3a 8a bb 70 44 b0 be 9b ae a4 3c 15 14 45 bd
       -0.0042184126 -0.34427214 0.02010279 -0.048114855
0003b0 1f d4 0d be 38 7f e3 3d 38 54 cc be 3e 3f 26 3e
       -0.13850449 0.111082494 -0.39908004 0.16235062
0003c0 31 28 4f bd bb 9a 9f bc 97 07 89 3d 85 fc ba 3e
       -0.05057544 -0.01948296 0.06690901 0.36520782
0003d0 27 65 f2 3d 11 14 58 3d c2 3c 7c 3d 27 83 20 3e
       0.118356995 0.05275351 0.06158138 0.1567503
0003e0 23 93 80 bd 3b 49 8e 3e 6f 67 37 3d e9 42 36 be
       -0.06278064 0.27790245 0.044776376 -0.17798962
0003f0 21 d9 34 3f 0f 5c 6d 3f cc 89 9a 3d f0 8d 1d 3e
       0.7064381 0.92718595 0.07545814 0.15386176

fc_A.bias f4 [20]
000000 0c 4a e3 3f 74 5b bb 3e c3 ad 30 3e a3 c2 6a 3d
       1.7756972 0.3659321 0.17253785 0.057314526
000010 5d 8d a6 3e 8f 14 af 3d 67 ca 0e be e4 0a 63 be
       0.32529727 0.08548843 -0.13944398 -0.22172123
000020 86 d0 9c bd 26 8d 4c bd fc ad 90 be bc 8b 01 bf
       -0.0765696 -0.049939297 -0.2825774 -0.5060384
000030 2d c8 f5 be 1d bc ce be cf 07 14 bf 8d e5 3d bf
       -0.48004285 -0.40377894 -0.57824415 -0.7417839
000040 51 75 48 bf 26 4a 6e bf f4 e4 5f bf 67 76 9f bf
       -0.7830401 -0.9308189 -0.8745873 -1.2458009

fc_V.weight f4 [1, 64]
000000 2c d7 4a 3d 75 38 d9 be e6 d6 93 be 9e 3b b2 bc
       0.04952161 -0.42425886 -0.28874892 -0.021756943
000010 e5 b2 33 3c f3 87 f7 bf bd 95 b3 3d 83 60 f8 3e
       0.010967945 -1.9338363 0.08768795 0.48511133
000020 b7 7c 75 3d 71 b4 92 bd ff 27 35 3d ea 45 27 bf
       0.05993339 -0.07163323 0.044227596 -0.65341055
000030 43 64 f1 3e cb 2c b0 3d 70 f6 6c 3f f1 28 b7 bf
       0.47146806 0.086022936 0.92563534 -1.4309369
000040 85 c3 e0 3c af 5a 59 3d c6 e6 15 3f e4 f9 40 3f
       0.027436981 0.053065 0.5855526 0.753813
000050 85 c5 db 3e 1b 19 2d 3f 29 0e d4 bd cf 38 9e 3d
       0.42924133 0.6761643 -0.10354263 0.07725679
000060 e8 88 1d bd f2 19 cc 3e 7f df a7 3d a9 fb d5 bd
       -0.038460642 0.39863545 0.08196925 -0.10448391
000070 a8 93 2c 3f 7a d8 5b be 57 b6 83 3d 20 f8 8e bf
       0.67412806 -0.21469298 0.06431263 -1.1169472
000080 4d c7 32 be 54 0f d8 3c 82 7f 35 bd d4 f3 f9 3c
       -0.1745884 0.026374497 -0.044311054 0.030511774
000090 e0 32 19 3c 31 f8 8c 3c cf 81 10 3e a0 88 fe 3b
       0.009350508 0.01720819 0.14112018 0.007767752
0000a0 45 da 84 3b 79 09 a9 3e 06 c9 f7 be 78 69 ec 3e
       0.00405434 0.3301504 -0.48395556 0.46174216
0000b0 8f 0e 2b be 48 b4 c4 bd d8 cd e0 3d 2e 10 b1 3e
       -0.16704772 -0.096046984 0.109767616 0.34582657
0000c0 a1 a7 35 3d 8a 90 9a 3e e9 cf 83 be 25 ed d2 be
       0.044349317 0.301884 -0.2574456 -0.41196552
0000d0 0b a4 4e 3e 2d e2 42 bd 8e a1 c2 3c f2 25 14 3d
       0.20179765 -0.04757898 0.023758676 0.036169
0000e0 53 51 8e 3c e0 06 97 be c4 68 45 3f 19 9b a9 be
       0.017372763 -0.29497433 0.77112985 -0.33126143
0000f0 c2 db 32 bf f6 66 76 bf 82 39 b3 3e d4 48 3b 3f
       -0.69866574 -0.96250856 0.35004812 0.73158

fc1.weight f4 [64, 3]
000000 66 2d 13 bf 38 c9 fd bd 26 f0 a4 be 2b 23 be bc
       -0.5749115 -0.12391895 -0.3221447 -0.023210129
000010 31 7b 30 3d 2c 98 70 3d 68 9b d0 be 4c 21 be be
       0.043086234 0.058738872 -0.40743566 -0.37134778
000020 9e 8b a6 3e b2 ad 6c 3e 4c b2 1e 3e f1 b8 68 be
       0.32528394 0.23113135 0.15497702 -0.227268
000030 73 02 7c be e4 9c b4 bd 06 92 85 3d 39 dc 04 3c
       -0.2461031 -0.08818987 0.065219924 0.008109146
000040 96 ea 18 3e e1 6c c1 3c bd b9 9a be e7 07 aa 3d
       0.14933237 0.023611488 -0.30219832 0.083022885
000050 f2 dc 18 bd 46 48 e2 3e 4e 7c 09 3e 15 ec 0a be
       -0.037320085 0.44195765 0.13426325 -0.1356662
000060 c7 e2 c1 3d 51 e1 d2 be 3f c9 33 be e0 3b 74 bd
       0.094670825 -0.41187528 -0.17557238 -0.059627414
000070 fa 65 fd be 46 73 68 be f3 18 4f be 4b 10 f7 3d
       -0.49491864 -0.22700223 -0.20224361 0.120636545
000080 e1 0a ed 3d f7 77 fa 3d 53 b9 57 bf af 15 1b bd
       0.115743406 0.12229913 -0.8426716 -0.037862476
000090 38 c1 ab 3e f4 33 c0 be d3 9e 22 3e 1a b5 11 3f
       0.33545852 -0.37539637 0.15880899 0.56916964
0000a0 b9 cb 21 3f 47 5f f5 3d a1 97 67 bc 02 b2 92 bd
       0.6320148 0.11981063 -0.014135272 -0.071628585
0000b0 2b d2 fc 3c 33 1b 42 be ac c5 f5 bd f1 96 6c be
       0.030861935 -0.18955688 -0.120005935 -0.23104455
0000c0 f0 98 a6 be 95 fd 95 be e8 73 09 bf b1 0d 95 be
       -0.32538557 -0.2929503 -0.53692484 -0.29112008
0000d0 1a 41 0f bf aa 2e 9e bd 80 4a 6b ba cd 77 ed be
       -0.5595871 -0.07723744 -0.000897564 -0.46380463
0000e0 0a b9 a8 3c 7e a5 12 be b5 6e e4 3e 49 7a 5c 3e
       0.020596046 -0.14320943 0.44615713 0.21531023
0000f0 2b 3e a9 3d 2c 37 25 3e 0d 8d 15 be cd f4 ed bd
       0.08263811 0.16134328 -0.14604588 -0.11618958
000100 12 a8 3b be f0 56 b6 be 82 aa c5 3e 00 60 bd b8
       -0.18325832 -0.35613203 0.3860665 -9.030104e-05
000110 2e 82 08 bf f5 fa e5 3d a1 b1 3d 3d 53 49 88 be
       -0.5332364 0.11229507 0.04631198 -0.26618442
000120 30 bf fb 3d 9c cc b2 be df ed f6 be 70 dd c1 bd
       0.122923255 -0.3492173 -0.48228356 -0.09466064
000130 15 43 b0 3e 91 0a f2 bd 89 bb 17 be 03 be b2 3e
       0.3442618 -0.11818422 -0.14817633 0.34910592
000140 ea 68 7c bd 29 b8 42 be a4 da 7e 3e 23 b9 a3 3e
       -0.06162349 -0.19015564 0.24888092 0.31977186
000150 b9 ff 15 bf 9f fd 93 bf fd 49 cc ba 7b 26 91 be
       -0.58593327 -1.1561774 -0.0015586015 -0.2834967
000160 f3 c8 9f 3d 35 f7 81 be 7a 8d d0 be 17 a1 85 be
       0.07802 -0.25383916 -0.40732938 -0.26099464
000170 8e 3b 90 bd 0c c1 9b be 01 cb ae bc 2a d3 8c 3d
       -0.07042609 -0.3042072 -0.021337034 0.06876214
000180 30 d4 f6 be a0 85 48 bd 4f 23 e5 be 22 9b 01 3f
       -0.4820876 -0.04895556 -0.447535 0.5062734
000190 7b 23 e5 be 5e 62 0b 3e d5 7e ef 3e cb c9 46 be
       -0.44753632 0.13611743 0.46776453 -0.19412915
0001a0 46 7a ca 3d 2f 76 87 bf 0d 79 2b bf b3 7a 4e 3c
       0.09886603 -1.0582942 -0.66981584 0.012602496
0001b0 40 4f 84 3d 50 59 cb bd 0a 39 53 be 4b e3 20 be
       0.06460428 -0.099291444 -0.20627227 -0.15711705
0001c0 14 26 a5 bd b4 78 23 be 5f 2e 57 bf 1b d9 8c bf
       -0.080639035 -0.15964013 -0.8405513 -1.1003755
0001d0 f3 b8 9a bb aa f1 b9 be 40 35 50 3c d8 34 f1 be
       -0.0047217547 -0.36317188 0.012708008 -0.4711063
0001e0 45 72 b0 bd 70 59 7d be d5 ab 9a bd 28 58 01 3e
       -0.08615545 -0.24741149 -0.075523056 0.12631285
0001f0 ed 48 ed be ea 98 c3 be 78 42 9c 3e 3d 91 97 be
       -0.463447 -0.38202602 0.30519462 -0.29602996
000200 72 e5 8e be 1e 94 ad 3e 2a 40 3b bf c6 0c a3 be
       -0.27909428 0.33902067 -0.7314478 -0.31845683
000210 68 d9 63 3e b2 9b b6 3e 5a f2 a9 3e 4b f4 30 be
       0.22250903 0.3566566 0.33192712 -0.1728069
000220 a5 7f b3 3d 6c 1a 25 be f9 ef 19 3d a5 15 99 3d
       0.08764581 -0.1612336 0.03758237 0.074748315
000230 d8 68 92 bd a1 77 c0 be b0 41 47 3e ee ac 38 3d
       -0.071489036 -0.3759127 0.19458652 0.045086794
000240 05 d5 95 be 4a ce e7 3e d6 ef cf bd 0e 56 81 3e
       -0.29264084 0.45274574 -0.10153167 0.25260967
000250 48 b8 ee be 8d bb b4 be 57 ef a3 bf 50 65 14 3e
       -0.4662497 -0.3529934 -1.2807416 0.14491773
000260 9c a5 03 bd c2 15 64 be 41 71 f2 be 3f 76 df be
       -0.03214036 -0.22273925 -0.4735203 -0.43644902
000270 18 6e e7 be e6 a9 db be d0 be b3 bd a5 ad 13 be
       -0.45201182 -0.4290306 -0.08776629 -0.14421709
000280 75 10 92 3e 29 48 09 bf df 2a ef 3d ba c7 50 bf
       0.2852818 -0.5362573 0.11678099 -0.8155476
000290 f0 7a 0a 3c 22 27 ef bd e8 63 bc bb 6d fc 70 be
       0.008452162 -0.11677386 -0.0057492144 -0.23533793
0002a0 fa a6 75 bf ea d6 72 3d 6a 10 90 be 6a a2 84 3e
       -0.9595791 0.05928699 -0.28137523 0.25905162
0002b0 4a f9 c7 be b9 0c 0a bf 89 0c bd bd 96 58 6b 3e
       -0.3905738 -0.53925663 -0.092309065 0.22983012
0002c0 b1 e2 b8 be 0b 90 3e bf f2 9d 34 bf 8c cf 2e 3e
       -0.36110452 -0.7443854 -0.70553505 0.1707136
0002d0 6b 27 d5 be 70 aa 4d bf 3a 37 14 bd 10 bd b4 3d
       -0.41631636 -0.8033819 -0.03618548 0.08825123
0002e0 96 c2 01 be 08 20 e2 be 9b 73 c7 3e 65 50 27 bb
       -0.12671885 -0.44165063 0.38955387 -0.0025530097
0002f0 3d 01 05 3e 0f 58 90 3c b4 b2 19 bf 1d c6 37 bd
       0.12988754 0.017620115 -0.60038304 -0.04486667

fc1.bias f4 [64]
000000 17 80 96 be 5b 82 66 40 6d ff 2f c0 b9 0c 26 40
       -0.293946 3.6017063 -2.749965 2.5945265
000010 e8 28 6c 40 f5 9f 34 40 48 9a 8d 3f 56 a3 1d 40
       3.6899967 2.822263 1.1062708 2.4630942
000020 24 eb e1 3f 7c 8d ff 3e 3e d2 5a 40 e6 22 49 bf
       1.7649884 0.49912632 3.4190822 -0.78568876
000030 b6 72 67 40 92 3a 15 c0 57 ec 2a 40 7d cc 0b 40
       3.6163764 -2.3316998 2.670675 2.184356
000040 7c 38 cf 3e b0 7f c9 3d bd ed 04 c0 4d 46 f5 bf
       0.40472782 0.098388076 -2.0770104 -1.9162079
000050 2f bb 51 40 2e de 93 3e 34 0f e2 bd a4 e6 3b 40
       3.2770498 0.28880447 -0.11038056 2.9359522
000060 56 34 cc 3e ac 06 bc bd e1 11 43 40 1f b2 b7 bf
       0.3988368 -0.0918096 3.0479662 -1.4351233
000070 8c 2a 9e 3f 77 cd c9 bf 23 a6 0a 40 53 47 65 40
       1.2356734 -1.5765828 2.1663902 3.5824783
000080 88 5c 99 3e f9 e8 09 c0 4f f0 17 40 fd ec ed bf
       0.29953408 -2.1548445 2.3740423 -1.8587948
000090 fa 4c 05 bf 47 9b 20 40 79 43 b8 3e 49 6b a3 be
       -0.5207058 2.5094774 0.35988978 -0.3191779
0000a0 07 fc 5a 40 88 37 7e be 9c 8a c7 be 90 45 69 3e
       3.4216325 -0.24825871 -0.38972938 0.22780442
0000b0 0e 0d 22 c0 19 d2 62 40 12 78 4c 40 1d f4 4f 40
       -2.5320468 3.5440733 3.1948285 3.2492745
0000c0 ea 6b 3a c0 9a 82 bd 3e 0d 23 0f c0 a0 11 30 3e
       -2.9128366 0.37013704 -2.2365143 0.17194223
0000d0 0f 0f db be 7e 41 11 3f b9 52 27 c0 c7 aa 00 40
       -0.42784926 0.5674056 -2.614424 2.0104234
0000e0 f0 07 2c 40 f5 1a 13 bf 0f 0f 1e 40 ab c3 8e bf
       2.6879845 -0.5746301 2.469669 -1.1153463
0000f0 8a bc 11 40 e8 31 c1 be 66 cc c5 bf 4b b7 4d 3f
       2.2771325 -0.37733388 -1.5453002 0.8035781

fc2.weight f4 [64, 64]
000000 30 7a 03 bc d2 f5 ea bc 80 c3 d4 3d c4 8f 91 bd
       -0.008024737 -0.02868167 0.10388851 -0.07107499
000010 81 80 82 3d 03 04 13 be 82 79 7d 3d 93 c2 3d 3d
       0.063721664 -0.14356999 0.061883457 0.04632814
000020 a9 46 ab bd 80 8a a1 ba d0 87 df bc 16 28 fa 3d
       -0.08363087 -0.0012324601 -0.02728644 0.12214677
000030 b3 43 c5 bb 84 fe a6 bc 25 63 0b be 36 f7 f4 3d
       -0.0060200333 -0.020385034 -0.1361204 0.11961214
000040 ec 97 d1 bd 63 23 a9 3c 96 78 8d 3d 24 46 a6 bd
       -0.10234055 0.020646757 0.069077656 -0.08118847
000050 11 e8 9d 3d 00 cb 86 bb b0 63 ba 3d 97 0f e5 bd
       0.07710279 -0.004113555 0.09101045 -0.11184614
000060 c0 76 23 bc ee 1e 8c bd 62 19 de 3b a5 1d 05 be
       -0.009977043 -0.06841837 0.006777928 -0.1299959
000070 80 57 89 3a 82 9b 69 3d 68 6b 5a bd 12 4b b2 3d
       0.0010478348 0.05703307 -0.053325087 0.08705725
000080 94 28 2e 3d 8c 8a 6d bc 64 24 75 3d 82 9b 80 bd
       0.042519167 -0.014498364 0.059849158 -0.06279661
000090 60 cc 37 3c 9a 63 fd bd a8 84 fb bd a0 49 af 3d
       0.01121816 -0.12372513 -0.122811615 0.08558965
0000a0 01 3d aa bd bc 09 72 bd 1d 84 3e bd 9e 17 e0 3d
       -0.08312417 -0.059091315 -0.04651271 0.109420046
0000b0 b1 c3 d2 bd d6 9e e0 bd 6c 5b 73 bc 6d c2 e9 bd
       -0.102912314 -0.109677956 -0.01485334 -0.11414037
0000c0 7e c5 e1 bd 60 13 f8 3d c4 7c 71 3d 80 16 d2 bb
       -0.11023997 0.121130705 0.058956876 -0.0064113736
0000d0 fe 06 e4 bd 3e f5 d4 3d a0 a8 48 3c c4 3b 45 bd
       -0.11134146 0.10398339 0.012247235 -0.0481527
0000e0 90 86 94 bd 68 e1 f1 3c ec b6 2a 3d c8 fb d2 bd
       -0.07252228 0.029526427 0.041678354 -0.1030193
0000f0 92 bf 95 3d 38 40 f7 3c 87 42 15 be ad d5 a4 3c
       0.0731193 0.03018199 -0.1457616 0.02012142
000100 84 44 ab 3d 19 b7 d6 3e 14 b5 84 be 13 19 0f 3f
       0.08362678 0.41936567 -0.25919402 0.55897635
000110 d3 14 84 3f 6e 4d e7 3d 2f 97 f8 bd db 66 6d be
       1.0318855 0.112940654 -0.12138211 -0.23183767
000120 e2 6c 1c bf 67 12 7a 3d af 3c 97 3e 27 7f 1b be
       -0.6110364 0.061052706 0.29538485 -0.15185224
000130 fa c0 df 3d fc e2 0d bf ff c8 23 3e 1d 21 80 be
       0.10925479 -0.55424476 0.15994643 -0.25025263
000140 3a 08 fd 3d 44 50 d7 bd a4 2b 34 be e1 5d f1 be
       0.12355085 -0.10513356 -0.17594773 -0.47141936
000150 20 96 2e bd 50 e4 a1 3c 18 8f da bd ad 6d 90 3e
       -0.04262364 0.019762188 -0.10671824 0.28208676
000160 e0 55 0c bc 3f 19 b2 bd 08 a8 6f be 69 d2 94 be
       -0.008565396 -0.086962216 -0.23403943 -0.2906678
000170 b2 6f 86 3f e0 66 e9 be 76 6a 52 3e 21 11 36 3f
       1.0502837 -0.455863 0.20548424 0.71119887
000180 7c 70 cc 3d ac ee bb be 05 99 12 3e 61 6d 00 3e
       0.09982392 -0.3670553 0.14316185 0.12541725
000190 3a 22 95 bb b8 cc f0 3d 55 0c 98 3e 0f df b6 bd
       -0.0045511993 0.11757797 0.2969691 -0.08929264
0001a0 53 32 d1 bc 48 66 89 bd de ef be 3d 44 7e 05 be
       -0.025536692 -0.06708962 0.09323095 -0.13036448
0001b0 a8 df 08 bf 90 35 9d 3e 77 e0 65 3f 5c ad aa 3e
       -0.5346627 0.30704927 0.8979563 0.33335388
0001c0 b7 48 bf be 00 04 79 39 ca ea 7d be 51 0a fc ba
       -0.37360165 0.0002374798 -0.24796596 -0.0019229149
0001d0 f8 19 c4 3d 2d 92 5d bf 98 8a 8f 3c c4 24 43 3d
       0.09575266 -0.8655117 0.017522141 0.047642484
0001e0 6c d6 94 3e a6 92 b0 3d fb 96 18 bf 15 ab cb 3e
       0.2906984 0.08621721 -0.5960538 0.39778963
0001f0 92 85 50 3f 40 e6 3b bd af f4 78 be 2a 9f ea 3e
       0.8145381 -0.04587388 -0.2431209 0.45824558
000200 f2 56 d7 bd 74 ff 03 bf 23 2b 8d 3c 78 33 7b 3e
       -0.105146304 -0.51561666 0.017232483 0.24531353
000210 c2 d4 01 bf 0e 8f 99 bd f1 01 39 be a8 f1 cb be
       -0.5071527 -0.07497989 -0.18067147 -0.39832807
000220 a8 ca e7 bd 68 f9 4a 3d 34 97 b3 be ce 5e 23 be
       -0.113179505 0.04955426 -0.35076296 -0.15954134
000230 3d e3 b4 be 48 35 7c 3e d2 df 94 be 76 d1 19 bf
       -0.3532962 0.246297 -0.2907701 -0.6008524
000240 80 57 a6 bc 10 f9 f9 bd f1 e5 4b bd 41 04 61 3e
       -0.020305395 -0.12205708 -0.049779836 0.21974279
000250 ce 42 36 bf 58 b7 9f bc b0 9a 3b 3c ec 59 63 3f
       -0.71195686 -0.019496605 0.011450455 0.88809085
000260 3e 60 35 bd a5 41 22 be 1c 8a bd be 4a b7 74 3d
       -0.044281237 -0.15845354 -0.37019432 0.05974511
000270 65 78 3e bf d0 e7 e8 3d f9 6b 7c be 40 97 08 bf
       -0.7440246 0.1137234 -0.24650563 -0.5335579
000280 61 d0 e8 bd 2c 77 0e 3e fc 84 0d be 3b 72 b2 bc
       -0.1136787 0.13912648 -0.13820261 -0.021782985
000290 34 43 6c 3d e5 f4 97 be 8f 4a 9a be e0 0e 03 bd
       0.057681277 -0.29679027 -0.3013501 -0.031996608
0002a0 32 e1 0a bf 98 9a 03 bd 00 5c 3f 3a d5 f6 d0 be
       -0.5424987 -0.032129854 0.0007299781 -0.40813318
0002b0 f7 cb c1 3d 47 e4 90 be 1d b1 21 bf 32 98 ba be
       0.09462731 -0.28299162 -0.6316088 -0.3644424
0002c0 ee 9b 2d 3e a0 8c a8 bb be b0 f9 3d da 62 98 3d
       0.16954014 -0.005143717 0.12191914 0.074407294
0002d0 08 d3 a5 bc 7a 38 73 bd 26 0f e7 3c 55 a7 5a be
       -0.02024223 -0.059380032 0.028205466 -0.21352895
0002e0 c2 8b b1 be bc 1e 32 3d 43 52 a9 3e 7c a7 a0 bd
       -0.3467694 0.04348634 0.33070573 -0.07844445
0002f0 62 ca e9 be 88 22 08 3d cd 1b 52 3e 13 3e 3c be
       -0.45662218 0.033236057 0.20518418 -0.18383054
000300 9e 11 df bd 31 1b 3a 3d cf 5f 71 3d 4d 55 5a bd
       -0.10892032 0.045436088 0.05892926 -0.053304005
000310 57 07 e7 bc 72 00 0b bc ef be e7 3c 7c 96 aa bd
       -0.028201742 -0.008483993 0.028289286 -0.08329484
000320 82 ef 30 bd 6c 0a 98 bd 42 85 8b bd d0 e0 9b bd
       -0.043197162 -0.07423863 -0.06812526 -0.07611239
000330 17 74 88 3d fc 6a 75 bd 87 75 9a bd 0a 03 b1 bd
       0.066627674 -0.05991648 -0.07541948 -0.08643158
000340 40 44 45 bd 28 0d 92 bc 56 02 ef bd 21 af 13 bd
       -0.04816079 -0.017828539 -0.116703674 -0.036055688
000350 c0 70 4b bd 31 f4 55 3c 2e 14 e4 3d 47 66 89 3c
       -0.049668074 0.013058708 0.111366615 0.016772402
000360 90 e6 3c bc 10 6e fb 3c cd 05 e4 bb e0 52 c1 bd
       -0.01152958 0.03069213 -0.0069586993 -0.09439635
000370 30 de e7 bd 2a 8b e0 bc ab 49 84 3d 86 43 3f bd
       -0.11321676 -0.027410109 0.064593635 -0.046695255
000380 76 0a ac 3d 8f fb 4a 3d 10 f5 a4 ba 0e 5c 37 3d
       0.08400433 0.04955631 -0.0012585241 0.044765525
000390 9c 18 51 3d 4f 54 d3 bd af 37 07 bb 18 ca 7a 3d
       0.05104886 -0.10318815 -0.0020632555 0.061227888
0003a0 6d f1 a2 3b 68 9a f1 3d c0 b7 ca 3b a3 fd 02 bd
       0.004972628 0.11797029 0.0061864555 -0.031980168
0003b0 cf 81 5d bd ad 50 d1 bd 81 d3 c3 3c 6c 2a 84 bd
       -0.054078873 -0.10220466 0.023904564 -0.06453404
0003c0 80 d4 ca bd 28 79 ac 3d 40 ed a4 bb c0 7f e1 3d
       -0.099038124 0.08421546 -0.005033165 0.110106945
0003d0 44 77 6b 3d fe 78 0f be 52 81 fd bd 16 37 b6 bd
       0.057486787 -0.14010999 -0.123781815 -0.088972256
0003e0 11 0b 93 bd a2 05 57 bd a0 63 ee bd 5a d1 28 3d
       -0.07179845 -0.052495606 -0.11640096 0.04121528
0003f0 21 28 6a 3d 30 67 27 bc 94 6b c6 bd 66 e9 c0 3d
       0.057167176 -0.010217473 -0.09688488 0.09419517

fc2.bias f4 [64]
000000 c7 9a c4 bd 36 b7 83 3f 35 d4 05 bf 07 d0 07 be
       -0.09599834 1.0290287 -0.5227693 -0.1326295
000010 09 63 47 3d 39 16 00 40 45 0e d1 bd 71 39 ff 3f
       0.04867843 2.0013564 -0.102078 1.9939405
000020 21 98 1e 3d 6a 1a 95 be be 6b d3 3d e5 13 08 3e
       0.0387193 -0.29121715 0.103232846 0.13288839
000030 be 74 0b 40 66 1e f8 3d 5b 8f f7 3f ad 63 fd 3f
       2.1790004 0.12115173 1.9340624 1.9796044
000040 69 89 fb bd 8f 8f 40 bb c9 44 12 40 80 ed dd 3f
       -0.12282068 -0.0029382443 2.2854483 1.7338104
000050 86 64 08 40 78 22 c3 3f 42 63 9f bd 1d 50 0e bd
       2.1311355 1.5244894 -0.07782604 -0.03474437
000060 8c 5f 26 bd f0 6a f0 3f 10 1e de bd c2 08 b2 3d
       -0.040618464 1.8782635 -0.10845578 0.08693077
000070 32 0f 04 40 13 98 02 be 2d 05 05 be ef 7a d1 3f
       2.0634274 -0.12753324 -0.12990256 1.6365641
000080 a6 14 3f bd 32 0a c4 bd 72 56 27 be 4d 53 85 3e
       -0.04665055 -0.09572257 -0.1634157 0.26040116
000090 5c 12 9f bd c6 73 b5 bc 54 9a 8e 3c ea dc c7 bd
       -0.07767174 -0.022149932 0.017407574 -0.09758933
0000a0 86 fe 18 bd 66 69 90 3f 72 90 d6 bf 03 1c 07 40
       -0.037352107 1.1282165 -1.6762831 2.1110847
0000b0 98 dd 65 bf 78 b2 ca 3c 19 b4 ce 3f dd 15 fd 3f
       -0.8979125 0.024743304 1.6148711 1.9772297
0000c0 57 e3 a5 3d 6e 99 ec 3f 53 09 75 bf e9 ff 68 3f
       0.08100002 1.8484323 -0.9571735 0.9101549
0000d0 75 d7 ed 3f f3 3f 59 3d 0e 17 11 3d 22 20 96 3d
       1.8581377 0.053039502 0.035422377 0.073303476
0000e0 2c 95 50 3b 90 a5 2e bf 66 5a 05 40 76 55 5f 3f
       0.0031827195 -0.6822138 2.0836425 0.8723978
0000f0 3b 42 a5 3f 0f 92 52 3f ab b2 06 40 58 0b de 3f
       1.2910837 0.8225412 2.104655 1.7347212

fc_A.weight f4 [20, 64]
000000 91 7c 5a 3d 46 6a 8c 3e aa 5c 4f 3e c3 7f b3 3d
       0.053341452 0.2742483 0.20250192 0.08764603
000010 a0 f1 7d 3d 7c f0 47 3f e3 99 83 bd 0b d6 00 3f
       0.06199801 0.78101325 -0.06425836 0.50326604
000020 25 e1 b5 3d 52 0d 1f be ad 55 c9 bd ff b4 b3 3e
       0.088808335 -0.15532425 -0.098307945 0.35099027
000030 74 ef 29 3e 12 62 fd 3d 88 cb f6 3d 9e 21 1e bf
       0.1659525 0.12372221 0.12050539 -0.61770046
000040 23 dd c4 bd 39 1d 9d bd a7 96 63 3e e3 ac 67 3e
       -0.09612491 -0.076715894 0.22225438 0.22624545
000050 4d 4f 17 3e 25 0e 85 3b df fe f9 3d 7d ac 18 3e
       0.14776345 0.004060524 0.12206816 0.14909549
000060 5c 34 b8 bd a8 20 e0 3d 03 60 8c bd 5e ca a2 3d
       -0.08994362 0.10943729 -0.0685425 0.07948755
000070 f5 14 82 3e 03 62 61 3e 47 de 11 bd d5 91 e7 be
       0.25406614 0.22010045 -0.03561237 -0.4522845
000080 37 f1 40 3e 2c f6 63 bd aa f6 c3 3d 85 8c 0f 3d
       0.18842016 -0.05565469 0.09568532 0.03504612
000090 16 5b 99 bd 81 83 a6 3d 9b 4b bd bd 80 10 f3 bd
       -0.074880764 0.08130551 -0.09242936 -0.118683815
0000a0 d4 ef 83 3a b5 28 39 be 89 ed 69 bd 08 da c0 3d
       0.0010065981 -0.18081935 -0.057111297 0.09416586
0000b0 9e b0 9e bd 12 a0 de bd 6c e7 20 3f bb 10 e5 3d
       -0.07748531 -0.10870375 0.6285312 0.11184832
0000c0 e6 70 91 bd e7 d7 11 3e 60 37 fb 3d 44 08 a9 3e
       -0.07101612 0.14242516 0.12266421 0.3301412
0000d0 93 59 d3 3d 99 f6 27 bd 5b cb 29 3d f3 18 f5 bc
       0.10319819 -0.04100666 0.0414537 -0.029919123
0000e0 18 7b d5 3c f5 0a a2 3e 94 52 a0 3e b8 4a 51 bf
       0.026059672 0.31648985 0.31313002 -0.81754637
0000f0 35 1e 40 3e 57 86 19 3f 2f 7b 26 3e e6 c5 c0 bd
       0.18761523 0.5997061 0.16257928 -0.09412746
000100 4a 63 b3 bd 09 30 97 3e 67 99 a3 3e 0c fc 2a 3d
       -0.08759172 0.29528835 0.31952974 0.041744277
000110 45 65 f5 bd 66 b3 04 3f 4f 99 f9 3d 08 f3 96 3e
       -0.11982206 0.5183624 0.121874444 0.29482293
000120 70 c3 38 3c d2 a7 3a be 7f 9a 1b bd da 5e 8c 3d
       0.011277065 -0.18228081 -0.037989136 0.06854029
000130 2b d2 6a 3e a1 fe 09 be 5b b4 b6 3b a0 a0 48 be
       0.22931735 -0.1347604 0.0055756993 -0.19592524
000140 3d 22 5c bd a7 3c 71 3c 37 69 8a 3e 5e 43 13 3e
       -0.05374359 0.014723933 0.27033398 0.14381167
000150 83 72 55 3e c4 44 01 bd 03 44 9f 3d 6f f0 9b bd
       0.20844464 -0.03155972 0.07776644 -0.076142184
000160 20 ee 4b bc fe ce 49 3e 9e 0e cb 3b 49 b6 26 3e
       -0.01244691 0.19707868 0.006196811 0.16280474
000170 47 c1 06 3e 2f 11 4a 3e 72 63 f3 3d 86 0e d0 be
       0.13159667 0.19733118 0.11884202 -0.4063608
000180 33 f3 4e 3e 1f 11 ae 3d 23 d7 c5 3d 98 2f 09 bd
       0.2020996 0.08499359 0.09660175 -0.033492655
000190 a8 76 0c bd c4 84 ab 3c d7 06 00 be e4 ab 09 3d
       -0.034292847 0.020937331 -0.12502609 0.033611193
0001a0 17 42 ad bd ec ff 9b 3d d6 c1 99 be 11 8b b3 3d
       -0.08459871 0.076171726 -0.30030698 0.08766759
0001b0 ae ea 95 3e fb 25 4f bd bd 2d 2e 3e 8d ac 3a 3e
       0.2928061 -0.05057333 0.17009635 0.18229885
0001c0 63 01 bd bd 88 fc 10 3d 00 90 4b be 56 f4 4e 3d
       -0.0922878 0.035397083 -0.1987915 0.050525986
0001d0 fe af 0b 3e bf f3 ca bd 71 e4 1d 3c 2e 60 19 3e
       0.13641354 -0.09909772 0.009636984 0.14978096
0001e0 6e 02 19 be fa ca 3a 3e 39 34 05 be 44 6a 90 be
       -0.14942333 0.18241492 -0.13008203 -0.28206074
0001f0 40 ed 97 3e 7d dd 9e 3f da 74 52 3e 01 b2 31 3d
       0.29673195 1.2411343 0.20552388 0.04338265
000200 1f 28 8f 3d 4c bd ba 3e 89 04 5f 3e dc 48 51 bb
       0.06990074 0.36472547 0.21779074 -0.0031934297
000210 aa 59 ef 3c 84 76 02 3e 8f 35 7a bd 29 53 9d 3e
       0.02921756 0.12740523 -0.061086234 0.3072751
000220 5b 6c 6b 3d 29 01 94 be 08 36 93 bd 13 47 3f be
       0.057476383 -0.28907135 -0.0718804 -0.18679456
000230 bf 20 52 3e bc 1c bd 3d 97 3d 94 3d a9 64 0e 3e
       0.20520304 0.09233996 0.0723831 0.13905586
000240 29 b8 c3 bd f0 39 93 3d 34 86 02 3e aa ed 98 3d
       -0.0955661 0.07188785 0.12746507 0.07467206
000250 d3 00 00 3e 71 f3 8a 3d dc 41 84 3d f5 60 3e bd
       0.12500314 0.06784714 0.06457874 -0.046479184
000260 77 d8 e6 3d d4 36 f5 3d 61 de 0c 3d 2c d5 7e 3e
       0.11271756 0.11973348 0.034391765 0.24886006
000270 ae 57 f3 3c c1 c9 0a 3e ab d2 02 3e b6 fe c7 be
       0.029704895 0.13553526 0.12775676 -0.39061517
000280 b8 da 72 3e d6 3e 1a bd 82 c2 cd 3d 5e 3c 2c bc
       0.23716247 -0.03765758 0.10046865 -0.0105124395
000290 d4 22 88 bd 9b 08 ec 3d a2 02 1f 3c 00 e8 a4 b9
       -0.06647268 0.11525079 0.009705218 -0.0003145337
0002a0 36 fd 3e bc 96 f6 43 3d 5f 1a 80 be ae 7e 88 3d
       -0.01165705 0.047842585 -0.2502012 0.06664787
0002b0 a8 37 ab bd 18 7e 8e 3d ab ec 66 3e bf b6 50 3e
       -0.08360225 0.06957644 0.22551219 0.20382212
0002c0 46 ef 87 3c 9a 29 93 3d 2a 7a 6a be fd d4 5c 3f
       0.016593587 0.07185669 -0.22898164 0.86262494
0002d0 16 1f 8c 3e 04 d7 0d 3e db b0 ea bd 2c ef 16 3e
       0.27367467 0.13851553 -0.11459514 0.14739674
0002e0 99 8a 1d 3d 83 17 e3 3d 0e 35 18 3d dc 25 19 be
       0.038462255 0.11088469 0.037159972 -0.14955848
0002f0 b6 f9 6a 3e ea 57 4f 3f 2f a8 99 3d 02 ac 27 3e
       0.2294682 0.8099352 0.075027816 0.1637421
000300 d3 73 85 3d 37 a3 3e 3f 2e 51 78 3e 4b c8 ea bd
       0.06516232 0.74467796 0.24249718 -0.11463984
000310 4d 80 d3 3b a7 e5 9e 3c 7a c9 0c bd f3 22 8f 3e
       0.0064545036 0.019396616 -0.03437183 0.27956352
000320 d8 48 8a bd ce ec 19 be f9 8d e8 3c 38 60 62 3e
       -0.06752175 -0.1503174 0.02838801 0.22107017
000330 4f 4a f2 3d f0 68 4b 3d 1d 8f a7 3d 62 e1 ab bc
       0.118305795 0.049660623 0.081815936 -0.020981494
000340 d1 f2 df 3d 66 fa b6 3c ad ae 4e 3e 4c c0 cc 3d
       0.109349854 0.022336196 0.20183821 0.09997615
000350 f7 b6 0b 3e 59 83 23 3e c6 a7 e5 3c 2d cd aa 3c
       0.13644014 0.15968074 0.028034102 0.020849789
000360 8f 12 c0 3d d1 7e 29 3d f3 43 83 bd f6 9f e5 3d
       0.0937854 0.041380707 -0.06409445 0.11212151
000370 d7 ad 8f 3d 38 18 25 3e 84 92 8e bd f7 7e 81 be
       0.07015579 0.1612252 -0.069615394 -0.2529218
000380 e1 a7 56 3e d9 d6 00 3e c5 1f ee 3d 39 84 af bd
       0.20962478 0.12581958 0.11627153 -0.08570141
000390 ac a2 fb bd a8 d9 08 3e c9 e9 af bc a4 9a 2b bd
       -0.122868866 0.1336428 -0.021473782 -0.041895524
0003a0 39 39 8a bb 33 92 b5 be a6 b2 a4 3c 1c 5a 70 bd
       -0.0042182473 -0.35463104 0.020104717 -0.058679685
0003b0 1b 42 0d be 38 7f e3 3d 16 54 e5 be 2e e5 17 3e
       -0.13794748 0.111082494 -0.44790715 0.14833519
0003c0 fb 25 4f bd 83 1c 10 bd 87 08 89 3d c9 87 96 3e
       -0.05057333 -0.03518344 0.066910796 0.2940047
0003d0 f4 0c e4 3d 12 17 58 3d 00 41 7c 3d 6c 80 20 3e
       0.11135283 0.052756377 0.061585426 0.15673989
0003e0 70 94 80 bd 4d 48 8e 3e 03 d4 22 3d f5 6f 1f be
       -0.06278312 0.27789536 0.03975297 -0.15570052
0003f0 0d e8 3d 3f 38 1a 48 3f 84 26 83 3d 59 c2 0d 3e
       0.74182206 0.78165007 0.06403831 0.13843669

fc_A.bias f4 [20]
000000 fa 15 df 3f 3c 7b be 3e ed 85 30 3e f7 96 96 3d
       1.7428582 0.37203395 0.17238589 0.07353013
000010 7b de a9 3e bb f1 a6 3d ca a4 ea bd 07 e7 3d be
       0.33177552 0.08151575 -0.11457212 -0.18545161
000020 f2 0c 87 bd 14 00 99 bd dd 49 8f be 74 05 ed be
       -0.06594266 -0.07470718 -0.2798604 -0.46293223
000030 87 92 f8 be 48 a3 d2 be 6a c6 12 bf 49 73 34 bf
       -0.48549291 -0.411402 -0.57334006 -0.7048841
000040 86 1b 44 bf 40 33 71 bf 4f 5c 5e bf f4 c4 9d bf
       -0.766045 -0.94218826 -0.868596 -1.232573

fc_V.weight f4 [1, 64]
000000 6c 18 58 3d 6e d2 ba be 31 d6 93 be 72 3f b2 bc
       0.052757666 -0.3648867 -0.28874353 -0.021758769
000010 9b 5c ab 3c 14 76 f5 bf 33 97 b3 3d 68 62 f5 3e
       0.020918181 -1.917666 0.08769073 0.4792664
000020 83 7e 75 3d 1f b5 92 bd 8c 29 35 3d e5 4d 23 bf
       0.059935104 -0.07163452 0.044229075 -0.6379073
000030 98 31 ef 3e 18 30 b0 3d e2 d4 6b 3f 06 96 b9 bf
       0.46717525 0.08602923 0.9212171 -1.4498909
000040 c1 c5 e0 3c 4c 5b 59 3d e2 b2 14 3f b3 69 41 3f
       0.027438046 0.053065583 0.58085454 0.7555191
000050 61 0c da 3e c9 2d 2c 3f e7 0b d4 bd 61 3a 9e 3d
       0.4258757 0.6725736 -0.10353833 0.07725979
000060 e8 88 1d bd 68 03 c9 3e 2a df a7 3d e8 ff d5 bd
       -0.038460642 0.3926041 0.08196862 -0.10449201
000070 ec 6b 2b 3f 06 d8 5b be 23 b9 83 3d 8f a4 91 bf
       0.6696155 -0.21469125 0.064317964 -1.1378344
000080 43 c4 32 be 2a 13 d8 3c 7e 7f 35 bd 27 f3 f9 3c
       -0.1745768 0.026376326 -0.04431104 0.030511452
000090 e0 32 19 3c 42 fc 8c 3c b6 7e 10 3e a0 88 fe 3b
       0.009350508 0.01721013 0.14110836 0.007767752
0000a0 35 da 84 3b 73 50 9f 3e 5d cc f7 be 15 9a ea 3e
       0.0040543326 0.31116065 -0.48398104 0.4582068
0000b0 b3 a0 2b be 48 b4 c4 bd a3 e0 a7 3d e9 27 b0 3e
       -0.1676052 -0.096046984 0.08197143 0.3440545
0000c0 8e a6 35 3d e4 d8 9a 3e 93 d0 83 be b6 f9 a8 be
       0.044348292 0.302436 -0.25745067 -0.33003014
0000d0 18 da 48 3e 51 e1 42 bd e9 9e c2 3c 39 28 14 3d
       0.19614446 -0.04757816 0.023757415 0.03617117
0000e0 04 54 8e 3c 83 0a 97 be bf ae 45 3f f4 82 9f be
       0.017374046 -0.29500207 0.77219766 -0.31154597
0000f0 11 ca 2d bf 04 b9 52 bf 1c 43 b1 3e a0 44 3a 3f
       -0.67886454 -0.8231356 0.34621513 0.72760963
