beergame/double_dueling_dqn/models/dqn_agent_firm_1_episode_3000.pth (torch, 105254 bytes, 28 tensors)

fc1.weight f4 [64, 3]
00000000: 662d 13bf 38c9 fdbd 26f0 a4be a66b b3bc
00000010: 470d 473d 83d7 123d 5e1f c7be 337c 9bbe
00000020: c490 af3e 134c 6e3e 9cdd 233e 4576 6dbe
00000030: ce09 99be e312 5fbd 7f09 9b3d 283c ab3d
00000040: 3db1 653e 2dfc be3c 13b0 1abe 7821 a43c
00000050: dab2 50bd ae20 f23e 0d6b fe3d 4f14 14be
00000060: 962f c23d 0d73 a5be ed0e bfbd e03b 74bd
00000070: 7665 fdbe 4673 68be 874f 6bbe 647b 043e
00000080: 6832 c83d ac73 fa3d 17b9 57bf 6717 1bbd
00000090: b2d0 a23e 3369 ccbe d14c 0c3e c4ea 163f
000000a0: 49e2 2b3f 2b39 bf3d 3968 d33d eb2c 17bd
000000b0: 97dd fc3c 1fa4 2fbe 5723 a8bd 87d4 85be
000000c0: f098 a6be 95fd 95be e873 09bf b10d 95be
000000d0: 1a41 0fbf 602e 9ebd 58d9 6bba 717a edbe
000000e0: 1bb4 a83c e8ca 22be 77b5 f23e 2115 5e3e
000000f0: 083e d93d 3a7a 283e b986 0abe b0f4 edbd
00000100: 12a8 3bbe f056 b6be 82aa c53e 0060 bdb8
00000110: 2e82 08bf 289f cd3d cede 513d 429b 89be
00000120: 30bf fb3d 9ccc b2be dfed f6be 7a4c 123e
00000130: f45d 003f eac5 c7bd 7c7e 21be 7323 c23e
00000140: acd0 b6bd 59d5 4bbe ab7b 863e aff4 9f3e
00000150: 2159 99be 200e 50bf b7fe 7f3d c83a 7abe
00000160: d110 183e 9089 49be 9f22 4fbe 5aa9 adbe
00000170: 0f6d 543c 83ef d4be 3098 dabc 3479 863d
00000180: 30d4 f6be a085 48bd 4f23 e5be 7c28 163f
00000190: 5ffd eebe ae69 393e 03a1 f83e 2afb 49be
000001a0: b714 973d f675 87bf 647a 2bbf 9678 4e3c
000001b0: 404f 843d f858 cbbd 0a39 53be f5f5 63be
000001c0: c2e4 abbd b124 fdbd b931 57bf b1da 8cbf
000001d0: cc52 9bbb aaf1 b9be 4035 503c 8c34 f1be
000001e0: e93f a3bd b74e 47be c15a 61bd 2858 013e
000001f0: a748 edbe b698 c3be 6c42 9c3e 3d91 97be
00000200: 72e5 8ebe 8392 ad3e d33f 3bbf c30d a3be
00000210: cb69 5e3e faf1 bc3e 890e a13e 2a7f 73be
00000220: 4004 e13c c90b f6bd 793d 023d 03bc 803d
00000230: ec4e 87bd 95c2 93be 98bf 7e3e c520 4f3d
00000240: ea8d 75be 5e41 f73e 8d95 7cbd 0e56 813e
00000250: 48b8 eebe 8dbb b4be 3bf0 a3bf 8a5e 143e
00000260: 1fa7 03bd c215 64be 8370 f2be 3f76 dfbe
00000270: 186e e7be e6a9 dbbe d0be b3bd 63f9 c7be
00000280: ba00 753e 5888 fabe 1cdf fc3d 2713 2fbf
00000290: cdef a13d d57e dbbe ed9e 503c e934 e6bc
000002a0: 49d5 52bf 514b 263e 52d0 cebd 6aa2 843e
000002b0: 4af9 c7be b90c 0abf af76 5bbe a9e8 883e
000002c0: b171 a0be 028c 2abf 1791 47bf ff01 1f3e
000002d0: 50ff 43be da20 1cbf 3104 77bd 10bd b43d
000002e0: 96c2 01be 0820 e2be 42ac cf3e b15c 263c
000002f0: f8e9 0f3e ee54 88bc 46df 13bf d6c2 38bc
-0.5749115 -0.12391895 -0.3221447 -0.021901917 0.048596647 0.03585006 -0.3889112 -0.30368194
0.34290135 0.23271208 0.16002506 -0.23189647 -0.29890293 -0.05446137 0.075701706 0.08361083
0.22430892 0.023313606 -0.1510623 0.02003549 -0.050951816 0.47290558 0.12422762 -0.14460872
0.094817325 -0.3231434 -0.09329019 -0.059627414 -0.4949147 -0.22700223 -0.22979556 0.12937695
0.09775239 0.12229094 -0.842668 -0.037864115 0.31799847 -0.3992401 0.13701178 0.58951974
0.6714216 0.09337076 0.10322613 -0.03690807 0.030867381 -0.17152451 -0.082098655 -0.26138708
-0.32538557 -0.2929503 -0.53692484 -0.29112008 -0.5595871 -0.07723689 -0.00089969253 -0.46382478
0.020593693 -0.15897715 0.47404072 0.21687748 0.10607535 0.16452876 -0.13527955 -0.11618936
-0.18325832 -0.35613203 0.3860665 -9.030104e-05 -0.5332364 0.10040122 0.051237874 -0.26876265
0.122923255 -0.3492173 -0.48228356 0.14286986 0.5014336 -0.09754546 -0.15770906 0.3791767
-0.0892652 -0.19905604 0.26266226 0.31241366 -0.29950812 -0.81271553 0.062498774 -0.24436486
0.14850165 -0.19681382 -0.2022805 -0.33918267 0.012965455 -0.41588983 -0.026683897 0.065660864
-0.4820876 -0.04895556 -0.447535 0.58655524 -0.46677682 0.1810672 0.48560342 -0.19724718
0.07376998 -1.0582874 -0.6698363 0.012601992 0.06460428 -0.09929079 -0.20627227 -0.22261794
-0.083932415 -0.12360514 -0.84060246 -1.1004239 -0.0047400948 -0.36317188 0.012708008 -0.47110403
-0.07971174 -0.19463621 -0.05501819 0.12631285 -0.46344492 -0.38202447 0.30519426 -0.29602996
-0.27909428 0.33900842 -0.73144263 -0.31846437 0.21720044 0.36903363 0.31456402 -0.23778978
0.027467847 -0.120139666 0.031796906 0.062858604 -0.0660685 -0.28859392 0.24877775 0.05056836
-0.23979917 0.4829206 -0.06166606 0.25260967 -0.4662497 -0.3529934 -1.2807688 0.14489189
-0.0321418 -0.22273925 -0.47351465 -0.43644902 -0.45201182 -0.4290306 -0.08776629 -0.39057454
0.23926058 -0.48932147 0.12347242 -0.683886 0.079070665 -0.42870203 0.012733203 -0.028101401
-0.823567 0.16239668 -0.10098328 0.25905162 -0.3905738 -0.53925663 -0.21431993 0.26740006
-0.3133674 -0.66619885 -0.77955765 0.15528105 -0.19140363 -0.6098763 -0.06030673 0.08825123
-0.12671885 -0.44165063 0.4056111 0.010153935 0.14054096 -0.01664206 -0.57762563 -0.011276921

fc1.bias f4 [64]
00000000: 1780 96be 27e0 6940 aa30 36c0 4437 2040
00000010: db87 7340 baa8 3e40 b12c 903f b254 1440
00000020: 3157 e13f 7c8d ff3e cd58 5d40 2123 49bf
00000030: d6d2 6840 5ff5 12c0 0505 3340 8993 0940
00000040: 7c38 cf3e b07f c93d 7bee 04c0 a3e3 f3bf
00000050: db39 4c40 2ede 933e 340f e2bd ac42 3440
00000060: 5634 cc3e 46ca fe3c ac89 4040 a1c4 b6bf
00000070: 35b1 9b3f cd78 c2bf 1b7d 0b40 df54 6a40
00000080: 885c 993e 9b78 06c0 e52c 1b40 a7ed edbf
00000090: fa4c 05bf 289e 1c40 c23f b83e 496b a3be
000000a0: b59e 5840 8837 7ebe 9c8a c7be 4844 693e
000000b0: abca 21c0 3ce4 5c40 b061 4640 80ca 5840
000000c0: 1017 35c0 9a82 bd3e 6624 0fc0 a011 303e
000000d0: 0f0f dbbe 6281 0a3f 4c91 21c0 38ff 0040
000000e0: d6da 3640 f51a 13bf fc36 1840 daef 84bf
000000f0: 198d 0c40 e831 c1be 184e c2bf 9ff2 473f
-0.293946 3.6543062 -2.8467202 2.5033731 3.805167 2.9790483 1.1263639 2.3176694
1.7604734 0.49912632 3.458545 -0.7856923 3.6378684 -2.2962263 2.7971814 2.1496298
0.40472782 0.098388076 -2.0770557 -1.9053844 3.1910312 0.28880447 -0.11038056 2.8165693
0.3988368 0.03110231 3.0084028 -1.4278756 1.2163454 -1.5193115 2.1795108 3.6614301
0.29953408 -2.1011112 2.4246151 -1.8588151 -0.5207058 2.447153 0.35986143 -0.3191779
3.3846867 -0.24825871 -0.38972938 0.22779953 -2.5279949 3.4514303 3.0997124 3.3873596
-2.8295326 0.37013704 -2.2365966 0.17194223 -0.42784926 0.5410367 -2.5244932 2.0155773
2.8571067 -0.5746301 2.378356 -1.0385697 2.196112 -0.37733388 -1.5180082 0.78104585

fc2.weight f4 [64, 64]
00000000: 307a 03bc 000c 20b9 18c3 d43d 2042 2ebd
00000010: f2ed bc3d fc96 ebbd 6479 7d3d 604e 993d
00000020: b0b4 61bd 808a a1ba 00ee a23a 1628 fa3d
00000030: 9064 b83c 706f 053c 5458 dcbd 36f7 f43d
00000040: ec97 d1bd 3823 a93c 9678 8d3d 2446 a6bd
00000050: 7454 d83d 00cb 86bb b063 ba3d 68a2 aabd
00000060: c076 23bc ee1e 8cbd a49d 103d facd cfbd
00000070: 8057 893a 809b 693d 686b 5abd d0b8 ec3d
00000080: 9428 2e3d 20e1 653c 7cff b43d 829b 80bd
00000090: 60cc 373c 9a63 fdbd a884 fbbd 7849 af3d
000000a0: d8a0 5fbd bc09 72bd ec83 3ebd 9e17 e03d
000000b0: 8054 98bd 9431 a6bd e00e 603c bc52 afbd
000000c0: 7ec5 e1bd 6013 f83d c47c 713d 8016 d2bb
000000d0: fe06 e4bd 3ef5 d43d a0a8 483c c43b 45bd
000000e0: 9086 94bd 68e1 f13c ecb6 2a3d c8fb d2bd
000000f0: 92bf 953d 3840 f73c 4417 f0bd e43c 473d
00000100: 8444 ab3d 301c c93e dae2 3ebe 9caa eb3d
00000110: 30c3 863f d644 4c3d 64b7 89be afcf babe
00000120: a1f4 02bf 0012 7a3d ff7d 923e 0b7d 1bbe
00000130: 85b2 4d3e f745 22bf 27b0 263e 078c fbbe
00000140: 3208 fd3d 4450 d7bd 2029 34be 2058 f5be
00000150: 88cf 8abe 50e4 a13c 188f dabd 5852 dbbd
00000160: e055 0cbc 8ffe bcbe 9039 e4be 71a6 87be
00000170: 56ac 8b3f 666a e9be a642 893e 32d4 363f
00000180: 7c70 cc3d f14a 36be beac 413e 066e 003e
00000190: 2022 95bb c5c7 5abd d50e 983e d4de b6bd
000001a0: ce3f 943e 2e66 89bd deef be3d e67a 05be
000001b0: 6b1b 00bf ef9d c5bd b6f5 3b3f da70 963e
000001c0: 0cd5 c3be 0004 7939 eee7 7dbe 000a fcba
000001d0: f819 c43d 2fbf 2cbf aa86 953d f7ed 99bc
000001e0: 41ea 293d a692 b03d 64c1 a2bf aa90 e43e
000001f0: db50 553f 40e6 3bbd 8bd2 2abe d8c6 c13e
00000200: f256 d7bd 8902 04bf 0828 8d3c 8534 7b3e
00000210: 2ed7 01bf 6a91 99bd aa01 39be edef cbbe
00000220: 4acb e7bd 68f9 4a3d 0c98 b3be 1862 23be
00000230: e4e5 b4be f432 7c3e 1ee0 94be 08d3 19bf
00000240: 8057 a6bc 10f9 f9bd 20e9 4bbd d402 613e
00000250: b545 36bf 58b7 9fbc b09a 3b3c 7e5a 633f
00000260: d85f 35bd 2e41 22be 2d8d bdbe 83b3 743d
00000270: 5b79 3ebf 37e4 e83d 3f6b 7cbe 8198 08bf
00000280: becf e8bd 2473 0e3e b185 0dbe 4875 b2bc
00000290: 1043 6c3d 44f7 97be bd4c 9abe e00e 03bd
000002a0: 9de2 0abf 989a 03bd 005c 3f3a aaf6 d0be
000002b0: 38c8 c13d 02e6 90be 7cb1 21bf 9e98 babe
000002c0: fe9a 2d3e a08c a8bb e1ac f93d da62 983d
000002d0: 08d3 a5bc 5238 73bd 0c0c e73c 0fa8 5abe
000002e0: b88d b1be bc1e 323d 8c52 a93e 6ca9 a0bd
000002f0: f8ca e9be 8822 083d 8d19 523e 7c3e 3cbe
00000300: 9e11 dfbd 0b1a 3a3d 435e 713d f255 5abd
00000310: dc08 e7bc df03 0bbc 90bc e73c 5a97 aabd
00000320: 3df0 30bd 6c0a 98bd fe87 8bbd bee1 9bbd
00000330: 5873 883d 316a 75bd 5f75 9abd c304 b1bd
00000340: 4044 45bd 280d 92bc c904 efbd 68b2 13bd
00000350: ad72 4bbd d0f3 553c 2e14 e43d e863 893c
00000360: 90e6 3cbc ed6b fb3c 5c06 e4bb 5a54 c1bd
00000370: d5e0 e7bd 1a8c e0bc a245 843d 2c44 3fbd
00000380: 760a ac3d 16f8 4a3d d1f4 a4ba a359 373d
00000390: 9c18 513d 5855 d3bd da3a 07bb 18ca 7a3d
000003a0: d5ed a23b 469a f13d c0b7 ca3b 2e00 03bd
000003b0: d681 5dbd e650 d1bd 60d1 c33c 322c 84bd
000003c0: 93d5 cabd 2879 ac3d c5ec a4bb c07f e13d
000003d0: 4477 6b3d 9078 0fbe 0383 fdbd 3538 b6bd
000003e0: 5b0c 93bd 8405 57bd a063 eebd cdcf 283d
000003f0: 4227 6a3d 3067 27bc 566e c6bd a9e7 c03d
-0.008024737 -0.0001526326 0.10388774 -0.04254353 0.09225072 -0.11503407 0.061883345 0.07485652
-0.055103958 -0.0012324601 0.0012430549 0.12214677 0.02250889 0.008144245 -0.10759035 0.11961214
-0.10234055 0.020646676 0.069077656 -0.08118847 0.10562983 -0.004113555 0.09101045 -0.08331758
-0.009977043 -0.06841837 0.035306588 -0.10146709 0.0010478348 0.057033062 -0.053325087 0.11558688
0.042519167 0.014030725 0.08837792 -0.06279661 0.01121816 -0.12372513 -0.122811615 0.08558935
-0.054596752 -0.059091315 -0.04651253 0.109420046 -0.07437992 -0.08114925 0.0136754215 -0.08560702
-0.11023997 0.121130705 0.058956876 -0.0064113736 -0.11134146 0.10398339 0.012247235 -0.0481527
-0.07252228 0.029526427 0.041678354 -0.1030193 0.0731193 0.03018199 -0.117231876 0.048642054
0.08362678 0.39279318 -0.18641225 0.115071505 1.0528316 0.049870335 -0.26897728 -0.36486575
-0.51154524 0.061052322 0.28611752 -0.15184419 0.20087631 -0.6338801 0.16278134 -0.4913027
0.12355079 -0.10513356 -0.17593813 -0.47918797 -0.2711146 0.019762188 -0.10671824 -0.10709065
-0.008565396 -0.36912963 -0.44575167 -0.26494172 1.0911968 -0.45588988 0.2680866 0.71417534
0.09982392 -0.17802025 0.18913552 0.1254197 -0.004551187 -0.05341317 0.29698816 -0.0892922
0.2895493 -0.06708942 0.09323095 -0.13035163 -0.50041837 -0.09649264 0.734218 0.29382974
-0.3824848 0.0002374798 -0.24795505 -0.0019229054 0.09575266 -0.67479223 0.07301076 -0.018790228
0.041483168 0.08621721 -1.2715268 0.4464162 0.833265 -0.04587388 -0.16681878 0.37847018
-0.105146304 -0.5156637 0.017231002 0.24531753 -0.50718963 -0.07498439 -0.18067041 -0.39831486
-0.11318071 0.04955426 -0.3507694 -0.15955389 -0.35331643 0.24628812 -0.29077238 -0.60087633
-0.020305395 -0.12205708 -0.049782872 0.21973735 -0.71200114 -0.019496605 0.011450455 0.88809955
-0.044280857 -0.15845177 -0.3702177 0.05974151 -0.74403924 0.113716535 -0.24650286 -0.533577
-0.11367749 0.1391111 -0.1382053 -0.02178444 0.057681143 -0.29680836 -0.30136672 -0.031996608
-0.54252034 -0.032129854 0.0007299781 -0.4081319 0.09462017 -0.28300482 -0.63161445 -0.36444563
0.16953656 -0.005143717 0.12191177 0.074407294 -0.02024223 -0.059379883 0.028203987 -0.21353172
-0.34678435 0.04348634 0.3307079 -0.07844815 -0.45662665 0.033236057 0.2051756 -0.18383211
-0.10892032 0.045434993 0.058927786 -0.05330462 -0.028202467 -0.00848481 0.028288156 -0.08329649
-0.04319786 -0.07423863 -0.06813048 -0.07611416 0.06662625 -0.059915725 -0.07541918 -0.08643486
-0.04816079 -0.017828539 -0.116708346 -0.036058813 -0.04966991 0.013058618 0.111366615 0.016771272
-0.01152958 0.030691111 -0.006958766 -0.09439917 -0.1132218 -0.027410556 0.06458594 -0.046695873
0.08400433 0.049553 -0.0012585168 0.04476322 0.05104886 -0.103190124 -0.0020634443 0.061227888
0.0049721994 0.117970034 0.0061864555 -0.031982593 -0.0540789 -0.10220508 0.023903549 -0.06453742
-0.09904017 0.08421546 -0.005033108 0.110106945 0.057486787 -0.14010835 -0.12378504 -0.088974394
-0.07180091 -0.052495494 -0.11640096 0.0412138 0.057166345 -0.010217473 -0.09689014 0.09419186

fc2.bias f4 [64]
00000000: 9e2c 8abd 6ff1 7b3f 9cd6 05bf 99d2 07be
00000010: 75d1 713d df4b fa3f 1910 d1bd 503c fd3f
00000020: cd96 1e3d 981d 95be 4f67 d33d dec1 913d
00000030: dd26 0a40 811e f83d 9e80 f33f 884b 0340
00000040: be89 fbbd c992 40bb d9bf 1040 7f05 d73f
00000050: d135 0840 0ff4 c03f 0c60 9fbd f350 0ebd
00000060: 8c5f 26bd 3876 e43f 7d1f debd 6706 b23d
00000070: 62c7 0140 3b9a 02be 6f05 05be 069a db3f
00000080: 8115 3fbd 020d c4bd bf58 27be f353 853e
00000090: 5c12 9fbd 7f76 b5bc a299 8e3c eadc c7bd
000000a0: a500 19bd d7aa aa3f 2090 d6bf 28fe 0640
000000b0: 56e2 5dbf 78b2 ca3c a568 c03f 5faf fd3f
000000c0: 1de2 a53d b73b ef3f a40a 75bf 1069 6f3f
000000d0: 9d36 f13f 713b 593d fb14 113d 2d1f 963d
000000e0: 1996 503b 15a8 2ebf 46bd 0240 b3cc 733f
000000f0: 6c67 9d3f b410 603f 7cec 0540 3a66 db3f
-0.06746791 0.98415273 -0.5228059 -0.1326393 0.059037644 1.9554404 -0.102081485 1.9784031
0.038718034 -0.2912414 0.10322439 0.07117055 2.158622 0.12115193 1.9023626 2.051485
-0.122821316 -0.0029384366 2.2617095 1.6798552 2.1282847 1.5074481 -0.07781991 -0.034745168
-0.040618464 1.7848577 -0.1084585 0.086926274 2.0277944 -0.12754147 -0.12990354 1.7156379
-0.046651367 -0.095727935 -0.16342448 0.2604061 -0.07767174 -0.02215123 0.017407242 -0.09758933
-0.03735413 1.3333386 -1.6762733 2.1092625 -0.86673486 0.024743304 1.5031935 1.9819144
0.08099768 1.8690099 -0.9571936 0.9351969 1.8844792 0.053035203 0.0354204 0.07330165
0.0031827746 -0.6822522 2.0428023 0.9523422 1.2297187 0.87525487 2.0925589 1.7140572

fc_A.weight f4 [20, 64]
00000000: 3079 cc3c 8419 843c 1458 4f3e b37d b33d
00000010: d6e9 9c3d 85a6 7f3f da97 83bd 9388 043f
00000020: 46dd b53d cd0b 1fbe 9654 c9bd ec42 0cbe
00000030: 59cf 293e e464 fd3d c664 ed3d 7ea9 30bf
00000040: 83dd c4bd 611f 9dbd 82af 5e3e 08df 493e
00000050: 8836 193e 1c02 d13b 1dfe f93d 46ac 183e
00000060: 5c34 b8bd c1db dc3d 0d62 8cbd 30cc a23d
00000070: cc03 823e f162 613e 19dc 11bd 7360 06bf
00000080: acf3 403e 68f5 63bd 33f7 c33d b989 0f3d
00000090: 165b 99bd f483 a63d c249 bdbd 8010 f3bd
000000a0: 7af1 833a 8976 19be abeb 69bd 75d4 c53d
000000b0: 4ab4 3dbd 12a0 debd e2c8 073f 66b0 e03d
000000c0: fd6e 91bd 7a2a 1c3e 8f36 fb3d 6536 ba3e
000000d0: a24f d73d d6f3 27bd b7c7 293d e71a f5bc
000000e0: 5a79 d53c 8e0d a23e ee2b 9c3e 1c15 73bf
000000f0: 71ed 073f 52f1 a23e 3ea4 2a3e 90b1 e2bd
00000100: c282 edbd 651e edbd 809c a33e 32f8 2a3d
00000110: 381e bebd cd17 113f 729b f93d ddc5 483e
00000120: b6c6 383c 84a7 3abe 3198 1bbd 2ca5 5fbe
00000130: 22f5 5c3e 9400 0abe 9cb3 263c a081 46be
00000140: c120 5cbd c63a 713c 9efd 983e 6cb2 273e
00000150: e569 573e bb46 5bbd 9546 9f3d 54ee 9bbd
00000160: 20ee 4bbc 36a0 123e 7df3 ca3b 5ab6 263e
00000170: f016 db3d 3f13 4a3e 6066 f33d 3bfc c0be
00000180: 62f6 4e3e 6413 ae3d 91d7 c53d 2132 09bd
00000190: a876 0cbd bd80 ab3c af07 00be e4ab 093d
000001a0: 9f42 adbd f11a 873b 21c5 99be 21f6 b13d
000001b0: bee1 a53e d825 4fbd a5e3 0b3d 86f9 223e
000001c0: 06fd bcbd ce5c 153d 6d8f 4bbe a48f 9b3d
000001d0: f271 db3d c4ef cabd aae3 1d3c d060 193e
000001e0: d004 19be 3fcc 3a3e 7832 e4bd 2634 94be
000001f0: 05aa 513e 7cf4 403f 84eb 443e d9f9 513d
00000200: 8010 2a3d 3e75 283f ca04 5f3e 5847 51bb
00000210: 2cc5 b13b 6862 9a3d 4331 7abd 0ea4 8d3e
00000220: b36e 6b3d db03 94be 6a33 93bd 5748 53be
00000230: 7503 463e 661f bd3d e2e4 903d b337 db3d
00000240: 58b7 c3bd 6c37 933d bd73 123e 3f70 973d
00000250: 9bec fc3d 071c 343d c143 843d e162 3ebd
00000260: 72d8 e63d 55ce c03d f5d9 0c3d f4d5 7e3e
00000270: 6461 283c 7dc8 0a3e f8d4 023e d1a3 d1be
00000280: efd8 723e bd3b 1abd 9cc5 cd3d 6c3f 2cbc
00000290: d422 88bd 5906 ec3d 10fe 1e3c 00e8 a4b9
000002a0: f6fc 3ebc 0d05 093c 521c 80be d208 603d
000002b0: 68c1 56bd 187e 8e3d 1840 013e f7a8 413e
000002c0: 42ed 873c 84fa 8c3d 2a7a 6abe a01a 4d3f
000002d0: f3d4 913e 6fda 0d3e 3bb3 eabd 93f0 163e
000002e0: 3f8c 1d3d eb13 e33d 7873 023d b20c 88be
000002f0: 869a a83e 68dd 303f f376 6d3d a57e 373e
00000300: d0a9 163d 0d3e 063f e352 783e 5fc8 eabd
00000310: 1918 10bd fc14 d33c 59c5 0cbd d851 843e
00000320: aa46 8abd 73ee 19be 328f e83c 6bcb f3bd
00000330: 89a1 043e 636a 4b3d a41a c33d 153d ad3c
00000340: 92f3 df3d e5f8 b63c 78b6 6e3e 709c 473d
00000350: a8f6 183e dffa 1a3e 11a9 e53c 69d0 aa3c
00000360: 1812 c03d 39e5 ed3d cb44 83bd 7ca0 e53d
00000370: 2a10 a03d 541b 253e 8090 8ebd cc41 42be
00000380: 67a6 563e fbd9 003e 6b22 ee3d fd85 afbd
00000390: aca2 fbbd 15da 083e 73eb afbc a49a 2bbd
000003a0: 9c3a 8abb 4473 08be 9bae a43c bf3a 41bd
000003b0: e4aa dabd 387f e33d 31e2 47be f132 163e
000003c0: 3128 4fbd c552 debc 9707 893d 73b4 283e
000003d0: 6227 d93d 1114 583d c23c 7c3d 2783 203e
000003e0: 2393 80bd 3b49 8e3e 8b43 abba 327a 70be
000003f0: 5704 473f 6c4a 093f 064b 9e3d 302b 233e
0.02496013 0.016125448 0.20248443 0.087642096 0.07661788 0.99863464 -0.06425448 0.51770896
0.08880095 -0.15531845 -0.098305866 -0.13697404 0.16583003 0.12372759 0.11591487 -0.69008625
-0.096125625 -0.07672001 0.21746638 0.19713986 0.14962208 0.0063784253 0.122066714 0.14909467
-0.08994362 0.10784102 -0.06854639 0.07949102 0.25393522 0.220104 -0.035610292 -0.5249092
0.18842953 -0.05565396 0.09568634 0.035043452 -0.074880764 0.08130637 -0.09242584 -0.118683815
0.0010066472 -0.14986624 -0.057109516 0.096596636 -0.046314515 -0.10870375 0.530409 0.10971145
-0.071012475 0.15250579 0.122662656 0.36369625 0.10513236 -0.041004024 0.04145023 -0.029920055
0.026058841 0.31650966 0.30502266 -0.94954085 0.5309668 0.31824738 0.16664216 -0.110690236
-0.11597206 -0.11578063 0.31955338 0.041740604 -0.092831075 0.5667694 0.12187852 0.19606729
0.011277845 -0.18227965 -0.037986938 -0.21840352 0.21577886 -0.13476783 0.010174658 -0.19385386
-0.053742174 0.014723485 0.29880995 0.16376656 0.2103649 -0.05353425 0.07777134 -0.07613817
-0.01244691 0.14318928 0.006193577 0.16280499 0.10697734 0.19733904 0.11884761 -0.37692437
0.20211175 0.08499792 0.09660257 -0.033495072 -0.034292847 0.02093541 -0.12502931 0.033611193
-0.084599726 0.0041230847 -0.3003321 0.086895235 0.3239879 -0.0505732 0.034152646 0.15915498
-0.09227948 0.03646546 -0.19878931 0.07595757 0.10715093 -0.09909013 0.009636799 0.14978337
-0.14943242 0.18241976 -0.11142439 -0.28946036 0.20475014 0.75373054 0.19230467 0.051263664
0.041519642 0.658039 0.2177917 -0.0031933393 0.005425116 0.07538301 -0.061082136 0.27664226
0.057478618 -0.2890919 -0.07187541 -0.20633064 0.19337256 0.092345044 0.07074906 0.10703983
-0.095564544 0.07188305 0.14301963 0.07394456 0.123498164 0.04397204 0.064582355 -0.046481017
0.112717524 0.09414355 0.034387548 0.24886304 0.010277126 0.13553043 0.12776554 -0.40945294
0.23715566 -0.037654627 0.100474566 -0.010513168 -0.06647268 0.11524648 0.009704128 -0.0003145337
-0.01165699 0.008363021 -0.25021607 0.05469591 -0.05243054 0.06957644 0.12622106 0.18912111
0.016592626 0.068837196 -0.22898164 0.8011875 0.2848278 0.13852857 -0.11459967 0.1474021
0.038463827 0.110877834 0.0318484 -0.26572186 0.32930392 0.6908784 0.057974767 0.17919405
0.03678304 0.5243843 0.24250369 -0.11463999 -0.03517923 0.025766842 -0.034367893 0.25843692
-0.06751759 -0.15032367 0.028388593 -0.11904033 0.12952246 0.049662005 0.09526566 0.02114729
0.10935129 0.022335479 0.23311794 0.048733175 0.14937842 0.15134762 0.028034719 0.02085133
0.09378451 0.116159864 -0.064096056 0.112122506 0.07815583 0.16123706 -0.06961155 -0.18970412
0.20961915 0.12583153 0.116276585 -0.08570478 -0.122868866 0.13364442 -0.021474576 -0.041895524
-0.0042184126 -0.1332522 0.02010279 -0.047175165 -0.10677126 0.111082494 -0.19519879 0.1466787
-0.05057544 -0.027139077 0.06690901 0.16475086 0.10603215 0.05275351 0.06158138 0.1567503
-0.06278064 0.27790245 -0.0013066394 -0.23484114 0.77741 0.53629184 0.07729153 0.15934443

fc_A.bias f4 [20]
00000000: ff33 d03f 9b65 e53e 48d9 183e ddd0 fc3d
00000010: 28f0 8b3e b469 f53d e585 8cbd a9c1 35be
00000020: 64cd 8abd 205f f0bd d2f7 84be 599f ddbe
00000030: a0e3 dbbe ccee d0be 60c1 f4be 16b8 1fbf
00000040: d30e 44bf b1e2 63bf b041 41bf 0cfd 93bf
1.6265868 0.4480408 0.14926636 0.12344525 0.27331662 0.11983052 -0.06861476 -0.17749657
-0.067774564 -0.11736894 -0.25970322 -0.43285635 -0.42947102 -0.40807188 -0.47803783 -0.6239027
-0.7658512 -0.8901778 -0.75490856 -1.1561599

fc_V.weight f4 [1, 64]
00000000: a275 a63d 29c7 b3be e6d6 93be 9e3b b2bc
00000010: dacb 7f3d e214 f3bf bd95 b33d 868c 003f
00000020: b77c 753d 71b4 92bd ff27 353d b377 98be
00000030: 3497 ee3e cb2c b03d 805f 6a3f 8d67 bfbf
00000040: 85c3 e03c af5a 593d b200 133f b42b 4c3f
00000050: 5308 db3e 9352 2b3f 290e d4bd cf38 9e3d
00000060: e888 1dbd 13df c53e 7fdf a73d a9fb d5bd
00000070: ac14 2a3f 7ad8 5bbe 57b6 833d 7def 98bf
00000080: 4dc7 32be 540f d83c 827f 35bd d4f3 f93c
00000090: e032 193c 31f8 8c3c cf81 103e a088 fe3b
000000a0: 45da 843b 6220 a93e 06c9 f7be e7b7 e93e
000000b0: bc90 4bbe 48b4 c4bd 0707 303e d15e b33e
000000c0: a1a7 353d 4e25 a43e e9cf 83be acb4 03be
000000d0: 119e 613e 2de2 42bd 8ea1 c23c f225 143d
000000e0: 5351 8e3c e006 97be 5227 503f fb77 a6be
000000f0: 1d92 22bf 5726 e4be eeee b13e 2328 383f
0.081279054 -0.35112885 -0.28874892 -0.021756943 0.062450267 -1.8990748 0.08768795 0.5021442
0.05993339 -0.07163323 0.044227596 -0.29778823 0.46599734 0.086022936 0.9155197 -1.4953476
0.027436981 0.053065 0.57422936 0.79754186 0.42779788 0.66922873 -0.10354263 0.07725679
-0.038460642 0.38646755 0.08196925 -0.10448391 0.6643779 -0.21469298 0.06431263 -1.1948086
-0.1745884 0.026374497 -0.044311054 0.030511774 0.009350508 0.01720819 0.14112018 0.007767752
0.00405434 0.3303252 -0.48395556 0.4564812 -0.1987943 -0.096046984 0.1719018 0.35033277
0.044349317 0.3205971 -0.2574456 -0.1286189 0.22032954 -0.04757898 0.023758676 0.036169
0.017372763 -0.29497433 0.8131 -0.32513413 -0.635042 -0.445605 0.347526 0.71936244

fc1.weight f4 [64, 3]
00000000: 662d 13bf 38c9 fdbd 26f0 a4be 69a0 31bc
00000010: bbab 713d ad37 093d f9e5 d0be e91c 97be
00000020: 66cb b03e 1e4d 723e 9ecb 1a3e a722 70be
00000030: 9486 9bbe 7c66 70bd e64d a33d 2871 ce3d
00000040: 7069 733e 742b b93c 6204 debd e202 9f3d
00000050: 3f06 32bd 18b5 f63e b2f3 eb3d 14d5 18be
00000060: 8b7e e43d 1bf4 93be 2f56 98bd e03b 74bd
00000070: fa65 fdbe 4673 68be dff2 63be 235e 0b3e
00000080: 05dd c43d f777 fa3d 53b9 57bf 4611 1bbd
00000090: b851 a63e 3e2a cebe 35d5 093e a4ac 163f
000000a0: f895 2d3f b4cf b53d 2054 003e 7df5 adbc
000000b0: 9878 003d 1a17 e2bd 3c4f e6bd 255b 2ebe
000000c0: f098 a6be 95fd 95be e873 09bf b10d 95be
000000d0: 1a41 0fbf aa2e 9ebd 5d09 6b39 0313 edbe
000000e0: 715f b23c ed1e 2dbe 4a48 f43e 39e7 5c3e
000000f0: a143 d43d 45aa 393e 5dd3 06be cdf4 edbd
00000100: 12a8 3bbe f056 b6be 82aa c53e 0060 bdb8
00000110: 2e82 08bf 02f3 d73d dffe 1c3d 7b02 86be
00000120: 30bf fb3d 9ccc b2be dfed f6be 90c4 283e
00000130: 1447 073f 5b2b 86bd 46df 23be aad8 c33e
00000140: c30e d6bd 2d7f 52be 0a22 883e 3468 9f3e
00000150: 1cce afbe 7d1c 64bf bcb5 5a3d 8f92 4bbe
00000160: fbde 323e 0bc3 11be 0dcb 32be 1d2d c9be
00000170: 14e2 09bc 17f4 dabe 08dd 01bd 7284 8b3d
00000180: 30d4 f6be a085 48bd 4f23 e5be 106d 153f
00000190: 2ef5 f2be 7159 423e 1d82 fe3e 416b 4dbe
000001a0: 1e23 923d 815c 87bf fa62 2bbf 75a8 533c
000001b0: 404f 843d 5059 cbbd 0a39 53be 8e9a 40be
000001c0: d21f a7bd 528e acbd ba51 4fbf d329 89bf
000001d0: 36dd 9b3b aaf1 b9be 4035 503c d834 f1be
000001e0: 1b4a afbd 2a0e 36be e0ac 63bd 2858 013e
000001f0: ed48 edbe ea98 c3be 7842 9c3e 3d91 97be
00000200: 72e5 8ebe 1eee ad3e 0119 3bbf 98a8 a2be
00000210: c6be 583e 80f9 bd3e e593 9e3e 802a 79be
00000220: 8693 fe3c ae78 e3bd 4100 133d 35cf 7b3d
00000230: 9a0d 83bd 58df 89be 204b 873e 8fc6 563d
00000240: 525d 86be 72b5 033f c8af 03bd 0e56 813e
00000250: 48b8 eebe 8dbb b4be 8cd9 a2bf 41d0 1c3e
00000260: 8867 00bd c215 64be 4171 f2be 3f76 dfbe
00000270: 186e e7be e6a9 dbbe d0be b3bd 99e4 c1be
00000280: 201d 833e 25c4 d6be b394 2a3e e055 20bf
00000290: a49e bb3d d67e dfbe 3c33 e4bc e6ad 4ebd
000002a0: b6af 48bf 1afc 613e 69c5 a8bd 6aa2 843e
000002b0: 4af9 c7be b90c 0abf 8dc3 58be c996 8a3e
000002c0: 7479 9ebe 7de2 3bbf 2d28 34bf 8434 213e
000002d0: 5680 34be ee48 17bf 334b 43bd 10bd b43d
000002e0: 96c2 01be 0820 e2be 01d1 ce3e 9af6 1c3b
000002f0: 35a7 113e 150f 66bb f784 0dbf 0e87 28bc
-0.5749115 -0.12391895 -0.3221447 -0.010841467 0.059001666 0.033500362 -0.40800455 -0.29514244
0.3453018 0.2366223 0.15116736 -0.23450719 -0.30376112 -0.058691487 0.07973842 0.100801766
0.2377069 0.022603728 -0.1084068 0.07764222 -0.043462988 0.4818504 0.115210906 -0.14925033
0.11156949 -0.28897175 -0.07438313 -0.059627414 -0.49491864 -0.22700223 -0.22260617 0.13610129
0.09612469 0.12229913 -0.8426716 -0.03785827 0.3248422 -0.40266603 0.13460238 0.5885718
0.6780696 0.08877507 0.12532091 -0.021235222 0.031365007 -0.110395625 -0.112455815 -0.17026956
-0.32538557 -0.2929503 -0.53692484 -0.29112008 -0.5595871 -0.07723744 0.00022414835 -0.46303567
0.021774026 -0.16906328 0.47711402 0.2157258 0.10364462 0.18131359 -0.13166566 -0.11618958
-0.18325832 -0.35613203 0.3860665 -9.030104e-05 -0.5332364 0.10544397 0.038329 -0.26173767
0.122923255 -0.3492173 -0.48228356 0.16481233 0.5284283 -0.06551238 -0.16003141 0.3825124
-0.10452034 -0.20556326 0.2658847 0.31134188 -0.34336936 -0.8910597 0.05339597 -0.19880126
0.17467873 -0.14234559 -0.1746027 -0.3929223 -0.008415718 -0.4276435 -0.031704932 0.06812371
-0.4820876 -0.04895556 -0.447535 0.5836954 -0.47452682 0.18979432 0.49708644 -0.20060445
0.07135604 -1.0575105 -0.669479 0.012918581 0.06460428 -0.099291444 -0.20627227 -0.18808958
-0.08160366 -0.08425583 -0.8098408 -1.0715889 0.004756595 -0.36317188 0.012708008 -0.4711063
-0.08559056 -0.1777884 -0.05558479 0.12631285 -0.463447 -0.38202602 0.30519462 -0.29602996
-0.27909428 0.33970731 -0.7308503 -0.31769252 0.21166524 0.37104416 0.3097221 -0.24332619
0.031076204 -0.11107002 0.035888914 0.061476905 -0.06399079 -0.2692821 0.26424503 0.052435454
-0.26243073 0.5144874 -0.03215006 0.25260967 -0.4662497 -0.3529934 -1.272264 0.15313818
-0.031348735 -0.22273925 -0.4735203 -0.43644902 -0.45201182 -0.4290306 -0.08776629 -0.3786972
0.25608158 -0.4194652 0.16658287 -0.62631035 0.09161118 -0.43651456 -0.027856462 -0.05045881
-0.78393114 0.22068825 -0.08240778 0.25905162 -0.3905738 -0.53925663 -0.21168347 0.27068165
-0.30952036 -0.7339247 -0.70373803 0.1574269 -0.17627081 -0.59095657 -0.047679137 0.08825123
-0.12671885 -0.44165063 0.40393832 0.0023950697 0.1422394 -0.0035104204 -0.55281013 -0.010286106

fc1.bias f4 [64]
00000000: 1780 96be 0b0b 6b40 2dff 36c0 0665 1f40
00000010: e291 7540 6e5b 4040 49b9 923f fea5 1240
00000020: 88f1 e23f 7c8d ff3e d171 5e40 e622 49bf
00000030: 42a6 6940 08cb 12c0 f1b7 3440 25b8 0740
00000040: 7c38 cf3e b07f c93d 2edb 04c0 4834 f4bf
00000050: 6511 4b40 2ede 933e 340f e2bd bab3 3340
00000060: 5634 cc3e 5bc8 4c3d db34 3f40 05c8 b6bf
00000070: b32a 953f d44b bfbf 47fd 0840 ceb1 6b40
00000080: 885c 993e 7c98 06c0 c3ea 1b40 2be1 edbf
00000090: fa4c 05bf 6a19 1d40 bbeb bd3e 496b a3be
000000a0: e60e 5840 8837 7ebe 9c8a c7be 366f 693e
000000b0: 43f8 21c0 bb0e 5c40 4abe 4540 d3be 5a40
000000c0: 1acb 32c0 9a82 bd3e 489c 0ec0 a011 303e
000000d0: 0f0f dbbe ddcd 0c3f 5ba2 20c0 a169 fa3f
000000e0: dea2 3c40 f51a 13bf 7ce7 1740 9e1d 89bf
000000f0: a4f7 0d40 e831 c1be 7464 c2bf ef02 493f
-0.293946 3.672549 -2.8593247 2.490541 3.837029 3.0055804 1.1462795 2.2913814
1.772996 0.49912632 3.4756968 -0.78568876 3.6507726 -2.293642 2.823727 2.1206143
0.40472782 0.098388076 -2.0758777 -1.9078455 3.1729367 0.28880447 -0.11038056 2.8078446
0.3988368 0.04999576 2.987601 -1.4279791 1.1653656 -1.4945016 2.1404588 3.6827273
0.29953408 -2.103057 2.4362037 -1.8584341 -0.5207058 2.4546762 0.3709391 -0.3191779
3.3759093 -0.24825871 -0.38972938 0.2279633 -2.5307777 3.438399 3.0897393 3.417897
-2.7936463 0.37013704 -2.2282887 0.17194223 -0.42784926 0.5500162 -2.5099094 1.9563485
2.9474406 -0.5746301 2.3735037 -1.0712163 2.2182398 -0.37733388 -1.5186906 0.785201

fc2.weight f4 [64, 64]
00000000: 307a 03bc 000c 20b9 80c3 d43d 2042 2ebd
00000010: f2ed bc3d 5397 ebbd 8279 7d3d 604e 993d
00000020: b0b4 61bd 808a a1ba 00ee a23a 1628 fa3d
00000030: 9064 b83c 706f 053c ee58 dcbd 36f7 f43d
00000040: ec97 d1bd 6323 a93c 9678 8d3d 2446 a6bd
00000050: 7454 d83d 00cb 86bb b063 ba3d 68a2 aabd
00000060: c076 23bc ee1e 8cbd f79d 103d facd cfbd
00000070: 8057 893a 829b 693d 686b 5abd d0b8 ec3d
00000080: 9428 2e3d 20e1 653c 7cff b43d 829b 80bd
00000090: 60cc 373c 9a63 fdbd a884 fbbd a049 af3d
000000a0: d8a0 5fbd bc09 72bd 1d84 3ebd 9e17 e03d
000000b0: 8054 98bd 9431 a6bd e00e 603c bc52 afbd
000000c0: 7ec5 e1bd 6013 f83d c47c 713d 8016 d2bb
000000d0: fe06 e4bd 3ef5 d43d a0a8 483c c43b 45bd
000000e0: 9086 94bd 68e1 f13c ecb6 2a3d c8fb d2bd
000000f0: 92bf 953d 3840 f73c af17 f0bd e43c 473d
00000100: 8444 ab3d 4d43 bb3e 06bc 66be 98c0 a73d
00000110: baef 813f 8863 003d a0b2 a0be 9133 a1be
00000120: 7ad1 b5be 6712 7a3d 25b2 803e 277f 1bbe
00000130: 94dd 2e3e 6a17 25bf 936b 0d3e 3692 c9be
00000140: 3a08 fd3d 4450 d7bd f500 36be d716 04bf
00000150: 69db 79be 50e4 a13c 188f dabd a38e 7e3d
00000160: e055 0cbc 8a63 c4be 225e e8be 822c 9abe
00000170: add7 813f 0846 e2be dc99 613e 4acb 2b3f
00000180: 7c70 cc3d 88c7 5bbe e938 2b3e a964 003e
00000190: 3a22 95bb 8af0 d8bd b152 973e 0fdf b6bd
000001a0: 55c6 953e 4866 89bd deef be3d eb33 06be
000001b0: 0048 08bf 4607 8ebd 18ca 3b3f f80e 863e
000001c0: 7e22 c0be 0004 7939 15ed 7dbe 510a fcba
000001d0: f819 c43d 7c6a 26bf ee5d 4b3b bf2d cebc
000001e0: 25f6 a63c a692 b03d 8522 8dbf 2c95 d03e
000001f0: f803 573f 40e6 3bbd c446 47be c221 bd3e
00000200: f256 d7bd 74ff 03bf d233 8d3c 7833 7b3e
00000210: c2d4 01bf 9b8d 99bd f101 39be a8f1 cbbe
00000220: 1dc8 e7bd 68f9 4a3d 3497 b3be ce5e 23be
00000230: 3de3 b4be 4835 7c3e d2df 94be 76d1 19bf
00000240: 8057 a6bc 10f9 f9bd 8ce0 4bbd 4104 613e
00000250: ce42 36bf 58b7 9fbc b09a 3b3c ec59 633f
00000260: 3e60 35bd a541 22be 1c8a bdbe d3ba 743d
00000270: 6578 3ebf d0e7 e83d f96b 7cbe 4097 08bf
00000280: 61d0 e8bd 2c77 0e3e e884 0dbe 4071 b2bc
00000290: 3443 6c3d e5f4 97be 8f4a 9abe e00e 03bd
000002a0: 32e1 0abf 989a 03bd 005c 3f3a d5f6 d0be
000002b0: 0ecd c13d 47e4 90be 1db1 21bf 3298 babe
000002c0: ee9b 2d3e a08c a8bb beb0 f93d da62 983d
000002d0: 08d3 a5bc 7a38 73bd 401a e73c 55a7 5abe
000002e0: c28b b1be bc1e 323d 4352 a93e dfa5 a0bd
000002f0: 62ca e9be 8822 083d cd1b 523e 133e 3cbe
00000300: 9e11 dfbd 311b 3a3d cf5f 713d 4d55 5abd
00000310: 5707 e7bc 7200 0bbc efbe e73c 7c96 aabd
00000320: 82ef 30bd 6c0a 98bd 4285 8bbd d0e0 9bbd
00000330: 1774 883d fc6a 75bd 8775 9abd 0a03 b1bd
00000340: 4044 45bd 280d 92bc 5602 efbd 21af 13bd
00000350: c070 4bbd 31f4 553c 2e14 e43d 4766 893c
00000360: 90e6 3cbc 106e fb3c cd05 e4bb e052 c1bd
00000370: 30de e7bd 2a8b e0bc ab49 843d 8643 3fbd
00000380: 760a ac3d 8ffb 4a3d 10f5 a4ba 0e5c 373d
00000390: 9c18 513d 4f54 d3bd af37 07bb 18ca 7a3d
000003a0: 6df1 a23b 689a f13d c0b7 ca3b a3fd 02bd
000003b0: cf81 5dbd ad50 d1bd 81d3 c33c 6c2a 84bd
000003c0: 80d4 cabd 2879 ac3d 40ed a4bb c07f e13d
000003d0: 4477 6b3d fe78 0fbe 5281 fdbd 1637 b6bd
000003e0: 110b 93bd a205 57bd a063 eebd 5ad1 283d
000003f0: 2128 6a3d 3067 27bc 946b c6bd 66e9 c03d
-0.008024737 -0.0001526326 0.10388851 -0.04254353 0.09225072 -0.11503472 0.061883457 0.07485652
-0.055103958 -0.0012324601 0.0012430549 0.12214677 0.02250889 0.008144245 -0.107591495 0.11961214
-0.10234055 0.020646757 0.069077656 -0.08118847 0.10562983 -0.004113555 0.09101045 -0.08331758
-0.009977043 -0.06841837 0.035306897 -0.10146709 0.0010478348 0.05703307 -0.053325087 0.11558688
0.042519167 0.014030725 0.08837792 -0.06279661 0.01121816 -0.12372513 -0.122811615 0.08558965
-0.054596752 -0.059091315 -0.04651271 0.109420046 -0.07437992 -0.08114925 0.0136754215 -0.08560702
-0.11023997 0.121130705 0.058956876 -0.0064113736 -0.11134146 0.10398339 0.012247235 -0.0481527
-0.07252228 0.029526427 0.041678354 -0.1030193 0.0731193 0.03018199 -0.11723267 0.048642054
0.08362678 0.36574784 -0.22532663 0.08191031 1.0151284 0.03134492 -0.3138628 -0.31484655
-0.3551138 0.061052706 0.25135913 -0.15185224 0.17076713 -0.6448885 0.13810568 -0.39369363
0.12355085 -0.10513356 -0.17773803 -0.5159735 -0.24400105 0.019762188 -0.10671824 0.062147748
-0.008565396 -0.38357192 -0.45384318 -0.30112082 1.0143944 -0.44194055 0.22031349 0.6710707
0.09982392 -0.21462834 0.16720928 0.12538399 -0.0045511993 -0.10592754 0.29555276 -0.08929264
0.29252878 -0.06708962 0.09323095 -0.13105743 -0.53234863 -0.06934981 0.73355246 0.26183295
-0.37526315 0.0002374798 -0.24797471 -0.0019229149 0.09575266 -0.6500623 0.0031031328 -0.025168298
0.020381043 0.08621721 -1.102616 0.4073881 0.8399043 -0.04587388 -0.19460589 0.36939818
-0.105146304 -0.51561666 0.017236624 0.24531353 -0.5071527 -0.07497712 -0.18067147 -0.39832807
-0.113174655 0.04955426 -0.35076296 -0.15954134 -0.3532962 0.246297 -0.2907701 -0.6008524
-0.020305395 -0.12205708 -0.04977469 0.21974279 -0.71195686 -0.019496605 0.011450455 0.88809085
-0.044281237 -0.15845354 -0.37019432 0.059748482 -0.7440246 0.1137234 -0.24650563 -0.5335579
-0.1136787 0.13912648 -0.13820231 -0.021782517 0.057681277 -0.29679027 -0.3013501 -0.031996608
-0.5424987 -0.032129854 0.0007299781 -0.40813318 0.09462939 -0.28299162 -0.6316088 -0.3644424
0.16954014 -0.005143717 0.12191914 0.074407294 -0.02024223 -0.059380032 0.02821076 -0.21352895
-0.3467694 0.04348634 0.33070573 -0.078441374 -0.45662218 0.033236057 0.20518418 -0.18383054
-0.10892032 0.045436088 0.05892926 -0.053304005 -0.028201742 -0.008483993 0.028289286 -0.08329484
-0.043197162 -0.07423863 -0.06812526 -0.07611239 0.066627674 -0.05991648 -0.07541948 -0.08643158
-0.04816079 -0.017828539 -0.116703674 -0.036055688 -0.049668074 0.013058708 0.111366615 0.016772402
-0.01152958 0.03069213 -0.0069586993 -0.09439635 -0.11321676 -0.027410109 0.064593635 -0.046695255
0.08400433 0.04955631 -0.0012585241 0.044765525 0.05104886 -0.10318815 -0.0020632555 0.061227888
0.004972628 0.11797029 0.0061864555 -0.031980168 -0.054078873 -0.10220466 0.023904564 -0.06453404
-0.099038124 0.08421546 -0.005033165 0.110106945 0.057486787 -0.14010999 -0.123781815 -0.088972256
-0.07179845 -0.052495606 -0.11640096 0.04121528 0.057167176 -0.010217473 -0.09688488 0.09419517

fc2.bias f4 [64]
00000000: 9e2c 8abd 725a 773f 35d4 05bf 07d0 07be
00000010: 00d5 713d 26b3 f93f 450e d1bd 34a1 fc3f
00000020: 2198 1e3d dc19 95be be6b d33d eba8 c03d
00000030: 7f18 0a40 661e f83d 7ae9 f23f 113d 0440
00000040: 6989 fbbd 8f8f 40bb 8c5f 1040 efc5 d53f
00000050: fd40 0840 32bf c03f 4263 9fbd 1d50 0ebd
00000060: 8c5f 26bd 1209 e83f eb84 dbbd c208 b23d
00000070: 0b7c 0140 1398 02be 07f1 04be f686 dd3f
00000080: a614 3fbd 320a c4bd 7256 27be 4d53 853e
00000090: 5c12 9fbd 5766 b5bc 42ae 913c eadc c7bd
000000a0: 86fe 18bd 9f09 af3f 7290 d6bf 7615 0740
000000b0: 5ba3 5bbf 78b2 ca3c a808 bc3f 94d0 fd3f
000000c0: 57e3 a53d 66bc ef3f 5309 75bf c67f 763f
000000d0: 18eb f13f f33f 593d 0e17 113d 2220 963d
000000e0: 2c95 503b 90a5 2ebf 324a 0240 b595 773f
000000f0: 7ece 9d3f 1547 603f 7b0c 0640 accd da3f
-0.06746791 0.96622384 -0.5227693 -0.1326295 0.059041023 1.9507797 -0.102078 1.9736695
0.0387193 -0.29121292 0.103232846 0.094072185 2.1577451 0.12115173 1.8977501 2.0662272
-0.12282068 -0.0029382443 2.2558317 1.670103 2.1289666 1.5058348 -0.07782604 -0.03474437
-0.040618464 1.8127768 -0.107187115 0.08693077 2.023196 -0.12753324 -0.1298257 1.7306812
-0.04665055 -0.09572257 -0.1634157 0.26040116 -0.07767174 -0.022143526 0.017783288 -0.09758933
-0.037352107 1.3674811 -1.6762831 2.1106849 -0.85796136 0.024743304 1.4690142 1.9829278
0.08100002 1.872937 -0.9571735 0.96288717 1.889987 0.053039502 0.035422377 0.073303476
0.0031827195 -0.6822138 2.0357785 0.9671281 1.2328641 0.8760846 2.0945117 1.7094016

fc_A.weight f4 [20, 64]
00000000: 3079 cc3c 8ee8 813d aa5c 4f3e c37f b33d
00000010: 89e6 9c3d 84ff 763f e399 83bd 6e0f 053f
00000020: 25e1 b53d b510 1fbe ad55 c9bd 393c c3bd
00000030: 85bd 2d3e 1262 fd3d f929 f83d 429a 39bf
00000040: 23dd c4bd 391d 9dbd 3dae 643e 6237 513e
00000050: 28e3 1e3e ba61 373c dffe f93d 7dac 183e
00000060: 5c34 b8bd 5a5c e53d d237 89bd 5eca a23d
00000070: 74f6 833e 0362 613e 5f33 12bd 9bf3 0dbf
00000080: 37f1 403e 2cf6 63bd aaf6 c33d 858c 0f3d
00000090: 165b 99bd 307a a63d e475 bdbd 8010 f3bd
000000a0: d4ef 833a 4ab1 15be 7803 6abd e969 cf3d
000000b0: 8531 40bd 12a0 debd 06d7 013f 8c32 e83d
000000c0: e670 91bd bdf5 223e 342d fb3d ca45 bb3e
000000d0: 43c2 de3d 99f6 27bd 5bcb 293d 9912 f5bc
000000e0: 187b d53c f50a a23e d3dd 9f3e 4707 7cbf
000000f0: 9b26 1d3f eba0 9b3e 70fd 2e3e 01f0 d8bd
00000100: 8583 edbd 9b00 4bbe 6799 a33e 0cfc 2a3d
00000110: 7422 bebd 7a9f 0a3f 4f99 f93d d922 583e
00000120: 70c3 383c f5a3 3abe 7f9a 1bbd 6c80 35be
00000130: 55f3 603e a1fe 09be 05ee c23b 0a0c 51be
00000140: 3d22 5cbd a73c 713c 7a45 973e f253 243e
00000150: e654 563e ce23 67bd 0344 9f3d 6ff0 9bbd
00000160: 20ee 4bbc 226f 303e f180 fd3b 49b6 263e
00000170: 053a de3d 2f11 4a3e d939 f33d d32b c5be
00000180: 33f3 4e3e 1f11 ae3d 23d7 c53d 982f 09bd
00000190: a876 0cbd 96e6 ab3c 3e56 ffbd e4ab 093d
000001a0: 1742 adbd 14d9 783c 14bf 99be 42e4 ab3d
000001b0: 6a92 a53e fb25 4fbd 71ea d33d 4241 283e
000001c0: 6301 bdbd 56f9 133d 198c 4bbe 3455 523d
000001d0: cb1f f03d bff3 cabd 71e4 1d3c 2e60 193e
000001e0: 6e02 19be faca 3a3e fe2b e4bd a7d2 96be
000001f0: 7e60 403e 9cc3 3c3f b404 483e f3bf 4d3d
00000200: 8010 2a3d 8c50 b13e 8904 5f3e dc48 51bb
00000210: 59c6 b13b d77d da3d 8f35 7abd 4638 913e
00000220: 5b6c 6b3d 5300 94be 0836 93bd 3b33 29be
00000230: b5fe 453e bc1c bd3d 56af 8a3d 7e01 0c3e
00000240: 29b8 c3bd f039 933d 1805 033e 12a3 943d
00000250: 09c0 f43d 00ef 643d dc41 843d f560 3ebd
00000260: 77d8 e63d 6f12 703d dd2d 133d 2cd5 7e3e
00000270: e0d0 863c c1c9 0a3e debe 023e 2f8e c6be
00000280: b8da 723e d63e 1abd 82c2 cd3d 5e3c 2cbc
00000290: d422 88bd 9b08 ec3d c4ca 243c 00e8 a4b9
000002a0: 36fd 3ebc d2aa 3dbd c018 80be f841 733d
000002b0: 563e 59bd 187e 8e3d bb66 2c3d 77c2 403e
000002c0: 46ef 873c a77c 893d 4576 6abe 090a 453f
000002d0: e480 8b3e 04d7 0d3e dbb0 eabd 2cef 163e
000002e0: 998a 1d3d 8317 e33d 4b60 063d c562 81be
000002f0: c16e d03e 57fc 2b3f 3194 7b3d 975c 213e
00000300: d0a9 163d 4dd9 ac3e 2e51 783e 4bc8 eabd
00000310: 2519 10bd 61b1 893c 7ac9 0cbd 17fe 783e
00000320: d848 8abd 00ea 19be f98d e83c 1e56 9dbd
00000330: 8247 033e f068 4b3d 9dc2 be3d f6e5 3b3c
00000340: d1f2 df3d 66fa b63c 8655 783e 8c49 173d
00000350: 2df9 193e 1a22 0c3e c6a7 e53c 2dcd aa3c
00000360: 8f12 c03d 5e7f 0b3e 1819 80bd f69f e53d
00000370: 43d8 913d 3818 253e 1ebc 8ebd 10be 44be
00000380: e1a7 563e d9d6 003e c51f ee3d 3984 afbd
00000390: aca2 fbbd 19cd 083e 2906 adbc a49a 2bbd
000003a0: 3939 8abb 506b c5bd c1d6 a43c 37f0 50bd
000003b0: dcea dbbd 387f e33d 8164 2bbe 907d 143e
000003c0: fb25 4fbd 217a ddbc d410 893d 06e9 e93d
000003d0: 5b13 e73d 1217 583d 0041 7c3d 6c80 203e
000003e0: 7094 80bd 4d48 8e3e 0177 0cbc 8485 81be
000003f0: 48a7 473f 1426 fd3e a4cf 9b3d a2a8 2a3e
0.02496013 0.063431844 0.20250192 0.08764603 0.076611586 0.96483636 -0.06425836 0.5197667
0.088808335 -0.15533717 -0.098307945 -0.09532971 0.16966827 0.12372221 0.12117381 -0.72501004
-0.09612491 -0.076715894 0.22332092 0.20431283 0.1551634 0.011192733 0.12206816 0.14909549
-0.08994362 0.11199255 -0.067001 0.07948755 0.25773966 0.22010045 -0.035693523 -0.5544984
0.18842016 -0.05565469 0.09568532 0.03504612 -0.074880764 0.08128774 -0.092510015 -0.118683815
0.0010065981 -0.14618412 -0.057132214 0.10127623 -0.046922226 -0.10870375 0.50718725 0.11337766
-0.07101612 0.15914054 0.12264481 0.36576682 0.10876896 -0.04100666 0.0414537 -0.029916095
0.026059672 0.31648985 0.31223926 -0.98448604 0.6138703 0.30396208 0.17088866 -0.10592652
-0.11597351 -0.1982445 0.31952974 0.041744277 -0.09283915 0.5414959 0.121874444 0.21107043
0.011277065 -0.18226607 -0.037989136 -0.1772477 0.21967824 -0.1347604 0.0059487843 -0.20414749
-0.05374359 0.014723933 0.29545194 0.16047648 0.20930824 -0.05643063 0.07776644 -0.076142184
-0.01244691 0.17229894 0.0077363183 0.16280474 0.1085091 0.19733118 0.11876268 -0.38509998
0.2020996 0.08499359 0.09660175 -0.033492655 -0.034292847 0.020983975 -0.12467621 0.033611193
-0.08459871 0.015188474 -0.30028594 0.08393146 0.32338268 -0.05057333 0.103474505 0.16431144
-0.0922878 0.036126457 -0.19877662 0.051350787 0.11724814 -0.09909772 0.009636984 0.14978096
-0.14942333 0.18241492 -0.11141203 -0.2945759 0.18786809 0.73735976 0.19533044 0.050231885
0.041519642 0.34631765 0.21779074 -0.0031934297 0.005425256 0.10668533 -0.061086234 0.28363246
0.057476383 -0.28906497 -0.0718804 -0.16523449 0.19335444 0.09233996 0.06771724 0.13672444
-0.0955661 0.07188785 0.12794912 0.07257666 0.1195069 0.05589199 0.06457874 -0.046479184
0.11271756 0.05861133 0.03593241 0.24886006 0.016457021 0.13553526 0.12768123 -0.38780352
0.23716247 -0.03765758 0.10046865 -0.0105124395 -0.06647268 0.11525079 0.010058109 -0.0003145337
-0.01165705 -0.046305485 -0.25018883 0.059389085 -0.053037964 0.06957644 0.04209016 0.18824182
0.016593587 0.06713229 -0.22896679 0.7696844 0.27246773 0.13851553 -0.11459514 0.14739674
0.038462255 0.11088469 0.032806676 -0.25270668 0.407095 0.67181915 0.061420623 0.15757976
0.03678304 0.33759537 0.24249718 -0.11463984 -0.03518023 0.016808214 -0.03437183 0.24315678
-0.06752175 -0.1503067 0.02838801 -0.07682441 0.12820247 0.049660623 0.09314463 0.011468401
0.109349854 0.022336196 0.24251375 0.036935374 0.1503646 0.13684884 0.028034102 0.020849789
0.0937854 0.13622805 -0.06254786 0.11212151 0.07121327 0.1612252 -0.06969474 -0.19213128
0.20962478 0.12581958 0.11627153 -0.08570141 -0.122868866 0.13359489 -0.021121101 -0.041895524
-0.0042182473 -0.09639609 0.020121934 -0.051010337 -0.10738155 0.111082494 -0.16737558 0.14501023
-0.05057333 -0.027035775 0.06692663 0.11421399 0.11282989 0.052756377 0.061585426 0.15673989
-0.06278312 0.27789536 -0.008573295 -0.25297177 0.77989626 0.49443114 0.07607964 0.16665891

fc_A.bias f4 [20]
00000000: b9f0 cd3f 9014 d73e e6e3 2d3e e3a9 003e
00000010: 8907 963e 2b48 023e 8661 bebd 0bd1 0cbe
00000020: 9e8e 8abd 4b59 00be cb17 7dbe 57da dbbe
00000030: 6404 ebbe 900b cdbe ca32 f3be d619 26bf
00000040: ac20 40bf 4550 61bf 39a9 3fbf d23b 8fbf
1.6089088 0.42007875 0.16981468 0.12564807 0.29302624 0.12722842 -0.09295945 -0.13751619
-0.06765483 -0.12534063 -0.24716108 -0.42940018 -0.45901787 -0.40047884 -0.47499686 -0.6488317
-0.75049853 -0.88013107 -0.7486759 -1.1190131

fc_V.weight f4 [1, 64]
00000000: a275 a63d 77a3 c2be 31d6 93be 723f b2bc
00000010: 2bcf 7f3d 6610 f4bf 3397 b33d c233 043f
00000020: 837e 753d fbbd 92bd 8c29 353d 4eb0 adbe
00000030: 39ef ef3e 1830 b03d e91e 6b3f 414f c0bf
00000040: c1c5 e03c 4c5b 593d 8496 133f 12a6 503f
00000050: 1ede dc3e a21d 2c3f e70b d4bd 613a 9e3d
00000060: e888 1dbd 41a4 c93e 24b4 a43d e8ff d5bd
00000070: 99af 2a3f 06d8 5bbe 43e3 833d 283c 9abf
00000080: 43c4 32be 2a13 d83c 7e7f 35bd 27f3 f93c
00000090: e032 193c b226 8d3c f723 103e a088 fe3b
000000a0: 35da 843b af46 ac3e 0cce f7be b8f5 ea3e
000000b0: 48f2 4abe 48b4 c4bd 5155 503e 65f9 b43e
000000c0: 8ea6 353d 0f1d a73e bad1 83be 4426 b4bd
000000d0: 586a 683e 51e1 42bd e99e c23c a62a 143d
000000e0: 0454 8e3c 830a 97be cf7a 533f 049f a4be
000000f0: 8748 24bf d143 dfbe 4e61 b33e f9d3 383f
0.081279054 -0.3801534 -0.28874353 -0.021758769 0.06245343 -1.9067504 0.08769073 0.51641476
0.059935104 -0.07165142 0.044229075 -0.33923572 0.468622 0.08602923 0.9184404 -1.5024186
0.027438046 0.053065583 0.57651544 0.81503403 0.43138212 0.67232716 -0.10353833 0.07725979
-0.038460642 0.39383128 0.080421716 -0.10449201 0.6667419 -0.21469125 0.06439831 -1.2049608
-0.1745768 0.026376326 -0.04431104 0.030511452 0.009350508 0.017230365 0.1407622 0.007767752
0.0040543326 0.33647677 -0.4839939 0.45890594 -0.19818985 -0.096046984 0.20345046 0.35346523
0.044348292 0.32639357 -0.25745946 -0.08796361 0.22696817 -0.04757816 0.023757415 0.036173485
0.017374046 -0.29500207 0.82609266 -0.3215257 -0.6417317 -0.43606427 0.35035175 0.72198445

exp_avg f4 [64, 3]
00000000: 0000 0000 0000 0000 0000 0000 dae1 a8c0
00000010: 8d0d 5041 1d62 f041 ae46 01c0 30cb 1041
00000020: 0416 1542 8364 4841 cdd1 36c1 108d 3e42
00000030: bcfc e6be d09d 8340 788a e141 96ca e9bf
00000040: 53db b740 497d c040 1e51 f4bc a5f7 73be
00000050: d29d a2bd 93ee 1841 97b9 62c0 948e 0f42
00000060: a4c6 013e 2262 b73c a552 383e 0000 0000
00000070: 0000 0000 0000 0000 ad69 acc0 c164 6f41
00000080: 6f6d 0942 0400 0000 0400 0000 0400 0000
00000090: 03f4 cdc0 5612 2e41 2bbd 0e42 3e31 aac0
000000a0: 54b1 0241 142b 873f 19df e0bf 49e8 cd40
000000b0: 1652 8041 4b48 323c f7b9 5c3e ac48 433c
000000c0: 0000 0000 0000 0000 0000 0000 0000 0000
000000d0: 0000 0000 0000 0000 0400 0080 0400 0080
000000e0: 0400 0000 5456 e2c0 47d4 2a41 dad3 0241
000000f0: 69ee 8541 3da5 7740 1ea3 9b42 0000 0000
00000100: 0000 0000 0000 0000 0000 0000 0000 0000
00000110: 0000 0000 96d9 64c0 2904 b4c1 e56e d5c0
00000120: 0000 0000 0000 0000 0000 0000 a6a6 b23e
00000130: 46a7 2ec0 e177 9ac1 8c84 3241 5b32 53c1
00000140: d97a 2e41 d301 f9c0 91dc 5941 1c92 7841
00000150: 0a21 753e 2cf8 323f 01e2 1041 eda5 47ba
00000160: 64ca 6e3d 696b c23b f628 4abe 3389 a3be
00000170: fcc8 d9bf d7de 3bbf 7f2d 1341 0091 ff41
00000180: 0000 0000 0000 0000 0000 0000 c583 bbc0
00000190: 704e 86be 9df2 4040 8aeb 63c0 ce5d f640
000001a0: e500 5241 0400 0000 0400 0000 0400 0000
000001b0: 0000 0000 0000 0000 0000 0000 e6b3 263c
000001c0: 27fa d63d 3399 b83d 0400 0000 0400 0000
000001d0: 0400 0000 0000 0000 0000 0000 0000 0000
000001e0: 2a2d fa40 504a df40 b19b 6d41 0000 0000
000001f0: 0000 0000 0000 0000 0000 0000 0000 0000
00000200: 0000 0000 0400 0000 0400 0000 0400 0000
00000210: 7b4a 3bc1 a77b 8941 9445 2641 280b 1bc0
00000220: 1e5d 02c1 19cc ae3e ca21 2742 43a8 dac1
00000230: d989 4042 35d7 8cbf b40b f940 c534 9841
00000240: a7d1 703e bfae 50c0 74a5 87c1 0000 0000
00000250: 0000 0000 0000 0000 0400 0000 0400 0000
00000260: 0400 0000 0000 0000 0000 0000 0000 0000
00000270: 0000 0000 0000 0000 0000 0000 39d7 cfbd
00000280: 5141 ddbf 2781 3abf 8889 903e 40b9 3d3e
00000290: 631b 2340 8daf 98be 14cf 18c0 9782 2440
000002a0: 123d 883d 958d 1c3f f589 2f3f 0000 0000
000002b0: 0000 0000 0000 0000 10f1 c3c0 13fb 66c1
000002c0: c8bf 0fc1 5847 9c3d 2b9d c3bf 2e43 12c1
000002d0: dce5 24b6 dce5 24b6 9b6f 54b8 0000 0000
000002e0: 0000 0000 0000 0000 24e3 8bc0 347f 0941
000002f0: 7b7a f740 0400 0000 0400 0000 0400 0000
0.0 0.0 0.0 -5.27757 13.003308 30.047907 -2.019939 9.049606
37.2715 12.524539 -11.426221 47.637756 -0.45114696 4.113014 28.192612 -1.8264949
5.745523 6.0152936 -0.029823836 -0.23824938 -0.07940258 9.558246 -3.5425775 35.889236
0.12673432 0.02238566 0.18000276 0.0 0.0 0.0 -5.3879 14.962098
34.35687 6e-45 6e-45 6e-45 -6.4360366 10.879477 35.684734 -5.318511
8.168293 1.0560021 -1.7568084 6.434605 16.040081 0.010881494 0.21555315 0.011919182
0.0 0.0 0.0 0.0 0.0 0.0 -6e-45 -6e-45
6e-45 -7.073038 10.676826 8.176722 16.741411 3.8694603 77.81859 0.0
0.0 0.0 0.0 0.0 0.0 -3.5757804 -22.502031 -6.669787
0.0 0.0 0.0 0.34892768 -2.7289596 -19.308535 11.15736 -13.199794
10.904992 -7.7814727 13.616349 15.535671 0.23938385 0.6990993 9.055177 -0.00076159724
0.058298483 0.0059332144 -0.19742188 -0.31940612 -1.701446 -0.733869 9.198607 31.9458
0.0 0.0 0.0 -5.859835 -0.26231718 3.014808 -3.5612512 7.698951
13.125218 6e-45 6e-45 6e-45 0.0 0.0 0.0 0.010174727
0.104969315 0.090135954 6e-45 6e-45 6e-45 0.0 0.0 0.0
7.818013 6.9778214 14.850511 0.0 0.0 0.0 0.0 0.0
0.0 6e-45 6e-45 6e-45 -11.705684 17.185377 10.391987 -2.422556
-8.147734 0.3414009 41.782997 -27.332159 48.134617 -1.1003176 7.7826786 19.025766
0.23517476 -3.2606657 -16.955788 0.0 0.0 0.0 6e-45 6e-45
6e-45 0.0 0.0 0.0 0.0 0.0 0.0 -0.10148472
-1.7285558 -0.7285332 0.28229928 0.18527699 2.5485466 -0.29821435 -2.387639 2.5704706
0.06652273 0.6115354 0.6856988 0.0 0.0 0.0 -6.1231766 -14.436297
-8.984322 0.07630795 -1.5282339 -9.141401 -2.45717e-06 -2.45717e-06 -5.064868e-05 0.0
0.0 0.0 -4.371477 8.593555 7.733701 6e-45 6e-45 6e-45
