beergame/double_dueling_dqn/models/dqn_agent_firm_1_episode_3500.pth (torch, 105254 bytes, 28 tensors)

fc1.weight f4 [64, 3]
00000000: 662d 13bf 38c9 fdbd 26f0 a4be 9cf9 40bc
00000010: 341f 473d 1177 543d 5dd9 cebe 4a13 a9be
00000020: d4d4 ab3e e2a2 733e 6859 1a3e 5be1 73be
00000030: 0977 9bbe 08c9 b3bd cdf3 883d b347 853d
00000040: c64c 493e 662b 0a3d 4848 a5be 5399 8a3d
00000050: 479f b8bb bd8c e93e 95d0 133e 2bac 25be
00000060: e1c1 d53d dd7c d2be 9ef2 1dbe e03b 74bd
00000070: 7665 fdbe 4673 68be e78c 53be ddd5 023e
00000080: b5c0 df3d ac73 fa3d 17b9 57bf 6717 1bbd
00000090: b9b9 ac3e ba3e bebe 7cff 183e e3b6 133f
000000a0: fc76 263f 6584 ea3d abe7 bc3d c799 62bd
000000b0: f79f 203d c0bd 95bd cb80 cdbd e46f 2bbe
000000c0: f098 a6be 95fd 95be e873 09bf b10d 95be
000000d0: 1a41 0fbf 602e 9ebd 58d9 6bba 717a edbe
000000e0: 1bb4 a83c 0756 1dbe 42f9 e93e 2420 5c3e
000000f0: 6a4b d23d 6878 1f3e 3462 0dbe b0f4 edbd
00000100: 12a8 3bbe f056 b6be 82aa c53e 0060 bdb8
00000110: 2e82 08bf 779b be3d 24b0 333d 791b 8cbe
00000120: 30bf fb3d 9ccc b2be dfed f6be 1d2f 8f3d
00000130: 317e d13e 184f dcbd 066e 13be 5f35 ba3e
00000140: b15b 0dbd 1237 47be 7fc1 823e 3ac2 a13e
00000150: c66f c1be aff9 73bf 3ebd 273d 6a96 91be
00000160: ddc9 9d3d bb49 82be 8c7e c5be 1335 6abe
00000170: 240b 40bd 9dbe aebe c46c 86bc c698 8b3d
00000180: 30d4 f6be a085 48bd 4f23 e5be c6e6 003f
00000190: 7d1e 00bf 09b0 2f3e ca84 f93e 49e4 4abe
000001a0: 7eea bf3d f675 87bf 647a 2bbf 9678 4e3c
000001b0: 404f 843d f858 cbbd 0a39 53be 23fa 89be
000001c0: 7dc8 ccbd 7406 07be b931 57bf b1da 8cbf
000001d0: cc52 9bbb aaf1 b9be 4035 503c 8c34 f1be
000001e0: 71c2 d3bd eb76 41be 68ee 5ebd 2858 013e
000001f0: a748 edbe b698 c3be 6c42 9c3e 3d91 97be
00000200: 72e5 8ebe 8392 ad3e d33f 3bbf c30d a3be
00000210: 98a7 603e 185a b93e 007c a53e df55 3ebe
00000220: 0616 c63d a704 27be 0f00 1f3d a311 a33d
00000230: be16 96bd d8fb 94be 6b5e 6b3e 796e 663d
00000240: 1564 9cbe db78 cb3e 7f09 bdbd 0e56 813e
00000250: 48b8 eebe 8dbb b4be 3bf0 a3bf 8a5e 143e
00000260: 1fa7 03bd c215 64be 8370 f2be 3f76 dfbe
00000270: 186e e7be e6a9 dbbe d0be b3bd 6752 39be
00000280: c1d6 883e c7f0 06bf 9c33 003e 1e75 4ebf
00000290: e249 933c 6394 24be 0447 1a3d 323c 39be
000002a0: 25fb 6bbf cd0f c53d f740 0bbe 6aa2 843e
000002b0: 4af9 c7be b90c 0abf 3efe 3bbe 296e 803e
000002c0: 233c 9dbe b250 35bf 25ed 2fbf fb48 353e
000002d0: e2a5 ccbe a5ab 33bf 9ce9 b63c 10bd b43d
000002e0: 96c2 01be 0820 e2be 641b cd3e 9e30 0e3c
000002f0: 8c40 0d3e 1486 d63c 1246 18bf a8b7 2ebd
-0.5749115 -0.12391895 -0.3221447 -0.0117782615 0.048613742 0.051871363 -0.4040021 -0.3302253
0.33560812 0.23792604 0.15073168 -0.23816435 -0.30364254 -0.08778578 0.06687126 0.06507816
0.19658193 0.033732794 -0.3228171 0.067675255 -0.0056342217 0.45615187 0.14435036 -0.16178958
0.1043737 -0.41110888 -0.15424582 -0.059627414 -0.4949147 -0.22700223 -0.20659219 0.12776895
0.10925428 0.12229094 -0.842668 -0.037864115 0.33735445 -0.37157232 0.1494121 0.5770094
0.65025306 0.114510335 0.09223875 -0.055322435 0.039215054 -0.073115826 -0.10034331 -0.16741902
-0.32538557 -0.2929503 -0.53692484 -0.29112008 -0.5595871 -0.07723689 -0.00089969253 -0.46382478
0.020593693 -0.15364848 0.4569798 0.21496636 0.1026829 0.15573275 -0.13806993 -0.11618936
-0.18325832 -0.35613203 0.3860665 -9.030104e-05 -0.5332364 0.09306996 0.043869153 -0.2736471
0.122923255 -0.3492173 -0.48228356 0.06991408 0.4091659 -0.107572734 -0.1439744 0.36368844
-0.034511272 -0.19454601 0.2553825 0.31593496 -0.3778059 -0.9530286 0.04095196 -0.2843507
0.07704518 -0.25446877 -0.3857311 -0.22871809 -0.046885625 -0.341298 -0.016409285 0.068162486
-0.4820876 -0.04895556 -0.447535 0.5035213 -0.5004652 0.17156996 0.48734123 -0.19813646
0.09370898 -1.0582874 -0.6698363 0.012601992 0.06460428 -0.09929079 -0.20627227 -0.26948652
-0.099991776 -0.13186055 -0.84060246 -1.1004239 -0.0047400948 -0.36317188 0.012708008 -0.47110403
-0.10339821 -0.1889302 -0.05442658 0.12631285 -0.46344492 -0.38202447 0.30519426 -0.29602996
-0.27909428 0.33900842 -0.73144263 -0.31846437 0.21938932 0.3620155 0.32321167 -0.18587445
0.096721694 -0.16310368 0.038818415 0.07962348 -0.073285565 -0.29098392 0.22985236 0.0562577
-0.30545107 0.39740643 -0.09230327 0.25260967 -0.4662497 -0.3529934 -1.2807688 0.14489189
-0.0321418 -0.22273925 -0.47351465 -0.43644902 -0.45201182 -0.4290306 -0.08776629 -0.1809784
0.26726344 -0.5271115 0.12519687 -0.80647457 0.017979566 -0.1607223 0.037665382 -0.18089369
-0.9218009 0.096221544 -0.13599001 0.25905162 -0.3905738 -0.53925663 -0.18358704 0.25084046
-0.30709943 -0.70826256 -0.6872123 0.17703621 -0.3997031 -0.70183784 0.02232819 0.08825123
-0.12671885 -0.44165063 0.4005996 0.008678583 0.13794154 0.02618698 -0.5948192 -0.042655617

fc1.bias f4 [64]
00000000: 1780 96be 70ea 6740 eeec 31c0 64b9 2240
00000010: 1c1f 6d40 68c3 3940 a570 8e3f 8fbf 1940
00000020: b64f dc3f 7c8d ff3e 81cf 5b40 2123 49bf
00000030: 402f 6840 96cd 13c0 12f9 2e40 4f47 0d40
00000040: 7c38 cf3e b07f c93d 7bee 04c0 f02d f4bf
00000050: 485d 5040 2ede 933e 340f e2bd d5c0 3940
00000060: 5634 cc3e 306e f33c ab67 4240 0b78 b6bf
00000070: aba7 a63f 6beb c9bf 2976 0b40 3dcf 6640
00000080: 885c 993e a192 08c0 b97e 1940 a7ed edbf
00000090: fa4c 05bf 20b4 1d40 c23f b83e 496b a3be
000000a0: 0e9d 5a40 8837 7ebe 9c8a c7be 4844 693e
000000b0: 698f 21c0 3d6c 6140 8414 4a40 6a12 5440
000000c0: 09ca 3dc0 9a82 bd3e 6624 0fc0 a011 303e
000000d0: 0f0f dbbe c031 0e3f 80bb 26c0 6f40 0240
000000e0: db1a 3040 f51a 13bf a3b9 1c40 5335 86bf
000000f0: 0371 1240 e831 c1be bb10 c3bf b52c 503f
-0.293946 3.623684 -2.780086 2.5425653 3.7050238 2.9025517 1.1128126 2.4023168
1.7211826 0.49912632 3.43454 -0.7856923 3.627884 -2.309423 2.733952 2.2074773
0.40472782 0.098388076 -2.0770557 -1.9076519 3.2556934 0.28880447 -0.11038056 2.9023945
0.3988368 0.029715627 3.0375774 -1.4255384 1.3019918 -1.5774969 2.179087 3.6063988
0.29953408 -2.1339495 2.3983595 -1.8588151 -0.5207058 2.464119 0.35986143 -0.3191779
3.4158359 -0.24825871 -0.38972938 0.22779953 -2.524378 3.5222313 3.1575022 3.313624
-2.9654562 0.37013704 -2.2365966 0.17194223 -0.42784926 0.5554466 -2.605194 2.0351827
2.7516391 -0.5746301 2.4488304 -1.0485023 2.2881477 -0.37733388 -1.5239481 0.8131822

fc2.weight f4 [64, 64]
00000000: 307a 03bc 000c 20b9 18c3 d43d 2042 2ebd
00000010: f2ed bc3d fc96 ebbd 6479 7d3d 604e 993d
00000020: b0b4 61bd 808a a1ba 00ee a23a 1628 fa3d
00000030: 9064 b83c 706f 053c 5458 dcbd 36f7 f43d
00000040: ec97 d1bd 3823 a93c 9678 8d3d 2446 a6bd
00000050: 7454 d83d 00cb 86bb b063 ba3d 68a2 aabd
00000060: c076 23bc ee1e 8cbd a49d 103d facd cfbd
00000070: 8057 893a 809b 693d 686b 5abd d0b8 ec3d
00000080: 9428 2e3d 20e1 653c 7cff b43d 829b 80bd
00000090: 60cc 373c 9a63 fdbd a884 fbbd 7849 af3d
000000a0: d8a0 5fbd bc09 72bd ec83 3ebd 9e17 e03d
000000b0: 8054 98bd 9431 a6bd e00e 603c bc52 afbd
000000c0: 7ec5 e1bd 6013 f83d c47c 713d 8016 d2bb
000000d0: fe06 e4bd 3ef5 d43d a0a8 483c c43b 45bd
000000e0: 9086 94bd 68e1 f13c ecb6 2a3d c8fb d2bd
000000f0: 92bf 953d 3840 f73c 4417 f0bd e43c 473d
00000100: 8444 ab3d be46 c63e 1a8f 98be 2862 123f
00000110: fb95 7c3f f836 993d 243d 3f3c 8f42 37be
00000120: 2ff3 93be 0012 7a3d 74cf 733e 0b7d 1bbe
00000130: 97e8 283e 4da6 16bf a02c 283e 9684 8abd
00000140: 3208 fd3d 4450 d7bd 2029 34be c1d3 10bf
00000150: 19a7 57bd 50e4 a13c 188f dabd 459c c33e
00000160: e055 0cbc ff7f febd 5c14 9dbe b3d5 b8be
00000170: a55d 813f 666a e9be f250 203e 48b8 243f
00000180: 7c70 cc3d ab9e 50be 10c9 443e 066e 003e
00000190: 2022 95bb 804d af3e d50e 983e d4de b6bd
000001a0: 8aa5 8f3e 2e66 89bd deef be3d e67a 05be
000001b0: d81e 12bf 8ecb 8a3e a21f 633f 0e31 843e
000001c0: b700 69be 0004 7939 eee7 7dbe 000a fcba
000001d0: f819 c43d ffed 33bf 0924 8f3c c43e 103e
000001e0: 8288 b83e a692 b03d e37a 1bbf a75b cc3e
000001f0: d3de 3a3f 40e6 3bbd 0c6d 51be ea24 ee3e
00000200: f256 d7bd 8902 04bf 0828 8d3c 8534 7b3e
00000210: 2ed7 01bf 6a91 99bd aa01 39be edef cbbe
00000220: 4acb e7bd 68f9 4a3d 0c98 b3be 1862 23be
00000230: e4e5 b4be f432 7c3e 1ee0 94be 08d3 19bf
00000240: 8057 a6bc 10f9 f9bd 20e9 4bbd d402 613e
00000250: b545 36bf 58b7 9fbc b09a 3b3c 7e5a 633f
00000260: d85f 35bd 2e41 22be 2d8d bdbe 83b3 743d
00000270: 5b79 3ebf 37e4 e83d 3f6b 7cbe 8198 08bf
00000280: becf e8bd 2473 0e3e b185 0dbe 4875 b2bc
00000290: 1043 6c3d 44f7 97be bd4c 9abe e00e 03bd
000002a0: 9de2 0abf 989a 03bd 005c 3f3a aaf6 d0be
000002b0: 38c8 c13d 02e6 90be 7cb1 21bf 9e98 babe
000002c0: fe9a 2d3e a08c a8bb e1ac f93d da62 983d
000002d0: 08d3 a5bc 5238 73bd 0c0c e73c 0fa8 5abe
000002e0: b88d b1be bc1e 323d 8c52 a93e 6ca9 a0bd
000002f0: f8ca e9be 8822 083d 8d19 523e 7c3e 3cbe
00000300: 9e11 dfbd 0b1a 3a3d 435e 713d f255 5abd
00000310: dc08 e7bc df03 0bbc 90bc e73c 5a97 aabd
00000320: 3df0 30bd 6c0a 98bd fe87 8bbd bee1 9bbd
00000330: 5873 883d 316a 75bd 5f75 9abd c304 b1bd
00000340: 4044 45bd 280d 92bc c904 efbd 68b2 13bd
00000350: ad72 4bbd d0f3 553c 2e14 e43d e863 893c
00000360: 90e6 3cbc ed6b fb3c 5c06 e4bb 5a54 c1bd
00000370: d5e0 e7bd 1a8c e0bc a245 843d 2c44 3fbd
00000380: 760a ac3d 16f8 4a3d d1f4 a4ba a359 373d
00000390: 9c18 513d 5855 d3bd da3a 07bb 18ca 7a3d
000003a0: d5ed a23b 469a f13d c0b7 ca3b 2e00 03bd
000003b0: d681 5dbd e650 d1bd 60d1 c33c 322c 84bd
000003c0: 93d5 cabd 2879 ac3d c5ec a4bb c07f e13d
000003d0: 4477 6b3d 9078 0fbe 0383 fdbd 3538 b6bd
000003e0: 5b0c 93bd 8405 57bd a063 eebd cdcf 283d
000003f0: 4227 6a3d 3067 27bc 566e c6bd a9e7 c03d
-0.008024737 -0.0001526326 0.10388774 -0.04254353 0.09225072 -0.11503407 0.061883345 0.07485652
-0.055103958 -0.0012324601 0.0012430549 0.12214677 0.02250889 0.008144245 -0.10759035 0.11961214
-0.10234055 0.020646676 0.069077656 -0.08118847 0.10562983 -0.004113555 0.09101045 -0.08331758
-0.009977043 -0.06841837 0.035306588 -0.10146709 0.0010478348 0.057033062 -0.053325087 0.11558688
0.042519167 0.014030725 0.08837792 -0.06279661 0.01121816 -0.12372513 -0.122811615 0.08558935
-0.054596752 -0.059091315 -0.04651253 0.109420046 -0.07437992 -0.08114925 0.0136754215 -0.08560702
-0.11023997 0.121130705 0.058956876 -0.0064113736 -0.11134146 0.10398339 0.012247235 -0.0481527
-0.07252228 0.029526427 0.041678354 -0.1030193 0.0731193 0.03018199 -0.117231876 0.048642054
0.08362678 0.38725847 -0.29796678 0.57181025 0.9866635 0.074811876 0.011672292 -0.17896484
-0.28896472 0.061052322 0.23809606 -0.15184419 0.16494976 -0.58847505 0.16423273 -0.0676357
0.12355079 -0.10513356 -0.17593813 -0.5657311 -0.05264959 0.019762188 -0.10671824 0.38205162
-0.008565396 -0.12426757 -0.30679595 -0.3610054 1.0106703 -0.45588988 0.15655878 0.6434369
0.09982392 -0.20373027 0.19217324 0.1254197 -0.004551187 0.34238815 0.29698816 -0.0892922
0.28055984 -0.06708942 0.09323095 -0.13035163 -0.57078314 0.27108425 0.8872014 0.25818676
-0.22754179 0.0002374798 -0.24795505 -0.0019229054 0.09575266 -0.7028503 0.017473238 0.14086443
0.36041647 0.08621721 -0.60734385 0.39913675 0.7299625 -0.04587388 -0.20451754 0.46512538
-0.105146304 -0.5156637 0.017231002 0.24531753 -0.50718963 -0.07498439 -0.18067041 -0.39831486
-0.11318071 0.04955426 -0.3507694 -0.15955389 -0.35331643 0.24628812 -0.29077238 -0.60087633
-0.020305395 -0.12205708 -0.049782872 0.21973735 -0.71200114 -0.019496605 0.011450455 0.88809955
-0.044280857 -0.15845177 -0.3702177 0.05974151 -0.74403924 0.113716535 -0.24650286 -0.533577
-0.11367749 0.1391111 -0.1382053 -0.02178444 0.057681143 -0.29680836 -0.30136672 -0.031996608
-0.54252034 -0.032129854 0.0007299781 -0.4081319 0.09462017 -0.28300482 -0.63161445 -0.36444563
0.16953656 -0.005143717 0.12191177 0.074407294 -0.02024223 -0.059379883 0.028203987 -0.21353172
-0.34678435 0.04348634 0.3307079 -0.07844815 -0.45662665 0.033236057 0.2051756 -0.18383211
-0.10892032 0.045434993 0.058927786 -0.05330462 -0.028202467 -0.00848481 0.028288156 -0.08329649
-0.04319786 -0.07423863 -0.06813048 -0.07611416 0.06662625 -0.059915725 -0.07541918 -0.08643486
-0.04816079 -0.017828539 -0.116708346 -0.036058813 -0.04966991 0.013058618 0.111366615 0.016771272
-0.01152958 0.030691111 -0.006958766 -0.09439917 -0.1132218 -0.027410556 0.06458594 -0.046695873
0.08400433 0.049553 -0.0012585168 0.04476322 0.05104886 -0.103190124 -0.0020634443 0.061227888
0.0049721994 0.117970034 0.0061864555 -0.031982593 -0.0540789 -0.10220508 0.023903549 -0.06453742
-0.09904017 0.08421546 -0.005033108 0.110106945 0.057486787 -0.14010835 -0.12378504 -0.088974394
-0.07180091 -0.052495494 -0.11640096 0.0412138 0.057166345 -0.010217473 -0.09689014 0.09419186

fc2.bias f4 [64]
00000000: 9e2c 8abd b1d6 803f 9cd6 05bf 99d2 07be
00000010: 75d1 713d a970 fc3f 1910 d1bd fc18 fb3f
00000020: cd96 1e3d 981d 95be 4f67 d33d 9221 4c3e
00000030: 192a 0b40 811e f83d 54cc f63f af8d 0040
00000040: be89 fbbd c992 40bb 8914 1240 bf48 db3f
00000050: 4ede 0840 0243 c33f 0c60 9fbd f350 0ebd
00000060: 8c5f 26bd 39c7 ea3f 7d1f debd 6706 b23d
00000070: af71 0340 3b9a 02be 6f05 05be 8965 d53f
00000080: 8115 3fbd 020d c4bd bf58 27be f353 853e
00000090: 5c12 9fbd 7f76 b5bc a299 8e3c eadc c7bd
000000a0: a500 19bd 5739 a03f 2090 d6bf 098b 0740
000000b0: 4d03 66bf 78b2 ca3c 5a13 c43f 8d59 ff3f
000000c0: 1de2 a53d f1a3 ee3f a40a 75bf 2369 6b3f
000000d0: ff9b f03f 713b 593d fb14 113d 2d1f 963d
000000e0: 1996 503b 15a8 2ebf 5288 0440 24a2 5c3f
000000f0: 9678 a33f 8b38 543f 0283 0640 d233 de3f
-0.06746791 1.0065519 -0.5228059 -0.1326393 0.059037644 1.9721881 -0.102081485 1.9617
0.038718034 -0.2912414 0.10322439 0.19934681 2.1744444 0.12115193 1.9281106 2.0086477
-0.122821316 -0.0029384366 2.2825034 1.7131575 2.1385684 1.5254824 -0.07781991 -0.034745168
-0.040618464 1.8342048 -0.1084585 0.086926274 2.0538137 -0.12754147 -0.12990354 1.6671611
-0.046651367 -0.095727935 -0.16342448 0.2604061 -0.07767174 -0.02215123 0.017407242 -0.09758933
-0.03735413 1.2517499 -1.6762733 2.117861 -0.89848787 0.024743304 1.5318406 1.9949204
0.08099768 1.8643781 -0.9571936 0.919573 1.8797606 0.053035203 0.0354204 0.07330165
0.0031827746 -0.6822522 2.0708203 0.86184907 1.2771175 0.8289878 2.101746 1.7359564

fc_A.weight f4 [20, 64]
00000000: 3079 cc3c 9fd4 983e 1458 4f3e b37d b33d
00000010: d6e9 9c3d b195 4f3f da97 83bd a99e 033f
00000020: 46dd b53d cd0b 1fbe 9654 c9bd 9824 833e
00000030: 7d15 2b3e e464 fd3d 4daf f33d f40a 22bf
00000040: 83dd c4bd 611f 9dbd e520 613e 8071 633e
00000050: 94df 183e 6003 843b 1dfe f93d 46ac 183e
00000060: 5c34 b8bd 9190 e23d 0d62 8cbd 30cc a23d
00000070: e96c 823e f162 613e 19dc 11bd e308 f1be
00000080: acf3 403e 68f5 63bd 33f7 c33d b989 0f3d
00000090: 165b 99bd f483 a63d c249 bdbd 8010 f3bd
000000a0: 7af1 833a 5270 1abe abeb 69bd f6c8 c03d
000000b0: 86d7 9fbd 12a0 debd 1e8a 1b3f 52d7 e63d
000000c0: fd6e 91bd 66ca 163e 8f36 fb3d fc6a c93e
000000d0: bafd df3d d6f3 27bd b7c7 293d e71a f5bc
000000e0: 5a79 d53c 8e0d a23e f603 a03e e650 51bf
000000f0: b560 4d3e 991f 043f defe 273e a609 cbbd
00000100: c282 edbd d431 463e 809c a33e 32f8 2a3d
00000110: 381e bebd 54b3 0c3f 729b f93d 1a02 853e
00000120: b6c6 383c 84a7 3abe 3198 1bbd 39eb f2bc
00000130: 38fa 5f3e 9400 0abe 7f04 893b c13d 4cbe
00000140: c120 5cbd c63a 713c c10a 8b3e 2cab 203e
00000150: ce83 4f3e cffe 0bbd 9546 9f3d 54ee 9bbd
00000160: 20ee 4bbc cd7c 1d3e 7df3 ca3b 5ab6 263e
00000170: e19f fc3d 3f13 4a3e 6066 f33d 64be cebe
00000180: 62f6 4e3e 6413 ae3d 91d7 c53d 2132 09bd
00000190: a876 0cbd bd80 ab3c af07 00be e4ab 093d
000001a0: 9f42 adbd 3180 d9bb 21c5 99be 402b ad3d
000001b0: 69a2 953e d825 4fbd 47a2 2ebe 6daf 2c3e
000001c0: 06fd bcbd 4f21 d33c 6d8f 4bbe ab8e 1a3e
000001d0: 3f82 e73d c4ef cabd aae3 1d3c d060 193e
000001e0: d004 19be 3fcc 3a3e cf84 00be 8fc9 80be
000001f0: 8dd1 b13e 0370 943f d1ef 493e 0156 233d
00000200: 8010 2a3d 575e c73e ca04 5f3e 5847 51bb
00000210: 2cc5 b13b 7e06 0a3e 4331 7abd d399 953e
00000220: b36e 6b3d db03 94be 6a33 93bd 46b8 91be
00000230: 98db 4b3e 661f bd3d d845 8a3d 9765 173e
00000240: 58b7 c3bd 6c37 933d b71a 003e aaf8 b73d
00000250: 05f7 f43d 87a6 793d c143 843d e162 3ebd
00000260: 72d8 e63d 6477 813d f5d9 0c3d f4d5 7e3e
00000270: c9c6 af3c 7dc8 0a3e f8d4 023e 9eb3 c2be
00000280: efd8 723e bd3b 1abd 9cc5 cd3d 6c3f 2cbc
00000290: d422 88bd 5906 ec3d 10fe 1e3c 00e8 a4b9
000002a0: f6fc 3ebc f170 78bd 521c 80be 166d 723d
000002b0: 165e acbd 187e 8e3d 3f7c 833e 0cfb 493e
000002c0: 42ed 873c 957a 873d 2a7a 6abe 1fce 4b3f
000002d0: 6279 8b3e 6fda 0d3e 3bb3 eabd 93f0 163e
000002e0: 3f8c 1d3d eb13 e33d 7602 4c3d 8853 14be
000002f0: 8256 8d3e 1dcd 383f 5895 8b3d 826d 243e
00000300: d0a9 163d f5df 233f e352 783e 5fc8 eabd
00000310: 1918 10bd b10f c23d 59c5 0cbd 4b9d 6c3e
00000320: aa46 8abd 73ee 19be 328f e83c 143c 013e
00000330: dfdc cb3d 636a 4b3d 9f91 8e3d cfd1 163d
00000340: 92f3 df3d e5f8 b63c ab1d 463e cdab a03d
00000350: 431e f93d 44f4 163e 11a9 e53c 69d0 aa3c
00000360: 1812 c03d a035 04bc cb44 83bd 7ca0 e53d
00000370: 50f5 613d 541b 253e 8090 8ebd 1fff 44be
00000380: 67a6 563e fbd9 003e 6b22 ee3d fd85 afbd
00000390: aca2 fbbd 15da 083e 73eb afbc a49a 2bbd
000003a0: 9c3a 8abb ff7d c8be 9bae a43c 7bff 89bd
000003b0: 1fd4 0dbe 387f e33d 5a1f 0bbf 652c f43d
000003c0: 3128 4fbd aa5b 58bd 9707 893d 4143 963e
000003d0: 3105 863d 1114 583d c23c 7c3d 2783 203e
000003e0: 2393 80bd 3b49 8e3e ac31 b53c e9ac 12be
000003f0: 2321 543f 33e9 323f a6f3 4e3d 42f9 e93d
0.02496013 0.29849717 0.20248443 0.087642096 0.07661788 0.81087786 -0.06425448 0.5141397
0.08880095 -0.15531845 -0.098305866 0.25613856 0.16707416 0.12372759 0.1189867 -0.63297963
-0.096125625 -0.07672001 0.21985205 0.22211266 0.14929038 0.0040287226 0.122066714 0.14909467
-0.08994362 0.1106273 -0.06854639 0.07949102 0.25473717 0.220104 -0.035610292 -0.47077093
0.18842953 -0.05565396 0.09568634 0.035043452 -0.074880764 0.08130637 -0.09242584 -0.118683815
0.0010066472 -0.1508191 -0.057109516 0.0941333 -0.0780478 -0.10870375 0.60757625 0.11271538
-0.071012475 0.14725646 0.122662656 0.39339435 0.109370664 -0.041004024 0.04145023 -0.029920055
0.026058841 0.31650966 0.31253022 -0.81764066 0.20056422 0.51610714 0.16405818 -0.0991395
-0.11597206 0.19354945 0.31955338 0.041740604 -0.092831075 0.54961133 0.12187852 0.25978166
0.011277845 -0.18227965 -0.037986938 -0.029653179 0.21872795 -0.13476783 0.004181444 -0.19945432
-0.053742174 0.014723485 0.27156642 0.15690297 0.20265123 -0.03417855 0.07777134 -0.07613817
-0.01244691 0.15379639 0.006193577 0.16280499 0.12335182 0.19733904 0.11884761 -0.40379632
0.20211175 0.08499792 0.09660257 -0.033495072 -0.034292847 0.02093541 -0.12502931 0.033611193
-0.084599726 -0.006637596 -0.3003321 0.08455515 0.29225472 -0.0505732 -0.17054091 0.16863795
-0.09227948 0.025772719 -0.19878931 0.15093486 0.11304139 -0.09909013 0.009636799 0.14978337
-0.14943242 0.18241976 -0.12550662 -0.25153777 0.34730187 1.1596683 0.19720389 0.03987694
0.041519642 0.38939163 0.2177917 -0.0031933393 0.005425116 0.13479039 -0.061082136 0.2921892
0.057478618 -0.2890919 -0.07187541 -0.28460902 0.19907987 0.092345044 0.06751603 0.14784847
-0.095564544 0.07188305 0.12510191 0.08982976 0.11961178 0.06094983 0.064582355 -0.046481017
0.112717524 0.063216 0.034387548 0.24886304 0.021457093 0.13553043 0.12776554 -0.38027662
0.23715566 -0.037654627 0.100474566 -0.010513168 -0.06647268 0.11524648 0.009704128 -0.0003145337
-0.01165699 -0.060654584 -0.25021607 0.059186064 -0.08416383 0.06957644 0.2568073 0.19724673
0.016592626 0.066151775 -0.22898164 0.7961139 0.27241045 0.13852857 -0.11459967 0.1474021
0.038463827 0.110877834 0.049807034 -0.1448499 0.27605063 0.7218798 0.068155944 0.16057399
0.03678304 0.64013606 0.24250369 -0.11463999 -0.03517923 0.09475649 -0.034367893 0.23106878
-0.06751759 -0.15032367 0.028388593 0.12620574 0.09954237 0.049662005 0.06961369 0.036821183
0.10935129 0.022335479 0.19347255 0.078452684 0.12163975 0.14741617 0.028034719 0.02085133
0.09378451 -0.008069426 -0.064096056 0.112122506 0.05516559 0.16123706 -0.06961155 -0.19237946
0.20961915 0.12583153 0.116276585 -0.08570478 -0.122868866 0.13364442 -0.021474576 -0.041895524
-0.0042184126 -0.39158627 0.02010279 -0.06738182 -0.13850449 0.111082494 -0.54344714 0.1192253
-0.05057544 -0.052821793 0.06690901 0.29348186 0.06543959 0.05275351 0.06158138 0.1567503
-0.06278064 0.27790245 0.022118412 -0.14323772 0.8286306 0.69887084 0.05052533 0.11424495

fc_A.bias f4 [20]
00000000: adc3 d73f c09d d13e 6ed1 353e d05c 083e
00000010: 74b0 993e d35f d53d 1963 83bd e109 31be
00000020: 224b adbd 7135 05be a207 8dbe 2a4e e4be
00000030: 0ffd efbe 69dd d4be a6c4 02bf 7d86 1fbf
00000040: 02ce 3dbf a3df 74bf 8c1a 68bf d100 9cbf
1.685659 0.40940666 0.17755672 0.13316655 0.30017436 0.10418668 -0.06415386 -0.17288925
-0.08461596 -0.13008668 -0.27544886 -0.44590884 -0.46872756 -0.41575173 -0.5108131 -0.6231459
-0.7414247 -0.9565374 -0.9066551 -1.2187749

fc_V.weight f4 [1, 64]
00000000: a275 a63d 0831 b7be e6d6 93be 9e3b b2bc
00000010: dacb 7f3d f9c4 f5bf bd95 b33d 872c fb3e
00000020: b77c 753d 71b4 92bd ff27 353d 7a04 0bbf
00000030: 59f7 ef3e cb2c b03d 581d 6c3f a827 bbbf
00000040: 85c3 e03c af5a 593d c1d0 143f 4f03 473f
00000050: c40e dc3e 9193 2c3f 290e d4bd cf38 9e3d
00000060: e888 1dbd 8195 c93e 7fdf a73d a9fb d5bd
00000070: ba91 2b3f 7ad8 5bbe 57b6 833d d1f3 93bf
00000080: 4dc7 32be 540f d83c 827f 35bd d4f3 f93c
00000090: e032 193c 31f8 8c3c cf81 103e a088 fe3b
000000a0: 45da 843b 1f29 a03e 06c9 f7be 14bd eb3e
000000b0: 8f0e 2bbe 48b4 c4bd d114 0d3e 241b b33e
000000c0: a1a7 353d ec81 a03e e9cf 83be fec7 82be
000000d0: c63b 593e 2de2 42bd 8ea1 c23c f225 143d
000000e0: 5351 8e3c e006 97be 57ae 4a3f d67b 92be
000000f0: 144b 2dbf f2c9 3dbf 4bdf b23e 4f42 3a3f
0.081279054 -0.35779595 -0.28874892 -0.021756943 0.062450267 -1.9200736 0.08768795 0.4905741
0.05993339 -0.07163323 0.044227596 -0.54303706 0.468684 0.086022936 0.92232275 -1.4621477
0.027436981 0.053065 0.58131033 0.77739424 0.42980015 0.6741267 -0.10354263 0.07725679
-0.038460642 0.39371875 0.08196925 -0.10448391 0.67019236 -0.21469298 0.06431263 -1.1558782
-0.1745884 0.026374497 -0.044311054 0.030511774 0.009350508 0.01720819 0.14112018 0.007767752
0.00405434 0.31281373 -0.48395556 0.46042693 -0.16704772 -0.096046984 0.13777472 0.34981644
0.044349317 0.31349123 -0.2574456 -0.25543207 0.21214208 -0.04757898 0.023758676 0.036169
0.017372763 -0.29497433 0.7917227 -0.28610104 -0.67692685 -0.7413627 0.34935984 0.7275743

fc1.weight f4 [64, 3]
00000000: 662d 13bf 38c9 fdbd 26f0 a4be f15d 8cbc
00000010: 593f 453d 3903 463d 1bbf cabe 347d 9dbe
00000020: e7f2 aa3e 4cc1 743e c388 1f3e 9181 72be
00000030: 7637 8fbe be67 92bd ff84 983d 075d 8d3d
00000040: 3e1d 4d3e 1ee5 063d 7066 8abe 9e56 253d
00000050: 9776 48bd de99 eb3e 08e6 043e e2e3 1cbe
00000060: b34e c23d 637f cfbe 40ce 05be e03b 74bd
00000070: fa65 fdbe 4673 68be 8619 5dbe ff35 033e
00000080: f202 dc3d f777 fa3d 53b9 57bf af15 1bbd
00000090: adbc a93e 2785 c0be cd97 163e 5888 153f
000000a0: 594a 283f 69f7 dc3d f734 c63d e2d3 51bd
000000b0: 702f 203d 8df4 e5bd 2d8e eabd 4dd1 31be
000000c0: f098 a6be 95fd 95be e873 09bf b10d 95be
000000d0: 1a41 0fbf aa2e 9ebd c0ee 5eba fd74 edbe
000000e0: ac20 a93c c621 1dbe b661 ed3e f8cb 5c3e
000000f0: 5252 dc3d 6c0b 1d3e 3e3d ffbd cdf4 edbd
00000100: 12a8 3bbe f056 b6be 82aa c53e 0060 bdb8
00000110: 2e82 08bf 973b d63d 2633 033d fc81 8bbe
00000120: 30bf fb3d 9ccc b2be dfed f6be 36d4 d23d
00000130: 87bb e13e e6d7 cabd 9746 16be a067 bf3e
00000140: fe04 6abd 8630 46be 6c33 853e fbf5 a03e
00000150: 7491 96be 5286 5fbf 0609 7e3d 80a7 87be
00000160: 0a32 cb3d 108c 75be 91bb aebe 6dbf 76be
00000170: 4416 cbbc d43d b5be e2da 6cbc 736f 903d
00000180: 30d4 f6be a085 48bd 4f23 e5be a1f1 073f
00000190: c16b ffbe c9d3 253e c5b4 f93e 7cc2 4dbe
000001a0: d95d b43d 2f76 87bf 0d79 2bbf 6fb2 4e3c
000001b0: 404f 843d 5059 cbbd 0a39 53be bf44 83be
000001c0: 754c a9bd 98a7 02be 13da 56bf 98b1 8cbf
000001d0: 43ac 8dbb aaf1 b9be 4035 503c d834 f1be
000001e0: ee02 d0bd 5768 3bbe 7f7e 6bbd 2858 013e
000001f0: ed48 edbe ea98 c3be 7842 9c3e 3d91 97be
00000200: 72e5 8ebe 8096 ad3e 2a40 3bbf fc09 a3be
00000210: 9e2a 623e 1120 bb3e 6f45 a43e 5475 34be
00000220: 06b7 b33d 6073 21be 9037 1d3d fc39 9a3d
00000230: dfb5 8bbd d1a0 98be 5675 6f3e 9771 633d
00000240: 706c 8cbe 5db5 dc3e 20f8 aabd 0e56 813e
00000250: 48b8 eebe 8dbb b4be ede4 a3bf 99bf 143e
00000260: 0c83 03bd c215 64be 4171 f2be 3f76 dfbe
00000270: 186e e7be e6a9 dbbe d0be b3bd 6dec 75be
00000280: b881 853e e371 07bf 9585 113e fb1c 47bf
00000290: fe44 063d 5fb1 72be d1fd fb3c 06ac f3bd
000002a0: 40f9 6dbf 483e a53d dfa1 12be 6aa2 843e
000002b0: 4af9 c7be b90c 0abf c9a6 4abe c7a7 833e
000002c0: f6cb 96be 8a38 33bf 494a 44bf b6a8 213e
000002d0: 083e adbe ab7c 2fbf 9ad7 89bb 10bd b43d
000002e0: 96c2 01be 0820 e2be 5e7e cf3e f99c 043c
000002f0: 3d28 0c3e 0fd5 853c 14ca 10bf 0226 a9bc
-0.5749115 -0.12391895 -0.3221447 -0.017134639 0.048156116 0.048342917 -0.39598927 -0.30759585
0.33388445 0.23901862 0.15579514 -0.23682238 -0.27972 -0.071486935 0.07447242 0.06902509
0.20030686 0.032933347 -0.2703128 0.040365808 -0.04894122 0.4601583 0.12978375 -0.15321305
0.09487667 -0.40526876 -0.1306696 -0.059627414 -0.49491864 -0.22700223 -0.21591768 0.12813567
0.10742749 0.12229913 -0.8426716 -0.037862476 0.3315176 -0.37601587 0.14706345 0.5841117
0.65738446 0.10789377 0.09678071 -0.051227458 0.03910774 -0.11228285 -0.11452899 -0.17364998
-0.32538557 -0.2929503 -0.53692484 -0.29112008 -0.5595871 -0.07723744 -0.00085042045 -0.46378317
0.020645462 -0.15344915 0.4636361 0.21562183 0.10757889 0.15336388 -0.12462853 -0.11618958
-0.18325832 -0.35613203 0.3860665 -9.030104e-05 -0.5332364 0.104605846 0.0320312 -0.27247608
0.122923255 -0.3492173 -0.48228356 0.10294382 0.44088385 -0.099044606 -0.14675365 0.37383747
-0.057133667 -0.19354448 0.26015794 0.31437668 -0.29407847 -0.8731433 0.062020324 -0.2649498
0.099216536 -0.23979211 -0.34127477 -0.2409646 -0.02479089 -0.35398734 -0.014456483 0.07052507
-0.4820876 -0.04895556 -0.447535 0.5310307 -0.49886897 0.16194071 0.4877073 -0.20093721
0.088069625 -1.0582942 -0.66981584 0.012615784 0.06460428 -0.099291444 -0.20627227 -0.25638387
-0.08266536 -0.12759244 -0.83926505 -1.0991697 -0.0043235137 -0.36317188 0.012708008 -0.4711063
-0.10156809 -0.18301521 -0.057493683 0.12631285 -0.463447 -0.38202602 0.30519462 -0.29602996
-0.27909428 0.33903885 -0.7314478 -0.31843555 0.2208657 0.36547902 0.32084224 -0.17622882
0.08775143 -0.15766668 0.038383067 0.07530591 -0.068217985 -0.29810193 0.23384604 0.05552825
-0.2742648 0.4310712 -0.08348107 0.25260967 -0.4662497 -0.3529934 -1.2804238 0.14526214
-0.032107398 -0.22273925 -0.4735203 -0.43644902 -0.45201182 -0.4290306 -0.08776629 -0.2401597
0.2607553 -0.5290815 0.14211114 -0.77778596 0.03278064 -0.23700474 0.030760678 -0.11898045
-0.9295845 0.0806852 -0.14319561 0.25905162 -0.3905738 -0.53925663 -0.19790186 0.2571394
-0.29452485 -0.70008147 -0.7667585 0.15787014 -0.3383639 -0.68549603 -0.00420661 0.08825123
-0.12671885 -0.44165063 0.40526098 0.008094066 0.13687225 0.016336946 -0.56558347 -0.020648006

fc1.bias f4 [64]
00000000: 1780 96be 2d7d 6840 714b 33c0 8dc6 2140
00000010: 649c 6f40 d921 3b40 29ce 8d3f fd6d 1840
00000020: c3a0 da3f 7c8d ff3e 953f 5c40 e622 49bf
00000030: 1176 6840 f572 13c0 7f4b 3040 75fa 0a40
00000040: 7c38 cf3e b07f c93d bded 04c0 ee08 f4bf
00000050: 174f 4f40 2ede 933e 340f e2bd a643 3840
00000060: 5634 cc3e 5219 853c f9f3 4140 1e4f b6bf
00000070: 23ee a63f 1a33 c7bf 6823 0b40 a20a 6840
00000080: 885c 993e 1472 08c0 d5f1 1940 fdec edbf
00000090: fa4c 05bf 92f6 1d40 3f80 b83e 496b a3be
000000a0: 7303 5a40 8837 7ebe 9c8a c7be 9045 693e
000000b0: eb91 21c0 489f 6040 19f7 4840 d059 5540
000000c0: cfa0 3ac0 9a82 bd3e 191f 0fc0 a011 303e
000000d0: 0f0f dbbe 8aa1 0c3f e537 25c0 fa43 0240
000000e0: 7e0f 3040 f51a 13bf edbc 1b40 f8cd 85bf
000000f0: fec3 1140 e831 c1be d0ed c2bf d8ad 503f
-0.293946 3.6326401 -2.8014796 2.5277436 3.7439203 2.923941 1.107854 2.3817132
1.708031 0.49912632 3.4413807 -0.78568876 3.6322062 -2.3038914 2.754608 2.1715367
0.40472782 0.098388076 -2.0770104 -1.9065225 3.2392023 0.28880447 -0.11038056 2.879129
0.3988368 0.016247425 3.030516 -1.4242895 1.3041424 -1.556247 2.174036 3.625649
0.29953408 -2.1319628 2.4053853 -1.8587948 -0.5207058 2.4681745 0.36035344 -0.3191779
3.4064605 -0.24825871 -0.38972938 0.22780442 -2.5245311 3.5097218 3.1400816 3.3336067
-2.916065 0.37013704 -2.236273 0.17194223 -0.42784926 0.5493399 -2.5815365 2.035399
2.7509456 -0.5746301 2.433406 -1.0453482 2.2775874 -0.37733388 -1.5228825 0.81515265

fc2.weight f4 [64, 64]
00000000: 307a 03bc 000c 20b9 80c3 d43d 2042 2ebd
00000010: f2ed bc3d 5397 ebbd 8279 7d3d 604e 993d
00000020: b0b4 61bd 808a a1ba 00ee a23a 1628 fa3d
00000030: 9064 b83c 706f 053c ee58 dcbd 36f7 f43d
00000040: ec97 d1bd 6323 a93c 9678 8d3d 2446 a6bd
00000050: 7454 d83d 00cb 86bb b063 ba3d 68a2 aabd
00000060: c076 23bc ee1e 8cbd f79d 103d facd cfbd
00000070: 8057 893a 829b 693d 686b 5abd d0b8 ec3d
00000080: 9428 2e3d 20e1 653c 7cff b43d 829b 80bd
00000090: 60cc 373c 9a63 fdbd a884 fbbd a049 af3d
000000a0: d8a0 5fbd bc09 72bd 1d84 3ebd 9e17 e03d
000000b0: 8054 98bd 9431 a6bd e00e 603c bc52 afbd
000000c0: 7ec5 e1bd 6013 f83d c47c 713d 8016 d2bb
000000d0: fe06 e4bd 3ef5 d43d a0a8 483c c43b 45bd
000000e0: 9086 94bd 68e1 f13c ecb6 2a3d c8fb d2bd
000000f0: 92bf 953d 3840 f73c af17 f0bd e43c 473d
00000100: 8444 ab3d bfd6 c83e 9da2 8cbe fb07 fb3e
00000110: 0f48 813f f386 963d 2b6d bfbd a86a 6abe
00000120: def5 aabe 6712 7a3d 0476 823e 277f 1bbe
00000130: 2bfb 2c3e 9a12 1abf 952b 293e 5705 23be
00000140: 3a08 fd3d 4450 d7bd 663e 34be 220f 0abf
00000150: 16da c5bd 50e4 a13c 188f dabd 0be0 7d3e
00000160: e055 0cbc 9b4c 3abe 96dd a5be f606 abbe
00000170: d5b6 7f3f 771a e9be 6242 5f3e 7677 2b3f
00000180: 7c70 cc3d 9cba 68be 01db 3e3e 616d 003e
00000190: 3a22 95bb 6a71 433e e905 983e 0fdf b6bd
000001a0: 333a 9f3e 4866 89bd deef be3d 8684 05be
000001b0: 7930 0ebf 5d98 533e 26d5 5d3f 173d 8d3e
000001c0: d5b1 a3be 0004 7939 caea 7dbe 510a fcba
000001d0: f819 c43d c9e2 3abf 6c30 983c 8f04 2b3d
000001e0: 5d7c 4a3e a692 b03d e230 44bf 1124 bd3e
000001f0: 10b4 443f 40e6 3bbd 97dc 53be 6738 b83e
00000200: f256 d7bd 74ff 03bf 232b 8d3c 7833 7b3e
00000210: c2d4 01bf 0e8f 99bd f101 39be a8f1 cbbe
00000220: a8ca e7bd 68f9 4a3d 3497 b3be ce5e 23be
00000230: 3de3 b4be 4835 7c3e d2df 94be 76d1 19bf
00000240: 8057 a6bc 10f9 f9bd f1e5 4bbd 4104 613e
00000250: ce42 36bf 58b7 9fbc b09a 3b3c ec59 633f
00000260: 3e60 35bd a541 22be 1c8a bdbe 4ab7 743d
00000270: 6578 3ebf d0e7 e83d f96b 7cbe 4097 08bf
00000280: 61d0 e8bd 2c77 0e3e fc84 0dbe 3b72 b2bc
00000290: 3443 6c3d e5f4 97be 8f4a 9abe e00e 03bd
000002a0: 32e1 0abf 989a 03bd 005c 3f3a d5f6 d0be
000002b0: f7cb c13d 47e4 90be 1db1 21bf 3298 babe
000002c0: ee9b 2d3e a08c a8bb beb0 f93d da62 983d
000002d0: 08d3 a5bc 7a38 73bd 260f e73c 55a7 5abe
000002e0: c28b b1be bc1e 323d 4352 a93e 7ca7 a0bd
000002f0: 62ca e9be 8822 083d cd1b 523e 133e 3cbe
00000300: 9e11 dfbd 311b 3a3d cf5f 713d 4d55 5abd
00000310: 5707 e7bc 7200 0bbc efbe e73c 7c96 aabd
00000320: 82ef 30bd 6c0a 98bd 4285 8bbd d0e0 9bbd
00000330: 1774 883d fc6a 75bd 8775 9abd 0a03 b1bd
00000340: 4044 45bd 280d 92bc 5602 efbd 21af 13bd
00000350: c070 4bbd 31f4 553c 2e14 e43d 4766 893c
00000360: 90e6 3cbc 106e fb3c cd05 e4bb e052 c1bd
00000370: 30de e7bd 2a8b e0bc ab49 843d 8643 3fbd
00000380: 760a ac3d 8ffb 4a3d 10f5 a4ba 0e5c 373d
00000390: 9c18 513d 4f54 d3bd af37 07bb 18ca 7a3d
000003a0: 6df1 a23b 689a f13d c0b7 ca3b a3fd 02bd
000003b0: cf81 5dbd ad50 d1bd 81d3 c33c 6c2a 84bd
000003c0: 80d4 cabd 2879 ac3d 40ed a4bb c07f e13d
000003d0: 4477 6b3d fe78 0fbe 5281 fdbd 1637 b6bd
000003e0: 110b 93bd a205 57bd a063 eebd 5ad1 283d
000003f0: 2128 6a3d 3067 27bc 946b c6bd 66e9 c03d
-0.008024737 -0.0001526326 0.10388851 -0.04254353 0.09225072 -0.11503472 0.061883457 0.07485652
-0.055103958 -0.0012324601 0.0012430549 0.12214677 0.02250889 0.008144245 -0.107591495 0.11961214
-0.10234055 0.020646757 0.069077656 -0.08118847 0.10562983 -0.004113555 0.09101045 -0.08331758
-0.009977043 -0.06841837 0.035306897 -0.10146709 0.0010478348 0.05703307 -0.053325087 0.11558688
0.042519167 0.014030725 0.08837792 -0.06279661 0.01121816 -0.12372513 -0.122811615 0.08558965
-0.054596752 -0.059091315 -0.04651271 0.109420046 -0.07437992 -0.08114925 0.0136754215 -0.08560702
-0.11023997 0.121130705 0.058956876 -0.0064113736 -0.11134146 0.10398339 0.012247235 -0.0481527
-0.07252228 0.029526427 0.041678354 -0.1030193 0.0731193 0.03018199 -0.11723267 0.048642054
0.08362678 0.39226338 -0.27467814 0.49029526 1.0100116 0.07349958 -0.09346994 -0.22892249
-0.33390707 0.061052706 0.25480664 -0.15185224 0.16892688 -0.60184634 0.16520531 -0.15920006
0.12355085 -0.10513356 -0.17601928 -0.5392934 -0.09660737 0.019762188 -0.10671824 0.24792497
-0.008565396 -0.18193285 -0.3239562 -0.33403748 0.99888355 -0.45528004 0.21802667 0.6697916
0.09982392 -0.22727436 0.18638231 0.12541725 -0.0045511993 0.19086233 0.2969201 -0.08929264
0.3109909 -0.06708962 0.09323095 -0.13038835 -0.55542713 0.2066359 0.86653364 0.2758567
-0.31971613 0.0002374798 -0.24796596 -0.0019229149 0.09575266 -0.73002297 0.018577777 0.041752394
0.19774003 0.08621721 -0.7663709 0.3694158 0.76837254 -0.04587388 -0.20689617 0.35980532
-0.105146304 -0.51561666 0.017232483 0.24531353 -0.5071527 -0.07497989 -0.18067147 -0.39832807
-0.113179505 0.04955426 -0.35076296 -0.15954134 -0.3532962 0.246297 -0.2907701 -0.6008524
-0.020305395 -0.12205708 -0.049779836 0.21974279 -0.71195686 -0.019496605 0.011450455 0.88809085
-0.044281237 -0.15845354 -0.37019432 0.05974511 -0.7440246 0.1137234 -0.24650563 -0.5335579
-0.1136787 0.13912648 -0.13820261 -0.021782985 0.057681277 -0.29679027 -0.3013501 -0.031996608
-0.5424987 -0.032129854 0.0007299781 -0.40813318 0.09462731 -0.28299162 -0.6316088 -0.3644424
0.16954014 -0.005143717 0.12191914 0.074407294 -0.02024223 -0.059380032 0.028205466 -0.21352895
-0.3467694 0.04348634 0.33070573 -0.07844445 -0.45662218 0.033236057 0.20518418 -0.18383054
-0.10892032 0.045436088 0.05892926 -0.053304005 -0.028201742 -0.008483993 0.028289286 -0.08329484
-0.043197162 -0.07423863 -0.06812526 -0.07611239 0.066627674 -0.05991648 -0.07541948 -0.08643158
-0.04816079 -0.017828539 -0.116703674 -0.036055688 -0.049668074 0.013058708 0.111366615 0.016772402
-0.01152958 0.03069213 -0.0069586993 -0.09439635 -0.11321676 -0.027410109 0.064593635 -0.046695255
0.08400433 0.04955631 -0.0012585241 0.044765525 0.05104886 -0.10318815 -0.0020632555 0.061227888
0.004972628 0.11797029 0.0061864555 -0.031980168 -0.054078873 -0.10220466 0.023904564 -0.06453404
-0.099038124 0.08421546 -0.005033165 0.110106945 0.057486787 -0.14010999 -0.123781815 -0.088972256
-0.07179845 -0.052495606 -0.11640096 0.04121528 0.057167176 -0.010217473 -0.09688488 0.09419517

fc2.bias f4 [64]
00000000: 9e2c 8abd f9d2 803f 35d4 05bf 07d0 07be
00000010: 00d5 713d c40e fc3f 450e d1bd 4c72 fc3f
00000020: 2198 1e3d 6a1a 95be be6b d33d b8cb 253e
00000030: e904 0b40 661e f83d 70f0 f53f fb29 0140
00000040: 6989 fbbd 8f8f 40bb dfc2 1140 fa1f da3f
00000050: 6cd3 0840 a2a9 c23f 4263 9fbd 1d50 0ebd
00000060: 8c5f 26bd 731a eb3f c602 debd c208 b23d
00000070: d702 0340 1398 02be 2d05 05be 36ed d63f
00000080: a614 3fbd 320a c4bd 7256 27be 4d53 853e
00000090: 5c12 9fbd c673 b5bc 0fbb 8e3c eadc c7bd
000000a0: 86fe 18bd dda9 9c3f 7290 d6bf 046e 0740
000000b0: 3ea2 62bf 78b2 ca3c 49cb c43f 7904 ff3f
000000c0: 57e3 a53d 0508 ef3f 5309 75bf 484d 683f
000000d0: 09f3 ee3f f33f 593d 0e17 113d 2220 963d
000000e0: 2c95 503b 90a5 2ebf c011 0440 8d2f 613f
000000f0: 80c9 a13f 8361 493f 5c5c 0640 3828 dd3f
-0.06746791 1.0064384 -0.5227693 -0.1326295 0.059041023 1.9692006 -0.102078 1.9722381
0.0387193 -0.29121715 0.103232846 0.16190994 2.1721747 0.12115173 1.9214001 2.0181873
-0.12282068 -0.0029382443 2.277519 1.7041008 2.1379042 1.5208018 -0.07782604 -0.03474437
-0.040618464 1.8367447 -0.10840373 0.08693077 2.0470483 -0.12753324 -0.12990256 1.6791141
-0.04665055 -0.09572257 -0.1634157 0.26040116 -0.07767174 -0.022149932 0.01742318 -0.09758933
-0.037352107 1.2239338 -1.6762831 2.1160898 -0.8852881 0.024743304 1.5374538 1.992324
0.08100002 1.8674322 -0.9571735 0.9074292 1.8667918 0.053039502 0.035422377 0.073303476
0.0031827195 -0.6822138 2.0635834 0.8796318 1.2639618 0.78664416 2.0993872 1.7277899

fc_A.weight f4 [20, 64]
00000000: 3079 cc3c 9306 833e aa5c 4f3e c37f b33d
00000010: 89e6 9c3d d814 673f e399 83bd b5d3 023f
00000020: 25e1 b53d 520d 1fbe ad55 c9bd 384c 4a3e
00000030: d4d1 273e 1262 fd3d 3128 ee3d 41ed 22bf
00000040: 23dd c4bd 391d 9dbd df37 5f3e 7c9c 5d3e
00000050: e259 173e 3aae 123b dffe f93d 7dac 183e
00000060: 5c34 b8bd f8c2 df3d 643e 8cbd 5eca a23d
00000070: 1dc5 803e 0362 613e 72e0 11bd a53b f3be
00000080: 37f1 403e 2cf6 63bd aaf6 c33d 858c 0f3d
00000090: 165b 99bd 8183 a63d 9b4b bdbd 8010 f3bd
000000a0: d4ef 833a f9d2 1bbe 89ed 69bd ab42 bf3d
000000b0: eaab 85bd 12a0 debd d171 193f 54fa df3d
000000c0: e670 91bd 560b 173e 6037 fb3d be9e b13e
000000d0: 4a64 d93d 99f6 27bd 5bcb 293d f318 f5bc
000000e0: 187b d53c f50a a23e 0819 a03e ef6e 55bf
000000f0: a4d4 8b3e 38b8 e23e 3cc0 263e a2c0 d6bd
00000100: 8583 edbd 11d8 263e 6799 a33e 0cfc 2a3d
00000110: 7422 bebd 4926 0b3f 4f99 f93d 6802 783e
00000120: 70c3 383c d2a7 3abe 7f9a 1bbd 7ecf c3b9
00000130: 6f93 603e a1fe 09be 9c50 e23b be55 4fbe
00000140: 3d22 5cbd a73c 713c f4d8 8d3e 7ffb 1e3e
00000150: d95a 513e 1f88 0cbd 0344 9f3d 6ff0 9bbd
00000160: 20ee 4bbc 142e 183e 5a2d cd3b 49b6 263e
00000170: bee4 fa3d 2f11 4a3e 7263 f33d ca11 cebe
00000180: 33f3 4e3e 1f11 ae3d 23d7 c53d 982f 09bd
00000190: a876 0cbd 7787 ab3c 0004 00be e4ab 093d
000001a0: 1742 adbd 27f5 6a3b d6c1 99be 3527 b23d
000001b0: 712c 9c3e fb25 4fbd 76ba 0cbe 6079 2b3e
000001c0: 6301 bdbd 1ede db3c 0090 4bbe 3afa 313e
000001d0: d63d da3d bff3 cabd 71e4 1d3c 2e60 193e
000001e0: 6e02 19be faca 3a3e 4d8d 01be a423 8cbe
000001f0: d004 a63e 7f05 883f 9ddc 493e 79eb 2d3d
00000200: 8010 2a3d 317d d83e 8904 5f3e dc48 51bb
00000210: 59c6 b13b 9668 db3d 8f35 7abd de15 963e
00000220: 5b6c 6b3d 2901 94be 0836 93bd 7a7d 75be
00000230: 7f07 4d3e bc1c bd3d ed1e 923d b42d 0e3e
00000240: 29b8 c3bd f039 933d 5245 083e e49b ac3d
00000250: 99b3 fc3d 42a6 6f3d dc41 843d f560 3ebd
00000260: 77d8 e63d 9b7a 8b3d 1622 0d3d 2cd5 7e3e
00000270: ca8d af3c c1c9 0a3e abd2 023e 41b6 c4be
00000280: b8da 723e d63e 1abd 82c2 cd3d 5e3c 2cbc
00000290: d422 88bd 9b08 ec3d ba40 1f3c 00e8 a4b9
000002a0: 36fd 3ebc 7be3 26bd 5f1a 80be e954 7a3d
000002b0: 8832 92bd 187e 8e3d 4747 593e c894 493e
000002c0: 46ef 873c aded 903d 2a7a 6abe dba6 4b3f
000002d0: 569e 8e3e 04d7 0d3e dbb0 eabd 2cef 163e
000002e0: 998a 1d3d 8317 e33d 46b1 353d ea07 47be
000002f0: ff51 993e 8e2d 363f 3e01 8c3d be19 2b3e
00000300: d0a9 163d 9740 273f 2e51 783e 4bc8 eabd
00000310: 2519 10bd 09aa a03d 7ac9 0cbd f429 703e
00000320: d848 8abd ceec 19be f98d e83c 6c65 fd3d
00000330: 6c1c d43d f068 4b3d 167e 943d e419 0b3d
00000340: d1f2 df3d 66fa b63c b810 4d3e a87b 8a3d
00000350: 1476 ff3d 6be2 133e c6a7 e53c 2dcd aa3c
00000360: 8f12 c03d a8e5 d13c 3722 83bd f69f e53d
00000370: 7c10 6e3d 3818 253e 8492 8ebd ccd6 42be
00000380: e1a7 563e d9d6 003e c51f ee3d 3984 afbd
00000390: aca2 fbbd a8d9 083e 31cb afbc a49a 2bbd
000003a0: 3939 8abb 50ae a9be a6b2 a43c 9647 87bd
000003b0: 52bf 00be 387f e33d 2eaf ebbe 187c fa3d
000003c0: fb25 4fbd 49f1 4ebd 8708 893d 80b9 8e3e
000003d0: f365 973d 1217 583d 0041 7c3d 6c80 203e
000003e0: 7094 80bd 4d48 8e3e 38ad 483c f8af 27be
000003f0: 7590 513f bfdc 1d3f 96ff 5d3d 1f78 fb3d
0.02496013 0.25590953 0.20250192 0.08764603 0.076611586 0.9026618 -0.06425836 0.5110429
0.088808335 -0.15532425 -0.098307945 0.19755638 0.16388637 0.12372221 0.1162876 -0.6364327
-0.09612491 -0.076715894 0.21798657 0.21641725 0.14780381 0.002238168 0.12206816 0.14909549
-0.08994362 0.10925859 -0.068478376 0.07948755 0.25150385 0.22010045 -0.03561444 -0.47506443
0.18842016 -0.05565469 0.09568532 0.03504612 -0.074880764 0.08130551 -0.09242936 -0.118683815
0.0010065981 -0.15217198 -0.057111297 0.09338888 -0.06526931 -0.10870375 0.59939295 0.10936418
-0.07101612 0.14750418 0.12266421 0.34691423 0.10614832 -0.04100666 0.0414537 -0.029919123
0.026059672 0.31648985 0.31269097 -0.83372396 0.2731067 0.44281173 0.16284269 -0.104859605
-0.11597351 0.1629336 0.31952974 0.041744277 -0.09283915 0.54355294 0.121874444 0.24219668
0.011277065 -0.18228081 -0.037989136 -0.00037347892 0.21931241 -0.1347604 0.006906582 -0.20247552
-0.05374359 0.014723933 0.27704585 0.15525626 0.20444812 -0.034309503 0.07776644 -0.076142184
-0.01244691 0.14861327 0.00626151 0.16280474 0.1225066 0.19733118 0.11884202 -0.40247947
0.2020996 0.08499359 0.09660175 -0.033492655 -0.034292847 0.020938618 -0.12501526 0.033611193
-0.08459871 0.0035851689 -0.30030698 0.086988844 0.30502656 -0.05057333 -0.13743004 0.1674552
-0.0922878 0.026839312 -0.1987915 0.1738061 0.106563255 -0.09909772 0.009636984 0.14978096
-0.14942333 0.18241492 -0.12651558 -0.27370942 0.32425547 1.0626677 0.19713064 0.042460892
0.041519642 0.42283013 0.21779074 -0.0031934297 0.005425256 0.107133076 -0.061086234 0.29313558
0.057476383 -0.28907135 -0.0718804 -0.23973647 0.20022391 0.09233996 0.07134805 0.13884622
-0.0955661 0.07188785 0.13307694 0.08428171 0.12338943 0.058508165 0.06457874 -0.046479184
0.11271756 0.068104945 0.034456335 0.24886006 0.021429915 0.13553526 0.12775676 -0.384203
0.23716247 -0.03765758 0.10046865 -0.0105124395 -0.06647268 0.11525079 0.009720022 -0.0003145337
-0.01165705 -0.040744286 -0.2502012 0.061116133 -0.07138544 0.06957644 0.21218596 0.19685662
0.016593587 0.07076583 -0.22898164 0.79551476 0.27855176 0.13851553 -0.11459514 0.14739674
0.038462255 0.11088469 0.044358514 -0.19436613 0.2994537 0.7116326 0.068361744 0.16709039
0.03678304 0.6533293 0.24249718 -0.11463984 -0.03518023 0.07844932 -0.03437183 0.23453504
-0.06752175 -0.1503174 0.02838801 0.1237286 0.103569835 0.049660623 0.072506115 0.033960238
0.109349854 0.022336196 0.20025909 0.06761867 0.124736935 0.1444184 0.028034102 0.020849789
0.0937854 0.025622204 -0.0640301 0.11212151 0.05812119 0.1612252 -0.069615394 -0.19027251
0.20962478 0.12581958 0.11627153 -0.08570141 -0.122868866 0.1336428 -0.021459194 -0.041895524
-0.0042182473 -0.33140802 0.020104717 -0.06605451 -0.12572983 0.111082494 -0.4603209 0.122307
-0.05057333 -0.050523076 0.066910796 0.278759 0.07392492 0.052756377 0.061585426 0.15673989
-0.06278312 0.27789536 0.01224833 -0.1637572 0.8186105 0.61664957 0.054198824 0.12278771

fc_A.bias f4 [20]
00000000: b6bc d63f 4bae d63e 492f 2a3e 4b0b 053e
00000010: 4e3b 993e d346 db3d 619b 8fbd a8d0 29be
00000020: d795 c1bd 11cb 0abe 1801 87be e1ad e8be
00000030: 373d eabe 6d84 ddbe f6ba 00bf 72fd 22bf
00000040: 0099 39bf 3e38 69bf 4ee7 55bf cfc9 9abf
1.677634 0.4192985 0.166196 0.12992589 0.29928058 0.10706868 -0.07012058 -0.16583502
-0.09452408 -0.13554026 -0.26368022 -0.4544516 -0.45749828 -0.43265095 -0.5028528 -0.63667977
-0.72499084 -0.91101444 -0.8355607 -1.2092837

fc_V.weight f4 [1, 64]
00000000: a275 a63d 5c5c c2be 31d6 93be 723f b2bc
00000010: 2bcf 7f3d b988 f4bf 3397 b33d 6363 fe3e
00000020: 837e 753d 1fb5 92bd 8c29 353d 3360 0abf
00000030: db9a f03e 1830 b03d 970e 6c3f 3c36 bcbf
00000040: c1c5 e03c 4c5b 593d 2cae 143f 5a42 493f
00000050: d3d8 dc3e e6b7 2c3f e70b d4bd 613a 9e3d
00000060: e888 1dbd 5bd5 c63e 6abd a73d e8ff d5bd
00000070: 547f 2b3f 06d8 5bbe 23b9 833d 4441 95bf
00000080: 43c4 32be 2a13 d83c 7e7f 35bd 27f3 f93c
00000090: e032 193c 42fc 8c3c 4d7c 103e a088 fe3b
000000a0: 35da 843b 9829 a33e 5dcc f7be 7cf2 eb3e
000000b0: b525 38be 48b4 c4bd 7258 0f3e e97e b43e
000000c0: 8ea6 353d af8a a23e 93d0 83be 6e1a 77be
000000d0: 2e33 5e3e 51e1 42bd e99e c23c 3928 143d
000000e0: 0454 8e3c 830a 97be 6d10 4d3f dfa0 94be
000000f0: 25ce 29bf bd7e 26bf c686 b33e 7918 3a3f
0.081279054 -0.3796109 -0.28874353 -0.021758769 0.06245343 -1.9104224 0.08769073 0.496852
0.059935104 -0.07163452 0.044229075 -0.5405304 0.46993145 0.08602923 0.9220976 -1.4704051
0.027438046 0.053065583 0.58078265 0.7861687 0.43134174 0.67468107 -0.10353833 0.07725979
-0.038460642 0.38834652 0.08190425 -0.10449201 0.6699116 -0.21469125 0.064317964 -1.1660542
-0.1745768 0.026376326 -0.04431104 0.030511452 0.009350508 0.01721013 0.14109917 0.007767752
0.0040543326 0.3186767 -0.48398104 0.46083438 -0.17983134 -0.096046984 0.13998583 0.35253075
0.044348292 0.31746432 -0.25745067 -0.24131176 0.21699211 -0.04757816 0.023757415 0.03617117
0.017374046 -0.29500207 0.8010319 -0.29028985 -0.66330177 -0.6503714 0.3506376 0.7269359

exp_avg f4 [64, 3]
00000000: 0000 0000 0000 0000 0000 0000 6d13 8241
00000010: 7965 04c1 b40d 87c2 206f 1841 d1ae 05c1
00000020: 4d0e d5c0 4e52 abc2 6c6b d1c2 d4c0 dec2
00000030: 7d7c d8c0 86dd d9c1 7ab6 b5c2 6f16 1841
00000040: 36f8 1740 2b42 7ec1 7f4e 903e c988 953f
00000050: 5f7a 69c0 abf2 0ac2 93b1 fdc1 dd96 59c2
00000060: 3ad0 103e 3fc5 213c e414 223e 0000 0000
00000070: 0000 0000 0000 0000 6cf7 9e41 217f f4c0
00000080: a748 90c2 0400 0000 0400 0000 0400 0000
00000090: 06b8 9e41 6477 80c1 c9df b3c2 3e38 fe41
000000a0: c63b b741 27a7 bb41 ff27 9e40 96f3 99c0
000000b0: 1411 fbc1 7a05 b1be d11d a0c0 7437 04bf
000000c0: 0000 0000 0000 0000 0000 0000 0000 0000
000000d0: 0000 0000 0000 0000 0400 0080 0400 0080
000000e0: 0400 0000 9ecc 0a42 50bb a941 43cf 5b41
000000f0: ff41 76c2 1bc4 52c2 369a bdc2 0000 0000
00000100: 0000 0000 0000 0000 0000 0000 0000 0000
00000110: 0000 0000 7e07 43c2 e231 73c2 80f6 75c2
00000120: 0000 0000 0000 0000 0000 0000 b730 8940
00000130: 1463 a540 b61c cb40 c615 11c2 72ee 9dc1
00000140: bf6f 2942 6350 2542 a808 bb41 7252 1e41
00000150: 2eb3 8b3e 9239 543f 99dd 1742 0400 0000
00000160: 0400 0000 0400 0000 447e e6bb f32b 85bc
00000170: bb33 5bbe 8c30 613e 49fd 9dc1 63a4 9cc2
00000180: 0000 0000 0000 0000 0000 0000 8764 1a41
00000190: 1a58 a140 5305 8a41 69eb 8c41 9442 2340
000001a0: 4cbe afc1 0400 0000 0400 0000 0400 0000
000001b0: 0000 0000 0000 0000 0000 0000 2de1 883d
000001c0: d580 773f 9c03 093e 0400 0000 0400 0000
000001d0: 0400 0000 0000 0000 0000 0000 0000 0000
000001e0: 13de 09c1 aaa9 16c0 4d6b e6c1 0000 0000
000001f0: 0000 0000 0000 0000 0000 0000 0000 0000
00000200: 0000 0000 0400 0000 0400 0000 0400 0000
00000210: 0ee3 7042 e3ae 1142 4f70 a241 fd2c 27c1
00000220: 2c6a a5c1 f3b9 41c1 eb23 35c3 32c1 1dc3
00000230: 467b 88c3 ab4f 9e40 63c2 a6c0 972b 0bc2
00000240: d729 093e e32d 853f d003 6f3f 0000 0000
00000250: 0000 0000 0000 0000 0400 0000 0400 0000
00000260: 0400 0000 0000 0000 0000 0000 0000 0000
00000270: 0000 0000 0000 0000 0000 0000 5893 94be
00000280: 8fc9 88c0 56d9 12c0 0400 0080 0400 0080
00000290: 0400 0080 f64d 49be 755e f6bf c8c0 a7bf
000002a0: 5284 663e 8e33 ff3f 7b77 c23e 0000 0000
000002b0: 0000 0000 0000 0000 1de2 01c1 5e43 92c1
000002c0: be7a 47c1 0178 c73e 23e4 3e3f 3bdd 0d41
000002d0: 3129 a83e 3a04 e53e cd52 8041 0000 0000
000002e0: 0000 0000 0000 0000 c172 cb41 914b 8241
000002f0: 6dbf 6441 1f7c 3b3a a3c9 4438 1f7c 3b3a
0.0 0.0 0.0 16.259485 -8.274774 -67.526764 9.52713 -8.35518
-6.6579957 -85.66075 -104.70981 -111.37662 -6.7651963 -27.233166 -90.8564 9.505477
2.3745246 -15.891154 0.28184888 1.1682369 -3.648094 -34.73698 -31.711706 -54.397327
0.14141932 0.009873687 0.15828282 0.0 0.0 0.0 19.870811 -7.6405187
-72.1419 6e-45 6e-45 6e-45 19.839855 -16.058296 -89.93708 31.777462
22.904186 23.456617 4.9423823 -4.8109846 -31.383339 -0.3457449 -5.0036397 -0.51647115
0.0 0.0 0.0 0.0 0.0 0.0 -6e-45 -6e-45
6e-45 34.69982 21.216461 13.738101 -61.56445 -52.69151 -94.80119 0.0
0.0 0.0 0.0 0.0 0.0 -48.757317 -60.798714 -61.490723
0.0 0.0 0.0 4.2871966 5.1683445 6.3472548 -36.271263 -19.741428
42.359127 41.328503 23.379227 9.895128 0.2728514 0.82900345 37.966404 6e-45
6e-45 6e-45 -0.007034095 -0.016256308 -0.21406452 0.21991175 -19.748674 -78.32107
0.0 0.0 0.0 9.649543 5.0420046 17.2526 17.614946 2.5509386
-21.967918 6e-45 6e-45 6e-45 0.0 0.0 0.0 0.06683574
0.9668096 0.13380283 6e-45 6e-45 6e-45 0.0 0.0 0.0
-8.616717 -2.3541055 -28.802393 0.0 0.0 0.0 0.0 0.0
0.0 6e-45 6e-45 6e-45 60.221733 36.420788 20.304838 -10.448483
-20.676842 -12.107898 -181.1403 -157.75467 -272.96307 4.947225 -5.211229 -34.79257
0.13394867 1.0404629 0.9336519 0.0 0.0 0.0 6e-45 6e-45
6e-45 0.0 0.0 0.0 0.0 0.0 0.0 -0.29018664
-4.2746043 -2.2945151 -6e-45 -6e-45 -6e-45 -0.19658646 -1.9247576 -1.3105707
0.22511414 1.9937608 0.3798178 0.0 0.0 0.0 -8.117703 -18.282894
-12.467466 0.38958743 0.7456686 8.866511 0.32843927 0.44729787 16.04043 0.0
0.0 0.0 25.431032 16.286898 14.296735 0.00071519794 4.691783e-05 0.00071519794
