beergame/double_dueling_dqn/models/dqn_agent_firm_1_episode_1500.pth (torch, 105254 bytes, 28 tensors)

fc1.weight f4 [64, 3]
000000 66 2d 13 bf 38 c9 fd bd 26 f0 a4 be 73 d7 18 3d
       -0.5749115 -0.12391895 -0.3221447 0.037314843
000010 e9 fb f5 3d e4 4f a4 bc 61 1a e7 be 58 f4 95 be
       0.12010939 -0.020057626 -0.45137313 -0.29287982
000020 3b de c5 3e ad fe 88 3e 88 1c ff 3d f2 c6 70 be
       0.3864611 0.26756802 0.12456614 -0.23513392
000030 61 5a 8e be e5 f3 3e ba 91 0e 81 3d 44 4a 39 3e
       -0.2780333 -0.0007284268 0.063016064 0.18094736
000040 d4 47 aa 3e 53 d3 97 bc 9f 14 a7 3e db 05 fb 3e
       0.33257926 -0.018533384 0.3263292 0.49027905
000050 e0 35 95 bc a8 08 03 3f c8 f7 84 3e 09 a6 1b be
       -0.018214166 0.51185083 0.25970292 -0.15200056
000060 d1 0e c9 3e 23 b6 9e bd 68 bc b0 3a e0 3b 74 bd
       0.39269117 -0.077495836 0.0013483884 -0.059627414
000070 76 65 fd be 46 73 68 be 30 47 48 be b7 e3 45 3e
       -0.4949147 -0.22700223 -0.19558406 0.19325148
000080 b1 1b 4e 3d c2 e1 ef 3d 55 ef 56 bf 3c 1c eb bc
       0.050319377 0.11712982 -0.8395894 -0.028699987
000090 82 3e bd 3e 61 e6 e5 be 1e e7 aa 3d 80 34 19 3f
       0.36961752 -0.44902328 0.08344863 0.59845734
0000a0 ec 8a 36 3f 9d 36 92 3d 6c 61 58 3e 0d f2 8d 3d
       0.7130573 0.07139323 0.21130913 0.06930933
0000b0 8f 10 78 bc b6 21 eb bd 5e f2 97 3d d5 25 4b bd
       -0.015140667 -0.11481039 0.07419275 -0.049596626
0000c0 f0 98 a6 be 95 fd 95 be e8 73 09 bf b1 0d 95 be
       -0.32538557 -0.2929503 -0.53692484 -0.29112008
0000d0 1a 41 0f bf 60 2e 9e bd 21 59 14 3e a5 2a 84 be
       -0.5595871 -0.07723689 0.14487125 -0.25813785
0000e0 5f 7e cb 3d 4a 66 5b be ec f1 fd 3e 27 bf 81 3e
       0.09936213 -0.21425739 0.49598634 0.2534115
0000f0 48 c7 c7 3d 46 81 8d 3e 34 8e cb bd b0 f4 ed bd
       0.09754807 0.2763769 -0.099392325 -0.11618936
000100 12 a8 3b be f0 56 b6 be 82 aa c5 3e 00 60 bd b8
       -0.18325832 -0.35613203 0.3860665 -9.030104e-05
000110 2e 82 08 bf 91 cb 1b 3e c9 b4 01 bd 80 58 74 be
       -0.5332364 0.15214373 -0.03166655 -0.23861885
000120 30 bf fb 3d 9c cc b2 be df ed f6 be 56 17 85 3e
       0.122923255 -0.3492173 -0.48228356 0.25994366
000130 56 73 2c 3f ad 02 ae bd d4 ea 5b be 4c bc de 3e
       0.6736349 -0.08496604 -0.21476299 0.43503034
000140 77 2a 1d be e7 cc 87 be 77 df 85 3e d4 06 a0 3e
       -0.1534823 -0.26523516 0.26147053 0.3125521
000150 1b 68 11 be a7 2f 44 bf d3 bb e1 3d 95 7f f2 bd
       -0.1419987 -0.7663521 0.11022153 -0.118407406
000160 e7 9c bb 3e 60 da 31 3d ec dc 80 bd 37 98 e2 be
       0.36643144 0.04342115 -0.062921375 -0.44256756
000170 bf 7c cb 3d 86 df a7 be c2 4d 9e 3d 08 06 25 3d
       0.09935903 -0.32787722 0.07729675 0.040288955
000180 30 d4 f6 be a0 85 48 bd 4f 23 e5 be f4 b9 0a 3f
       -0.4820876 -0.04895556 -0.447535 0.5418999
000190 c7 02 14 bf 26 51 8f 3e 46 db 12 3f c8 14 29 be
       -0.5781674 0.279916 0.57365835 -0.16511834
0001a0 c1 c4 81 3c 9d 32 25 bf 5a 79 db be b9 a2 bb 3d
       0.01584089 -0.64530355 -0.4286602 0.09161896
0001b0 40 4f 84 3d f8 58 cb bd 0a 39 53 be ca 5d ec 3d
       0.06460428 -0.09929079 -0.20627227 0.11541326
0001c0 3a 61 01 3d 54 ed 84 bc 8b 47 2e bf 9b 3b 21 bf
       0.031586863 -0.016226448 -0.68077916 -0.62981576
0001d0 d3 d7 da 3d aa f1 b9 be 40 35 50 3c 8c 34 f1 be
       0.106856965 -0.36317188 0.012708008 -0.47110403
0001e0 eb c6 43 bd 63 33 2d be fa 71 0f 3c 28 58 01 3e
       -0.047797125 -0.16914134 0.0087552015 0.12631285
0001f0 a7 48 ed be b6 98 c3 be 6c 42 9c 3e 3d 91 97 be
       -0.46344492 -0.38202447 0.30519426 -0.29602996
000200 72 e5 8e be 05 f1 d7 3e 59 c1 2b bf 52 45 45 be
       -0.27909428 0.4217607 -0.670919 -0.19264725
000210 7c 31 34 3e db b0 bb 3e 04 52 a1 3e 06 d9 f4 3d
       0.17597002 0.36658368 0.31507885 0.119554564
000220 ee a1 4a 3e 8a f8 2e bd 71 42 8d 3c 69 4a 85 3d
       0.19788334 -0.042717494 0.017243596 0.06508333
000230 f3 95 4a bd e8 a9 52 be 89 56 b8 3e 1d 32 86 3c
       -0.04945941 -0.20572627 0.3600352 0.016381318
000240 94 83 ca be 17 eb 2b 3f b2 c0 eb 3d 0e 56 81 3e
       -0.3955351 0.67155594 0.11511363 0.25260967
000250 48 b8 ee be 8d bb b4 be 12 fc 41 bf 60 8b ae 3e
       -0.4662497 -0.3529934 -0.75775254 0.3409071
000260 27 40 91 3d c2 15 64 be 83 70 f2 be 3f 76 df be
       0.07092314 -0.22273925 -0.47351465 -0.43644902
000270 18 6e e7 be e6 a9 db be d0 be b3 bd 41 a7 bd be
       -0.45201182 -0.4290306 -0.08776629 -0.37041667
000280 8f 42 9c 3e e4 ac 91 be a7 bc 3c 3e f3 7b bb be
       0.3051953 -0.28452218 0.1843134 -0.36618003
000290 e6 48 07 3e d8 75 8e be d5 bf 1d bd 43 46 12 3c
       0.13211402 -0.27824283 -0.038513023 0.0089278845
0002a0 32 12 2a bf f3 3b bd 3e 9a fa a7 bb 6a a2 84 3e
       -0.66434014 0.369598 -0.0051263096 0.25905162
0002b0 4a f9 c7 be b9 0c 0a bf 37 71 5d be eb 8e a5 3e
       -0.3905738 -0.53925663 -0.2162522 0.323356
0002c0 53 9c 97 be 04 5c c8 be dd 41 34 bf 12 c3 0f 3e
       -0.29611453 -0.39132702 -0.70413 0.14039257
0002d0 95 cc fc bd c4 8f f2 be 54 00 e0 3c 10 bd b4 3d
       -0.123437084 -0.4737531 0.027343906 0.08825123
0002e0 96 c2 01 be 08 20 e2 be 65 d4 d2 3e dc 18 bd bc
       -0.12671885 -0.44165063 0.4117767 -0.023083143
0002f0 9b 95 24 3e b8 5e a5 3d eb cb 43 bd 0a d6 a1 bb
       0.16072695 0.08074707 -0.047801893 -0.0049388455

fc1.bias f4 [64]
000000 17 80 96 be 3a 89 6f 40 55 de 3f c0 ee fd 15 40
       -0.293946 3.7427506 -2.997945 2.3436236
000010 f8 c8 7d 40 97 86 48 40 ca 8f d7 3f f3 7e 05 40
       3.9653912 3.1332147 1.6840756 2.0858734
000020 bd 75 07 40 7c 8d ff 3e ba ea 62 40 06 f2 48 bf
       2.1165612 0.49912632 3.5455766 -0.784943
000030 2b 38 6b 40 5d d9 0e c0 cf 45 3b 40 51 1d 06 40
       3.6753032 -2.2320168 2.9261358 2.0955393
000040 7c 38 cf 3e b0 7f c9 3d dc 31 02 c0 56 85 ef bf
       0.40472782 0.098388076 -2.0342932 -1.8712566
000050 cb 21 45 40 2e de 93 3e 34 0f e2 bd 2a 58 25 40
       3.0801876 0.28880447 -0.11038056 2.583506
000060 56 34 cc 3e 32 61 34 3e 06 c0 34 40 43 94 b4 bf
       0.3988368 0.17615202 2.8242202 -1.4107746
000070 1a c6 8c 3f 3c 3c a5 bf c8 fc 12 40 9f ee 72 40
       1.0997956 -1.2909007 2.2966785 3.7958143
000080 88 5c 99 3e 73 83 0b c0 06 36 21 40 1d b3 d8 bf
       0.29953408 -2.179898 2.5189223 -1.6929661
000090 fa 4c 05 bf 9a 3b 1d 40 75 8b d0 3e 49 6b a3 be
       -0.5207058 2.4567628 0.40731397 -0.3191779
0000a0 23 85 56 40 88 37 7e be 9c 8a c7 be 0a fb 65 3e
       3.351876 -0.24825871 -0.38972938 0.22459045
0000b0 93 dd 1f c0 56 33 60 40 db e6 3e 40 52 6c 62 40
       -2.4978988 3.5031333 2.9828403 3.5378613
0000c0 fa 5a 28 c0 9a 82 bd 3e f4 43 fd bf a0 11 30 3e
       -2.6305528 0.37013704 -1.9786363 0.17194223
0000d0 0f 0f db be f4 46 08 3f 92 8f 22 c0 f3 2e f4 3f
       -0.42784926 0.53233266 -2.5400128 1.9076828
0000e0 a7 bc 50 40 f5 1a 13 bf 3d 27 10 40 c8 ac 97 bf
       3.2615144 -0.5746301 2.252395 -1.1849604
0000f0 6f 5f 0b 40 e8 31 c1 be 73 29 bc bf 4b e1 3f 3f
       2.1776998 -0.37733388 -1.4700149 0.74953145

fc2.weight f4 [64, 64]
000000 30 7a 03 bc 00 0c 20 b9 18 c3 d4 3d 20 42 2e bd
       -0.008024737 -0.0001526326 0.10388774 -0.04254353
000010 f2 ed bc 3d fc 96 eb bd 64 79 7d 3d 60 4e 99 3d
       0.09225072 -0.11503407 0.061883345 0.07485652
000020 b0 b4 61 bd 80 8a a1 ba 00 ee a2 3a 16 28 fa 3d
       -0.055103958 -0.0012324601 0.0012430549 0.12214677
000030 90 64 b8 3c 70 6f 05 3c 54 58 dc bd 36 f7 f4 3d
       0.02250889 0.008144245 -0.10759035 0.11961214
000040 ec 97 d1 bd 38 23 a9 3c 96 78 8d 3d 24 46 a6 bd
       -0.10234055 0.020646676 0.069077656 -0.08118847
000050 74 54 d8 3d 00 cb 86 bb b0 63 ba 3d 68 a2 aa bd
       0.10562983 -0.004113555 0.09101045 -0.08331758
000060 c0 76 23 bc ee 1e 8c bd a4 9d 10 3d fa cd cf bd
       -0.009977043 -0.06841837 0.035306588 -0.10146709
000070 80 57 89 3a 80 9b 69 3d 68 6b 5a bd d0 b8 ec 3d
       0.0010478348 0.057033062 -0.053325087 0.11558688
000080 94 28 2e 3d 20 e1 65 3c 7c ff b4 3d 82 9b 80 bd
       0.042519167 0.014030725 0.08837792 -0.06279661
000090 60 cc 37 3c 9a 63 fd bd a8 84 fb bd 78 49 af 3d
       0.01121816 -0.12372513 -0.122811615 0.08558935
0000a0 d8 a0 5f bd bc 09 72 bd ec 83 3e bd 9e 17 e0 3d
       -0.054596752 -0.059091315 -0.04651253 0.109420046
0000b0 80 54 98 bd 94 31 a6 bd e0 0e 60 3c bc 52 af bd
       -0.07437992 -0.08114925 0.0136754215 -0.08560702
0000c0 7e c5 e1 bd 60 13 f8 3d c4 7c 71 3d 80 16 d2 bb
       -0.11023997 0.121130705 0.058956876 -0.0064113736
0000d0 fe 06 e4 bd 3e f5 d4 3d a0 a8 48 3c c4 3b 45 bd
       -0.11134146 0.10398339 0.012247235 -0.0481527
0000e0 90 86 94 bd 68 e1 f1 3c ec b6 2a 3d c8 fb d2 bd
       -0.07252228 0.029526427 0.041678354 -0.1030193
0000f0 92 bf 95 3d 38 40 f7 3c 44 17 f0 bd e4 3c 47 3d
       0.0731193 0.03018199 -0.117231876 0.048642054
000100 84 44 ab 3d fd 1e c8 3e e6 36 71 be de 24 92 3e
       0.08362678 0.39086142 -0.23556098 0.28543752
000110 bb 40 8e 3f 81 7f 99 3d 79 18 49 be 82 87 e1 bc
       1.1113504 0.074950226 -0.19638242 -0.027530435
000120 20 3c 0a 3d 00 12 7a 3d ce 36 9d 3e ab a1 1a be
       0.033748746 0.061052322 0.30705875 -0.15100734
000130 1b 94 5e 3e 38 80 0c bf 57 83 2a 3e 0d 66 64 3c
       0.21736185 -0.54883146 0.16651665 0.013940346
000140 32 08 fd 3d 44 50 d7 bd bd 15 07 bf 3a 0f d4 be
       0.12355079 -0.10513356 -0.52767545 -0.41417867
000150 15 de 73 3d 50 e4 a1 3c 18 8f da bd 92 ba 59 3e
       0.059537966 0.019762188 -0.10671824 0.21262577
000160 e0 55 0c bc ca ad 99 be c3 98 b1 be 38 13 21 be
       -0.008565396 -0.30015403 -0.3468686 -0.15729988
000170 c3 f2 18 3f 34 99 83 be 0f 68 4f 3e 72 d6 3d 3f
       0.59745425 -0.25702822 0.20254539 0.7415534
000180 7c 70 cc 3d fc 41 3e be 7c 88 58 3e e9 42 bc 3d
       0.09982392 -0.18579859 0.21145815 0.091924496
000190 20 22 95 bb a5 35 91 bd a9 71 e4 3d d4 de b6 bd
       -0.004551187 -0.0709031 0.111544915 -0.0892922
0001a0 e3 3e e6 3e 2e 66 89 bd de ef be 3d aa ef 26 bd
       0.44969854 -0.06708942 0.09323095 -0.040755905
0001b0 57 0c dd be 1c ba 47 3e 7d cb 61 3f 01 f6 96 3e
       -0.43173477 0.19504589 0.88201123 0.2948456
0001c0 90 a6 df be 00 04 79 39 93 dc b5 be 00 0a fc ba
       -0.43681765 0.0002374798 -0.35519847 -0.0019229054
0001d0 f8 19 c4 3d 4f f7 a8 bd 95 1b c2 be 4b 01 54 3e
       0.09575266 -0.08250295 -0.37911668 0.20703618
0001e0 16 46 df 3d a6 92 b0 3d 5f df cd be 97 6b 39 3e
       0.1090204 0.08621721 -0.4020948 0.18107449
0001f0 bb f3 48 3f 40 e6 3b bd db 47 0e be 7b 78 62 3e
       0.78496903 -0.04587388 -0.13894598 0.22116272
000200 f2 56 d7 bd 73 24 fa be 72 a1 0d 3d 85 34 7b 3e
       -0.105146304 -0.48855934 0.034577794 0.24531753
000210 6d ca fa be f9 20 42 bd f3 22 1c be e1 c9 aa be
       -0.48982564 -0.047394726 -0.15247707 -0.33357146
000220 a5 de 9f bd 68 f9 4a 3d 7f 6e a9 be 18 62 23 be
       -0.07806138 0.04955426 -0.33092114 -0.15955389
000230 d1 e7 a6 be f5 f4 8b 3e e8 22 84 be 08 d3 19 bf
       -0.32598737 0.27335325 -0.2580788 -0.60087633
000240 80 57 a6 bc 10 f9 f9 bd 0e f9 db bc 5d c9 74 3e
       -0.020305395 -0.12205708 -0.026852157 0.23904939
000250 4c 7a 23 bf 58 b7 9f bc b0 9a 3b 3c 7e 5a 63 3f
       -0.63858485 -0.019496605 0.011450455 0.88809955
000260 d8 5f 35 bd f6 4d 10 be 2d 8d bd be b2 cc a2 3d
       -0.044280857 -0.1409224 -0.3702177 0.07949199
000270 eb 25 3a bf cf 66 05 3e 13 2a 68 be 93 15 05 bf
       -0.7271411 0.130275 -0.226723 -0.51986045
000280 be cf e8 bd 7d f3 27 3e 9a 52 d5 bd 48 75 b2 bc
       -0.11367749 0.16401477 -0.104161456 -0.02178444
000290 10 43 6c 3d 1c 0f 89 be bd 4c 9a be e0 0e 03 bd
       0.057681143 -0.2676934 -0.30136672 -0.031996608
0002a0 ea 2d 06 bf 98 9a 03 bd 00 5c 3f 3a aa f6 d0 be
       -0.5241381 -0.032129854 0.0007299781 -0.4081319
0002b0 17 7d ef 3d 4c 0f 87 be 90 3f 12 bf 50 0b b1 be
       0.11693781 -0.26378858 -0.5712824 -0.34578943
0002c0 13 42 3d 3e a0 8c a8 bb 70 67 02 3e da 62 98 3d
       0.18482237 -0.005143717 0.12734771 0.074407294
0002d0 08 d3 a5 bc 52 38 73 bd 17 3f 4b 3d 30 c3 57 be
       -0.02024223 -0.059379883 0.049620714 -0.21070552
0002e0 67 06 ae be bc 1e 32 3d 8c 52 a9 3e 53 06 7e bd
       -0.3398926 0.04348634 0.3307079 -0.06201775
0002f0 f8 ca e9 be 88 22 08 3d 9f 98 6b 3e 70 1b 3b be
       -0.45662665 0.033236057 0.23007439 -0.18272185
000300 9e 11 df bd 0b 1a 3a 3d 43 5e 71 3d f2 55 5a bd
       -0.10892032 0.045434993 0.058927786 -0.05330462
000310 dc 08 e7 bc df 03 0b bc 90 bc e7 3c 5a 97 aa bd
       -0.028202467 -0.00848481 0.028288156 -0.08329649
000320 3d f0 30 bd 6c 0a 98 bd fe 87 8b bd be e1 9b bd
       -0.04319786 -0.07423863 -0.06813048 -0.07611416
000330 58 73 88 3d 31 6a 75 bd 5f 75 9a bd c3 04 b1 bd
       0.06662625 -0.059915725 -0.07541918 -0.08643486
000340 40 44 45 bd 28 0d 92 bc c9 04 ef bd 68 b2 13 bd
       -0.04816079 -0.017828539 -0.116708346 -0.036058813
000350 ad 72 4b bd d0 f3 55 3c 2e 14 e4 3d e8 63 89 3c
       -0.04966991 0.013058618 0.111366615 0.016771272
000360 90 e6 3c bc ed 6b fb 3c 5c 06 e4 bb 5a 54 c1 bd
       -0.01152958 0.030691111 -0.006958766 -0.09439917
000370 d5 e0 e7 bd 1a 8c e0 bc a2 45 84 3d 2c 44 3f bd
       -0.1132218 -0.027410556 0.06458594 -0.046695873
000380 76 0a ac 3d 16 f8 4a 3d d1 f4 a4 ba a3 59 37 3d
       0.08400433 0.049553 -0.0012585168 0.04476322
000390 9c 18 51 3d 58 55 d3 bd da 3a 07 bb 18 ca 7a 3d
       0.05104886 -0.103190124 -0.0020634443 0.061227888
0003a0 d5 ed a2 3b 46 9a f1 3d c0 b7 ca 3b 2e 00 03 bd
       0.0049721994 0.117970034 0.0061864555 -0.031982593
0003b0 d6 81 5d bd e6 50 d1 bd 60 d1 c3 3c 32 2c 84 bd
       -0.0540789 -0.10220508 0.023903549 -0.06453742
0003c0 93 d5 ca bd 28 79 ac 3d c5 ec a4 bb c0 7f e1 3d
       -0.09904017 0.08421546 -0.005033108 0.110106945
0003d0 44 77 6b 3d 90 78 0f be 03 83 fd bd 35 38 b6 bd
       0.057486787 -0.14010835 -0.12378504 -0.088974394
0003e0 5b 0c 93 bd 84 05 57 bd a0 63 ee bd cd cf 28 3d
       -0.07180091 -0.052495494 -0.11640096 0.0412138
0003f0 42 27 6a 3d 30 67 27 bc 56 6e c6 bd a9 e7 c0 3d
       0.057166345 -0.010217473 -0.09689014 0.09419186

fc2.bias f4 [64]
000000 9e 2c 8a bd e1 cf 83 3f 9b 17 ff be 99 d2 07 be
       -0.06746791 1.0297815 -0.49822697 -0.1326393
000010 75 d1 71 3d e2 1c f0 3f 19 10 d1 bd eb a1 f5 3f
       0.059037644 1.8758814 -0.102081485 1.9190038
000020 cd 96 1e 3d bd b9 6a be 4f 67 d3 3d d1 09 4a 3e
       0.038718034 -0.22922416 0.10322439 0.19730307
000030 27 9f 08 40 81 1e f8 3d 9d 22 ec 3f 07 7c 08 40
       2.134714 0.12115193 1.8448063 2.13257
000040 be 89 fb bd c9 92 40 bb 92 63 0d 40 a2 52 d6 3f
       -0.122821316 -0.0029384366 2.2092023 1.6743968
000050 f1 ab 07 40 4f 99 bd 3f 0c 60 9f bd f3 50 0e bd
       2.1198695 1.4812411 -0.07781991 -0.034745168
000060 8c 5f 26 bd 2a cb e3 3f 4e 36 99 bd 67 06 b2 3d
       -0.040618464 1.7796376 -0.07481061 0.086926274
000070 13 2a fc 3f 3b 9a 02 be f6 fc c8 bd 7d 25 ea 3f
       1.970034 -0.12754147 -0.098138735 1.829269
000080 81 15 3f bd 02 0d c4 bd bf 58 27 be f3 53 85 3e
       -0.046651367 -0.095727935 -0.16342448 0.2604061
000090 5c 12 9f bd ae ad 73 bc a4 06 3f 3d ea dc c7 bd
       -0.07767174 -0.014872951 0.046637192 -0.09758933
0000a0 a5 00 19 bd 77 18 b9 3f 8c 98 d0 bf 19 64 06 40
       -0.03735413 1.4460591 -1.6296554 2.0998595
0000b0 ff 97 55 bf 78 b2 ca 3c b9 48 b9 3f d5 2d ff 3f
       -0.8343505 0.024743304 1.4475318 1.9935862
0000c0 1d e2 a5 3d 8f c4 f0 3f 22 98 6a bf 90 26 8c 3f
       0.08099768 1.8809985 -0.91638386 1.0949268
0000d0 8b b1 f3 3f 71 3b 59 3d fb 14 11 3d 8d 2d d7 3d
       1.9038557 0.053035203 0.0354204 0.10506735
0000e0 19 96 50 3b 01 24 2c bf 3c c3 00 40 5f fa 93 3f
       0.0031827746 -0.6724244 2.0119162 1.1560782
0000f0 4c df 96 3f fe 89 59 3f 5c 6c 05 40 0e 1d d8 3f
       1.1786895 0.84976184 2.0847387 1.6883867

fc_A.weight f4 [20, 64]
000000 30 79 cc 3c 88 bf 8f be 7d 92 5a 3e b3 7d b3 3d
       0.02496013 -0.28075814 0.21344943 0.087642096
000010 d6 e9 9c 3d cf 9b 97 3f da 97 83 bd 64 fc 10 3f
       0.07661788 1.1844424 -0.06425448 0.5663512
000020 46 dd b5 3d 13 9c 73 be 96 54 c9 bd 88 3e 60 3e
       0.08880095 -0.23790006 -0.098305866 0.21898854
000030 63 71 5c 3e e4 64 fd 3d 04 a3 31 3e 99 d6 a3 bf
       0.21527629 0.12372759 0.17347342 -1.2799865
000040 83 dd c4 bd 61 1f 9d bd 0f d4 8a 3e 84 ea 85 3e
       -0.096125625 -0.07672001 0.27114913 0.26155484
000050 f1 fd 55 3e 44 0b 8c 3d 1d fe f9 3d 46 ac 18 3e
       0.20897652 0.06838086 0.122066714 0.14909467
000060 5c 34 b8 bd 7e 5b 25 3e 5a 69 80 3c 30 cc a2 3d
       -0.08994362 0.16148183 0.015675236 0.07949102
000070 c6 1b 9c 3e f1 62 61 3e 5c 21 89 bd 50 38 67 bf
       0.3048994 0.220104 -0.06695816 -0.903203
000080 ac f3 40 3e 68 f5 63 bd 33 f7 c3 3d b9 89 0f 3d
       0.18842953 -0.05565396 0.09568634 0.035043452
000090 16 5b 99 bd 69 9e 55 3d 72 a9 ca bd 80 10 f3 bd
       -0.074880764 0.052153025 -0.098956004 -0.118683815
0000a0 7a f1 83 3a 12 40 05 be 75 f6 45 be 65 e0 1c 3e
       0.0010066472 -0.13012722 -0.19332297 0.15319975
0000b0 3f 36 4b bd 12 a0 de bd 72 7c 25 3d 93 7f 20 3e
       -0.04961228 -0.10870375 0.040401883 0.15673666
0000c0 fd 6e 91 bd ad 32 6b 3e b0 08 84 3b 24 e7 38 3e
       -0.071012475 0.2296855 0.004029356 0.18056923
0000d0 87 2a 1f 3e d6 f3 27 bd b7 c7 29 3d 9b ea f1 3a
       0.15543567 -0.041004024 0.04145023 0.0018456759
0000e0 5a 79 d5 3c 4c 30 a4 3e 7d f2 d0 3e 0e 00 ae bf
       0.026058841 0.32068098 0.40810004 -1.3593767
0000f0 e5 92 af 3f 6d 8c 0b 3e 2a d3 64 3e 68 eb 99 bd
       1.3716704 0.13627787 0.22346178 -0.07515603
000100 c2 82 ed bd 2b 3d 8c bd b2 24 9e 3e 32 f8 2a 3d
       -0.11597206 -0.06847604 0.3088737 0.041740604
000110 38 1e be bd 2c 4a c0 3e 72 9b f9 3d d9 7a 38 3e
       -0.092831075 0.3755659 0.12187852 0.18015613
000120 b6 c6 38 3c f4 7a af bd 31 98 1b bd cf 5e fa bd
       0.011277845 -0.08568373 -0.037986938 -0.122251146
000130 fc 4c 5d 3e 94 00 0a be 89 a0 39 3b 60 b0 32 be
       0.21611398 -0.13476783 0.0028324446 -0.17450094
000140 c1 20 5c bd c6 3a 71 3c e4 da 93 3e 8e 2e 29 3e
       -0.053742174 0.014723485 0.28877938 0.16521665
000150 6e 8f 5e 3e 58 05 72 bd 95 46 9f 3d 54 ee 9b bd
       0.21734402 -0.059087127 0.07777134 -0.07613817
000160 20 ee 4b bc 25 3e 1d 3e df 58 bc 3c 5a b6 26 3e
       -0.01244691 0.15355738 0.022991596 0.16280499
000170 37 1b d8 3d 3f 13 4a 3e 16 33 b3 3d 95 a4 d5 be
       0.10552066 0.19733904 0.08749978 -0.4172713
000180 62 f6 4e 3e 64 13 ae 3d 91 d7 c5 3d 21 32 09 bd
       0.20211175 0.08499792 0.09660257 -0.033495072
000190 a8 76 0c bd 31 1d b0 3d 00 ce c7 bd e4 ab 09 3d
       -0.034292847 0.08599318 -0.09756088 0.033611193
0001a0 9f 42 ad bd ab 5e 4f 3d 89 f7 b4 bd ab 2c be 3d
       -0.084599726 0.05062739 -0.08836276 0.092858635
0001b0 76 31 a4 3e d8 25 4f bd c9 b7 69 3e 50 ba 20 3e
       0.32068986 -0.0505732 0.22824015 0.15696073
0001c0 06 fd bc bd 52 c3 27 3d 1e e3 a4 bd df 60 a6 3e
       -0.09227948 0.040957756 -0.08051132 0.32495782
0001d0 e6 8f e9 3d c4 ef ca bd aa e3 1d 3c 0d b4 f1 3d
       0.114043996 -0.09909013 0.009636799 0.1180192
0001e0 d0 04 19 be 59 a0 36 3e bf 6e 03 be 5c 98 d6 be
       -0.14943242 0.17834605 -0.12835215 -0.41913116
0001f0 b5 01 09 3f e8 18 c5 3e f6 b4 49 3e 56 40 e7 3c
       0.5351823 0.38495564 0.19697937 0.02822892
000200 80 10 2a 3d 26 d8 18 be c7 e9 53 3e 58 47 51 bb
       0.041519642 -0.14926204 0.20694648 -0.0031933393
000210 2c c5 b1 3b 86 19 ac 3c 43 31 7a bd 34 ca 4f 3e
       0.005425116 0.021008264 -0.061082136 0.20291978
000220 b3 6e 6b 3d 54 12 51 be 6a 33 93 bd 58 24 e1 3c
       0.057478618 -0.20417148 -0.07187541 0.02748315
000230 0c 42 48 3e 66 1f bd 3d 36 51 5b 3d 87 22 d6 3d
       0.19556445 0.092345044 0.053544246 0.10455804
000240 58 b7 c3 bd 6c 37 93 3d 75 2f 11 3e 47 b4 cc 3c
       -0.095564544 0.07188305 0.1417826 0.024988307
000250 0f 45 06 3e b8 06 86 3c c1 43 84 3d e1 62 3e bd
       0.13112281 0.016360626 0.064582355 -0.046481017
000260 72 d8 e6 3d 4d c5 6d 3e a0 43 65 3d f4 d5 7e 3e
       0.112717524 0.23219796 0.055972695 0.24886304
000270 ff d4 12 bc 7d c8 0a 3e a4 76 c5 3d 6f e9 c7 be
       -0.008961915 0.13553043 0.096417695 -0.39045283
000280 ef d8 72 3e bd 3b 1a bd 9c c5 cd 3d 6c 3f 2c bc
       0.23715566 -0.037654627 0.100474566 -0.010513168
000290 d4 22 88 bd e7 8a f4 3d 48 42 18 3d 00 e8 a4 b9
       -0.06647268 0.11940556 0.037172586 -0.0003145337
0002a0 f6 fc 3e bc 74 7b a8 3b f4 6a ce bd 44 1f 7f 3d
       -0.01165699 0.00514167 -0.100789934 0.062285677
0002b0 61 43 64 bd 18 7e 8e 3d 7b 0c 61 3e 7f 9a 4f 3e
       -0.05572832 0.06957644 0.21977417 0.2027378
0002c0 42 ed 87 3c 6b 68 8f 3d 82 b2 e2 bd 83 d0 eb 3e
       0.016592626 0.07002338 -0.11069204 0.4605752
0002d0 e3 6d 73 3e 6f da 0d 3e 3b b3 ea bd 92 d3 ec 3d
       0.23772387 0.13852857 -0.11459967 0.11563791
0002e0 3f 8c 1d 3d ba 92 da 3d d4 51 6b 3b 84 c2 a0 be
       0.038463827 0.10672517 0.0035906928 -0.31398404
0002f0 e0 da 16 3f ec 76 c7 3e ed 15 9f 3d 5c 9a 0c 3e
       0.58927727 0.38957918 0.07767854 0.13730758
000300 d0 a9 16 3d 73 da 04 be 8b c7 6e 3e 5f c8 ea bd
       0.03678304 -0.12973957 0.23318307 -0.11463999
000310 19 18 10 bd 18 72 05 bd 59 c5 0c bd ba e5 7a 3e
       -0.03517923 -0.03257951 -0.034367893 0.24501696
000320 aa 46 8a bd 05 3a b5 bd 32 8f e8 3c 60 a5 ea 3d
       -0.06751759 -0.08848957 0.028388593 0.11457324
000330 6b 2d 15 3e 63 6a 4b 3d 62 07 ce 3d b2 ab a4 3c
       0.14568107 0.049662005 0.10060002 0.020101402
000340 92 f3 df 3d e5 f8 b6 3c 03 f0 7e 3e ae 87 ca bd
       0.10935129 0.022335479 0.24896245 -0.0988916
000350 87 da 32 3e 67 5b 13 3e 11 a9 e5 3c 69 d0 aa 3c
       0.17466174 0.14390336 0.028034719 0.02085133
000360 18 12 c0 3d aa 4b 95 3e c3 ea 02 bd 7c a0 e5 3d
       0.09378451 0.2915929 -0.031962167 0.112122506
000370 a1 34 bd 3d 54 1b 25 3e ca c3 ce bd 5c 38 43 be
       0.09238554 0.16123706 -0.100959376 -0.19064468
000380 67 a6 56 3e fb d9 00 3e 6b 22 ee 3d fd 85 af bd
       0.20961915 0.12583153 0.116276585 -0.08570478
000390 ac a2 fb bd e9 0a 72 3d 40 68 c4 3b a4 9a 2b bd
       -0.122868866 0.059092436 0.005993873 -0.041895524
0003a0 9c 3a 8a bb 47 38 08 bd 80 d4 ee 3d 60 f3 83 bc
       -0.0042184126 -0.033256795 0.11661625 -0.016107261
0003b0 dc 6b e1 bd 38 7f e3 3d d7 ab 11 3e f2 35 2c 3e
       -0.11006901 0.111082494 0.14225708 0.16817454
0003c0 31 28 4f bd 9d 41 24 bb 56 5b 2e 3e f5 55 cd 3d
       -0.05057544 -0.0025063523 0.1702703 0.10026161
0003d0 ba a4 c9 3d 11 14 58 3d c2 3c 7c 3d bb f8 ff 3d
       0.09845872 0.05275351 0.06158138 0.124986134
0003e0 23 93 80 bd b9 79 8c 3e d5 72 de bd 68 b2 c2 be
       -0.06278064 0.27436617 -0.10861746 -0.38026738
0003f0 ad ac 54 3f 09 7c dc 3e 82 89 d7 3d 3c c9 18 3e
       0.8307598 0.4306338 0.105242744 0.14920515

fc_A.bias f4 [20]
000000 f0 6c b7 3f a1 3a df 3e f3 b0 6d 3e 03 7c 5d 3e
       1.433012 0.43599418 0.23212032 0.21629338
000010 dd ed a3 3e 9b 53 2c 3e 91 09 0a be ac ca a6 bd
       0.32017413 0.16828768 -0.13480212 -0.08144125
000020 85 8a ca bd 38 ac 17 be 1d 1e 47 be 01 1e cb be
       -0.09889702 -0.1481179 -0.19445081 -0.3967133
000030 9a 98 01 bf 2b 8e e6 be 77 76 cc be d5 cb 0f bf
       -0.50623477 -0.4503034 -0.39934132 -0.561704
000040 4c 9c 1b bf 4b 51 41 bf 4d 5b 21 bf 7b bf 7c bf
       -0.60785365 -0.7551467 -0.6302994 -0.98729676

fc_V.weight f4 [1, 64]
000000 a2 75 a6 3d e2 cf 1c bf 33 49 8e be 9e 3b b2 bc
       0.081279054 -0.61254704 -0.27790222 -0.021756943
000010 da cb 7f 3d 48 60 f4 bf bd 95 b3 3d f1 7b 12 3f
       0.062450267 -1.9091883 0.08768795 0.5722037
000020 b7 7c 75 3d 8a 4f 20 be ff 27 35 3d 64 bc ac be
       0.05993339 -0.15655342 0.044227596 -0.3373748
000030 11 c6 fd 3e cb 2c b0 3d 7b d3 73 3f 0d ee c4 bf
       0.49565175 0.086022936 0.9524457 -1.5385147
000040 85 c3 e0 3c af 5a 59 3d c5 01 1a 3f 54 ee 7f 3f
       0.027436981 0.053065 0.6015895 0.99973035
000050 a7 22 ee 3e 9c 00 36 3f 29 0e d4 bd cf 38 9e 3d
       0.46510813 0.7109468 -0.10354263 0.07725679
000060 e8 88 1d bd d1 3d e1 3e dd 3e 2e 3d a9 fb d5 bd
       -0.038460642 0.43992475 0.04254042 -0.10448391
000070 0c 42 32 3f 7a d8 5b be a6 b9 c4 3d 5f ab 9f bf
       0.6963203 -0.21469298 0.09605722 -1.2474173
000080 4d c7 32 be 54 0f d8 3c 82 7f 35 bd d4 f3 f9 3c
       -0.1745884 0.026374497 -0.044311054 0.030511774
000090 e0 32 19 3c c5 63 38 3d 40 bc e8 3d a0 88 fe 3b
       0.009350508 0.045017023 0.11364031 0.007767752
0000a0 45 da 84 3b 1b af c0 3e 45 25 22 bf e3 e3 f8 3e
       0.00405434 0.37633595 -0.6333812 0.48611364
0000b0 a1 2f 48 be 48 b4 c4 bd a5 6d 2d 3e ee 7b c1 3e
       -0.19549419 -0.096046984 0.16936357 0.37789863
0000c0 a1 a7 35 3d 9d 7f c3 3e 66 60 c0 be ea be 08 be
       0.044349317 0.381833 -0.37573546 -0.13354078
0000d0 1a 6e 96 3e 2d e2 42 bd 8e a1 c2 3c 5e 21 8b 3d
       0.29380876 -0.04757898 0.023758676 0.06793474
0000e0 53 51 8e 3c 6f e6 94 be 88 2b 80 3f 5a d2 a4 be
       0.017372763 -0.29082057 1.0013285 -0.32191736
0000f0 ac b2 0f bf 2d 2f 92 be 3d 7b c1 3e 48 72 3e 3f
       -0.56132007 -0.28551617 0.37789336 0.7439313

fc1.weight f4 [64, 3]
000000 66 2d 13 bf 38 c9 fd bd 26 f0 a4 be 1e 2d 2b 3d
       -0.5749115 -0.12391895 -0.3221447 0.041791074
000010 02 95 01 3e d9 93 b2 bc 2c 0d f2 be 5a 39 96 be
       0.12654498 -0.021799015 -0.47275674 -0.2934063
000020 5f 89 c7 3e 06 66 88 3e 30 61 f9 3d 37 92 76 be
       0.38971993 0.26640338 0.1217674 -0.24079214
000030 48 80 79 be 56 4d 3c 3c 2e 78 81 3d 15 a7 40 3e
       -0.24365342 0.011493048 0.063217506 0.18813737
000040 e7 e3 ae 3e ea 16 a5 bc 08 36 c1 3e 56 a5 05 3f
       0.3415825 -0.020152528 0.37736535 0.5220541
000050 70 ad 0b bd 1b 52 03 3f 2e bb 8a 3e 57 81 27 be
       -0.03410095 0.5129716 0.27095932 -0.16357933
000060 0b 12 d6 3e 1e 47 8a bd 8c 8e d3 ba e0 3b 74 bd
       0.4181064 -0.06751846 -0.0016140505 -0.059627414
000070 fa 65 fd be 46 73 68 be a8 6d 42 be 37 f0 4d 3e
       -0.49491864 -0.22700223 -0.18987143 0.20111166
000080 58 48 45 3d 65 7c 20 3e 89 09 48 bf cb 7e 06 3b
       0.048164696 0.15672453 -0.7813955 0.0020522352
000090 4b 02 c4 3e ed c3 e4 be e8 ca a5 3d a7 3d 19 3f
       0.38283 -0.4468073 0.08095342 0.598597
0000a0 b6 74 37 3f 11 9f 96 3d 85 ad 60 3e 99 bf 9d 3d
       0.7166246 0.07354558 0.21941192 0.0770256
0000b0 b8 82 87 bc 9f b3 31 bd 31 d7 f1 3d 5b bb ff bc
       -0.016541824 -0.04338419 0.11808623 -0.031217268
0000c0 f0 98 a6 be 95 fd 95 be e8 73 09 bf b1 0d 95 be
       -0.32538557 -0.2929503 -0.53692484 -0.29112008
0000d0 1a 41 0f bf aa 2e 9e bd 00 eb 16 3e 7f 78 85 be
       -0.5595871 -0.07723744 0.14738083 -0.26068494
0000e0 79 7c c4 3d 6b cd 62 be 6a 5a ff 3e 37 c7 88 3e
       0.09594054 -0.22148673 0.49873668 0.2671449
0000f0 f6 3a d2 3d bf fe 8c 3e d7 77 d9 bd cd f4 ed bd
       0.10265152 0.27538106 -0.10618561 -0.11618958
000100 12 a8 3b be f0 56 b6 be 82 aa c5 3e 00 60 bd b8
       -0.18325832 -0.35613203 0.3860665 -9.030104e-05
000110 2e 82 08 bf 8f 7b 1e 3e b1 38 fa bc 60 f2 83 be
       -0.5332364 0.15476821 -0.03054461 -0.25770855
000120 30 bf fb 3d 9c cc b2 be df ed f6 be 2f a3 83 3e
       0.122923255 -0.3492173 -0.48228356 0.25710437
000130 e5 5d 2e 3f 41 c8 91 bd c7 1f 53 be 83 e8 df 3e
       0.6811202 -0.071182735 -0.20617591 0.4373208
000140 71 1a 22 be b8 35 8f be 86 5b 86 3e 3f 84 a4 3e
       -0.15830399 -0.27970672 0.26241702 0.32132146
000150 08 10 4d be 3f 6d 47 bf 40 e2 c2 3d 5c b0 0a be
       -0.20025647 -0.7790107 0.0951581 -0.13543838
000160 bc f1 c1 3e f6 fe 81 3d 85 33 b6 bd 53 62 e6 be
       0.3787974 0.06347458 -0.08896545 -0.4499689
000170 cd fd de 3d 87 02 a3 be f5 01 b5 3d eb 50 1d 3d
       0.108882524 -0.31837866 0.08838264 0.038407248
000180 30 d4 f6 be a0 85 48 bd 4f 23 e5 be 87 fe 00 3f
       -0.4820876 -0.04895556 -0.447535 0.5038838
000190 26 b7 24 bf 2b 24 92 3e 18 32 15 3f 0b 4d 29 be
       -0.6434196 0.2854322 0.5827956 -0.16533296
0001a0 45 59 4c 3c 2b 51 01 bf c3 e1 b8 be 20 73 e9 3d
       0.012472455 -0.5051448 -0.36109743 0.113989115
0001b0 40 4f 84 3d 50 59 cb bd 0a 39 53 be 28 eb 10 3e
       0.06460428 -0.099291444 -0.20627227 0.14152205
0001c0 ae a8 3c 3d 5f fd 81 bc 70 07 04 bf 58 b8 26 bf
       0.046059303 -0.015867887 -0.5157385 -0.65125036
0001d0 c8 2b c4 3d aa f1 b9 be 40 35 50 3c d8 34 f1 be
       0.09578663 -0.36317188 0.012708008 -0.4711063
0001e0 32 69 2f bd a1 f6 2b be 98 ea 3d 3c 28 58 01 3e
       -0.04282493 -0.167933 0.011591576 0.12631285
0001f0 ed 48 ed be ea 98 c3 be 78 42 9c 3e 3d 91 97 be
       -0.463447 -0.38202602 0.30519462 -0.29602996
000200 72 e5 8e be bd 56 df 3e a4 10 1e bf 1b d8 42 be
       -0.27909428 0.43620864 -0.6174414 -0.1902775
000210 84 61 2d 3e 8e 61 ba 3e e9 51 a5 3e b9 da 2e 3e
       0.1693173 0.36402553 0.32289055 0.17075624
000220 75 55 5b 3e 2d 9c 05 bd fe 2c 99 3c 52 22 80 3d
       0.21419318 -0.032619644 0.018698212 0.06256546
000230 60 bb 81 bd 4c 54 4a be d9 26 bd 3e de 82 71 3c
       -0.06334567 -0.19758719 0.369437 0.014740674
000240 54 e5 c4 be 90 fc 2d 3f ee ec f9 3d 0e 56 81 3e
       -0.38456213 0.67963505 0.12203394 0.25260967
000250 48 b8 ee be 8d bb b4 be f4 a0 3c bf b3 bb bc 3e
       -0.4662497 -0.3529934 -0.73683095 0.36861953
000260 bd c8 ad 3d c2 15 64 be 41 71 f2 be 3f 76 df be
       0.084855534 -0.22273925 -0.4735203 -0.43644902
000270 18 6e e7 be e6 a9 db be d0 be b3 bd 40 fe c5 be
       -0.45201182 -0.4290306 -0.08776629 -0.3867054
000280 d4 4c 95 3e 06 12 8b be 85 51 33 3e 71 26 b8 be
       0.29160178 -0.27162188 0.17511566 -0.35966828
000290 8c c4 0b 3e 0e a5 9c be ce bf 74 bc 74 f9 97 3c
       0.13649195 -0.30594677 -0.014938308 0.018551566
0002a0 15 0a 14 bf 2a 54 c6 3e b5 fa 3c 3b 6a a2 84 3e
       -0.57827884 0.38736087 0.0028835956 0.25905162
0002b0 4a f9 c7 be b9 0c 0a bf 1c da 44 be 78 11 a9 3e
       -0.3905738 -0.53925663 -0.19223827 0.3302114
0002c0 94 a6 95 be 2d 02 a1 be db 92 31 bf 6a 0b f1 3d
       -0.29228652 -0.31446972 -0.6936471 0.11769755
0002d0 ef e0 09 be 63 81 e2 be e3 16 65 3d 10 bd b4 3d
       -0.13464712 -0.4423934 0.05593003 0.08825123
0002e0 96 c2 01 be 08 20 e2 be b9 e2 d3 3e 96 f9 de bc
       -0.12671885 -0.44165063 0.41383913 -0.027218621
0002f0 6c fe 2f 3e 2c dd 9f 3d d0 c0 2c bd 5a 44 d1 bb
       0.17186898 0.07805857 -0.042176068 -0.006386322

fc1.bias f4 [64]
000000 17 80 96 be 5f 96 6c 40 b8 01 3d c0 2f 0c 14 40
       -0.293946 3.696678 -2.95323 2.3132436
000010 b0 83 7a 40 f4 f4 45 40 e4 1f dc 3f 6b b9 03 40
       3.9142876 3.0930758 1.7197232 2.058192
000020 05 45 05 40 7c 8d ff 3e f4 ea 5f 40 90 fd 40 bf
       2.0823376 0.49912632 3.4987154 -0.75386906
000030 31 19 68 40 c7 6c 0c c0 83 7b 38 40 d6 78 07 40
       3.6265376 -2.1941392 2.8825386 2.1167502
000040 7c 38 cf 3e b0 7f c9 3d 8b 16 00 c0 a4 d4 ea bf
       0.40472782 0.098388076 -2.001376 -1.8346143
000050 48 02 44 40 2e de 93 3e 34 0f e2 bd 45 11 22 40
       3.0626392 0.28880447 -0.11038056 2.532304
000060 56 34 cc 3e e2 35 5f 3e 62 62 33 40 c9 c0 b2 bf
       0.3988368 0.21797898 2.8028798 -1.3965083
000070 88 96 85 3f 52 f0 a1 bf d6 cd 10 40 ab 9a 6f 40
       1.0436563 -1.2651465 2.2625632 3.7438152
000080 88 5c 99 3e f2 a4 0a c0 e8 44 1e 40 8d 4a d0 bf
       0.29953408 -2.1663175 2.4729557 -1.6272751
000090 fa 4c 05 bf a9 a8 1a 40 87 1f d6 3e 49 6b a3 be
       -0.5207058 2.4165442 0.41820928 -0.3191779
0000a0 2f 24 53 40 88 37 7e be 9c 8a c7 be 90 40 5c 3e
       3.2990835 -0.24825871 -0.38972938 0.21509004
0000b0 bf 90 1d c0 e0 7d 5d 40 58 63 3d 40 12 6c 5f 40
       -2.4619596 3.4608078 2.9591885 3.490971
0000c0 45 44 24 c0 9a 82 bd 3e f4 9b f2 bf a0 11 30 3e
       -2.5666668 0.37013704 -1.8953843 0.17194223
0000d0 0f 0f db be e8 79 fe 3e a8 38 20 c0 e8 de ef 3f
       -0.42784926 0.49702382 -2.503458 1.87399
0000e0 63 f9 4d 40 f5 1a 13 bf 8d 40 0f 40 99 b3 94 bf
       3.2183464 -0.5746301 2.2383149 -1.1617309
0000f0 1f 62 09 40 e8 31 c1 be a7 2d b9 bf 1f 75 3d 3f
       2.1466138 -0.37733388 -1.4467057 0.7400684

fc2.weight f4 [64, 64]
000000 30 7a 03 bc 00 0c 20 b9 80 c3 d4 3d 20 42 2e bd
       -0.008024737 -0.0001526326 0.10388851 -0.04254353
000010 f2 ed bc 3d 53 97 eb bd 82 79 7d 3d 60 4e 99 3d
       0.09225072 -0.11503472 0.061883457 0.07485652
000020 b0 b4 61 bd 80 8a a1 ba 00 ee a2 3a 16 28 fa 3d
       -0.055103958 -0.0012324601 0.0012430549 0.12214677
000030 90 64 b8 3c 70 6f 05 3c ee 58 dc bd 36 f7 f4 3d
       0.02250889 0.008144245 -0.107591495 0.11961214
000040 ec 97 d1 bd 63 23 a9 3c 96 78 8d 3d 24 46 a6 bd
       -0.10234055 0.020646757 0.069077656 -0.08118847
000050 74 54 d8 3d 00 cb 86 bb b0 63 ba 3d 68 a2 aa bd
       0.10562983 -0.004113555 0.09101045 -0.08331758
000060 c0 76 23 bc ee 1e 8c bd f7 9d 10 3d fa cd cf bd
       -0.009977043 -0.06841837 0.035306897 -0.10146709
000070 80 57 89 3a 82 9b 69 3d 68 6b 5a bd d0 b8 ec 3d
       0.0010478348 0.05703307 -0.053325087 0.11558688
000080 94 28 2e 3d 20 e1 65 3c 7c ff b4 3d 82 9b 80 bd
       0.042519167 0.014030725 0.08837792 -0.06279661
000090 60 cc 37 3c 9a 63 fd bd a8 84 fb bd a0 49 af 3d
       0.01121816 -0.12372513 -0.122811615 0.08558965
0000a0 d8 a0 5f bd bc 09 72 bd 1d 84 3e bd 9e 17 e0 3d
       -0.054596752 -0.059091315 -0.04651271 0.109420046
0000b0 80 54 98 bd 94 31 a6 bd e0 0e 60 3c bc 52 af bd
       -0.07437992 -0.08114925 0.0136754215 -0.08560702
0000c0 7e c5 e1 bd 60 13 f8 3d c4 7c 71 3d 80 16 d2 bb
       -0.11023997 0.121130705 0.058956876 -0.0064113736
0000d0 fe 06 e4 bd 3e f5 d4 3d a0 a8 48 3c c4 3b 45 bd
       -0.11134146 0.10398339 0.012247235 -0.0481527
0000e0 90 86 94 bd 68 e1 f1 3c ec b6 2a 3d c8 fb d2 bd
       -0.07252228 0.029526427 0.041678354 -0.1030193
0000f0 92 bf 95 3d 38 40 f7 3c af 17 f0 bd e4 3c 47 3d
       0.0731193 0.03018199 -0.11723267 0.048642054
000100 84 44 ab 3d c6 9b ce 3e 50 1d 7a be dd bc 96 3e
       0.08362678 0.4035322 -0.24425244 0.29440966
000110 91 40 91 3f db 39 b8 3d 39 93 3a be f8 cd da bb
       1.1347829 0.0899541 -0.18220223 -0.0066773854
000120 17 aa 28 3d 67 12 7a 3d 74 b4 a9 3e f5 98 1f be
       0.041177835 0.061052706 0.33145487 -0.15585692
000130 c9 e8 67 3e 79 a1 07 bf 54 9c 34 3e 79 e2 d0 3c
       0.22647394 -0.5298076 0.1763776 0.025498616
000140 3a 08 fd 3d 44 50 d7 bd d9 e2 0e bf af b1 c8 be
       0.12355085 -0.10513356 -0.5581489 -0.39198062
000150 f9 4e 9f 3d 50 e4 a1 3c 18 8f da bd 98 09 4d 3e
       0.07778735 0.019762188 -0.10671824 0.20023191
000160 e0 55 0c bc fe 1a 95 be 95 1d 9f be a0 0c 13 be
       -0.008565396 -0.29122156 -0.31077257 -0.14360285
000170 29 62 fb 3e 57 b9 67 be ce 6d 5e 3e 14 ea 43 3f
       0.49098328 -0.22629295 0.21721575 0.7652905
000180 7c 70 cc 3d c7 2b 3e be 0d dc 5f 3e 81 e8 33 3d
       0.09982392 -0.18571387 0.21861286 0.043922905
000190 3a 22 95 bb 6f ff 79 bd 99 1a 7f 3d 0f df b6 bd
       -0.0045511993 -0.061034616 0.062281225 -0.08929264
0001a0 19 3f f0 3e 48 66 89 bd de ef be 3d 71 76 8c bd
       0.4692314 -0.06708962 0.09323095 -0.068585284
0001b0 bd 40 d2 be 0a f5 55 3e 1d bd 69 3f 07 81 a4 3e
       -0.41065016 0.20894256 0.9130419 0.3212969
0001c0 59 58 c8 be 00 04 79 39 20 26 9b be 51 0a fc ba
       -0.39129904 0.0002374798 -0.30302525 -0.0019229149
0001d0 f8 19 c4 3d 54 6d 11 be 63 a5 cc be 8a e2 7a 3e
       0.09575266 -0.14201862 -0.3996993 0.2450048
0001e0 2d 2a 04 3e a6 92 b0 3d 50 87 c0 be 49 45 e6 3d
       0.12906714 0.08621721 -0.37603235 0.11243684
0001f0 a7 10 48 3f 40 e6 3b bd d3 b6 02 be ea 30 55 3e
       0.7815041 -0.04587388 -0.12765054 0.2081944
000200 f2 56 d7 bd 6f a1 e8 be f5 b1 73 3d 9e 8a 73 3e
       -0.105146304 -0.45435664 0.059495885 0.23783347
000210 8d 67 eb be e1 fb d4 bc 00 20 fa bd d3 1a e8 be
       -0.4597744 -0.025999011 -0.12213135 -0.45332965
000220 30 16 44 bd 68 f9 4a 3d 10 cf 9b be 7e 7d 16 be
       -0.047872722 0.04955426 -0.30431414 -0.14696309
000230 35 9b 91 be 6c 4f 94 3e b9 21 69 be aa d7 15 bf
       -0.28438726 0.28966844 -0.2276677 -0.585322
000240 80 57 a6 bc 10 f9 f9 bd 59 b0 ec 3b 1c 77 85 3e
       -0.020305395 -0.12205708 0.0072231707 0.26067436
000250 d9 e2 29 bf 58 b7 9f bc b0 9a 3b 3c 29 45 63 3f
       -0.6636177 -0.019496605 0.011450455 0.88777405
000260 3e 60 35 bd ad f5 fe bd 55 14 b0 be 72 80 d1 3d
       -0.044281237 -0.12449203 -0.34390512 0.10229577
000270 3c c0 2b bf 32 fe 17 3e 16 6d 45 be 75 09 fb be
       -0.670902 0.14843062 -0.19279894 -0.49030653
000280 61 d0 e8 bd ab 9a 46 3e 11 f0 87 bd 07 68 c0 bb
       -0.1136787 0.19394939 -0.06637586 -0.005871776
000290 34 43 6c 3d 1b 8f 76 be b6 7d 85 be e0 0e 03 bd
       0.057681277 -0.24078028 -0.26072472 -0.031996608
0002a0 2b e2 f5 be 98 9a 03 bd 00 5c 3f 3a 1d c1 cd be
       -0.48024115 -0.032129854 0.0007299781 -0.40186396
0002b0 18 91 0e 3e c1 c9 77 be a8 6e 09 bf c4 0f a5 be
       0.13922536 -0.24198057 -0.53684473 -0.3223859
0002c0 b8 b4 4e 3e a0 8c a8 bb 67 70 19 3e da 62 98 3d
       0.20186126 -0.005143717 0.14984284 0.074407294
0002d0 08 d3 a5 bc 0a 1f 72 bd 1f b1 a0 3d dc 85 3d be
       -0.02024223 -0.059111632 0.07846283 -0.18508095
0002e0 0b f6 a1 be bc 1e 32 3d 44 4c a9 3e 3d ae a7 bc
       -0.31633028 0.04348634 0.33066 -0.020468825
0002f0 be f3 dc be 88 22 08 3d 67 0b 82 3e d7 5b 07 be
       -0.4315471 0.033236057 0.25399324 -0.13218628
000300 9e 11 df bd 33 3d 3a 3d cf 5f 71 3d c7 30 5a bd
       -0.10892032 0.04546852 0.05892926 -0.053269174
000310 69 bc e6 bc 99 75 0a bc e2 01 e8 3c 93 86 aa bd
       -0.028166013 -0.008450889 0.02832121 -0.08326449
000320 f8 d3 30 bd 6c 0a 98 bd f1 73 8b bd d0 e0 9b bd
       -0.0431709 -0.07423863 -0.068092234 -0.07611239
000330 50 82 88 3d c9 67 75 bd a9 65 9a bd de fb b0 bd
       0.0666548 -0.05991343 -0.075389214 -0.0864179
000340 40 44 45 bd 28 0d 92 bc 56 02 ef bd 21 af 13 bd
       -0.04816079 -0.017828539 -0.116703674 -0.036055688
000350 3a 4c 4b bd 31 f4 55 3c 2e 14 e4 3d 34 b1 89 3c
       -0.049633242 0.013058708 0.111366615 0.01680813
000360 90 e6 3c bc 24 b4 fb 3c 3d d4 e2 bb e0 52 c1 bd
       -0.01152958 0.030725546 -0.0069222734 -0.09439635
000370 30 de e7 bd e5 87 e0 bc ab 49 84 3d 00 1f 3f bd
       -0.11321676 -0.02740855 0.064593635 -0.046660423
000380 76 0a ac 3d ee fc 4a 3d ad dd a0 ba 0e 5c 37 3d
       0.08400433 0.04955762 -0.0012273096 0.044765525
000390 9c 18 51 3d ce 44 d3 bd d2 0a 07 bb 18 ca 7a 3d
       0.05104886 -0.10315858 -0.0020605815 0.061227888
0003a0 31 38 a3 3b 68 9a f1 3d c0 b7 ca 3b 63 e1 02 bd
       0.004981064 0.11797029 0.0061864555 -0.031953227
0003b0 3c 81 5d bd a7 40 d1 bd 78 1e c4 3c 17 19 84 bd
       -0.054078326 -0.102174096 0.02394031 -0.06450098
0003c0 80 d4 ca bd 28 79 ac 3d 85 dd a4 bb c0 7f e1 3d
       -0.099038124 0.08421546 -0.00503129 0.110106945
0003d0 44 77 6b 3d fe 78 0f be 52 81 fd bd 36 35 b6 bd
       0.057486787 -0.14010999 -0.123781815 -0.08896868
0003e0 bb f9 92 bd a2 05 57 bd a0 63 ee bd 1a d2 28 3d
       -0.071765386 -0.052495606 -0.11640096 0.041215993
0003f0 cf 2a 6a 3d 30 67 27 bc 94 6b c6 bd 71 eb c0 3d
       0.05716973 -0.010217473 -0.09688488 0.09419907

fc2.bias f4 [64]
000000 9e 2c 8a bd d2 d5 85 3f bb d1 e5 be 90 c9 07 be
       -0.06746791 1.0455878 -0.44886574 -0.13260484
000010 00 d5 71 3d 72 30 ee 3f b3 0a d1 bd 82 77 f0 3f
       0.059041023 1.8608534 -0.10207119 1.8786471
000020 7c a8 1e 3d 79 b3 57 be be 6b d3 3d 39 b9 33 3e
       0.038734898 -0.21064557 0.103232846 0.17551126
000030 31 2f 06 40 61 1e f8 3d 9d a2 e6 3f 5e 2a 08 40
       2.0966303 0.12115169 1.8018376 2.127586
000040 30 f0 fa bd ae b6 3b bb f7 d6 0a 40 b6 7f d2 3f
       -0.122528434 -0.002864282 2.1693704 1.6445224
000050 83 41 05 40 ee 79 b8 3f 42 63 9f bd db 0e 0e bd
       2.0821235 1.441221 -0.07782604 -0.034682136
000060 8c 5f 26 bd 62 80 de 3f a4 32 99 bd 0a e4 ba 3d
       -0.040618464 1.7382929 -0.07480362 0.09125526
000070 94 ee f6 3f bc 9e f9 bd f6 fc c8 bd 26 25 e9 3f
       1.9291558 -0.12188479 -0.098138735 1.8214462
000080 c1 2d 2b bd a1 f8 c3 bd d5 d2 20 be 4f 52 85 3e
       -0.04179168 -0.095689066 -0.15705426 0.2603936
000090 5c 12 9f bd 77 a3 73 bc a4 06 3f 3d ea dc c7 bd
       -0.07767174 -0.014870516 0.046637192 -0.09758933
0000a0 09 fa 18 bd c1 c0 b4 3f 3c d3 ca bf 82 07 04 40
       -0.037347827 1.4121324 -1.5845714 2.0629582
0000b0 57 22 53 bf 78 b2 ca 3c 80 b3 b7 3f ee d6 fa 3f
       -0.82474273 0.024743304 1.4351654 1.9596841
0000c0 f9 f3 a5 3d a3 43 ec 3f 4d 07 66 bf c5 c9 8b 3f
       0.08103175 1.8458141 -0.8985489 1.092095
0000d0 5c 7c ef 3f 74 20 5a 3d 0c 2b 11 3d 99 30 d7 3d
       1.8709826 0.053253606 0.035441443 0.10507316
0000e0 70 69 4a 3b e6 1a 26 bf 20 80 fd 3f e5 f2 99 3f
       0.00308856 -0.64884794 1.9804726 1.202725
0000f0 5d 5e 93 3f e2 18 5f 3f 1c 36 03 40 a7 06 d3 3f
       1.1513172 0.87147343 2.0501776 1.6486405

fc_A.weight f4 [20, 64]
000000 30 79 cc 3c 67 6d dc be c0 61 58 3e c3 7f b3 3d
       0.02496013 -0.43052217 0.21131039 0.08764603
000010 89 e6 9c 3d b8 59 96 3f 75 9d 83 bd 27 ed 15 3f
       0.076611586 1.174613 -0.06426517 0.5856499
000020 25 e1 b5 3d a6 0b 75 be ad 55 c9 bd fd 58 8d 3e
       0.088808335 -0.23930225 -0.098307945 0.27606955
000030 7c ff 6f 3e 30 61 fd 3d 7f 8f 45 3e c2 58 a7 bf
       0.23437303 0.12372053 0.1929302 -1.3073962
000040 aa 47 c4 bd 83 f6 9c bd c3 5a 94 3e 32 2a 77 3e
       -0.09583981 -0.07664206 0.28975496 0.2413719
000050 3f 5d 6a 3e e0 d8 b6 3d df fe f9 3d e8 9d 18 3e
       0.22887133 0.089280844 0.12206816 0.14903986
000060 5c 34 b8 bd e2 67 40 3e 41 4c 80 3c f2 63 a2 3d
       -0.08994362 0.18789628 0.01566136 0.07929219
000070 a9 e6 a5 3e 2b 2b 61 3e 5c 21 89 bd 5f 9c 6d bf
       0.32402542 0.21989124 -0.06695816 -0.9281673
000080 97 b0 40 3e 2c 1b 64 bd 66 84 af 3d 17 90 0f 3d
       0.18817364 -0.055689976 0.08570175 0.035049524
000090 16 5b 99 bd 41 9e 55 3d 87 a9 ca bd 80 10 f3 bd
       -0.074880764 0.052152876 -0.09895616 -0.118683815
0000a0 5d 24 83 3a 92 fb bf bd d2 99 3d be 12 34 31 3e
       0.0010005344 -0.09374155 -0.18515709 0.1730502
0000b0 e7 ef 5d bd 12 a0 de bd b2 17 83 3d c0 41 35 3e
       -0.054183867 -0.10870375 0.06401004 0.17700863
0000c0 ef 73 91 bd 73 f6 80 3e 3d 19 8c bc 0f a5 33 3e
       -0.07102191 0.25188026 -0.017101878 0.17543434
0000d0 0f 23 33 3e 99 f6 27 bd c3 e6 29 3d 35 c9 f1 3a
       0.17493843 -0.04100666 0.041479837 0.0018446805
0000e0 3d 20 d9 3c e4 4c 9b 3e a0 19 c7 3e d9 5f b5 bf
       0.02650463 0.303321 0.38886738 -1.4169875
0000f0 f1 72 b3 3f 79 dd f3 3d 0e 71 78 3e dd 07 5c bd
       1.4019452 0.11907477 0.24261877 -0.053718437
000100 85 83 ed bd d1 5a ee bd f8 e2 99 3e 24 fd 2a 3d
       -0.11597351 -0.116384156 0.30055976 0.04174532
000110 74 22 be bd b2 9d b9 3e bd 95 f9 3d 38 6e 40 3e
       -0.09283915 0.36253124 0.121867634 0.18792045
000120 55 c1 38 3c 54 32 83 bd 7f 9a 1b bd 77 e9 18 3d
       0.011276563 -0.06406084 -0.037989136 0.037332024
000130 fb d2 55 3e a1 fe 09 be 0c c5 d3 bb b7 e0 3c be
       0.20881264 -0.1347604 -0.006462699 -0.18445097
000140 62 b1 5c bd c6 62 72 3c 29 16 91 3e 85 96 14 3e
       -0.053880103 0.014794057 0.2833722 0.14510544
000150 6a aa 57 3e 7e 36 93 bd 03 44 9f 3d 69 0f 9c bd
       0.21061102 -0.07188128 0.07776644 -0.07620127
000160 20 ee 4b bc 91 1c 3c 3e f8 5f bc 3c ce 83 25 3e
       -0.01244691 0.18370272 0.02299498 0.16163561
000170 8f 34 ca 3d 03 71 49 3e 16 33 b3 3d d4 5b da be
       0.09873306 0.19672017 0.08749978 -0.42648184
000180 dd 40 4e 3e 8e ff ad 3d d5 e7 b8 3d 98 2f 09 bd
       0.20141931 0.08496009 0.090285935 -0.033492655
000190 a8 76 0c bd 91 1c b0 3d 00 ce c7 bd e4 ab 09 3d
       -0.034292847 0.085991986 -0.09756088 0.033611193
0001a0 9b 40 ad bd 24 5d b5 3d db 94 8e bd 1f 92 ad 3d
       -0.08459588 0.08855656 -0.06961986 0.08475136
0001b0 c8 50 a6 3e fb 25 4f bd 2b fe 89 3e ae 37 1a 3e
       0.32483506 -0.05057333 0.26951727 0.15060303
0001c0 63 0a bd bd 21 49 10 3d 95 b4 54 bd 5e c0 9a 3e
       -0.09230497 0.03522599 -0.05193003 0.3022489
0001d0 fc 4a ef 3d bf f3 ca bd 58 0e 1e 3c d8 b1 f1 3d
       0.11684224 -0.09909772 0.0096469745 0.11801499
0001e0 3b 9c 18 be ac ec 3a 3e 0e d0 15 be 54 72 de be
       -0.14903347 0.18254346 -0.14630148 -0.434466
0001f0 89 f7 11 3f 43 da 71 3e ad c8 46 3e 65 40 af 3c
       0.57018334 0.23618416 0.19412489 0.02139301
000200 80 10 2a 3d 35 eb 55 be e8 b8 54 3e 45 7f 51 bb
       0.041519642 -0.20890506 0.20773661 -0.0031966728
000210 38 cc b1 3b 51 ff 0b 3d 98 3e 7a bd 69 21 25 3e
       0.005425956 0.034179036 -0.06109485 0.16126026
000220 5b 6c 6b 3d d0 d4 3d be 08 36 93 bd 13 c9 d0 bb
       0.057476383 -0.18538213 -0.0718804 -0.006371626
000230 78 77 3f 3e bc 1c bd 3d ba 11 35 3d 92 e7 e1 3d
       0.18697917 0.09233996 0.04420636 0.11030497
000240 1a 4b c4 bd f4 5c 93 3d 15 62 05 3e 49 8c d7 3c
       -0.09584637 0.07195464 0.13025697 0.02631201
000250 c8 96 00 3e 68 34 e5 3b dc 41 84 3d ee 21 3e bd
       0.12557518 0.0069947727 0.06457874 -0.046419077
000260 77 d8 e6 3d 20 14 70 3e ff 53 65 3d 12 12 7e 3e
       0.11271756 0.23445177 0.055988308 0.24811581
000270 23 bb 9e bc 9f 12 0b 3e a4 76 c5 3d d4 42 c5 be
       -0.019376343 0.13581322 0.096417695 -0.38527548
000280 e2 58 73 3e d1 63 1a bd ce b2 c0 3d 40 08 2c bc
       0.23764375 -0.03769285 0.09409104 -0.010500014
000290 d4 22 88 bd 6b 88 f4 3d 48 42 18 3d 00 e8 a4 b9
       -0.06647268 0.11940082 0.037172586 -0.0003145337
0002a0 81 e5 3e bc b2 f5 79 3c d6 37 a8 bd 9a 9c 73 3d
       -0.011651398 0.015256332 -0.08213775 0.05947552
0002b0 17 96 52 bd 18 7e 8e 3d 66 4f 5e 3e c6 0b 49 3e
       -0.051412668 0.06957644 0.21709976 0.19633397
0002c0 e7 00 88 3c fb a2 84 3d c0 ef a8 bd 7e 13 c1 3e
       0.016601993 0.064763986 -0.08248854 0.37710184
0002d0 7b 0a 55 3e 04 d7 0d 3e dc aa ea bd a3 d7 ec 3d
       0.20804779 0.13851553 -0.1145837 0.11564567
0002e0 1d 7c 1b 3d 70 d8 f3 3d 4b ed e2 3b be 9a 9e be
       0.03796016 0.119065166 0.00692526 -0.30977434
0002f0 67 f2 24 3f 46 e0 6f 3e 3d 92 91 3d da 5d dc 3d
       0.64432377 0.23425397 0.07107971 0.10760088
000300 d0 a9 16 3d 48 fe 10 be c0 98 60 3e 4b c8 ea bd
       0.03678304 -0.141595 0.2193327 -0.11463984
000310 25 19 10 bd 07 0a 09 bd 8c d2 0c bd 2b 27 7e 3e
       -0.03518023 -0.03345683 -0.03438048 0.24819629
000320 d8 48 8a bd 9e b9 a4 bd d0 8d e8 3c 3b 82 15 3e
       -0.06752175 -0.08043216 0.028387934 0.1460046
000330 f2 9a 0c 3e f0 68 4b 3d 96 00 bd 3d d3 5f 50 3c
       0.13730982 0.049660623 0.092286274 0.012718159
000340 01 71 df 3d 5f 8c b7 3c 3c b3 79 3e 62 84 dd bd
       0.10910226 0.022405801 0.24384779 -0.10816266
000350 ec 9e 2b 3e 08 77 08 3e c6 a7 e5 3c 5e 4b aa 3c
       0.16759843 0.13326657 0.028034102 0.020787891
000360 8f 12 c0 3d 1d b8 a2 3e bf db 02 bd 5c cb e4 3d
       0.0937854 0.31781092 -0.031947847 0.111716
000370 49 af ac 3d 6f e1 24 3e 53 c4 ce bd 13 06 4a be
       0.084318705 0.16101621 -0.100960396 -0.1972888
000380 55 0a 57 3e 33 cf 00 3e 16 2f e1 3d e6 83 af bd
       0.21000035 0.1257904 0.10995309 -0.085700795
000390 ac a2 fb bd b1 0b 72 3d 40 68 c4 3b a4 9a 2b bd
       -0.122868866 0.05909318 0.005993873 -0.041895524
0003a0 d8 07 8a bb 6d 69 08 bd 1d 18 e0 3d 0f ac c2 bc
       -0.004212361 -0.033303667 0.10942099 -0.023763685
0003b0 1d 6c de bd 38 7f e3 3d 32 e8 1e 3e 39 16 23 3e
       -0.10860465 0.111082494 0.15518263 0.15926446
0003c0 a7 8e 4e bd b6 b9 b2 bb ae 7a 3a 3e fa 43 0e 3e
       -0.050429013 -0.0054542674 0.18210861 0.13893119
0003d0 0e 47 c7 3d 12 17 58 3d 09 4a 7c 3d 3c f6 ff 3d
       0.097303495 0.052756377 0.061594043 0.12498137
0003e0 77 c2 80 bd ea d2 8b 3e da 74 f0 bd 00 ff c8 be
       -0.06287091 0.27309352 -0.11741038 -0.3925705
0003f0 f6 5c 4c 3f 1a d7 94 3e 98 ec cd 3d c6 0d 0e 3e
       0.7982935 0.2907036 0.10054892 0.13872442

fc_A.bias f4 [20]
000000 7c dc b2 3f 6b 42 e3 3e c4 28 7f 3e c0 f4 64 3e
       1.3973536 0.4438661 0.24917895 0.2235899
000010 ea 3d a7 3e b5 e6 38 3e 82 85 0c be 9f bd 8f bd
       0.32664424 0.18056758 -0.13722804 -0.07018589
000020 d9 6e af bd 0e 65 06 be a7 96 43 be d9 0b c2 be
       -0.085660644 -0.13124487 -0.19100438 -0.37899664
000030 2a 10 01 bf de b9 e3 be 22 37 c5 be 1a 14 0c bf
       -0.5041529 -0.44477743 -0.38518625 -0.5471817
000040 16 00 18 bf d8 87 3a bf 89 e1 20 bf 46 13 76 bf
       -0.5937513 -0.7286353 -0.6284414 -0.9612316

fc_V.weight f4 [1, 64]
000000 a2 75 a6 3d 90 27 1c bf 5c 51 8d be 3f 43 b2 bc
       0.081279054 -0.6099787 -0.27601135 -0.021760581
000010 2b cf 7f 3d 3e 1b f2 bf c5 9a b3 3d 79 b2 0f 3f
       0.06245343 -1.8914564 0.08769754 0.561317
000020 83 7e 75 3d 07 bf 30 be 8c 29 35 3d 1f d2 96 be
       0.059935104 -0.17260371 0.044229075 -0.29457185
000030 09 61 f5 3e 8c 30 b0 3d 36 5e 70 3f 4f ca c3 bf
       0.47925594 0.086030096 0.93893754 -1.5296115
000040 a2 1b e3 3c 44 13 59 3d 70 ba 15 3f 53 19 7e 3f
       0.027723137 0.05299689 0.58487606 0.9925739
000050 ac bb e6 3e f7 41 33 3f e7 0b d4 bd 61 59 9e 3d
       0.45065057 0.7002253 -0.10353833 0.077318914
000060 e8 88 1d bd b2 5f d7 3e 36 2e 2e 3d a8 06 d6 bd
       -0.038460642 0.42065197 0.04252454 -0.10450488
000070 ef 6c 2e 3f 66 9f 5b be fa b9 c4 3d 30 a0 9e bf
       0.6813497 -0.21447524 0.09605785 -1.2392635
000080 ef ba 32 be 11 5f d8 3c 08 ab 1b bd 27 f3 f9 3c
       -0.17454122 0.026412519 -0.038004905 0.030511452
000090 e0 32 19 3c af 65 38 3d d9 bc e8 3d a0 88 fe 3b
       0.009350508 0.045018848 0.11364145 0.007767752
0000a0 b1 a8 84 3b 69 ed bb 3e 6c 98 25 bf e9 ce f1 3e
       0.00404843 0.36704567 -0.646857 0.47228172
0000b0 ca 5d 4a be 48 b4 c4 bd 5c 31 23 3e b5 2e b9 3e
       -0.1976234 -0.096046984 0.15936798 0.36168447
0000c0 59 7f 35 3d eb 3e be 3e fa 70 cd be 92 75 7a bd
       0.0443109 0.37157378 -0.40125257 -0.06114728
0000d0 35 ed 8e 3e 51 e1 42 bd 0a 8b c2 3c 99 23 8b 3d
       0.2791535 -0.04757816 0.02374794 0.06793899
0000e0 e1 7a 92 3c d2 64 9a be a7 86 7e 3f 98 4a a7 be
       0.017880859 -0.30155045 0.99424213 -0.32674098
0000f0 2c 72 0b bf bc 83 05 be 5e 17 b9 3e 0c 81 3a 3f
       -0.5447109 -0.13038534 0.3615064 0.7285316
