beergame/double_dueling_dqn/models/dqn_agent_firm_1_episode_1000.pth (torch, 105254 bytes, 28 tensors)

fc1.weight f4 [64, 3]
0	0xbf132d66	-0.5749115
1	0xbdfdc938	-0.12391895
2	0xbea4f026	-0.3221447
3	0x3cc4f637	0.024043186
4	0x3e04acd8	0.1295656
5	0xbcf91b76	-0.030408602
6	0xbef8d246	-0.48597926
7	0xbe913935	-0.28363958
8	0x3ed13c74	0.40866435
9	0x3e867d3d	0.26267424
10	0x3de06ffb	0.109588586
11	0xbe7b71e2	-0.24555162
12	0xbe7dd463	-0.2478805
13	0x3ca0aab0	0.01961264
14	0x3d693251	0.05693275
15	0x3e3ff525	0.18745859
16	0x3eb2eda0	0.34946918
17	0xbce08557	-0.027407331
18	0x3f06ac88	0.5260701
19	0x3f0b9951	0.5453082
20	0xbe0ec4dc	-0.13942283
21	0x3f004494	0.5010464
22	0x3e8fe4db	0.2810429
23	0xbe5cb6a5	-0.21554048
24	0x3eefc49a	0.46829683
25	0xbd86dcef	-0.065851085
26	0xbc76688c	-0.015039574
27	0xbd743be0	-0.059627414
28	0xbefd6576	-0.4949147
29	0xbe687346	-0.22700223
30	0xbe54a303	-0.20765309
31	0x3e535831	0.20639111
32	0x3d237684	0.039907947
33	0x3e8f2930	0.2796111
34	0xbf1fa2f7	-0.6235804
35	0x3d0980a5	0.03356995
36	0x3ebbd17e	0.36683267
37	0xbef21c5c	-0.4728726
38	0x3d83937e	0.06424616
39	0x3f1caddd	0.61202794
40	0x3f3d1ac5	0.7386897
41	0x3dc4eab1	0.09615076
42	0x3e58ff8d	0.21191235
43	0x3da58b86	0.080832526
44	0xbccc32d2	-0.024926577
45	0x3dc5bd4c	0.09655246
46	0x3e4aac89	0.1979238
47	0xbb28c5c9	-0.0025752655
48	0xbea698f0	-0.32538557
49	0xbe95fd95	-0.2929503
50	0xbf0973e8	-0.53692484
51	0xbe950db1	-0.29112008
52	0xbf0f411a	-0.5595871
53	0xbd9e2e60	-0.07723689
54	0x3e4c65eb	0.19960754
55	0xbe8d01e5	-0.27540508
56	0x3db44e6d	0.08804021
57	0xbe651a2d	-0.22373267
58	0x3f04340f	0.51641935
59	0x3e9b5e11	0.30345204
60	0x3dcc3107	0.09970289
61	0x3e949e18	0.29026866
62	0xbde23ed1	-0.110471375
63	0xbdedf4b0	-0.11618936
64	0xbe3ba812	-0.18325832
65	0xbeb656f0	-0.35613203
66	0x3ec5aa82	0.3860665
67	0xb8bd6000	-9.030104e-05
68	0xbf08822e	-0.5332364
69	0x3e36b7c7	0.17843543
70	0xbcddc12f	-0.027069656
71	0xbea45552	-0.32096344
72	0x3dfbbf30	0.122923255
73	0xbeb2cc9c	-0.3492173
74	0xbef6eddf	-0.48228356
75	0x3e7fe7c5	0.24990757
76	0x3f36c797	0.713983
77	0xbd025723	-0.03182138
78	0xbe37981a	-0.17929116
79	0x3ee94e24	0.4556743
80	0xbe2ef440	-0.17085361
81	0xbe9812db	-0.29701886
82	0x3e8e2bf5	0.27767912
83	0x3ebc9a22	0.36836344
84	0xbedd9dc1	-0.4328442
85	0xbf3f0885	-0.74622375
86	0x3dc69171	0.096957095
87	0xbe491f0c	-0.1964075
88	0x3ece1517	0.40250465
89	0x3df90a4f	0.12160169
90	0xbe34b18f	-0.17645858
91	0xbeeacf51	-0.45861295
92	0x3e0bf0e0	0.13666105
93	0xbe9c1ebc	-0.30492198
94	0x3dc7761f	0.09739327
95	0x3d0996d7	0.033591118
96	0xbef6d430	-0.4820876
97	0xbd4885a0	-0.04895556
98	0xbee5234f	-0.447535
99	0x3eeb768c	0.45988882
100	0xbf305320	-0.6887684
101	0x3ea6a394	0.32546675
102	0x3f158ba8	0.58416224
103	0xbe29bd79	-0.16576184
104	0x3b495346	0.00307198
105	0xbead1505	-0.338051
106	0xbe66da8e	-0.2254431
107	0x3e3acadb	0.18241446
108	0x3d844f40	0.06460428
109	0xbdcb58f8	-0.09929079
110	0xbe53390a	-0.20627227
111	0x3e323ef2	0.17406824
112	0x3d65068f	0.055914458
113	0xbcacca55	-0.021092573
114	0xbe958705	-0.29204574
115	0xbf2b1346	-0.66826284
116	0x3d818f95	0.06326214
117	0xbeb9f1aa	-0.36317188
118	0x3c503540	0.012708008
119	0xbef1348c	-0.47110403
120	0xbd0f055f	-0.03491723
121	0xbe2a0bb0	-0.16606021
122	0x3c2745e8	0.010209538
123	0x3e015828	0.12631285
124	0xbeed48a7	-0.46344492
125	0xbec398b6	-0.38202447
126	0x3e9c426c	0.30519426
127	0xbe97913d	-0.29602996
128	0xbe8ee572	-0.27909428
129	0x3ed368c7	0.41290876
130	0xbf1cbd94	-0.61226773
131	0xbe4420ab	-0.19153087
132	0x3e2c896c	0.16849297
133	0x3ebc4f0d	0.3677906
134	0x3eb1b65e	0.34709448
135	0x3e41d93b	0.18930523
136	0x3e6a262f	0.22866128
137	0xbd21c6ef	-0.03949636
138	0x3cb77c9b	0.022398284
139	0x3d3e28f5	0.04642578
140	0xbd9cc4e6	-0.07654743
141	0xbe5a6238	-0.2132653
142	0x3ec24687	0.37944433
143	0x3c1cfb56	0.0095814075
144	0xbeb92804	-0.36163342
145	0x3f34c450	0.7061205
146	0x3e106765	0.14101942
147	0x3e81560e	0.25260967
148	0xbeeeb848	-0.4662497
149	0xbeb4bb8d	-0.3529934
150	0xbf370215	-0.7148755
151	0x3edb8aae	0.42879242
152	0x3de9408e	0.11389266
153	0xbe6415c2	-0.22273925
154	0xbef27083	-0.47351465
155	0xbedf763f	-0.43644902
156	0xbee76e18	-0.45201182
157	0xbedba9e6	-0.4290306
158	0xbdb3bed0	-0.08776629
159	0xbedb301c	-0.42810142
160	0x3e9209d7	0.28523132
161	0xbe6c8e68	-0.23101199
162	0x3e063ef7	0.13109957
163	0xbeba0cc6	-0.3633787
164	0x3e10d324	0.14143044
165	0xbe9b1b8b	-0.3029445
166	0x3c26d217	0.010181925
167	0x3d2df84b	0.04247312
168	0xbee742b4	-0.45168078
169	0x3ecf6141	0.40503886
170	0x3ce2dfea	0.027694661
171	0x3e84a26a	0.25905162
172	0xbec7f94a	-0.3905738
173	0xbf0a0cb9	-0.53925663
174	0xbe1a4949	-0.15067019
175	0x3eac3684	0.33635342
176	0xbea36bb0	-0.31918097
177	0xbd857eac	-0.06518301
178	0xbf12e378	-0.5737834
179	0x3e24a60d	0.16078968
180	0xbe812e3f	-0.25230595
181	0xbeebc7ed	-0.4605097
182	0x3d8821de	0.06647085
183	0x3db4bd10	0.08825123
184	0xbe01c296	-0.12671885
185	0xbee22008	-0.44165063
186	0x3ed8d321	0.4234858
187	0xbcb6dd37	-0.02232228
188	0x3e643ca4	0.22288758
189	0x3d4f7430	0.050647914
190	0xbd8edae9	-0.069753475
191	0xbd56b3b9	-0.05241749

fc1.bias f4 [64]
0	0xbe968017	-0.293946
1	0x40657cac	3.5857344
2	0xc0373749	-2.8627493
3	0x400ee635	2.2328007
4	0x40729329	3.790232
5	0x403f92a4	2.9933252
6	0x3fe34ba3	1.7757457
7	0x3ffc9a7d	1.9734646
8	0x3fff8a17	1.9964017
9	0x3eff8d7c	0.49912632
10	0x4058a27d	3.3849175
11	0xbf3440db	-0.7041146
12	0x405fc6a0	3.496498
13	0xc00644ec	-2.0979567
14	0x4031b6ca	2.7767816
15	0x4007772c	2.1166487
16	0x3ecf387c	0.40472782
17	0x3dc97fb0	0.098388076
18	0xbff4fd2a	-1.913976
19	0xbfdf2309	-1.7432567
20	0x4041b6d0	3.026783
21	0x3e93de2e	0.28880447
22	0xbde20f34	-0.11038056
23	0x401af344	2.4210978
24	0x3ecc3456	0.3988368
25	0x3eb479a3	0.3524905
26	0x40308c00	2.758545
27	0xbfad0746	-1.3517845
28	0x3f75c2fa	0.96000636
29	0xbf9b5d85	-1.2137915
30	0x400a7cff	2.1638792
31	0x40682a54	3.6275835
32	0x3e995c88	0.29953408
33	0xc0051a11	-2.079716
34	0x401777ee	2.366695
35	0xbfc53aa5	-1.5408522
36	0xbf054cfa	-0.5207058
37	0x40147552	2.3196607
38	0x3edcb5a5	0.43107334
39	0xbea36b49	-0.3191779
40	0x404bb4d1	3.1829112
41	0xbe7e3788	-0.24825871
42	0xbec78a9c	-0.38972938
43	0x3df79a14	0.12089935
44	0xc0181d9d	-2.3768075
45	0x4055f18f	3.3428686
46	0x403a54dd	2.9114296
47	0x40583fb0	3.3788872
48	0xc01b03c6	-2.4221053
49	0x3ebd829a	0.37013704
50	0xbfdd2f6c	-1.7280097
51	0x3e3011a0	0.17194223
52	0xbedb0f0f	-0.42784926
53	0x3eca8da3	0.39561185
54	0xc01bceb5	-2.4344914
55	0x3fe84a4e	1.8147676
56	0x4047ebe8	3.1237736
57	0xbf131af5	-0.5746301
58	0x400c318a	2.1905236
59	0xbf83529e	-1.0259588
60	0x400228ec	2.0337477
61	0xbec131e8	-0.37733388
62	0xbfb1d7e8	-1.3894014
63	0x3efaf7b4	0.49017107

fc2.weight f4 [64, 64]
0	0xbc037a30	-0.008024737
1	0xb9200c00	-0.0001526326
2	0x3dd4c318	0.10388774
3	0xbd2e4220	-0.04254353
4	0x3dbcedf2	0.09225072
5	0xbdeb96fc	-0.11503407
6	0x3d7d7964	0.061883345
7	0x3d994e60	0.07485652
8	0xbd61b4b0	-0.055103958
9	0xbaa18a80	-0.0012324601
10	0x3aa2ee00	0.0012430549
11	0x3dfa2816	0.12214677
12	0x3cb86490	0.02250889
13	0x3c056f70	0.008144245
14	0xbddc5854	-0.10759035
15	0x3df4f736	0.11961214
16	0xbdd197ec	-0.10234055
17	0x3ca92338	0.020646676
18	0x3d8d7896	0.069077656
19	0xbda64624	-0.08118847
20	0x3dd85474	0.10562983
21	0xbb86cb00	-0.004113555
22	0x3dba63b0	0.09101045
23	0xbdaaa268	-0.08331758
24	0xbc2376c0	-0.009977043
25	0xbd8c1eee	-0.06841837
26	0x3d109da4	0.035306588
27	0xbdcfcdfa	-0.10146709
28	0x3a895780	0.0010478348
29	0x3d699b80	0.057033062
30	0xbd5a6b68	-0.053325087
31	0x3decb8d0	0.11558688
32	0x3d2e2894	0.042519167
33	0x3c65e120	0.014030725
34	0x3db4ff7c	0.08837792
35	0xbd809b82	-0.06279661
36	0x3c37cc60	0.01121816
37	0xbdfd639a	-0.12372513
38	0xbdfb84a8	-0.122811615
39	0x3daf4978	0.08558935
40	0xbd5fa0d8	-0.054596752
41	0xbd7209bc	-0.059091315
42	0xbd3e83ec	-0.04651253
43	0x3de0179e	0.109420046
44	0xbd985480	-0.07437992
45	0xbda63194	-0.08114925
46	0x3c600ee0	0.0136754215
47	0xbdaf52bc	-0.08560702
48	0xbde1c57e	-0.11023997
49	0x3df81360	0.121130705
50	0x3d717cc4	0.058956876
51	0xbbd21680	-0.0064113736
52	0xbde406fe	-0.11134146
53	0x3dd4f53e	0.10398339
54	0x3c48a8a0	0.012247235
55	0xbd453bc4	-0.0481527
56	0xbd948690	-0.07252228
57	0x3cf1e168	0.029526427
58	0x3d2ab6ec	0.041678354
59	0xbdd2fbc8	-0.1030193
60	0x3d95bf92	0.0731193
61	0x3cf74038	0.03018199
62	0xbdf01744	-0.117231876
63	0x3d473ce4	0.048642054
64	0x3dab4484	0.08362678
65	0x3ecab336	0.39589852
66	0xbe81aab4	-0.2532555
67	0x3eb684d5	0.35648218
68	0x3f9150f6	1.1352832
69	0x3db2b788	0.08726412
70	0xbe39e908	-0.181553
71	0x3d6ba9b8	0.057534903
72	0x3d46a892	0.048500605
73	0x3d7a1200	0.061052322
74	0x3ea6ee98	0.32603908
75	0xbe410252	-0.18848541
76	0x3e7a6506	0.244526
77	0xbf070d40	-0.5275459
78	0x3e3306ac	0.17483014
79	0x3d380fc7	0.04493692
80	0x3dfd0832	0.12355079
81	0xbdd75044	-0.10513356
82	0xbf0eff3f	-0.55858225
83	0xbece2a10	-0.40266466
84	0x3db5fd9d	0.088862635
85	0x3ca1e450	0.019762188
86	0xbdda8f18	-0.10671824
87	0x3dbf8bfe	0.09352873
88	0xbc0c55e0	-0.008565396
89	0xbe9a9981	-0.3019524
90	0xbe76f85a	-0.24118176
91	0xbe23b024	-0.15985161
92	0x3eae4212	0.34034783
93	0xbe8292dc	-0.2550267
94	0x3e8ee31a	0.2790764
95	0x3f42175f	0.7581691
96	0x3dcc707c	0.09982392
97	0xbe1462a1	-0.14490749
98	0x3e692d5f	0.22771214
99	0xbc8def24	-0.017325945
100	0xbb952220	-0.004551187
101	0xbd7edf81	-0.06222487
102	0x3cd2893f	0.02570021
103	0xbdb6ded4	-0.0892922
104	0x3ef8393b	0.48481163
105	0xbd89662e	-0.06708942
106	0x3dbeefde	0.09323095
107	0x3da814a6	0.082070634
108	0xbed23fa5	-0.41064182
109	0x3e576cac	0.21037549
110	0x3f745ee4	0.9545729
111	0x3ea16768	0.31524205
112	0xbec711f2	-0.3888088
113	0x39790400	0.0002374798
114	0xbe61801d	-0.22021528
115	0xbafc0a00	-0.0019229054
116	0x3dc419f8	0.09575266
117	0x3cb98e37	0.022650821
118	0xbeb6dd22	-0.35715586
119	0x3e8ed2d5	0.27895227
120	0x3defe378	0.11713308
121	0x3db092a6	0.08621721
122	0xbe6c1973	-0.23056583
123	0xbc48477d	-0.012224075
124	0x3f5fc020	0.87402534
125	0xbd3be640	-0.04587388
126	0xbe00fb67	-0.12595902
127	0xbd4f63d4	-0.050632313
128	0xbdd756f2	-0.105146304
129	0xbee20028	-0.44140744
130	0x3d529cc2	0.051419027
131	0x3e34d171	0.1765802
132	0xbee3fa98	-0.44527125
133	0xbd90926e	-0.07059179
134	0xbe6c0c2e	-0.23051521
135	0xbed76b98	-0.42074275
136	0xbdec9e5c	-0.11553642
137	0x3d4af968	0.04955426
138	0xbe9ee668	-0.3103516
139	0xbcb1675b	-0.021655729
140	0xbe77e6a1	-0.24209072
141	0x3e6772af	0.22602342
142	0xbe81b21b	-0.25331196
143	0xbf1bcf57	-0.6086325
144	0xbca65780	-0.020305395
145	0xbdf9f910	-0.12205708
146	0x3cfc9278	0.03083156
147	0x3e6ed27b	0.2332248
148	0xbf1e6b50	-0.61882496
149	0xbc9fb758	-0.019496605
150	0x3c3b9ab0	0.011450455
151	0x3f635a7e	0.88809955
152	0xbd355fd8	-0.044280857
153	0xbe0e955d	-0.13924165
154	0xbebf9349	-0.37417057
155	0x3da654be	0.08121632
156	0xbf19e643	-0.60116976
157	0x3df6aadb	0.12044307
158	0xbe216f28	-0.15765059
159	0xbef2376c	-0.4730791
160	0xbde8cfbe	-0.11367749
161	0x3e43053f	0.1904497
162	0xbdbb89dd	-0.09157155
163	0x3aaba85e	0.0013096442
164	0x3d6c4310	0.057681143
165	0xbe8b81b5	-0.27247396
166	0xbe354a74	-0.17704183
167	0xbd030ee0	-0.031996608
168	0xbec86277	-0.39137623
169	0xbd039a98	-0.032129854
170	0x3a3f5c00	0.0007299781
171	0xbeb0daea	-0.34542018
172	0x3ddf4a60	0.10902858
173	0xbe8d077d	-0.27544776
174	0xbe9a873b	-0.30181298
175	0xbeae4473	-0.34036598
176	0x3e241efc	0.16027445
177	0xbba88ca0	-0.005143717
178	0x3e1125fb	0.14174645
179	0x3d9862da	0.074407294
180	0xbca5d308	-0.02024223
181	0xbd733852	-0.059379883
182	0x3daa6b72	0.08321275
183	0xbe2a6e23	-0.16643576
184	0xbea1f5fb	-0.3163298
185	0x3d321ebc	0.04348634
186	0x3ea9528c	0.3307079
187	0x3d474f97	0.048659887
188	0xbec8c85f	-0.3921537
189	0x3d082288	0.033236057
190	0x3e688dd3	0.22710352
191	0xbd5111bb	-0.0510423
192	0xbddf119e	-0.10892032
193	0x3d3a1a0b	0.045434993
194	0x3d715e43	0.058927786
195	0xbd5a55f2	-0.05330462
196	0xbce708dc	-0.028202467
197	0xbc0b03df	-0.00848481
198	0x3ce7bc90	0.028288156
199	0xbdaa975a	-0.08329649
200	0xbd30f03d	-0.04319786
201	0xbd980a6c	-0.07423863
202	0xbd8b87fe	-0.06813048
203	0xbd9be1be	-0.07611416
204	0x3d887358	0.06662625
205	0xbd756a31	-0.059915725
206	0xbd9a755f	-0.07541918
207	0xbdb104c3	-0.08643486
208	0xbd454440	-0.04816079
209	0xbc920d28	-0.017828539
210	0xbdef04c9	-0.116708346
211	0xbd13b268	-0.036058813
212	0xbd4b72ad	-0.04966991
213	0x3c55f3d0	0.013058618
214	0x3de4142e	0.111366615
215	0x3c8963e8	0.016771272
216	0xbc3ce690	-0.01152958
217	0x3cfb6bed	0.030691111
218	0xbbe4065c	-0.006958766
219	0xbdc1545a	-0.09439917
220	0xbde7e0d5	-0.1132218
221	0xbce08c1a	-0.027410556
222	0x3d8445a2	0.06458594
223	0xbd3f442c	-0.046695873
224	0x3dac0a76	0.08400433
225	0x3d4af816	0.049553
226	0xbaa4f4d1	-0.0012585168
227	0x3d3759a3	0.04476322
228	0x3d51189c	0.05104886
229	0xbdd35558	-0.103190124
230	0xbb073ada	-0.0020634443
231	0x3d7aca18	0.061227888
232	0x3ba2edd5	0.0049721994
233	0x3df19a46	0.117970034
234	0x3bcab7c0	0.0061864555
235	0xbd03002e	-0.031982593
236	0xbd5d81d6	-0.0540789
237	0xbdd150e6	-0.10220508
238	0x3cc3d160	0.023903549
239	0xbd842c32	-0.06453742
240	0xbdcad593	-0.09904017
241	0x3dac7928	0.08421546
242	0xbba4ecc5	-0.005033108
243	0x3de17fc0	0.110106945
244	0x3d6b7744	0.057486787
245	0xbe0f7890	-0.14010835
246	0xbdfd8303	-0.12378504
247	0xbdb63835	-0.088974394
248	0xbd930c5b	-0.07180091
249	0xbd570584	-0.052495494
250	0xbdee63a0	-0.11640096
251	0x3d28cfcd	0.0412138
252	0x3d6a2742	0.057166345
253	0xbc276730	-0.010217473
254	0xbdc66e56	-0.09689014
255	0x3dc0e7a9	0.09419186

fc2.bias f4 [64]
0	0xbd8a2c9e	-0.06746791
1	0x3f85a067	1.0439576
2	0xbebf00ea	-0.37305385
3	0xbe07d299	-0.1326393
4	0x3d71d175	0.059037644
5	0x3fe9bf9f	1.8261603
6	0xbdd11019	-0.102081485
7	0x3fe342d6	1.7754772
8	0x3d1e96cd	0.038718034
9	0xbe2bacd9	-0.16765155
10	0x3dd3674f	0.10322439
11	0x3e030ea8	0.1279856
12	0x40002568	2.002283
13	0x3df81e81	0.12115193
14	0x3fda2d8f	1.7045153
15	0x4007d2e8	2.1222477
16	0xbdfb89be	-0.122821316
17	0xbb4092c9	-0.0029384366
18	0x4004bb30	2.073925
19	0x3fc97280	1.5738068
20	0x3ffea4fd	1.98941
21	0x3fad1fa6	1.3525283
22	0xbd9f600c	-0.07781991
23	0xbd0e50f3	-0.034745168
24	0xbd265f8c	-0.040618464
25	0x3fcc329c	1.5952945
26	0xbd99364e	-0.07481061
27	0x3db6da90	0.08928406
28	0x3fea1bed	1.8289772
29	0xbdeafd4e	-0.11474095
30	0xbdc8fcf6	-0.098138735
31	0x3fe61c99	1.7977477
32	0xbd1846c9	-0.03717688
33	0xbdc40d02	-0.095727935
34	0xbe0a89c6	-0.13529119
35	0x3e8553f3	0.2604061
36	0xbd9f125c	-0.07767174
37	0xbc73adae	-0.014872951
38	0x3d3f06a4	0.046637192
39	0xbdc7dcea	-0.09758933
40	0xbd1900a5	-0.03735413
41	0x3fac02c8	1.3438349
42	0xbfbe6894	-1.4875665
43	0x3ffceee0	1.9760399
44	0xbf431506	-0.76203954
45	0x3ccab278	0.024743304
46	0x3fafd1d9	1.3735915
47	0x3feffd48	1.874917
48	0x3da5e21d	0.08099768
49	0x3fe02ff6	1.7514637
50	0xbf527eff	-0.8222503
51	0x3f8b0f19	1.0863982
52	0x3fe4204c	1.7822356
53	0x3d593b71	0.053035203
54	0x3d1114fb	0.0354204
55	0x3dd72d8d	0.10506735
56	0x3b509619	0.0031827746
57	0xbf164e25	-0.5871299
58	0x3ff3a9ff	1.9036254
59	0x3f9c94f5	1.2232958
60	0x3f91532a	1.1353505
61	0x3f64fd64	0.89449143
62	0x3ffa6dae	1.9564722
63	0x3fc9342e	1.5719049

fc_A.weight f4 [20, 64]
0	0x3ccc7930	0.02496013
1	0xbf0e775a	-0.55650866
2	0x3e43c18c	0.19116801
3	0x3db37db3	0.087642096
4	0x3d9ce9d6	0.07661788
5	0x3f9391ed	1.1528908
6	0xbd8397da	-0.06425448
7	0x3f0e3b82	0.5555955
8	0x3db5dd46	0.08880095
9	0xbea31e8f	-0.31859252
10	0xbdc95496	-0.098305866
11	0x3ed60d90	0.41807222
12	0x3e637f70	0.22216582
13	0x3dfd64e4	0.12372759
14	0x3e47bba1	0.19505168
15	0xbfa3f92a	-1.2810414
16	0xbdc4dd83	-0.096125625
17	0xbd9d1f61	-0.07672001
18	0x3e90b9a4	0.28266633
19	0x3e6c05af	0.23049043
20	0x3e65bebb	0.22436039
21	0x3dafb772	0.08579911
22	0x3df9fe1d	0.122066714
23	0x3e18ac46	0.14909467
24	0xbdb8345c	-0.08994362
25	0x3e3f2b1f	0.18668793
26	0x3c80695a	0.015675236
27	0x3da0fa80	0.07860279
28	0x3e9dcdd9	0.30821112
29	0x3e613211	0.21991755
30	0xbd89215c	-0.06695816
31	0xbf609157	-0.8772177
32	0x3e3e56e8	0.1858784
33	0xbd63f568	-0.05565396
34	0x3d53145f	0.0515331
35	0x3d0f89b9	0.035043452
36	0xbd995b16	-0.074880764
37	0x3d559e69	0.052153025
38	0xbdcaa972	-0.098956004
39	0xbdf31080	-0.118683815
40	0x3a83f17a	0.0010066472
41	0xbd616dfe	-0.055036537
42	0xbe85b308	-0.26113153
43	0x3e24f78e	0.1611006
44	0xbdde2f36	-0.108488485
45	0xbddea012	-0.10870375
46	0x3dd9de20	0.1063807
47	0x3e275ad6	0.16343245
48	0xbd916efd	-0.071012475
49	0x3e791013	0.24322538
50	0xbe17dcfc	-0.14830393
51	0x3e59c5e7	0.212669
52	0x3e299a6a	0.1656281
53	0xbd27f3d6	-0.041004024
54	0x3d29c7b7	0.04145023
55	0x3af1ea9b	0.0018456759
56	0x3cd5795a	0.026058841
57	0x3e7b60e6	0.24548683
58	0x3ec1925d	0.3780698
59	0xbfba059b	-1.4532961
60	0x3fbeadf7	1.489684
61	0x3deabcc0	0.114617825
62	0x3e6c3b5c	0.23069519
63	0xbd5d5fac	-0.054046318
64	0xbded82c2	-0.11597206
65	0xbe125016	-0.14288363
66	0x3e6bb981	0.23019983
67	0x3d2af832	0.041740604
68	0xbdbe1e38	-0.092831075
69	0x3eb913fe	0.36148065
70	0x3df99b72	0.12187852
71	0x3e7ccbe9	0.2468716
72	0x3c38c6b6	0.011277845
73	0x3d97bf21	0.07409502
74	0xbd1b9831	-0.037986938
75	0xbd33c8ac	-0.043892547
76	0x3e4f60c7	0.20251761
77	0xbe0a0094	-0.13476783
78	0xbc673644	-0.014112059
79	0xbe3bd798	-0.18343961
80	0xbd5c20c1	-0.053742174
81	0x3c713ac6	0.014723485
82	0x3e844664	0.25834954
83	0x3e00144c	0.12507743
84	0x3e489104	0.19586569
85	0xbd6c70f0	-0.057724893
86	0x3d9f4695	0.07777134
87	0xbd9bee54	-0.07613817
88	0xbc4bee20	-0.01244691
89	0x3e320b8d	0.17387219
90	0x3cbc58df	0.022991596
91	0x3e26e5a7	0.16298543
92	0x3de8af19	0.11361522
93	0x3e4a1a34	0.19736558
94	0x3db33316	0.08749978
95	0xbee27431	-0.44229272
96	0x3e4f5ad0	0.20249486
97	0x3dae1364	0.08499792
98	0x3d8c9f00	0.06866264
99	0xbd093221	-0.033495072
100	0xbd0c76a8	-0.034292847
101	0x3db01d31	0.08599318
102	0xbdc7ce00	-0.09756088
103	0x3d09abe4	0.033611193
104	0xbdad429f	-0.084599726
105	0x3e2f0bf2	0.170944
106	0x3cb3555c	0.021891288
107	0x3db51e00	0.08843613
108	0x3ec45c56	0.38351697
109	0xbd4f25d8	-0.0505732
110	0x3e21c1f2	0.1579664
111	0x3e22f482	0.15913585
112	0xbdbcfd06	-0.09227948
113	0x3cdd70ca	0.027031321
114	0x3dc575c4	0.09641603
115	0x3e433b85	0.19065674
116	0x3de59c0d	0.11211405
117	0xbdcaefc4	-0.09909013
118	0x3c1de3aa	0.009636799
119	0x3df1b40d	0.1180192
120	0xbe1904d0	-0.14943242
121	0x3e1502a5	0.1455179
122	0xbe3d159e	-0.18465278
123	0xbedcb53b	-0.43107018
124	0x3f186609	0.59530693
125	0x3e3a9425	0.18220575
126	0x3e3e932e	0.18610832
127	0x3ca8d203	0.020607954
128	0x3d2a1080	0.041519642
129	0xbed8ed43	-0.42368516
130	0x3e45918b	0.19293801
131	0xbb514758	-0.0031933393
132	0x3bb1c52c	0.005425116
133	0x3d754ac3	0.05988575
134	0xbd7a3143	-0.061082136
135	0x3e038f80	0.1284771
136	0x3d6b6eb3	0.057478618
137	0xbe276491	-0.16346957
138	0xbd93336a	-0.07187541
139	0x3d066d3b	0.032819014
140	0x3e37ff9f	0.17968605
141	0x3dbd1f66	0.092345044
142	0x3cf39b8d	0.029737258
143	0x3de77e71	0.11303414
144	0xbdc3b758	-0.095564544
145	0x3d93376c	0.07188305
146	0x3e063203	0.13105015
147	0x3cf7ef6a	0.030265529
148	0x3dfd52d6	0.12369315
149	0xbcaa2d66	-0.0207736
150	0x3d8443c1	0.064582355
151	0xbd3e62e1	-0.046481017
152	0x3de6d872	0.112717524
153	0x3e9b6ed9	0.30358008
154	0x3d6543a0	0.055972695
155	0x3e7f7102	0.24945453
156	0xbd1aae5a	-0.03776393
157	0x3e0ae2f0	0.13563132
158	0x3dc576a4	0.096417695
159	0xbec4507c	-0.38342655
160	0x3e740d39	0.23833169
161	0xbd1a3bbd	-0.037654627
162	0x3d9406aa	0.072278336
163	0xbc2c3f6c	-0.010513168
164	0xbd8822d4	-0.06647268
165	0x3df48ae7	0.11940556
166	0x3d184248	0.037172586
167	0xb9a4e800	-0.0003145337
168	0xbc3efcf6	-0.01165699
169	0x3de973b9	0.113990255
170	0xbdb8826f	-0.09009253
171	0x3d579de2	0.052640803
172	0xbc81926f	-0.015816895
173	0x3d8e7e18	0.06957644
174	0x3e92d75e	0.28679937
175	0x3e420975	0.1894892
176	0x3c87ed42	0.016592626
177	0x3d8736e5	0.06602267
178	0xbd50dafa	-0.050990082
179	0x3ed17927	0.40912744
180	0x3e4a3ff4	0.19750959
181	0x3e0dda6f	0.13852857
182	0xbdeab33b	-0.11459967
183	0x3decd392	0.11563791
184	0x3d1d8c3f	0.038463827
185	0x3e05d49e	0.13069388
186	0x3cabdc3f	0.020979045
187	0xbea03a04	-0.31294262
188	0x3f329a74	0.69766927
189	0x3e450613	0.19240598
190	0x3d97cb5f	0.07411837
191	0x3da31652	0.07963242
192	0x3d16a9d0	0.03678304
193	0xbe770c16	-0.24125704
194	0x3d68cbe5	0.056835074
195	0xbdeac85f	-0.11463999
196	0xbd101819	-0.03517923
197	0xbd0fdcaf	-0.03512257
198	0xbd0cc559	-0.034367893
199	0x3e6ea98b	0.23306863
200	0xbd8a46aa	-0.06751759
201	0xbd150915	-0.036385614
202	0x3ce88f32	0.028388593
203	0x3e6cd128	0.23126662
204	0x3e0439bd	0.1291265
205	0x3d4b6a63	0.049662005
206	0x3dba4e13	0.09096923
207	0x3cad1114	0.021126308
208	0x3ddff392	0.10935129
209	0x3cb6f8e5	0.022335479
210	0x3e86a156	0.26294965
211	0xbdb842b6	-0.08997099
212	0x3e2c2b8d	0.16813488
213	0x3de2d786	0.11076264
214	0x3ce5a911	0.028034719
215	0x3caad069	0.02085133
216	0x3dc01218	0.09378451
217	0x3ead1516	0.3380515
218	0xbd02eac3	-0.031962167
219	0x3de6e05a	0.112732604
220	0x3d856d27	0.0651496
221	0x3e2539c7	0.16135322
222	0xbdcec3ca	-0.100959376
223	0xbe31cdad	-0.17363615
224	0x3e57f15f	0.2108817
225	0x3e00d9fb	0.12583153
226	0x3db4eb87	0.08833986
227	0xbdaf85fd	-0.08570478
228	0xbdfba2ac	-0.122868866
229	0x3d720ae9	0.059092436
230	0x3bc46840	0.005993873
231	0xbd2b9aa4	-0.041895524
232	0xbb8a3a9c	-0.0042184126
233	0xbd9530a5	-0.07284669
234	0x3d96dffd	0.07366941
235	0xbd10a40f	-0.03531271
236	0xbdbe578f	-0.09294044
237	0x3de37f38	0.111082494
238	0x3e2b54fe	0.1673164
239	0x3e12a502	0.14320758
240	0xbd4f2831	-0.05057544
241	0xbb2e9aba	-0.0026642517
242	0x3e536795	0.20644982
243	0x3e5fcad6	0.2185472
244	0x3ddf8b81	0.1091528
245	0x3d581411	0.05275351
246	0x3d7c3cc2	0.06158138
247	0x3dfff8bb	0.124986134
248	0xbd809323	-0.06278064
249	0x3e29ddbb	0.1658849
250	0xbdd1b33e	-0.10239266
251	0xbeba68b4	-0.36408007
252	0x3f3cfacd	0.7382019
253	0x3e7c65e8	0.24648249
254	0x3dcd3ec6	0.10021739
255	0x3e0ba556	0.1363729

fc_A.bias f4 [20]
0	0x3fa221fe	1.2666624
1	0x3ef3b155	0.4759623
2	0x3e9632a3	0.29335508
3	0x3e80b73b	0.25139794
4	0x3eaf829b	0.34279332
5	0x3e864784	0.26226437
6	0xbda390a9	-0.07986576
7	0xbd326410	-0.04355246
8	0xbcff18e8	-0.031139806
9	0xbdd0c952	-0.10194649
10	0xbe2ba381	-0.1676159
11	0xbeb3d6bc	-0.35124767
12	0xbeebdc7e	-0.4606666
13	0xbed69cfd	-0.41916648
14	0xbea440ea	-0.32080775
15	0xbf012a6f	-0.50455374
16	0xbf076548	-0.5288892
17	0xbf32dd16	-0.698686
18	0xbf174001	-0.5908204
19	0xbf624439	-0.8838535

fc_V.weight f4 [1, 64]
0	0x3da675a2	0.081279054
1	0xbf2d1d8b	-0.67623204
2	0xbe810756	-0.2520091
3	0xbcb23b9e	-0.021756943
4	0x3d7fcbda	0.062450267
5	0xbfed4b84	-1.853867
6	0x3db395bd	0.08768795
7	0x3f0ec55c	0.55769897
8	0x3d757cb7	0.05993339
9	0xbe4a2762	-0.19741586
10	0x3d3527ff	0.044227596
11	0xbe609233	-0.2193077
12	0x3eebcf4b	0.4605659
13	0x3db02ccb	0.086022936
14	0x3f6d0f73	0.926017
15	0xbfc224df	-1.5167502
16	0x3ce0c385	0.027436981
17	0x3d595aaf	0.053065
18	0x3f10e6ad	0.56601983
19	0x3f76aab3	0.96354216
20	0x3ede5d60	0.43430614
21	0x3f314d0c	0.6925819
22	0xbdd40e29	-0.10354263
23	0x3d9e38cf	0.07725679
24	0xbd1d88e8	-0.038460642
25	0x3ed02183	0.40650567
26	0x3d2e3edd	0.04254042
27	0xbdd7aab4	-0.10530606
28	0x3f2ac57a	0.66707575
29	0xbe5bfdfa	-0.21483603
30	0x3dc4b9a6	0.09605722
31	0xbf9cfbd1	-1.2264348
32	0xbe346907	-0.1761819
33	0x3cd80f54	0.026374497
34	0xbc86a7d6	-0.016437452
35	0x3cf9f3d4	0.030511774
36	0x3c1932e0	0.009350508
37	0x3d3863c5	0.045017023
38	0x3de8bc40	0.11364031
39	0x3bfe88a0	0.007767752
40	0x3b84da45	0.00405434
41	0x3ebe866d	0.37211934
42	0xbf249c0a	-0.64300597
43	0x3eeb0896	0.45904988
44	0xbe73ab4a	-0.2379581
45	0xbdc4b448	-0.096046984
46	0x3e192cb6	0.14958462
47	0x3eb08e06	0.34483355
48	0x3d35a7a1	0.044349317
49	0x3ebb423a	0.36573964
50	0xbedeeb6a	-0.43538982
51	0x3cee829c	0.029115014
52	0x3e8813ad	0.2657751
53	0xbd42e22d	-0.04757898
54	0x3cc2a18e	0.023758676
55	0x3d8b215e	0.06793474
56	0x3c8e5153	0.017372763
57	0xbe9f64aa	-0.31131488
58	0x3f76aeed	0.96360666
59	0xbeaf97a5	-0.34295383
60	0xbeffd919	-0.4997032
61	0xbd16dfb6	-0.03683444
62	0x3eafdbff	0.3434753
63	0x3f377c2f	0.71673864

fc1.weight f4 [64, 3]
0	0xbf132d66	-0.5749115
1	0xbdfdc938	-0.12391895
2	0xbea4f026	-0.3221447
3	0x3d018b3f	0.031626936
4	0x3e09fe78	0.13475978
5	0xbcf65ca2	-0.030073468
6	0xbef80353	-0.48440036
7	0xbe8975c1	-0.26847652
8	0x3ed468af	0.41486117
9	0x3e898ebd	0.26866713
10	0x3de114af	0.10990273
11	0xbe84818e	-0.25880092
12	0xbe6f71c6	-0.23383245
13	0x3cc28977	0.023747189
14	0x3d73f8f2	0.059563585
15	0x3e49f08f	0.19720672
16	0x3eb712f8	0.3575666
17	0xbce4f519	-0.027948903
18	0x3f0c5e92	0.548318
19	0x3f09c94e	0.5382279
20	0xbe2e9f3a	-0.17052928
21	0x3effece0	0.4998541
22	0x3e84ef0d	0.2596363
23	0xbe838407	-0.25686666
24	0x3efae3f0	0.49002028
25	0xbd50421d	-0.0508443
26	0xbc9977cd	-0.018733883
27	0xbd743be0	-0.059627414
28	0xbefd65fa	-0.49491864
29	0xbe687346	-0.22700223
30	0xbe4e493d	-0.20145126
31	0x3e587bbf	0.21140955
32	0x3d25dfb8	0.040496558
33	0x3e70f4c2	0.23530868
34	0xbf165874	-0.5872872
35	0x3d949206	0.07254414
36	0x3ebf571a	0.3737114
37	0xbef1fd2b	-0.47263464
38	0x3d83ffaa	0.064452484
39	0x3f1c6503	0.6109163
40	0x3f405e0f	0.7514352
41	0x3ddbfcc7	0.10741573
42	0x3e61ba8d	0.2204382
43	0x3db14f4b	0.08657702
44	0xbcc95a4c	-0.02457919
45	0x3dc1373b	0.094343625
46	0x3e3c0ec8	0.18365014
47	0xbcfefc9c	-0.031126313
48	0xbea698f0	-0.32538557
49	0xbe95fd95	-0.2929503
50	0xbf0973e8	-0.53692484
51	0xbe950db1	-0.29112008
52	0xbf0f411a	-0.5595871
53	0xbd9e2eaa	-0.07723744
54	0x3e361b0d	0.17783757
55	0xbe8aa129	-0.2707608
56	0x3db4ce08	0.0882836
57	0xbe810558	-0.2519939
58	0x3f07f4ca	0.53107893
59	0x3ea3b0bc	0.31970775
60	0x3de18d50	0.11013281
61	0x3e9b4da5	0.30332676
62	0xbdfd45c9	-0.12366826
63	0xbdedf4cd	-0.11618958
64	0xbe3ba812	-0.18325832
65	0xbeb656f0	-0.35613203
66	0x3ec5aa82	0.3860665
67	0xb8bd6000	-9.030104e-05
68	0xbf08822e	-0.5332364
69	0x3e45fd3b	0.19334881
70	0xbc58046d	-0.013184649
71	0xbebabe79	-0.36473444
72	0x3dfbbf30	0.122923255
73	0xbeb2cc9c	-0.3492173
74	0xbef6eddf	-0.48228356
75	0x3e681da2	0.22667554
76	0x3f3444ed	0.7041767
77	0xbd4262a8	-0.047457367
78	0xbe4e0301	-0.20118333
79	0x3eedf2f1	0.46474412
80	0xbe2736d9	-0.16329516
81	0xbea39d55	-0.31955972
82	0x3e94f4ec	0.2909311
83	0x3ec65fa9	0.38744858
84	0xbecc6365	-0.39919582
85	0xbf32112f	-0.6955747
86	0x3dcd6a1c	0.100300044
87	0xbe515110	-0.20441079
88	0x3edef39a	0.43545228
89	0x3e2be247	0.16785537
90	0xbe2d869a	-0.16945878
91	0xbed99117	-0.42493507
92	0x3e2bc7ed	0.16775484
93	0xbe9254f6	-0.28580445
94	0x3dd34bb5	0.10317174
95	0x3d157821	0.036491517
96	0xbef6d430	-0.4820876
97	0xbd4885a0	-0.04895556
98	0xbee5234f	-0.447535
99	0x3f01c3fc	0.50689673
100	0xbf27a54f	-0.65486616
101	0x3eb2b258	0.3490169
102	0x3f188b78	0.5958781
103	0xbe265d9e	-0.1624665
104	0xbb1db926	-0.0024066656
105	0xbeaa87e3	-0.33306798
106	0xbe3c8ff4	-0.18414289
107	0x3e687ae6	0.22703132
108	0x3d844f40	0.06460428
109	0xbdcb5950	-0.099291444
110	0xbe53390a	-0.20627227
111	0x3e4102d9	0.18848743
112	0x3d8245f8	0.06361002
113	0xbcb5e830	-0.022205442
114	0xbe844244	-0.25831807
115	0xbf29592f	-0.6615171
116	0x3da84e14	0.08218017
117	0xbeb9f1aa	-0.36317188
118	0x3c503540	0.012708008
119	0xbef134d8	-0.4711063
120	0xbcbf2e63	-0.023337549
121	0xbe2dd819	-0.16976966
122	0x3c89378e	0.016750123
123	0x3e015828	0.12631285
124	0xbeed48ed	-0.463447
125	0xbec398ea	-0.38202602
126	0x3e9c4278	0.30519462
127	0xbe97913d	-0.29602996
128	0xbe8ee572	-0.27909428
129	0x3ef762b0	0.4831748
130	0xbf0c0983	-0.54702014
131	0xbe080994	-0.13284904
132	0x3e29273c	0.16518873
133	0x3ec12e7c	0.37730777
134	0x3eb7e9bb	0.3592051
135	0x3e572e07	0.21013652
136	0x3e7796a1	0.24178554
137	0xbd0b586b	-0.03401987
138	0x3cab7add	0.02093261
139	0x3d891b4c	0.066946596
140	0xbdba705b	-0.09103461
141	0xbe5766d3	-0.21035318
142	0x3ec5bb7b	0.386196
143	0x3c2f1ae0	0.01068756
144	0xbeb5824d	-0.35450974
145	0x3f38d1ce	0.72195137
146	0x3e1958ea	0.14975324
147	0x3e81560e	0.25260967
148	0xbeeeb848	-0.4662497
149	0xbeb4bb8d	-0.3529934
150	0xbf18eaf6	-0.5973352
151	0x3eee3eb7	0.46532223
152	0x3e1c07ac	0.15237302
153	0xbe6415c2	-0.22273925
154	0xbef27141	-0.4735203
155	0xbedf763f	-0.43644902
156	0xbee76e18	-0.45201182
157	0xbedba9e6	-0.4290306
158	0xbdb3bed0	-0.08776629
159	0xbed94a85	-0.42439666
160	0x3e86f367	0.26357576
161	0xbe35a625	-0.1773916
162	0x3e0d5c95	0.13804848
163	0xbeb79123	-0.35852918
164	0x3e1b129a	0.15143815
165	0xbe9812e3	-0.2970191
166	0x3cf64b75	0.030065278
167	0x3d3a19ba	0.04543469
168	0xbf008282	-0.5019914
169	0x3ed902f9	0.4238508
170	0x3cabf332	0.020989988
171	0x3e84a26a	0.25905162
172	0xbec7f94a	-0.3905738
173	0xbf0a0cb9	-0.53925663
174	0xbe2ceb9a	-0.1688675
175	0x3eb4a8dd	0.35285082
176	0xbeb2cd09	-0.34922054
177	0xbdd9dee6	-0.10638218
178	0xbf069cf5	-0.5258325
179	0x3e4a13d2	0.19734123
180	0xbe3e7b6b	-0.18601768
181	0xbeec6b09	-0.4617541
182	0x3db0528f	0.08609497
183	0x3db4bd10	0.08825123
184	0xbe01c296	-0.12671885
185	0xbee22008	-0.44165063
186	0x3edd0fbd	0.4317607
187	0xbcd565b1	-0.026049467
188	0x3e8232df	0.25429437
189	0x3dd38f99	0.103301235
190	0xba27cb04	-0.0006400796
191	0xbd22cfb6	-0.03974887

fc1.bias f4 [64]
0	0xbe968017	-0.293946
1	0x405eea23	3.4830406
2	0xc02f8e3a	-2.7430558
3	0x4009780f	2.1479528
4	0x406b69c3	3.6783302
5	0x40395c45	2.8962567
6	0x3fe46deb	1.7846044
7	0x3ff1351b	1.8844332
8	0x3ff2c1d8	1.8965406
9	0x3eff8d7c	0.49912632
10	0x40521722	3.282662
11	0xbf2641c3	-0.64944094
12	0x4058b886	3.3862624
13	0xbffd248c	-1.9776778
14	0x402b66f4	2.6781588
15	0x3ffdb99b	1.9822267
16	0x3ecf387c	0.40472782
17	0x3dc97fb0	0.098388076
18	0xbfe4303d	-1.7827221
19	0xbfd155a5	-1.6354262
20	0x403dbb31	2.9645503
21	0x3e93de2e	0.28880447
22	0xbde20f34	-0.11038056
23	0x40144d53	2.3172195
24	0x3ecc3456	0.3988368
25	0x3ecbac72	0.39780003
26	0x402e893f	2.7271268
27	0xbfa2d60f	-1.2721575
28	0x3f6a2efc	0.9147794
29	0xbf8bb9ec	-1.0916114
30	0x4004d774	2.0756502
31	0x406153e3	3.520745
32	0x3e995c88	0.29953408
33	0xbff5d722	-1.9206278
34	0x4010e9e5	2.2642758
35	0xbfb390b4	-1.4028535
36	0xbf054cfa	-0.5207058
37	0x400d8b25	2.2116177
38	0x3ed4ce62	0.41563708
39	0xbea36b49	-0.3191779
40	0x4043e38b	3.0607631
41	0xbe7e3788	-0.24825871
42	0xbec78a9c	-0.38972938
43	0x3e47d6d2	0.19515541
44	0xc0116b27	-2.272165
45	0x404e8a0a	3.2271752
46	0x40367a09	2.8511984
47	0x40519d4f	3.2752264
48	0xc0126b92	-2.2878156
49	0x3ebd829a	0.37013704
50	0xbfc662af	-1.5498866
51	0x3e3011a0	0.17194223
52	0xbedb0f0f	-0.42784926
53	0x3ebb97a7	0.3663914
54	0xc0123743	-2.284623
55	0x3fd9891a	1.6994965
56	0x40412bc9	3.0182974
57	0xbf131af5	-0.5746301
58	0x4004cb2a	2.0749002
59	0xbf69d7a3	-0.9134466
60	0x3ff68790	1.926012
61	0xbec131e8	-0.37733388
62	0xbfa47367	-1.2847718
63	0x3f017d01	0.50581366

fc2.weight f4 [64, 64]
0	0xbc037a30	-0.008024737
1	0xb9200c00	-0.0001526326
2	0x3dd4c380	0.10388851
3	0xbd2e4220	-0.04254353
4	0x3dbcedf2	0.09225072
5	0xbdeb9753	-0.11503472
6	0x3d7d7982	0.061883457
7	0x3d994e60	0.07485652
8	0xbd61b4b0	-0.055103958
9	0xbaa18a80	-0.0012324601
10	0x3aa2ee00	0.0012430549
11	0x3dfa2816	0.12214677
12	0x3cb86490	0.02250889
13	0x3c056f70	0.008144245
14	0xbddc58ee	-0.107591495
15	0x3df4f736	0.11961214
16	0xbdd197ec	-0.10234055
17	0x3ca92363	0.020646757
18	0x3d8d7896	0.069077656
19	0xbda64624	-0.08118847
20	0x3dd85474	0.10562983
21	0xbb86cb00	-0.004113555
22	0x3dba63b0	0.09101045
23	0xbdaaa268	-0.08331758
24	0xbc2376c0	-0.009977043
25	0xbd8c1eee	-0.06841837
26	0x3d109df7	0.035306897
27	0xbdcfcdfa	-0.10146709
28	0x3a895780	0.0010478348
29	0x3d699b82	0.05703307
30	0xbd5a6b68	-0.053325087
31	0x3decb8d0	0.11558688
32	0x3d2e2894	0.042519167
33	0x3c65e120	0.014030725
34	0x3db4ff7c	0.08837792
35	0xbd809b82	-0.06279661
36	0x3c37cc60	0.01121816
37	0xbdfd639a	-0.12372513
38	0xbdfb84a8	-0.122811615
39	0x3daf49a0	0.08558965
40	0xbd5fa0d8	-0.054596752
41	0xbd7209bc	-0.059091315
42	0xbd3e841d	-0.04651271
43	0x3de0179e	0.109420046
44	0xbd985480	-0.07437992
45	0xbda63194	-0.08114925
46	0x3c600ee0	0.0136754215
47	0xbdaf52bc	-0.08560702
48	0xbde1c57e	-0.11023997
49	0x3df81360	0.121130705
50	0x3d717cc4	0.058956876
51	0xbbd21680	-0.0064113736
52	0xbde406fe	-0.11134146
53	0x3dd4f53e	0.10398339
54	0x3c48a8a0	0.012247235
55	0xbd453bc4	-0.0481527
56	0xbd948690	-0.07252228
57	0x3cf1e168	0.029526427
58	0x3d2ab6ec	0.041678354
59	0xbdd2fbc8	-0.1030193
60	0x3d95bf92	0.0731193
61	0x3cf74038	0.03018199
62	0xbdf017af	-0.11723267
63	0x3d473ce4	0.048642054
64	0x3dab4484	0.08362678
65	0x3ebfc59d	0.37455454
66	0xbe7f9069	-0.24957432
67	0x3ea46a26	0.32112235
68	0x3f8ddc00	1.1082764
69	0x3dacccad	0.08437476
70	0xbe2a901c	-0.16656536
71	0x3da470aa	0.080293015
72	0x3d948add	0.072530486
73	0x3d7a1267	0.061052706
74	0x3e9a2f60	0.3011427
75	0xbd6de3f9	-0.05807874
76	0x3e8598b7	0.26093075
77	0xbefcce7c	-0.49376285
78	0x3e347a23	0.17624716
79	0x3d3c2669	0.04593507
80	0x3dfd083a	0.12355085
81	0xbdd75044	-0.10513356
82	0xbed7cfd2	-0.42150742
83	0xbec34391	-0.38137487
84	0x3dc4d72f	0.096113555
85	0x3ca1e450	0.019762188
86	0xbdda8f18	-0.10671824
87	0x3e125ae2	0.14292482
88	0xbc0c55e0	-0.008565396
89	0xbe97335e	-0.29531378
90	0xbe4755e3	-0.19466357
91	0xbe104497	-0.14088665
92	0x3eaaeacc	0.3338226
93	0xbe8175c4	-0.2528516
94	0x3e94ffe7	0.29101488
95	0x3f361476	0.7112497
96	0x3dcc707c	0.09982392
97	0xbdded295	-0.10880009
98	0x3e82c085	0.25537506
99	0xbc93ad60	-0.018027008
100	0xbb95223a	-0.0045511993
101	0xbd73ea5e	-0.05954968
102	0x3db6282b	0.0889438
103	0xbdb6df0f	-0.08929264
104	0x3ef533b5	0.47891012
105	0xbd896648	-0.06708962
106	0x3dbeefde	0.09323095
107	0x3db31379	0.087439485
108	0xbebfccf3	-0.3746105
109	0x3e574b07	0.21024714
110	0x3f72e1bc	0.94875693
111	0x3e915068	0.28381658
112	0xbec06303	-0.3757554
113	0x39790400	0.0002374798
114	0xbe7b9ce2	-0.24571565
115	0xbafc0a51	-0.0019229149
116	0x3dc419f8	0.09575266
117	0xbe133023	-0.14373831
118	0xbe84b241	-0.25917247
119	0x3e60a553	0.21938066
120	0x3d3ca009	0.04605106
121	0x3db092a6	0.08621721
122	0xbe9a63e7	-0.30154344
123	0x3cccb259	0.024987387
124	0x3f659835	0.89685374
125	0xbd3be640	-0.04587388
126	0xbdb0cabc	-0.086324185
127	0xbd3b36e8	-0.04570666
128	0xbdd756f2	-0.105146304
129	0xbeb27b83	-0.34859857
130	0x3d89970e	0.067182645
131	0x3e524ba4	0.20536667
132	0xbec6d7b2	-0.38836437
133	0xbce1817a	-0.02752756
134	0xbdcdc23e	-0.100468144
135	0xbebd5361	-0.36977676
136	0xbdb465b7	-0.08808463
137	0x3d4af968	0.04955426
138	0xbe858b1b	-0.26082692
139	0x3c7fbbeb	0.015608768
140	0xbe377e4e	-0.17919275
141	0x3e6f5644	0.23372751
142	0xbe3dce90	-0.18535829
143	0xbf00254b	-0.50056905
144	0xbca65780	-0.020305395
145	0xbdf9f910	-0.12205708
146	0x3d48f242	0.04905916
147	0x3e7fd9cc	0.24985427
148	0xbee1b225	-0.44081226
149	0xbc9fb758	-0.019496605
150	0x3c3b9ab0	0.011450455
151	0x3f61573b	0.8802373
152	0xbd35603e	-0.044281237
153	0xbdd284d3	-0.102792405
154	0xbe73a034	-0.23791581
155	0x3dccef15	0.10006539
156	0xbef77de4	-0.48338234
157	0x3e0c1a2c	0.13681859
158	0xbe0292ad	-0.12751265
159	0xbed36951	-0.41291288
160	0xbde8d061	-0.1136787
161	0x3e52ecaf	0.205981
162	0xbd2bb530	-0.04192084
163	0x3ca15297	0.019692702
164	0x3d6c4334	0.057681277
165	0xbe568dc2	-0.20952514
166	0xbdb45323	-0.088049196
167	0xbd030ee0	-0.031996608
168	0xbe9f4acc	-0.31111753
169	0xbd039a98	-0.032129854
170	0x3a3f5c00	0.0007299781
171	0xbeb9c56a	-0.36283427
172	0x3dfcfe8b	0.12353238
173	0xbe606804	-0.21914679
174	0xbe6b097a	-0.22952834
175	0xbe96a1f2	-0.2942043
176	0x3e2d0e6b	0.16900031
177	0xbba88ca0	-0.005143717
178	0x3e1de353	0.15418749
179	0x3d9862da	0.074407294
180	0xbca5d308	-0.02024223
181	0xbd59fece	-0.053221516
182	0x3db87bc1	0.09007979
183	0xbe0682f5	-0.13135894
184	0xbe90e8bb	-0.2830256
185	0x3d321ebc	0.04348634
186	0x3ea8a29e	0.32936567
187	0x3d97d499	0.07413597
188	0xbea827b2	-0.32842785
189	0x3d082288	0.033236057
190	0x3e7a687c	0.2445392
191	0xbc8556a5	-0.016276667
192	0xbddf119e	-0.10892032
193	0x3d3d4c86	0.046215557
194	0x3d718fd5	0.05897506
195	0xbd56eafe	-0.0524702
196	0xbce030c4	-0.027367003
197	0xbbfcf135	-0.007719184
198	0x3ceddf5f	0.029037176
199	0xbda900f6	-0.082521364
200	0xbd2e50fd	-0.042557705
201	0xbd980a6c	-0.07423863
202	0xbd89d15d	-0.06729386
203	0xbd9bc208	-0.07605368
204	0x3d89e132	0.06732406
205	0xbd74fb82	-0.05981017
206	0xbd98e119	-0.07464809
207	0xbdb03682	-0.086041465
208	0xbd454440	-0.04816079
209	0xbc920d28	-0.017828539
210	0xbdeeec73	-0.11666193
211	0xbd137f6f	-0.036010202
212	0xbd480672	-0.04883427
213	0x3c55f431	0.013058708
214	0x3de4142e	0.111366615
215	0x3c903c8d	0.017606998
216	0xbc3ce690	-0.01152958
217	0x3d00ea76	0.0314736
218	0xbbc8a5f2	-0.006123298
219	0xbdc13bfb	-0.094352685
220	0xbde7c39e	-0.11316608
221	0xbce019a2	-0.027355973
222	0x3d846fb2	0.06466617
223	0xbd3bd92b	-0.045861404
224	0x3dac0a76	0.08400433
225	0x3d4b40a4	0.049622193
226	0xba0f15cf	-0.0005458267
227	0x3d378b8e	0.044810824
228	0x3d51189c	0.05104886
229	0xbdd1c7e1	-0.10243202
230	0xbb030f1b	-0.0019998017
231	0x3d7aca18	0.061227888
232	0x3ba968c1	0.0051699583
233	0x3df19a68	0.11797029
234	0x3bcab7c0	0.0061864555
235	0xbd004fb4	-0.03132601
236	0xbd5d49de	-0.054025523
237	0xbdcfb8fc	-0.10142705
238	0x3ccaaa63	0.02473945
239	0xbd827641	-0.063702114
240	0xbdcabd17	-0.09899347
241	0x3dac7928	0.08421546
242	0xbba35b84	-0.0049852747
243	0x3de17fc0	0.110106945
244	0x3d6b7744	0.057486787
245	0xbe0f6ea0	-0.14007044
246	0xbdfd6b33	-0.12373962
247	0xbdb5e838	-0.08882183
248	0xbd9156e5	-0.07096652
249	0xbd5705a2	-0.052495606
250	0xbdee63a0	-0.11640096
251	0x3d290bf9	0.041271184
252	0x3d6a896e	0.05725997
253	0xbc276730	-0.010217473
254	0xbdc64469	-0.09681017
255	0x3dc13bcc	0.094352335

fc2.bias f4 [64]
0	0xbd8a2c9e	-0.06746791
1	0x3f838d6d	1.0277535
2	0xbe85d68f	-0.26140258
3	0xbe071563	-0.13191752
4	0x3d71eddd	0.059064735
5	0x3fe3f09e	1.7807806
6	0xbdd0937b	-0.1018438
7	0x3fda336e	1.7046945
8	0x3d2036e7	0.03911486
9	0xbdaaf9ae	-0.08348404
10	0x3dd37b66	0.10326271
11	0x3da79d16	0.08184259
12	0x3ff6e8dd	1.9289814
13	0x3df7ee20	0.121059656
14	0x3fcf8b33	1.6214355
15	0x4005b200	2.0889893
16	0xbdedba02	-0.11607744
17	0xbaa3ccdb	-0.0012496965
18	0x3fffc315	1.9981409
19	0x3fc10faf	1.5082911
20	0x3ff55099	1.9165221
21	0x3fa2cc9a	1.271869
22	0xbd9f6838	-0.0778355
23	0xbd08567b	-0.0332856
24	0xbd265f8c	-0.040618464
25	0x3fc2b0cb	1.5210203
26	0xbd98d6a2	-0.07462813
27	0x3e3c7db7	0.18407331
28	0x3fe01021	1.7504922
29	0xbb9b2639	-0.004734781
30	0xbdc8fcf6	-0.098138735
31	0x3fe17683	1.7614292
32	0x3d6925f8	0.056920975
33	0xbdc250a9	-0.09488041
34	0xbe0a7618	-0.13521612
35	0x3e8514d5	0.25992456
36	0xbd9f125c	-0.07767174
37	0xbc729ce3	-0.0148079125
38	0x3d3f06a4	0.046637192
39	0xbdc7dcea	-0.09758933
40	0xbd186e22	-0.037214406
41	0x3fa1ca3d	1.2639843
42	0xbfb20361	-1.3907281
43	0x3ff34caf	1.9007777
44	0xbf2fbedf	-0.6865062
45	0x3ccab278	0.024743304
46	0x3fa9bc82	1.3260653
47	0x3fe7290e	1.8059404
48	0x3da78806	0.08180241
49	0x3fd76fae	1.6830957
50	0xbf3dc0b1	-0.7412215
51	0x3f840f4a	1.0317166
52	0x3fdc5261	1.721264
53	0x3d6d67f6	0.057960473
54	0x3d130953	0.035897564
55	0x3dd7425c	0.10510704
56	0x3a8782ae	0.0010338628
57	0xbeed21ab	-0.4631475
58	0x3feafc19	1.8358184
59	0x3f9b1aad	1.2117516
60	0x3f85c2f3	1.0450119
61	0x3f695457	0.9114432
62	0x3ff1e9bb	1.8899454
63	0x3fbe94d5	1.488917

fc_A.weight f4 [20, 64]
0	0x3ccc7930	0.02496013
1	0xbf1708a2	-0.5899755
2	0x3e385db9	0.18004502
3	0x3db39ee6	0.08770542
4	0x3d9cdd98	0.07659453
5	0x3f7531d8	0.9577918
6	0xbd8414a5	-0.0644925
7	0x3f142f2b	0.5788447
8	0x3db5f0cc	0.08883819
9	0xbe918f04	-0.28429425
10	0xbdc95ef8	-0.09832567
11	0x3eae3c88	0.34030557
12	0x3e720ca9	0.23637642
13	0x3dfd2553	0.12360635
14	0x3e52acfa	0.20573798
15	0xbf9d1b9d	-1.2274052
16	0xbdb763c9	-0.089545794
17	0xbd998046	-0.07495169
18	0x3e976a13	0.29573116
19	0x3e617af8	0.22019565
20	0x3e72f6f9	0.23727025
21	0x3dd27606	0.102764174
22	0x3df9f447	0.12204795
23	0x3e1736e3	0.14767031
24	0xbdb8345c	-0.08994362
25	0x3e585975	0.21127875
26	0x3c7b6737	0.015344433
27	0x3d9d675f	0.07685732
28	0x3ea67c58	0.32516742
29	0x3e5ccc98	0.21562421
30	0xbd89215c	-0.06695816
31	0xbf536b64	-0.8258574
32	0x3e40e080	0.1883564
33	0xbd676b6e	-0.056498937
34	0x3d52fea3	0.05151237
35	0x3d10073b	0.035163146
36	0xbd995b16	-0.074880764
37	0x3d5585c8	0.052129537
38	0xbdcaa987	-0.09895616
39	0xbdf31080	-0.118683815
40	0x3a634edd	0.00086711143
41	0xbcc09bf4	-0.023511864
42	0xbe716bd5	-0.23576291
43	0x3e352b72	0.17692354
44	0xbdc6a886	-0.09700112
45	0xbddea012	-0.10870375
46	0x3e062a42	0.13102058
47	0x3e382dbb	0.17986195
48	0xbd91dbb0	-0.0712198
49	0x3e86051c	0.26175773
50	0xbde54df4	-0.11196509
51	0x3e7c23ad	0.24622984
52	0x3e3c7c33	0.18406753
53	0xbd281069	-0.041031275
54	0x3d2c66f8	0.042090386
55	0x3aeef3c5	0.0018230608
56	0x3d145de3	0.03622235
57	0x3e77cfb5	0.24200328
58	0x3eb85da7	0.3600895
59	0xbfafb4af	-1.3727015
60	0x3fac4cfe	1.3460996
61	0x3e1e3c69	0.15452732
62	0x3e7ae9bd	0.24503227
63	0xbd0d771e	-0.034537427
64	0xbded8385	-0.11597351
65	0xbe5fe04e	-0.21862909
66	0x3e73dda2	0.23815015
67	0x3d2b3c3d	0.041805495
68	0xbdbe2ad2	-0.09285511
69	0x3e9448f1	0.289619
70	0x3df91e8d	0.1216403
71	0x3e655efb	0.22399513
72	0x3c386fab	0.0112570925
73	0x3d11f069	0.035629664
74	0xbd1baccf	-0.0380066
75	0x3df0be5a	0.11755057
76	0x3e558e94	0.2085517
77	0xbe09f35b	-0.13471739
78	0xbbbb2a99	-0.005711865
79	0xbe436f44	-0.19085413
80	0xbd690bb5	-0.05689593
81	0x3c85ca45	0.016331801
82	0x3e8c4271	0.2739444
83	0x3e045a6a	0.12925115
84	0x3e590bd1	0.21195914
85	0xbd99600b	-0.07489022
86	0x3d9f396d	0.07774625
87	0xbd9edd48	-0.0775705
88	0xbc4bee20	-0.01244691
89	0x3e45a72e	0.19302055
90	0x3cbcbddc	0.02303975
91	0x3e0ae609	0.13564314
92	0x3dd82aa4	0.10555008
93	0x3e3b9659	0.18319072
94	0x3db33316	0.08749978
95	0xbede0228	-0.4336102
96	0x3e3dfe27	0.18553983
97	0x3dac57ad	0.0841516
98	0x3d8cb835	0.06871072
99	0xbd091662	-0.03346861
100	0xbd0c76a8	-0.034292847
101	0x3db0114e	0.085970506
102	0xbdc7ce00	-0.09756088
103	0x3d09abe4	0.033611193
104	0xbdacfaed	-0.08446298
105	0x3e22e16f	0.15906309
106	0xbb28d7bc	-0.0025763353
107	0x3dc22b6c	0.09480938
108	0x3ec6b424	0.3880931
109	0xbd4f25fb	-0.05057333
110	0x3e489c15	0.1959079
111	0x3e2409e7	0.16019402
112	0xbdbdf74e	-0.09275685
113	0x3d19b6fd	0.037528027
114	0x3d5051b2	0.05085916
115	0x3e474c51	0.19462706
116	0x3de92377	0.113837175
117	0xbdcb0ad4	-0.09914175
118	0x3c21c97d	0.009874699
119	0x3df1a824	0.117996484
120	0xbe0fbed4	-0.14037639
121	0x3e12a444	0.14320475
122	0xbe2ea59a	-0.1705536
123	0xbee6cae9	-0.45076683
124	0x3f1476d1	0.579938
125	0x3e31052a	0.17287126
126	0x3e4b0966	0.19827804
127	0x3c8129b6	0.01576696
128	0x3d2a1080	0.041519642
129	0xbebf0896	-0.37311238
130	0x3e5e3739	0.21700753
131	0xbb564bab	-0.003269891
132	0x3bb27308	0.0054458417
133	0x3ccac2f7	0.02475117
134	0xbd7b2c5a	-0.061321594
135	0x3e08c540	0.13356495
136	0x3d6b58e7	0.05745783
137	0xbde511e0	-0.1118505
138	0xbd933bea	-0.07189162
139	0x3cd38633	0.025820827
140	0x3e34da38	0.17661369
141	0x3dbcf8b8	0.09227127
142	0x3ce7d3b2	0.028299186
143	0x3defc9bc	0.117084
144	0xbdd0f814	-0.10203567
145	0x3d9682d9	0.07349176
146	0x3e095dd5	0.134147
147	0x3ce392e2	0.02778
148	0x3df076da	0.11741419
149	0xbd05a3f3	-0.032627057
150	0x3d843746	0.06455855
151	0xbd389994	-0.04506834
152	0x3de6d877	0.11271756
153	0x3e8b92b7	0.27260372
154	0x3d66ab4f	0.056315716
155	0x3e6bfbaa	0.23045221
156	0xbd2ade39	-0.041715834
157	0x3e1142d8	0.14185655
158	0x3dc576a4	0.096417695
159	0xbebe7572	-0.3719898
160	0x3e7ac8de	0.24490687
161	0xbd1db3ac	-0.038501427
162	0x3d93ea5a	0.072224334
163	0xbc276e3c	-0.010219153
164	0xbd8822d4	-0.06647268
165	0x3df47d28	0.11937934
166	0x3d184248	0.037172586
167	0xb9a4e800	-0.0003145337
168	0xbc3cb643	-0.011518064
169	0x3e128b4d	0.14310952
170	0xbc92b2ed	-0.017907584
171	0x3d2d5c6a	0.04232446
172	0x3c26f837	0.010191015
173	0x3d8e7e18	0.06957644
174	0x3e9c81aa	0.30567676
175	0x3e3d981a	0.18515053
176	0x3c89aa34	0.016804792
177	0x3d803dca	0.06261785
178	0xbbd95357	-0.0066322493
179	0x3eb555ce	0.35417026
180	0x3e52d0e2	0.20587495
181	0x3e0dd3be	0.13850304
182	0xbdea0147	-0.11426025
183	0x3decde0d	0.1156579
184	0x3cdcfcce	0.026976015
185	0x3e1b95b0	0.1519382
186	0x3cb729f2	0.022358868
187	0xbe93d1fe	-0.2887115
188	0x3f2458bb	0.6419789
189	0x3dfeddc9	0.12444646
190	0x3d8f1778	0.06986898
191	0x3dc58b43	0.09645703
192	0x3d16a9d0	0.03678304
193	0xbe4777e3	-0.19479327
194	0x3d499bb1	0.049220745
195	0xbdeaa926	-0.11458044
196	0xbd10282f	-0.035194572
197	0xbd1e77b9	-0.038688395
198	0xbd0dc0e6	-0.03460779
199	0x3e6392d4	0.22223979
200	0xbd8a51ab	-0.06753858
201	0xbd552e8a	-0.052046336
202	0x3ce85bd8	0.028364107
203	0x3e0ecfe7	0.13946496
204	0x3df1e421	0.1181109
205	0x3d4b4c08	0.049633056
206	0x3dd8859d	0.1057236
207	0x3d0c0c60	0.03419149
208	0x3dd43986	0.10362534
209	0x3cc4242f	0.023943035
210	0x3e83bb49	0.25728825
211	0xbd890ea4	-0.066922456
212	0x3e262152	0.16223648
213	0x3debd6b9	0.115155645
214	0x3ce577e1	0.028011264
215	0x3c9f1427	0.01941879
216	0x3dc0128f	0.0937854
217	0x3eaa2cf3	0.3323742
218	0xbd0179d1	-0.031610314
219	0x3dcfd889	0.10148723
220	0x3d73958a	0.059468783
221	0x3e1fd466	0.15608367
222	0xbdcec453	-0.100960396
223	0xbe237685	-0.1596318
224	0x3e5bddb5	0.21471293
225	0x3dfffa1a	0.12498875
226	0x3db4d22b	0.08829149
227	0xbdaf4fda	-0.08560152
228	0xbdfba2ac	-0.122868866
229	0x3d71f338	0.059069842
230	0x3bc46840	0.005993873
231	0xbd2b9aa4	-0.041895524
232	0xbb85a97a	-0.004079041
233	0xbd8fbfe0	-0.07019019
234	0x3d38e5c4	0.045140997
235	0xbd349ef7	-0.044096913
236	0xbdaba111	-0.0838033
237	0x3de37f38	0.111082494
238	0x3e209527	0.15681897
239	0x3e083e1a	0.1330494
240	0xbd4181f4	-0.047243074
241	0xbc67bc65	-0.014144038
242	0x3e2b650a	0.16737762
243	0x3e2e6e97	0.17034374
244	0x3dc0043b	0.09375807
245	0x3d58223e	0.05276703
246	0x3d7d37cb	0.061820786
247	0x3dffeb65	0.1249607
248	0xbd84d7c6	-0.06486468
249	0x3e1a15ed	0.15047427
250	0xbda3f963	-0.08006551
251	0xbeb4f778	-0.35345054
252	0x3f3639ed	0.7118214
253	0x3e5b1a47	0.21396743
254	0x3dbb043a	0.091316655
255	0x3e0d8275	0.13819297

fc_A.bias f4 [20]
0	0x3f9bc568	1.2169619
1	0x3ef6680e	0.48126262
2	0x3e9b402c	0.30322397
3	0x3e87158e	0.26383632
4	0x3eb5bdbd	0.3549632
5	0x3e8fa05a	0.28052026
6	0xbd8aaa17	-0.06770723
7	0xbcdae6c6	-0.02672137
8	0xbce04f5f	-0.027381597
9	0xbd9fcd0f	-0.07802784
10	0xbe16778f	-0.14694045
11	0xbeafb9c6	-0.3432142
12	0xbee58ba1	-0.4483309
13	0xbecab972	-0.3959461
14	0xbe9fa43f	-0.31179997
15	0xbefa8de0	-0.48936367
16	0xbf0635bb	-0.52425736
17	0xbf2e0120	-0.67970467
18	0xbf16efbd	-0.5895956
19	0xbf5cfab9	-0.8632007

fc_V.weight f4 [1, 64]
0	0x3da675a2	0.081279054
1	0xbf171ec6	-0.5903133
2	0xbe72f010	-0.23724389
3	0xbcb2c1b8	-0.021820888
4	0x3d7fe274	0.062471822
5	0xbfe5542a	-1.791631
6	0x3db411fd	0.087924935
7	0x3f049f58	0.5180564
8	0x3d7591f9	0.059953663
9	0xbe3f811a	-0.18701592
10	0x3d354a5a	0.04426036
11	0xbe249b44	-0.16074854
12	0x3ed7a497	0.4211776
13	0x3db06649	0.08613259
14	0x3f5f2656	0.8716787
15	0xbfbe110a	-1.484895
16	0x3d0b164c	0.03395681
17	0x3d52c768	0.0514597
18	0x3f058a85	0.5216449
19	0x3f68f9a6	0.91005933
20	0x3eca418e	0.3950314
21	0x3f25b633	0.6473114
22	0xbdd40151	-0.103518136
23	0x3da127c6	0.07868914
24	0xbd1d88e8	-0.038460642
25	0x3eb9fdfd	0.3632659
26	0x3d2cd707	0.042197254
27	0xbdd327a3	-0.103102945
28	0x3f1e77ea	0.61901724
29	0xbe566566	-0.20937118
30	0x3dc4b9fa	0.09605785
31	0xbf983e33	-1.1893982
32	0xbe2d134e	-0.16901895
33	0x3cdeff58	0.027221367
34	0xbc868b5e	-0.016423877
35	0x3cf9f29a	0.03051119
36	0x3c1932e0	0.009350508
37	0x3d387e28	0.045042187
38	0x3de8bcd9	0.11364145
39	0x3bfe88a0	0.007767752
40	0x3b8047b8	0.0039147995
41	0x3eaf9816	0.3429572
42	0xbf19562b	-0.59897107
43	0x3ed5a4b7	0.4172723
44	0xbe56fddd	-0.20995279
45	0xbdc4b448	-0.096046984
46	0x3e100e0d	0.1406786
47	0x3e9e20c5	0.30884376
48	0x3d31fe20	0.043455243
49	0x3ea6d0b2	0.32581097
50	0xbed652cd	-0.41860047
51	0x3cceb666	0.025233459
52	0x3e6d3177	0.231634
53	0xbd42d22e	-0.047563724
54	0x3cc0af5e	0.023521122
55	0x3d8b2db3	0.06795826
56	0x3ced2195	0.028946677
57	0xbe9ad677	-0.3024175
58	0x3f67b843	0.90515536
59	0xbea4ffbb	-0.32226357
60	0xbed567cc	-0.41680753
61	0xbcf7c39e	-0.030244645
62	0x3e9d1188	0.30677438
63	0x3f2a3862	0.66492283
