beergame/double_dueling_dqn/models/dqn_agent_firm_1_episode_2000.pth (torch, 105254 bytes, 28 tensors)

fc1.weight f4 [64, 3]
00000000: 662d 13bf 38c9 fdbd 26f0 a4be 48e1 013d
00000010: 5a86 f13d 2109 c33b 05df 0cbf 0ba6 98be
00000020: f840 ae3e aafb 863e 65b6 103e 7994 5abe
00000030: ec48 a8be efe8 c0bc 6dcd a03d 7bab 243e
00000040: 5372 a23e b5c7 4c3b b61d 193e 0e5a a83e
00000050: 9265 a5bc 0d10 013f bdcf 3d3e 4178 36be
00000060: a088 9b3e cbd0 03be 4f09 963c e03b 74bd
00000070: 7665 fdbe 4673 68be 0ca6 4cbe b5a7 413e
00000080: 9440 973d ac73 fa3d 17b9 57bf 6717 1bbd
00000090: c855 b73e caf8 e0be 3ba9 d63d a0c6 163f
000000a0: 3a05 343f ed2c 853d a4b7 423e d339 643d
000000b0: 236b 0a3c c2b3 25be 5519 babd dc6e ffbd
000000c0: f098 a6be 95fd 95be e873 09bf b10d 95be
000000d0: 1a41 0fbf 602e 9ebd 2cd2 bc3d 9557 bbbe
000000e0: 3ffd b73d f458 53be 10d9 fb3e 3457 653e
000000f0: 63f5 b83d f001 843e b773 e9bd b0f4 edbd
00000100: 12a8 3bbe f056 b6be 82aa c53e 0060 bdb8
00000110: 2e82 08bf 9239 de3d 5e8d 823c b423 86be
00000120: 30bf fb3d 9ccc b2be dfed f6be 1648 8e3e
00000130: 4b77 1d3f cdb6 90bd 7ab9 4abe c838 d93e
00000140: b35a ecbd 25e1 72be f8e5 8b3e 724c 9f3e
00000150: 31cd 3dbe 2c9f 3fbf bfd6 9d3d 2ead 5cbd
00000160: 558e af3e 8bd9 fa3c efd3 32be 8927 c7be
00000170: 7b10 8b3d acd1 ccbe 4e7e 473d d0de 6b3d
00000180: 30d4 f6be a085 48bd 4f23 e5be fb93 0d3f
00000190: 92c5 0cbf a97c 703e cea4 0d3f a216 27be
000001a0: bd20 2d3d 6039 52bf 6c02 11bf 9005 653d
000001b0: 404f 843d f858 cbbd 0a39 53be c4a1 dcbd
000001c0: 2092 60bd 3f74 13bd 4ba7 24bf 2c07 4abf
000001d0: c3cb 313d aaf1 b9be 4035 503c 8c34 f1be
000001e0: 5532 76bd fd42 3dbe dcff 8bbb 2858 013e
000001f0: a748 edbe b698 c3be 6c42 9c3e 3d91 97be
00000200: 72e5 8ebe bc7f d13e 3eae 2bbf b413 6abe
00000210: 50a7 3c3e 4ddc c13e 8d75 9d3e c67d 71be
00000220: aaf1 863d 8a45 85bd 97aa 9a3c 8806 9c3d
00000230: d765 5bbd 3c07 5dbe 9a88 b13e 22a6 183d
00000240: 98eb 9abe ccd4 273f 8bd7 933d 0e56 813e
00000250: 48b8 eebe 8dbb b4be cfb3 8fbf 19e4 6c3e
00000260: c517 353c c215 64be 8370 f2be 3f76 dfbe
00000270: 186e e7be e6a9 dbbe d0be b3bd 4f5c bcbe
00000280: c7fa 973e ee6b 9fbe 6760 273e 7167 dfbe
00000290: ceda e73d 5f33 b7be 4f97 95bd b057 9abd
000002a0: 702f 39bf 8c5d a23e c6dc a8bc 6aa2 843e
000002b0: 4af9 c7be b90c 0abf 1207 6bbe 282a a23e
000002c0: 7199 80be 52ed 14bf 034d 55bf 3662 d73d
000002d0: 5eea bdbd 11aa dfbe ff54 d6bc 10bd b43d
000002e0: 96c2 01be 0820 e2be 7bdc cb3e 9a18 c7bc
000002f0: aff0 163e 1da3 c53d eab8 53be 2589 33bd
-0.5749115 -0.12391895 -0.3221447 0.031708986 0.11793204 0.005952016 -0.550278 -0.2981418
0.34033942 0.2636388 0.14132078 -0.213457 -0.32868135 -0.023548571 0.07851682 0.1608104
0.31727847 0.0031246964 0.1495274 0.32881206 -0.020190034 0.50415117 0.18536277 -0.1781931
0.30377674 -0.12872617 0.018314986 -0.059627414 -0.4949147 -0.22700223 -0.19985217 0.18911631
0.07385364 0.12229094 -0.842668 -0.037864115 0.35807633 -0.4393981 0.10481497 0.5889683
0.70320475 0.065027095 0.19015366 0.055719208 0.008448395 -0.16181853 -0.09086863 -0.124723166
-0.32538557 -0.2929503 -0.53692484 -0.29112008 -0.5595871 -0.07723689 0.092197746 -0.36590257
0.0898385 -0.20639402 0.49189043 0.22396547 0.09031179 0.25782728 -0.11399024 -0.11618936
-0.18325832 -0.35613203 0.3860665 -9.030104e-05 -0.5332364 0.108508244 0.01593655 -0.26199114
0.122923255 -0.3492173 -0.48228356 0.27789372 0.6151015 -0.070661165 -0.19797316 0.42426133
-0.11540737 -0.23718698 0.2732389 0.3111301 -0.18535306 -0.7485225 0.07706975 -0.053876095
0.34288278 0.03062131 -0.17463659 -0.3889735 0.06790253 -0.40003717 0.048704438 0.057585537
-0.4820876 -0.04895556 -0.447535 0.55303925 -0.5498897 0.23485054 0.55329597 -0.16317227
0.04226755 -0.821188 -0.5664432 0.055913508 0.06460428 -0.09929079 -0.20627227 -0.10773042
-0.054826856 -0.035999533 -0.6431777 -0.78917193 0.043407213 -0.36317188 0.012708008 -0.47110403
-0.060106594 -0.18482585 -0.004272444 0.12631285 -0.46344492 -0.38202447 0.30519426 -0.29602996
-0.27909428 0.40917766 -0.6706275 -0.22859079 0.184232 0.3786339 0.30753747 -0.23583135
0.065890625 -0.06507404 0.018880172 0.07618433 -0.05356392 -0.21584791 0.3467453 0.03726781
-0.3025787 0.6555908 0.07218846 0.25260967 -0.4662497 -0.3529934 -1.1226748 0.23133887
0.01105303 -0.22273925 -0.47351465 -0.43644902 -0.45201182 -0.4290306 -0.08776629 -0.36789176
0.29683515 -0.3113703 0.16345368 -0.43633607 0.113210306 -0.3578138 -0.073042504 -0.07536256
-0.7233801 0.31711996 -0.020613085 0.25905162 -0.3905738 -0.53925663 -0.22951916 0.31672788
-0.25117067 -0.5817462 -0.83320636 0.10516779 -0.092732176 -0.43684438 -0.026163576 0.08825123
-0.12671885 -0.44165063 0.3981665 -0.024303723 0.14740251 0.09650252 -0.20676008 -0.043831963

fc1.bias f4 [64]
00000000: 1780 96be e177 7040 24e3 41c0 33fe 1940
00000010: 5275 7e40 2835 4840 280a c23f afd2 0940
00000020: 4bf5 0240 7c8d ff3e dab0 6340 2123 49bf
00000030: a784 6c40 3c1d 11c0 1db1 3b40 ef55 0140
00000040: 7c38 cf3e b07f c93d 845d 00c0 cb6c f3bf
00000050: 6216 4640 2ede 933e 340f e2bd 21b4 2b40
00000060: 5634 cc3e b7f5 213e 5d52 3940 3799 b5bf
00000070: db27 8e3f 616d a5bf 0e4f 0c40 81f1 7240
00000080: 885c 993e d28d 09c0 2baf 2140 4023 e5bf
00000090: fa4c 05bf 7020 1a40 8966 bf3e 496b a3be
000000a0: 1d1a 5740 8837 7ebe 9c8a c7be b10c 643e
000000b0: 438a 21c0 e91b 5b40 6b24 4140 cfbf 6240
000000c0: 06c7 2bc0 9a82 bd3e d7be 06c0 a011 303e
000000d0: 0f0f dbbe a205 093f b646 22c0 6b39 ec3f
000000e0: a087 5040 f51a 13bf d1fd 1340 71ce a0bf
000000f0: b390 0b40 e831 c1be 7cac c0bf 5284 433f
-0.293946 3.7573168 -3.0294886 2.40614 3.9759107 3.1282444 1.515935 2.153484
2.0462215 0.49912632 3.5576692 -0.7856923 3.6955965 -2.2674093 2.9326851 2.02087
0.40472782 0.098388076 -2.0057077 -1.9017576 3.0951161 0.28880447 -0.11038056 2.6828692
0.3988368 0.15816389 2.895652 -1.4187382 1.1105913 -1.2924005 2.192325 3.7959902
0.29953408 -2.149281 2.5263164 -1.7901382 -0.5207058 2.4082298 0.37382916 -0.3191779
3.3609688 -0.24825871 -0.38972938 0.22270466 -2.5240638 3.4235785 3.0178478 3.542957
-2.6840224 0.37013704 -2.105398 0.17194223 -0.42784926 0.5352422 -2.5355659 1.8455023
3.258278 -0.5746301 2.3123667 -1.2563001 2.1807067 -0.37733388 -1.5052638 0.7637378

fc2.weight f4 [64, 64]
00000000: 307a 03bc 000c 20b9 18c3 d43d 2042 2ebd
00000010: f2ed bc3d fc96 ebbd 6479 7d3d 604e 993d
00000020: b0b4 61bd 808a a1ba 00ee a23a 1628 fa3d
00000030: 9064 b83c 706f 053c 5458 dcbd 36f7 f43d
00000040: ec97 d1bd 3823 a93c 9678 8d3d 2446 a6bd
00000050: 7454 d83d 00cb 86bb b063 ba3d 68a2 aabd
00000060: c076 23bc ee1e 8cbd a49d 103d facd cfbd
00000070: 8057 893a 809b 693d 686b 5abd d0b8 ec3d
00000080: 9428 2e3d 20e1 653c 7cff b43d 829b 80bd
00000090: 60cc 373c 9a63 fdbd a884 fbbd 7849 af3d
000000a0: d8a0 5fbd bc09 72bd ec83 3ebd 9e17 e03d
000000b0: 8054 98bd 9431 a6bd e00e 603c bc52 afbd
000000c0: 7ec5 e1bd 6013 f83d c47c 713d 8016 d2bb
000000d0: fe06 e4bd 3ef5 d43d a0a8 483c c43b 45bd
000000e0: 9086 94bd 68e1 f13c ecb6 2a3d c8fb d2bd
000000f0: 92bf 953d 3840 f73c 4417 f0bd e43c 473d
00000100: 8444 ab3d 192c c73e 5492 c3be d8d9 df3e
00000110: 390e 813f b94a ad3d 212a 44be f3f6 913d
00000120: 3830 403d 0012 7a3d f26a 823e 0b7d 1bbe
00000130: 534e 423e 6679 05bf 03c5 333e 3e53 dc3d
00000140: 3208 fd3d 4450 d7bd 586b febe 4c77 03bf
00000150: 1817 b63d 50e4 a13c 188f dabd dae6 c93e
00000160: e055 0cbc 622c 62be a508 aebe 8b31 97be
00000170: 9b57 1c3f 682e 88be 3eec b23d 6ec8 243f
00000180: 7c70 cc3d fc14 4fbe cbdd 643e 066e 003e
00000190: 2022 95bb 9f0c d4bd cbba 613e d4de b6bd
000001a0: 95ea b73e 2e66 89bd deef be3d e4aa 52be
000001b0: b99b febe 58cb 303e 8ea5 5d3f 1796 883e
000001c0: dc41 d5be 0004 7939 eee7 7dbe 000a fcba
000001d0: f819 c43d 167f ecbd f5cd aabe 1f0f 263e
000001e0: a6c0 2f3e a692 b03d 151b 98be 5014 f73e
000001f0: 886d 303f 40e6 3bbd 99ab 1bbe 4deb 813e
00000200: f256 d7bd 8902 04bf 0828 8d3c 8534 7b3e
00000210: 2ed7 01bf 6a91 99bd aa01 39be edef cbbe
00000220: 4acb e7bd 68f9 4a3d 0c98 b3be 1862 23be
00000230: e4e5 b4be f432 7c3e 1ee0 94be 08d3 19bf
00000240: 8057 a6bc 10f9 f9bd 20e9 4bbd d402 613e
00000250: b545 36bf 58b7 9fbc b09a 3b3c 7e5a 633f
00000260: d85f 35bd 2e41 22be 2d8d bdbe 83b3 743d
00000270: 5b79 3ebf 37e4 e83d 3f6b 7cbe 8198 08bf
00000280: becf e8bd 2473 0e3e b185 0dbe 4875 b2bc
00000290: 1043 6c3d 44f7 97be bd4c 9abe e00e 03bd
000002a0: 9de2 0abf 989a 03bd 005c 3f3a aaf6 d0be
000002b0: 38c8 c13d 02e6 90be 7cb1 21bf 9e98 babe
000002c0: fe9a 2d3e a08c a8bb e1ac f93d da62 983d
000002d0: 08d3 a5bc 5238 73bd 0c0c e73c 0fa8 5abe
000002e0: b88d b1be bc1e 323d 8c52 a93e 6ca9 a0bd
000002f0: f8ca e9be 8822 083d 8d19 523e 7c3e 3cbe
00000300: 9e11 dfbd 0b1a 3a3d 435e 713d f255 5abd
00000310: dc08 e7bc df03 0bbc 90bc e73c 5a97 aabd
00000320: 3df0 30bd 6c0a 98bd fe87 8bbd bee1 9bbd
00000330: 5873 883d 316a 75bd 5f75 9abd c304 b1bd
00000340: 4044 45bd 280d 92bc c904 efbd 68b2 13bd
00000350: ad72 4bbd d0f3 553c 2e14 e43d e863 893c
00000360: 90e6 3cbc ed6b fb3c 5c06 e4bb 5a54 c1bd
00000370: d5e0 e7bd 1a8c e0bc a245 843d 2c44 3fbd
00000380: 760a ac3d 16f8 4a3d d1f4 a4ba a359 373d
00000390: 9c18 513d 5855 d3bd da3a 07bb 18ca 7a3d
000003a0: d5ed a23b 469a f13d c0b7 ca3b 2e00 03bd
000003b0: d681 5dbd e650 d1bd 60d1 c33c 322c 84bd
000003c0: 93d5 cabd 2879 ac3d c5ec a4bb c07f e13d
000003d0: 4477 6b3d 9078 0fbe 0383 fdbd 3538 b6bd
000003e0: 5b0c 93bd 8405 57bd a063 eebd cdcf 283d
000003f0: 4227 6a3d 3067 27bc 566e c6bd a9e7 c03d
-0.008024737 -0.0001526326 0.10388774 -0.04254353 0.09225072 -0.11503407 0.061883345 0.07485652
-0.055103958 -0.0012324601 0.0012430549 0.12214677 0.02250889 0.008144245 -0.10759035 0.11961214
-0.10234055 0.020646676 0.069077656 -0.08118847 0.10562983 -0.004113555 0.09101045 -0.08331758
-0.009977043 -0.06841837 0.035306588 -0.10146709 0.0010478348 0.057033062 -0.053325087 0.11558688
0.042519167 0.014030725 0.08837792 -0.06279661 0.01121816 -0.12372513 -0.122811615 0.08558935
-0.054596752 -0.059091315 -0.04651253 0.109420046 -0.07437992 -0.08114925 0.0136754215 -0.08560702
-0.11023997 0.121130705 0.058956876 -0.0064113736 -0.11134146 0.10398339 0.012247235 -0.0481527
-0.07252228 0.029526427 0.041678354 -0.1030193 0.0731193 0.03018199 -0.117231876 0.048642054
0.08362678 0.3890083 -0.38197577 0.4372089 1.0082465 0.08461518 -0.19156696 0.0712718
0.046920985 0.061052322 0.25472218 -0.15184419 0.18975191 -0.52138364 0.17555623 0.10758065
0.12355079 -0.10513356 -0.49691272 -0.5135391 0.088911235 0.019762188 -0.10671824 0.39433938
-0.008565396 -0.22087243 -0.3399097 -0.29529986 0.61071175 -0.26597905 0.08736466 0.6436833
0.09982392 -0.20222849 0.22350232 0.1254197 -0.004551187 -0.1035397 0.22043912 -0.0892922
0.3592116 -0.06708942 0.09323095 -0.20573002 -0.49728182 0.1726507 0.8658074 0.2667701
-0.4165181 0.0002374798 -0.24795505 -0.0019229054 0.09575266 -0.11547677 -0.33360258 0.16216706
0.17163333 0.08621721 -0.29708162 0.48257685 0.6891713 -0.04587388 -0.15202178 0.25374833
-0.105146304 -0.5156637 0.017231002 0.24531753 -0.50718963 -0.07498439 -0.18067041 -0.39831486
-0.11318071 0.04955426 -0.3507694 -0.15955389 -0.35331643 0.24628812 -0.29077238 -0.60087633
-0.020305395 -0.12205708 -0.049782872 0.21973735 -0.71200114 -0.019496605 0.011450455 0.88809955
-0.044280857 -0.15845177 -0.3702177 0.05974151 -0.74403924 0.113716535 -0.24650286 -0.533577
-0.11367749 0.1391111 -0.1382053 -0.02178444 0.057681143 -0.29680836 -0.30136672 -0.031996608
-0.54252034 -0.032129854 0.0007299781 -0.4081319 0.09462017 -0.28300482 -0.63161445 -0.36444563
0.16953656 -0.005143717 0.12191177 0.074407294 -0.02024223 -0.059379883 0.028203987 -0.21353172
-0.34678435 0.04348634 0.3307079 -0.07844815 -0.45662665 0.033236057 0.2051756 -0.18383211
-0.10892032 0.045434993 0.058927786 -0.05330462 -0.028202467 -0.00848481 0.028288156 -0.08329649
-0.04319786 -0.07423863 -0.06813048 -0.07611416 0.06662625 -0.059915725 -0.07541918 -0.08643486
-0.04816079 -0.017828539 -0.116708346 -0.036058813 -0.04966991 0.013058618 0.111366615 0.016771272
-0.01152958 0.030691111 -0.006958766 -0.09439917 -0.1132218 -0.027410556 0.06458594 -0.046695873
0.08400433 0.049553 -0.0012585168 0.04476322 0.05104886 -0.103190124 -0.0020634443 0.061227888
0.0049721994 0.117970034 0.0061864555 -0.031982593 -0.0540789 -0.10220508 0.023903549 -0.06453742
-0.09904017 0.08421546 -0.005033108 0.110106945 0.057486787 -0.14010835 -0.12378504 -0.088974394
-0.07180091 -0.052495494 -0.11640096 0.0412138 0.057166345 -0.010217473 -0.09689014 0.09419186

fc2.bias f4 [64]
00000000: 9e2c 8abd 25d8 803f 9cd6 05bf 99d2 07be
00000010: 75d1 713d e10d f43f 1910 d1bd fca3 fd3f
00000020: cd96 1e3d 981d 95be 4f67 d33d b8e6 4c3e
00000030: 0645 0a40 811e f83d 502d f13f 0ff9 0640
00000040: be89 fbbd c992 40bb 5f85 0f40 e6be d53f
00000050: 8d22 0940 902d c13f 0c60 9fbd f350 0ebd
00000060: 8c5f 26bd af1e e13f 3f5f a8bd 6706 b23d
00000070: 3685 0040 3b9a 02be f6fc c8bd 41c9 e63f
00000080: 8115 3fbd 020d c4bd bf58 27be f353 853e
00000090: 5c12 9fbd 7f76 b5bc a406 3f3d eadc c7bd
000000a0: a500 19bd 5d85 bc3f 2090 d6bf 30dd 0740
000000b0: ff97 55bf 78b2 ca3c 7b21 b53f 847d 0040
000000c0: 1de2 a53d 7bb9 f33f a40a 75bf 107d 833f
000000d0: c5a2 f43f 713b 593d fb14 113d 2d1f 963d
000000e0: 1996 503b 15a8 2ebf 6101 0140 0236 893f
000000f0: 7b91 9d3f 5b1e 673f aeed 0640 82e1 da3f
-0.06746791 1.0065962 -0.5228059 -0.1326393 0.059037644 1.9066736 -0.102081485 1.9815669
0.038718034 -0.2912414 0.10322439 0.20009887 2.1604629 0.12115193 1.8841953 2.1089513
-0.122821316 -0.0029384366 2.2425153 1.6698883 2.1427338 1.509203 -0.07781991 -0.034745168
-0.040618464 1.7587489 -0.08221292 0.086926274 2.0081306 -0.12754147 -0.098138735 1.8030168
-0.046651367 -0.095727935 -0.16342448 0.2604061 -0.07767174 -0.02215123 0.046637192 -0.09758933
-0.03735413 1.4728199 -1.6762733 2.1228752 -0.8343505 0.024743304 1.4150842 2.0076609
0.08099768 1.9040979 -0.9571936 1.0272541 1.9112173 0.053035203 0.0354204 0.07330165
0.0031827746 -0.6822522 2.0157092 1.0719607 1.2310022 0.90280694 2.1082568 1.710007

fc_A.weight f4 [20, 64]
00000000: 3079 cc3c 9ff2 90be 1458 4f3e b37d b33d
00000010: d6e9 9c3d 1550 853f da97 83bd 8efd 083f
00000020: 46dd b53d cd0b 1fbe 9654 c9bd 0fb8 aabd
00000030: a4bc 403e e464 fd3d 7ebe 0c3e a863 84bf
00000040: 83dd c4bd 611f 9dbd 7ae3 733e 13b8 513e
00000050: 5350 333e 3578 0e3d 1dfe f93d 46ac 183e
00000060: 5c34 b8bd d6a1 ef3d 76a8 16bd 30cc a23d
00000070: 884a 8c3e f162 613e 5c21 89bd 1398 35bf
00000080: acf3 403e 68f5 63bd 33f7 c33d b989 0f3d
00000090: 165b 99bd f483 a63d 72a9 cabd 8010 f3bd
000000a0: 7af1 833a b968 23be abeb 69bd 873e f93d
000000b0: 3f36 4bbd 12a0 debd c273 163c bfa4 073e
000000c0: fd6e 91bd 7ffb 3e3e 8f36 fb3d 25b4 ac3e
000000d0: 6efd f53d d6f3 27bd b7c7 293d e71a f5bc
000000e0: 5a79 d53c 8e0d a23e 236c b53e 8459 93bf
000000f0: bc62 883f a57c 153e 72ca 453e b44e c9bd
00000100: c282 edbd 261d 5c3d 809c a33e 32f8 2a3d
00000110: 381e bebd 4681 ba3e 729b f93d 1baa 5a3e
00000120: b6c6 383c 84a7 3abe 3198 1bbd ca2e 8bbe
00000130: 1b58 5d3e 9400 0abe ece8 dc3b 4169 3fbe
00000140: c120 5cbd c63a 713c 63b5 8f3e 431b 513e
00000150: f868 573e bbf4 36bd 9546 9f3d 54ee 9bbd
00000160: 20ee 4bbc 589c 183e fe0f 1c3d 5ab6 263e
00000170: f187 e73d 3f13 4a3e 1633 b33d b35d cebe
00000180: 62f6 4e3e 6413 ae3d 91d7 c53d 2132 09bd
00000190: a876 0cbd bd80 ab3c 00ce c7bd e4ab 093d
000001a0: 9f42 adbd e2ea fd3c 21c5 99be 36c4 b63d
000001b0: 7631 a43e d825 4fbd 1bc1 563e b8db 273e
000001c0: 06fd bcbd 7384 113d 6d8f 4bbe 6040 073e
000001d0: 4420 e03d c4ef cabd aae3 1d3c d060 193e
000001e0: d004 19be 3fcc 3a3e c74e c1bd 1060 b3be
000001f0: c998 d83e e851 093f 5500 433e 48d5 193d
00000200: 8010 2a3d 48b0 0dbe ca04 5f3e 5847 51bb
00000210: 2cc5 b13b 9a45 163e 4331 7abd ce6d 653e
00000220: b36e 6b3d db03 94be 6a33 93bd e364 40be
00000230: d71e 393e 661f bd3d ab18 5f3d e5ac 253e
00000240: 58b7 c3bd 6c37 933d c01a 173e d4c4 e53c
00000250: a958 f83d 4db5 6c3c c143 843d e162 3ebd
00000260: 72d8 e63d 2a1a 3b3e d8c9 873d f4d5 7e3e
00000270: 47d9 4bbc 7dc8 0a3e a476 c53d 27b5 b5be
00000280: efd8 723e bd3b 1abd 9cc5 cd3d 6c3f 2cbc
00000290: d422 88bd 5906 ec3d 4842 183d 00e8 a4b9
000002a0: f6fc 3ebc 37df 4ebd 521c 80be e325 583d
000002b0: 6143 64bd 187e 8e3d 3af3 113e ef91 353e
000002c0: 42ed 873c 1ff0 963d 2a7a 6abe 9226 683f
000002d0: bbb0 843e 6fda 0d3e 3bb3 eabd 93f0 163e
000002e0: 3f8c 1d3d eb13 e33d cf31 eab9 d57e 9ebe
000002f0: 4d61 063f 7d74 1a3f 76a1 813d 0fbb 113e
00000300: d0a9 163d fb59 933d e352 783e 5fc8 eabd
00000310: 1918 10bd 80c8 5a3c 59c5 0cbd 2f98 5f3e
00000320: aa46 8abd 73ee 19be 328f e83c 3c36 4dbd
00000330: 29c7 f53d 636a 4b3d 023e a43d 21d3 9b3c
00000340: 92f3 df3d e5f8 b63c 874a 7e3e c99c 9ebd
00000350: 02a2 163e 6ff7 d93d 11a9 e53c 69d0 aa3c
00000360: 1812 c03d c734 783e 256a 03bd 7ca0 e53d
00000370: 8ee9 743d 541b 253e cac3 cebd d677 3abe
00000380: 67a6 563e fbd9 003e 6b22 ee3d fd85 afbd
00000390: aca2 fbbd 15da 083e 4068 c43b a49a 2bbd
000003a0: 9c3a 8abb c11f 84bd 9bae a43c e224 5ebd
000003b0: dc6b e1bd 387f e33d da5d 163e da6c 083e
000003c0: 3128 4fbd d32d d7bc 9707 893d dc3e 7e3e
000003d0: 9562 c43d 1114 583d c23c 7c3d 2783 203e
000003e0: 2393 80bd 3b49 8e3e 8b2f a8bd 1eaf aabe
000003f0: ffbb 4c3f 67c9 fa3e 36df 9c3d 3d14 1d3e
0.02496013 -0.28310105 0.20248443 0.087642096 0.07661788 1.0415064 -0.06425448 0.53511894
0.08880095 -0.15531845 -0.098305866 -0.08335888 0.1882196 0.12372759 0.13744542 -1.0342913
-0.096125625 -0.07672001 0.23817244 0.20480375 0.1751111 0.034782607 0.122066714 0.14909467
-0.08994362 0.1170079 -0.03678175 0.07949102 0.27400613 0.220104 -0.06695816 -0.7093517
0.18842953 -0.05565396 0.09568634 0.035043452 -0.074880764 0.08130637 -0.098956004 -0.118683815
0.0010066472 -0.15957917 -0.057109516 0.12170129 -0.04961228 -0.10870375 0.009182872 0.1324644
-0.071012475 0.18650626 0.122662656 0.3373119 0.120112285 -0.041004024 0.04145023 -0.029920055
0.026058841 0.31650966 0.35434064 -1.1511693 1.0655131 0.1459833 0.19315508 -0.098294646
-0.11597206 0.053738736 0.31955338 0.041740604 -0.092831075 0.36426753 0.12187852 0.21353953
0.011277845 -0.18227965 -0.037986938 -0.27184135 0.21615641 -0.13476783 0.0067416336 -0.18692495
-0.053742174 0.014723485 0.28068075 0.20420556 0.21036136 -0.044666987 0.07777134 -0.07613817
-0.01244691 0.1490339 0.03810119 0.16280499 0.11305226 0.19733904 0.08749978 -0.40305862
0.20211175 0.08499792 0.09660257 -0.033495072 -0.034292847 0.02093541 -0.09756088 0.033611193
-0.084599726 0.03099579 -0.3003321 0.08924143 0.32068986 -0.0505732 0.20972101 0.1639241
-0.09227948 0.035526704 -0.19878931 0.13208151 0.10943654 -0.09909013 0.009636799 0.14978337
-0.14943242 0.18241976 -0.09438854 -0.35034227 0.42304066 0.53640604 0.19043095 0.037556916
0.041519642 -0.13836777 0.2177917 -0.0031933393 0.005425116 0.14674988 -0.061082136 0.22405168
0.057478618 -0.2890919 -0.07187541 -0.18788485 0.1807817 0.092345044 0.054466885 0.16179235
-0.095564544 0.07188305 0.14756298 0.028047957 0.121262856 0.014447522 0.064582355 -0.046481017
0.112717524 0.182717 0.066302955 0.24886304 -0.01244194 0.13553043 0.096417695 -0.3548977
0.23715566 -0.037654627 0.100474566 -0.010513168 -0.06647268 0.11524648 0.037172586 -0.0003145337
-0.01165699 -0.050505843 -0.25021607 0.052770507 -0.05572832 0.06957644 0.1425294 0.1773145
0.016592626 0.07370018 -0.22898164 0.90683854 0.25916085 0.13852857 -0.11459967 0.1474021
0.038463827 0.110877834 -0.00044669068 -0.3095614 0.5249222 0.60333997 0.06329624 0.14231513
0.03678304 0.07194897 0.24250369 -0.11463999 -0.03517923 0.013353467 -0.034367893 0.21835397
-0.06751759 -0.15032367 0.028388593 -0.05010055 0.120008774 0.049662005 0.080196396 0.019021573
0.10935129 0.022335479 0.24833117 -0.07744748 0.14710239 0.10642897 0.028034719 0.02085133
0.09378451 0.24238883 -0.03208365 0.112122506 0.059793048 0.16123706 -0.100959376 -0.18209776
0.20961915 0.12583153 0.116276585 -0.08570478 -0.122868866 0.13364442 0.005993873 -0.041895524
-0.0042184126 -0.06451369 0.02010279 -0.054234393 -0.11006901 0.111082494 0.14684239 0.13322774
-0.05057544 -0.026266968 0.06690901 0.24828666 0.095891155 0.05275351 0.06158138 0.1567503
-0.06278064 0.27790245 -0.08212193 -0.3333673 0.7997436 0.48981783 0.076597616 0.15339752

fc_A.bias f4 [20]
00000000: e50a c23f d559 d13e a1db 4d3e 6e42 283e
00000010: 70f9 903e 2702 113e 25b5 f6bd af29 f4bd
00000020: f85d edbd 69ba bcbd 46bd 6cbe 21cd cfbe
00000030: 32ad 04bf 7324 d4be 315c ccbe f939 19bf
00000040: 9dcc 27bf fddf 52bf 7c61 31bf a180 86bf
1.5159575 0.4088885 0.20103313 0.16431591 0.28315306 0.14160977 -0.12046269 -0.11922013
-0.11590189 -0.092152424 -0.23119077 -0.40586188 -0.51826775 -0.4143406 -0.39914086 -0.59854084
-0.6554659 -0.8237303 -0.69289374 -1.0508004

fc_V.weight f4 [1, 64]
00000000: a275 a63d 13c5 e0be e6d6 93be 9e3b b2bc
00000010: dacb 7f3d 32fa f4bf bd95 b33d 891d 0f3f
00000020: b77c 753d 71b4 92bd ff27 353d 14bc b2be
00000030: e82c f93e cb2c b03d 81ca 6e3f e723 c4bf
00000040: 85c3 e03c af5a 593d 3626 173f 52ed 6b3f
00000050: b0e8 e63e b967 303f 290e d4bd cf38 9e3d
00000060: e888 1dbd 7d7c de3e ddaf 4c3d a9fb d5bd
00000070: 868d 2e3f 7ad8 5bbe a6b9 c43d 8e62 9ebf
00000080: 4dc7 32be 540f d83c 827f 35bd d4f3 f93c
00000090: e032 193c 31f8 8c3c 40bc e83d a088 fe3b
000000a0: 45da 843b 1bac ba3e 06c9 f7be e3f7 f23e
000000b0: a12f 48be 48b4 c4bd fb71 183e 391b bf3e
000000c0: a1a7 353d e4c5 b73e e9cf 83be 7cd4 55be
000000d0: a3ac 8a3e 2de2 42bd 8ea1 c23c f225 143d
000000e0: 5351 8e3c e006 97be d00e 6c3f 6778 a6be
000000f0: 7f33 15bf ac3e b8be 5a8b bd3e 7b1c 3c3f
0.081279054 -0.43900356 -0.28874892 -0.021756943 0.062450267 -1.9138854 0.08768795 0.5590444
0.05993339 -0.07163323 0.044227596 -0.34909117 0.48667073 0.086022936 0.93277746 -1.5323457
0.027436981 0.053065 0.5904268 0.92159 0.450994 0.6890827 -0.10354263 0.07725679
-0.038460642 0.43454352 0.049972404 -0.10448391 0.681847 -0.21469298 0.09605722 -1.2373827
-0.1745884 0.026374497 -0.044311054 0.030511774 0.009350508 0.01720819 0.11364031 0.007767752
0.00405434 0.3645943 -0.48395556 0.47454748 -0.19549419 -0.096046984 0.1488723 0.37325457
0.044349317 0.35893166 -0.2574456 -0.20881838 0.27084836 -0.04757898 0.023758676 0.036169
0.017372763 -0.29497433 0.922101 -0.32513735 -0.582817 -0.35985315 0.3702038 0.7348096

fc1.weight f4 [64, 3]
00000000: 662d 13bf 38c9 fdbd 26f0 a4be 5287 083d
00000010: 057d f63d 2a08 4abb e418 13bf 4ad0 9dbe
00000020: e3df ae3e 84e0 8a3e ed89 0a3e 2f14 5dbe
00000030: 934f a5be 8cae 7abc 60fd 943d 4f09 2a3e
00000040: 9f0f a63e 1475 93bb 3630 4e3e 554e c43e
00000050: 6866 22bc 9d95 003f 1616 523e 28fd 30be
00000060: 8093 a43e 2aa8 cebd 6707 363c e03b 74bd
00000070: fa65 fdbe 4673 68be 09b0 4abe 218f 443e
00000080: daac 873d 3f6f fd3d 0fcb 56bf f12e 0ebd
00000090: 18a2 ba3e c116 debe ad5c cb3d 8a33 173f
000000a0: 9c3f 343f fcf0 863d 54ac 493e 2dbf 7e3d
000000b0: 5b4d e739 a5f4 1ebe 6e82 54bd 0c06 e5bd
000000c0: f098 a6be 95fd 95be e873 09bf b10d 95be
000000d0: 1a41 0fbf aa2e 9ebd 62f4 103e f9f6 a7be
000000e0: 85a1 cf3d 3ba3 58be 9797 fa3e ce55 6d3e
000000f0: 30d5 ac3d fd81 8a3e 0ca7 d1bd cdf4 edbd
00000100: 12a8 3bbe f056 b6be 82aa c53e 0060 bdb8
00000110: 2e82 08bf fbaf 033e 2b33 00bc 8a92 84be
00000120: 30bf fb3d 9ccc b2be dfed f6be 26e9 823e
00000130: 832b 223f 5071 aabd 0e8a 47be 7871 da3e
00000140: 38e8 0fbe c6df 79be e218 893e e52c 9f3e
00000150: 0a72 1cbe 101f 42bf d932 b63d dbb7 93bd
00000160: 699d b13e ae2e 093d 0c05 1dbe ada7 d0be
00000170: 6a18 a03d 7c42 c9be 6629 753d b056 513d
00000180: 30d4 f6be a085 48bd 4f23 e5be 4709 0d3f
00000190: 7854 11bf 269c 7f3e 8727 0f3f 2016 26be
000001a0: d846 093d 88e4 4abf 7de6 07bf 2c03 983d
000001b0: 404f 843d 5059 cbbd 0a39 53be 71e4 7ebd
000001c0: 35f0 a8bc c114 9fbc b7c9 27bf d18b 42bf
000001d0: 57b3 893d aaf1 b9be 4035 503c d834 f1be
000001e0: 2715 6abd 465f 37be b94f 013b 2858 013e
000001f0: ed48 edbe ea98 c3be 7842 9c3e 3d91 97be
00000200: 72e5 8ebe 9921 da3e 7644 2cbf 7408 53be
00000210: b267 393e 6ff3 be3e f495 9e3e 6517 b7bd
00000220: 2b6d 0b3e fa87 45bd 2c88 7a3c 46f5 8a3d
00000230: 848b 4cbd 96bc 58be 3f2f b53e e0ab f33c
00000240: a5d0 a5be 97ea 283f 8885 ba3d 0e56 813e
00000250: 48b8 eebe 8dbb b4be 5873 84bf 5b09 7c3e
00000260: 25eb f43c c215 64be 4171 f2be 3f76 dfbe
00000270: 186e e7be e6a9 dbbe d0be b3bd bc97 c3be
00000280: 34fd 9b3e baaa 93be f551 423e b7d1 d2be
00000290: 9beb f33d f43a adbe 23cb 84bd 39e6 2cbd
000002a0: 2337 33bf a8fe ae3e 7453 0cbc 6aa2 843e
000002b0: 4af9 c7be b90c 0abf 5900 62be 4a02 a23e
000002c0: f085 81be 0223 0abf ce8b 43bf e405 ee3d
000002d0: 1f12 e4bd 310d debe 3e77 963b 10bd b43d
000002e0: 96c2 01be 0820 e2be b695 ce3e 0ec0 e1bc
000002f0: 8560 1b3e 9eee aa3d 1fa4 07be dfbb 27bd
-0.5749115 -0.12391895 -0.3221447 0.033332177 0.12035564 -0.003082762 -0.57459855 -0.30822974
0.34155187 0.27124417 0.13529177 -0.2158973 -0.32287273 -0.015300404 0.0727489 0.16605113
0.32433793 -0.004500041 0.20135579 0.38341013 -0.009912111 0.5022829 0.20516238 -0.17284071
0.32143784 -0.100906685 0.011110163 -0.059627414 -0.49491864 -0.22700223 -0.19793715 0.19195224
0.06624766 0.12374734 -0.8390359 -0.034712736 0.36451793 -0.43376735 0.09929786 0.5906302
0.7040956 0.06588933 0.19694644 0.06219404 0.00044117388 -0.15523012 -0.0518822 -0.11182794
-0.32538557 -0.2929503 -0.53692484 -0.29112008 -0.5595871 -0.07723744 0.14155725 -0.32805613
0.10138229 -0.21156017 0.4894378 0.23177263 0.084391 0.27052298 -0.1023694 -0.11618958
-0.18325832 -0.35613203 0.3860665 -9.030104e-05 -0.5332364 0.128601 -0.007824699 -0.2589305
0.122923255 -0.3492173 -0.48228356 0.25568503 0.63347644 -0.08322394 -0.19486257 0.42664695
-0.14053428 -0.24401769 0.26776797 0.3108894 -0.15277877 -0.7582865 0.08896417 -0.07212802
0.34690407 0.033491783 -0.15333956 -0.40752926 0.078171566 -0.39308536 0.059853934 0.051108062
-0.4820876 -0.04895556 -0.447535 0.5509228 -0.56769514 0.2496191 0.5591969 -0.16219378
0.033514827 -0.7925496 -0.5308607 0.0742248 0.06460428 -0.099291444 -0.20627227 -0.062229577
-0.020622352 -0.019419076 -0.6554217 -0.7599459 0.067236595 -0.36317188 0.012708008 -0.4711063
-0.05714908 -0.17907438 0.0019731356 0.12631285 -0.463447 -0.38202602 0.30519462 -0.29602996
-0.27909428 0.42603758 -0.67291963 -0.20608693 0.18105963 0.372951 0.3097378 -0.08940009
0.13615863 -0.04822538 0.015291255 0.067850634 -0.04993774 -0.2116569 0.35387608 0.029745042
-0.32385746 0.65982956 0.091075 0.25260967 -0.4662497 -0.3529934 -1.03477 0.24612944
0.029897282 -0.22273925 -0.4735203 -0.43644902 -0.45201182 -0.4290306 -0.08776629 -0.38201702
0.30466616 -0.28841192 0.18976577 -0.41175625 0.119101726 -0.3383404 -0.06484058 -0.042211745
-0.70006007 0.34178662 -0.008564819 0.25905162 -0.3905738 -0.53925663 -0.22070445 0.3164237
-0.252975 -0.5395967 -0.763852 0.11622217 -0.11136269 -0.4336944 0.0045918515 0.08825123
-0.12671885 -0.44165063 0.40348595 -0.0275574 0.15173538 0.08346294 -0.13246201 -0.040950652

fc1.bias f4 [64]
00000000: 1780 96be 96a0 7040 99f2 43c0 00b6 1840
00000010: fcb1 7e40 2ec8 4840 1fa5 ca3f e128 0940
00000020: 5126 0540 7c8d ff3e 0eee 6340 33a2 48bf
00000030: c8d1 6c40 3581 10c0 fc0d 3c40 5315 0240
00000040: 7c38 cf3e b07f c93d 1ef8 00c0 d79f f2bf
00000050: 250b 4640 2ede 933e 340f e2bd 4970 2940
00000060: 5634 cc3e 60b0 143e 8199 3740 ea4f b5bf
00000070: bc2b 8e3f 326e a5bf b8d0 0e40 9a69 7340
00000080: 885c 993e 5a1b 0ac0 93f2 2140 d0d7 e0bf
00000090: fa4c 05bf f6c1 1b40 95b6 ce3e 496b a3be
000000a0: 1938 5740 8837 7ebe 9c8a c7be 4fcd 6c3e
000000b0: a316 21c0 0687 5e40 4983 4040 6521 6340
000000c0: 437c 2ac0 9a82 bd3e 21c2 04c0 a011 303e
000000d0: 0f0f dbbe 96f2 083f dfb1 22c0 60ec ef3f
000000e0: 2a45 5140 f51a 13bf 14bb 1240 56b9 9cbf
000000f0: 31a4 0c40 e831 c1be b762 bfbf c25a 423f
-0.293946 3.7598014 -3.061682 2.3861084 3.9796133 3.137218 1.5831641 2.14312
2.0804636 0.49912632 3.5614047 -0.78372496 3.700304 -2.2578862 2.9383535 2.0325515
0.40472782 0.098388076 -2.0151439 -1.8955029 3.0944302 0.28880447 -0.11038056 2.6474783
0.3988368 0.14520407 2.8687441 -1.4165013 1.1107097 -1.2924254 2.2314892 3.8033204
0.29953408 -2.1579194 2.5304306 -1.7565861 -0.5207058 2.4337134 0.40373674 -0.3191779
3.362799 -0.24825871 -0.38972938 0.23125194 -2.5170066 3.4769912 3.008013 3.5489132
-2.6638343 0.37013704 -2.0743487 0.17194223 -0.42784926 0.53495157 -2.5421064 1.8744011
3.2698464 -0.5746301 2.2926683 -1.224406 2.1975214 -0.37733388 -1.4952 0.75919735

fc2.weight f4 [64, 64]
00000000: 307a 03bc 000c 20b9 80c3 d43d 2042 2ebd
00000010: f2ed bc3d 5397 ebbd 8279 7d3d 604e 993d
00000020: b0b4 61bd 808a a1ba 00ee a23a 1628 fa3d
00000030: 9064 b83c 706f 053c ee58 dcbd 36f7 f43d
00000040: ec97 d1bd 6323 a93c 9678 8d3d 2446 a6bd
00000050: 7454 d83d 00cb 86bb b063 ba3d 68a2 aabd
00000060: c076 23bc ee1e 8cbd f79d 103d facd cfbd
00000070: 8057 893a 829b 693d 686b 5abd d0b8 ec3d
00000080: 9428 2e3d 20e1 653c 7cff b43d 829b 80bd
00000090: 60cc 373c 9a63 fdbd a884 fbbd a049 af3d
000000a0: d8a0 5fbd bc09 72bd 1d84 3ebd 9e17 e03d
000000b0: 8054 98bd 9431 a6bd e00e 603c bc52 afbd
000000c0: 7ec5 e1bd 6013 f83d c47c 713d 8016 d2bb
000000d0: fe06 e4bd 3ef5 d43d a0a8 483c c43b 45bd
000000e0: 9086 94bd 68e1 f13c ecb6 2a3d c8fb d2bd
000000f0: 92bf 953d 3840 f73c af17 f0bd e43c 473d
00000100: 8444 ab3d f931 c63e 7d77 d4be ef31 cc3e
00000110: 596f 823f d7be ae3d 000d 3cbe 2d86 403d
00000120: 6873 de3c 6712 7a3d 5fb6 863e 1ba6 1bbe
00000130: 10f8 293e 30df 05bf a2a1 2a3e a67c ac3d
00000140: 3a08 fd3d 4450 d7bd 2484 1bbf 0ab3 febe
00000150: bdea d23d 50e4 a13c 188f dabd 8869 cb3e
00000160: e055 0cbc 51f4 5dbe e528 a2be c70e 91be
00000170: e7fa 0f3f d2dc 6dbe f120 6a3d b342 283f
00000180: 7c70 cc3d e704 82be 61a4 4e3e 84ea d53d
00000190: 3a22 95bb c0ad b9bd 1c43 193e 0fdf b6bd
000001a0: 6f97 b73e 4866 89bd deef be3d 87ac 21be
000001b0: 37f5 ffbe 925c 463e 8a1e 613f 94a8 8f3e
000001c0: e32a dabe 0004 7939 fef5 82be 510a fcba
000001d0: f819 c43d 713a 80bd 3c08 ebbe e7d0 373e
000001e0: cf00 0e3e a692 b03d e27a 9dbe 88dd 983e
000001f0: 6469 363f 40e6 3bbd 0589 34be a87f 573e
00000200: f256 d7bd 3411 03bf 36a7 a23c 4bdf 7a3e
00000210: 9a1f 01bf 921d 93bd 0157 35be 0a75 ccbe
00000220: 3244 dfbd 68f9 4a3d b427 b2be 00d0 22be
00000230: afc0 b2be 6433 7f3e 90d9 92be afa6 19bf
00000240: 8057 a6bc 10f9 f9bd f744 3dbd b0a7 633e
00000250: 9f4e 35bf 58b7 9fbc b09a 3b3c ec59 633f
00000260: 3e60 35bd 804f 20be cbf4 bcbe 12b6 7f3d
00000270: 0076 3dbf a249 ed3d e10e 79be 37f9 07bf
00000280: 61d0 e8bd ce07 123e a6fc 08be 5ebc acbc
00000290: 3443 6c3d 1d2a 96be d062 99be e00e 03bd
000002a0: f8fb 09bf 989a 03bd 005c 3f3a a0d4 d0be
000002b0: 7cac c73d d9a9 8fbe 2d3f 20bf 744d b9be
000002c0: f6a8 2f3e a08c a8bb be7d fc3d da62 983d
000002d0: 08d3 a5bc e92d 73bd f4bb 003d 1b4d 59be
000002e0: 43c6 b0be bc1e 323d 4352 a93e 7fef 99bd
000002f0: 103c e9be 8822 083d 1859 553e 44ec 39be
00000300: 9e11 dfbd 311b 3a3d cf5f 713d 4d55 5abd
00000310: a805 e7bc 43fc 0abc 30c0 e73c 7c96 aabd
00000320: 82ef 30bd 6c0a 98bd 4285 8bbd d0e0 9bbd
00000330: 1774 883d fc6a 75bd 8775 9abd 0a03 b1bd
00000340: 4044 45bd 280d 92bc 5602 efbd 21af 13bd
00000350: c070 4bbd 31f4 553c 2e14 e43d f667 893c
00000360: 90e6 3cbc 7e6f fb3c 48fa e3bb e052 c1bd
00000370: 30de e7bd 2a8b e0bc ab49 843d 8643 3fbd
00000380: 760a ac3d 8ffb 4a3d f5c8 a4ba 0e5c 373d
00000390: 9c18 513d 4f54 d3bd af37 07bb 18ca 7a3d
000003a0: e4f2 a23b 689a f13d c0b7 ca3b a3fd 02bd
000003b0: cf81 5dbd ad50 d1bd 30d5 c33c 6c2a 84bd
000003c0: 80d4 cabd 2879 ac3d 40ed a4bb c07f e13d
000003d0: 4477 6b3d fe78 0fbe 5281 fdbd 1637 b6bd
000003e0: 110b 93bd a205 57bd a063 eebd 5ad1 283d
000003f0: 2128 6a3d 3067 27bc 946b c6bd 66e9 c03d
-0.008024737 -0.0001526326 0.10388851 -0.04254353 0.09225072 -0.11503472 0.061883457 0.07485652
-0.055103958 -0.0012324601 0.0012430549 0.12214677 0.02250889 0.008144245 -0.107591495 0.11961214
-0.10234055 0.020646757 0.069077656 -0.08118847 0.10562983 -0.004113555 0.09101045 -0.08331758
-0.009977043 -0.06841837 0.035306897 -0.10146709 0.0010478348 0.05703307 -0.053325087 0.11558688
0.042519167 0.014030725 0.08837792 -0.06279661 0.01121816 -0.12372513 -0.122811615 0.08558965
-0.054596752 -0.059091315 -0.04651271 0.109420046 -0.07437992 -0.08114925 0.0136754215 -0.08560702
-0.11023997 0.121130705 0.058956876 -0.0064113736 -0.11134146 0.10398339 0.012247235 -0.0481527
-0.07252228 0.029526427 0.041678354 -0.1030193 0.0731193 0.03018199 -0.11723267 0.048642054
0.08362678 0.3871 -0.41497412 0.39881846 1.0190231 0.085324936 -0.18364334 0.04700296
0.02715464 0.061052706 0.26311013 -0.15200083 0.16598535 -0.5229368 0.1666322 0.08422212
0.12355085 -0.10513356 -0.60748506 -0.4974597 0.10298679 0.019762188 -0.10671824 0.3972895
-0.008565396 -0.2167523 -0.31671825 -0.28331587 0.5624222 -0.23228768 0.05716032 0.65726775
0.09982392 -0.25394365 0.20179893 0.10445121 -0.0045511993 -0.09066343 0.14967006 -0.08929264
0.35857722 -0.06708962 0.09323095 -0.1578847 -0.49991772 0.1937125 0.87937224 0.28058302
-0.42610845 0.0002374798 -0.25578302 -0.0019229149 0.09575266 -0.06261147 -0.4590472 0.17950784
0.13867496 0.08621721 -0.30757815 0.29856515 0.71254563 -0.04587388 -0.17630394 0.2104479
-0.105146304 -0.51198125 0.019855123 0.24499242 -0.50438845 -0.071833745 -0.1770897 -0.39933044
-0.10901679 0.04955426 -0.34795916 -0.15899658 -0.3491263 0.24921948 -0.28681612 -0.60019964
-0.020305395 -0.12205708 -0.046208348 0.22231936 -0.7082309 -0.019496605 0.011450455 0.88809085
-0.044281237 -0.15655327 -0.36905512 0.062429495 -0.7400818 0.1158631 -0.24322082 -0.53114647
-0.1136787 0.1426079 -0.13377628 -0.021085914 0.057681277 -0.29329005 -0.299582 -0.031996608
-0.539001 -0.032129854 0.0007299781 -0.4078722 0.09749696 -0.2805927 -0.625964 -0.36191905
0.17154297 -0.005143717 0.12328671 0.074407294 -0.02024223 -0.059369955 0.031429246 -0.2122082
-0.34526262 0.04348634 0.33070573 -0.075163834 -0.45553637 0.033236057 0.20834768 -0.18156534
-0.10892032 0.045436088 0.05892926 -0.053304005 -0.02820094 -0.008482995 0.028289884 -0.08329484
-0.043197162 -0.07423863 -0.06812526 -0.07611239 0.066627674 -0.05991648 -0.07541948 -0.08643158
-0.04816079 -0.017828539 -0.116703674 -0.036055688 -0.049668074 0.013058708 0.111366615 0.016773205
-0.01152958 0.030692812 -0.006957326 -0.09439635 -0.11321676 -0.027410109 0.064593635 -0.046695255
0.08400433 0.04955631 -0.0012572097 0.044765525 0.05104886 -0.10318815 -0.0020632555 0.061227888
0.0049728025 0.11797029 0.0061864555 -0.031980168 -0.054078873 -0.10220466 0.023905367 -0.06453404
-0.099038124 0.08421546 -0.005033165 0.110106945 0.057486787 -0.14010999 -0.123781815 -0.088972256
-0.07179845 -0.052495606 -0.11640096 0.04121528 0.057167176 -0.010217473 -0.09688488 0.09419517

fc2.bias f4 [64]
00000000: 9e2c 8abd eb83 803f bec4 04bf 07d0 07be
00000010: 00d5 713d 841a f33f 450e d1bd 2a6f fb3f
00000020: 2198 1e3d 02fb 8fbe be6b d33d 4576 493e
00000030: c61a 0a40 661e f83d 1e4e f03f 546e 0740
00000040: 7784 fbbd f85a 40bb 672e 0f40 3d27 d63f
00000050: c303 0940 22a8 c03f 4263 9fbd f54e 0ebd
00000060: 8c5f 26bd db08 e23f b840 a7bd 5c6a b23d
00000070: cc21 0040 fc58 02be f6fc c8bd 8211 e73f
00000080: 0037 3ebd 320a c4bd 250f 27be 4d53 853e
00000090: 5c12 9fbd f662 96bc a406 3f3d eadc c7bd
000000a0: 86fe 18bd ea3b bc3f 2da0 d5bf 50c4 0740
000000b0: b67c 55bf 78b2 ca3c 0f17 b83f bf91 0040
000000c0: 57e3 a53d aa9f f33f 8f27 74bf 6851 893f
000000d0: d034 f53f e247 593d 0e17 113d 1e42 9a3d
000000e0: bb51 503b ec38 2ebf d8e4 0040 cc17 8d3f
000000f0: c1ee 9b3f 6a24 603f 97d4 0640 d291 da3f
-0.06746791 1.0040258 -0.51862705 -0.1326295 0.059041023 1.8992467 -0.102078 1.96433
0.0387193 -0.2812119 0.103232846 0.19674022 2.1578841 0.12115173 1.877384 2.116109
-0.12281125 -0.0029351097 2.2372072 1.6730725 2.1408546 1.505131 -0.07782604 -0.034743268
-0.040618464 1.7658952 -0.08166641 0.08711693 2.0020628 -0.12729257 -0.098138735 1.8052218
-0.04643917 -0.09572257 -0.16314371 0.26040116 -0.07767174 -0.018357735 0.046637192 -0.09758933
-0.037352107 1.4705784 -1.6689507 2.121357 -0.8339342 0.024743304 1.4382037 2.0088956
0.08100002 1.9033101 -0.9537286 1.0727968 1.9156742 0.05304707 0.035422377 0.07532142
0.0031786996 -0.68055606 2.0139675 1.1022887 1.2182237 0.87555563 2.1067255 1.7075751

fc_A.weight f4 [20, 64]
00000000: 3079 cc3c d961 7cbe 8206 503e c37f b33d
00000010: 89e6 9c3d be39 8b3f e399 83bd f416 0b3f
00000020: 25e1 b53d 96a3 29be ad55 c9bd 9779 043c
00000030: 13d6 493e 1262 fd3d ed5e 193e 3c4a 90bf
00000040: 63d8 c4bd 391d 9dbd f8a2 7e3e f808 663e
00000050: 1803 3f3e c7ed 3f3d dffe f93d 7dac 183e
00000060: 5c34 b8bd 6bb7 ff3d 6b12 07bd 7ec7 a23d
00000070: c6dd 913e 8361 613e 5c21 89bd f199 42bf
00000080: 18f0 403e 2cf6 63bd e812 c33d 858c 0f3d
00000090: 165b 99bd c9d7 8f3d 87a9 cabd 8010 f3bd
000000a0: b2e8 833a a5fc 1bbe e827 8dbd 8c2d 083e
000000b0: 560a 4cbd 12a0 debd ace1 293b a141 103e
000000c0: e670 91bd 1904 4d3e c3d1 e23d 9eff 9a3e
000000d0: a393 043e 99f6 27bd 5bcb 293d 568c e4bc
000000e0: 27a2 d53c 7ecc a13e 3a9f be3e f52c 9cbf
000000f0: ccd7 933f b660 1d3e e1cd 4f3e b554 b9bd
00000100: 8583 edbd 12f3 f03b e50b a33e 0cfc 2a3d
00000110: 7422 bebd 1d51 c33e 4f99 f93d 6072 633e
00000120: 70c3 383c e4b1 2ebe 7f9a 1bbd 5c50 55be
00000130: 08f7 563e a1fe 09be 5742 ebba eac2 26be
00000140: a826 5cbd ba47 713c 6732 8a3e 8ce4 3d3e
00000150: b917 503e 0c40 4abd 0344 9f3d 6ff0 9bbd
00000160: 20ee 4bbc faae 253e 998f 173d bbaa 263e
00000170: 94cd e53d e60b 4a3e 1633 b33d 0ade d1be
00000180: 16ed 4e3e 1f11 ae3d bc47 c53d 982f 09bd
00000190: a876 0cbd 6403 3b3d 00ce c7bd e4ab 093d
000001a0: 1742 adbd 93c3 0c3d a0bf 90be 734a af3d
000001b0: 7d4b a43e fb25 4fbd 154e 6f3e 34f4 213e
000001c0: 6301 bdbd 7b6b 123d 027c 3fbe 36e5 7b3e
000001d0: 7f1e dd3d bff3 cabd 71e4 1d3c 2e50 173e
000001e0: 90ff 18be 1ab8 3a3e 7451 d7bd 2179 c1be
000001f0: 89e0 dd3e e00a fa3e 8a67 3d3e a24c d73c
00000200: 8010 2a3d ec7a e9bd f84c 5e3e 5449 51bb
00000210: 59c6 b13b 3da2 d13d 8f35 7abd 6cbc 513e
00000220: 5b6c 6b3d 687f 8ebe 0836 93bd 5685 53be
00000230: 658d 3f3e bc1c bd3d f158 683d a722 0c3e
00000240: c7bc c3bd f039 933d b026 1a3e 6e82 193d
00000250: ab0e 013e fc3a 703c dc41 843d ef5f 3ebd
00000260: 77d8 e63d 5158 4b3e 3541 863d 5dce 7e3e
00000270: 7865 48bc 54cb 0a3e a476 c53d b0b2 bcbe
00000280: 65de 723e d63e 1abd ab31 cd3d 103c 2cbc
00000290: d422 88bd 61ae ef3d 4842 183d 00e8 a4b9
000002a0: 36fd 3ebc 41e2 2dbd a745 72be 6c63 653d
000002b0: de7b 63bd 187e 8e3d 1134 303e 76fe 3e3e
000002c0: 46ef 873c b1b6 903d b76a 5ebe 372f 3e3f
000002d0: f5ad 803e 04d7 0d3e dbb0 eabd 66df 143e
000002e0: 5275 1d3d 72a4 e33d 7f10 d93b 9095 9abe
000002f0: e94e 0a3f f84b f23e be8d 8d3d 9a5f 153e
00000300: d0a9 163d 96bf cb3c bf0c 773e 4bc8 eabd
00000310: 2519 10bd 5850 8c3b 7ac9 0cbd f45d 743e
00000320: d848 8abd 87cd 10be f98d e83c 96c3 8e3d
00000330: 3b05 073e f068 4b3d ae5a b13d 98da 933c
00000340: 08ef df3d f8fe b63c 9b0f 833e cbd5 b8bd
00000350: 009c 203e c0f3 e93d c6a7 e53c 64c9 aa3c
00000360: 8f12 c03d e837 863e 8b5d 03bd 7d98 e53d
00000370: 6718 903d b917 253e 53c4 cebd 6667 3abe
00000380: 9aaa 563e d9d6 003e 5290 ed3d 3984 afbd
00000390: aca2 fbbd 0cfe d63d 4068 c43b a49a 2bbd
000003a0: 1f39 8abb dba1 45bd efe5 f13c f3c9 31bd
000003b0: 194a e1bd 387f e33d 5d49 203e 9c61 163e
000003c0: 2321 4fbd b607 72bc c4d2 9d3d abde 3e3e
000003d0: 927e e13d 1217 583d 0041 7c3d 8670 1e3e
000003e0: 7094 80bd e424 8e3e e7b1 babd 5557 afbe
000003f0: 6ee0 4e3f 91c0 053f 9868 b53d 0aa7 253e
0.02496013 -0.24646701 0.20314983 0.08764603 0.076611586 1.0876997 -0.06425836 0.543319
0.088808335 -0.1656631 -0.098307945 0.00808563 0.19710569 0.12372221 0.14977618 -1.1272655
-0.09611585 -0.076715894 0.24866855 0.22464359 0.18653524 0.04685762 0.12206816 0.14909549
-0.08994362 0.12486156 -0.03297655 0.07948206 0.28489512 0.22009854 -0.06695816 -0.76016146
0.18841588 -0.05565469 0.095250905 0.03504612 -0.074880764 0.070235796 -0.09895616 -0.118683815
0.0010063855 -0.15233095 -0.06892377 0.13298625 -0.049814545 -0.10870375 0.0025921864 0.14087535
-0.07101612 0.20021094 0.11075165 0.30273145 0.12946944 -0.04100666 0.0414537 -0.027898949
0.026078297 0.31601328 0.37230855 -1.220122 1.1550231 0.15368924 0.2029338 -0.0904936
-0.11597351 0.007353195 0.31845012 0.041744277 -0.09283915 0.38147822 0.121874444 0.222116
0.011277065 -0.17060047 -0.037989136 -0.20831436 0.20992672 -0.1347604 -0.0017948848 -0.16285291
-0.053747803 0.014726574 0.2699158 0.18544215 0.2032155 -0.049377486 0.07776644 -0.076142184
-0.01244691 0.1618003 0.03700218 0.16276066 0.112208515 0.19731101 0.08749978 -0.40989715
0.20207629 0.08499359 0.09632823 -0.033492655 -0.034292847 0.04565753 -0.09756088 0.033611193
-0.08459871 0.0343662 -0.28271198 0.08559122 0.32088843 -0.05057333 0.2336963 0.15815812
-0.0922878 0.035747033 -0.18699649 0.24599156 0.10796832 -0.09909772 0.009636984 0.1477668
-0.1494124 0.18234292 -0.10513583 -0.37787727 0.4333537 0.48836422 0.18496528 0.026281659
0.041519642 -0.114003986 0.21709049 -0.0031934576 0.005425256 0.102360226 -0.061086234 0.20482033
0.057476383 -0.27831578 -0.0718804 -0.20656332 0.18706281 0.09233996 0.056725446 0.13685094
-0.09557491 0.07188785 0.1505382 0.037477903 0.12603252 0.0146625005 0.06457874 -0.04647821
0.11271756 0.19857909 0.06555406 0.24883409 -0.012231223 0.13554126 0.096417695 -0.36855078
0.2371765 -0.03765758 0.10019239 -0.010512367 -0.06647268 0.11703182 0.037172586 -0.0003145337
-0.01165705 -0.0424521 -0.23659383 0.05600302 -0.05553805 0.06957644 0.17207362 0.18651757
0.016593587 0.070660956 -0.21720396 0.74290794 0.2513272 0.13851553 -0.11459514 0.14538345
0.038441963 0.1111535 0.006624281 -0.30192232 0.5402666 0.47323585 0.06911801 0.1458725
0.03678304 0.024871629 0.24125956 -0.11463984 -0.03518023 0.0042820387 -0.03437183 0.23863965
-0.06752175 -0.14140902 0.02838801 0.06970899 0.13185589 0.049660623 0.08659874 0.01804857
0.109342635 0.022338375 0.25597844 -0.09025153 0.1568451 0.11423445 0.028034102 0.020847984
0.0937854 0.26214528 -0.03207163 0.112107255 0.070359044 0.1612233 -0.100960396 -0.18203506
0.20963517 0.12581958 0.115997925 -0.08570141 -0.122868866 0.10497674 0.005993873 -0.041895524
-0.004218235 -0.04825006 0.029528586 -0.043405484 -0.11000461 0.111082494 0.15652986 0.14685673
-0.05056871 -0.014772346 0.07706216 0.18639629 0.110104695 0.052756377 0.061585426 0.15472612
-0.06278312 0.2776252 -0.091159634 -0.34246317 0.808112 0.5224696 0.0885784 0.16177002

fc_A.bias f4 [20]
00000000: a96d bf3f 78ef d23e 3dc2 563e 0545 353e
00000010: 2de3 983e e9c0 193e 163b 04be ac66 eabd
00000020: 88b6 debd 276c fbbd f2c0 53be 2773 ccbe
00000030: 4e0d 05bf b8f6 dbbe 27d9 cfbe c07d 15bf
00000040: ee38 26bf 7cdd 4bbf b95e 2cbf 1481 84bf
1.4955341 0.41198325 0.20972534 0.1770211 0.2986082 0.15014996 -0.12913164 -0.11445364
-0.10874659 -0.12276488 -0.20679072 -0.39931604 -0.51973426 -0.4296167 -0.40595362 -0.58395004
-0.6493062 -0.79634833 -0.67332035 -1.0351892

fc_V.weight f4 [1, 64]
00000000: a275 a63d 88f7 00bf ec6b 93be 723f b2bc
00000010: 2bcf 7f3d 42b6 f4bf 3397 b33d 3a1d 113f
00000020: 837e 753d c184 a8bd 8c29 353d f6d7 afbe
00000030: 0758 fb3e 1830 b03d 618d 703f 617d c4bf
00000040: 25de e03c c459 593d 6f69 183f 6a80 723f
00000050: f101 ea3e 1835 323f e70b d4bd 613a 9e3d
00000060: e888 1dbd 7ee2 de3e 8c7c 4a3d e8ff d5bd
00000070: d802 303f 68d7 5bbe fab9 c43d ab80 9ebf
00000080: 43c4 32be e514 d83c 465f 34bd 27f3 f93c
00000090: e032 193c 1e12 e73c d9bc e83d a088 fe3b
000000a0: 18da 843b 0769 bc3e 4fa4 febe f67a f53e
000000b0: 4d47 48be 48b4 c4bd 76e8 1c3e 2dac c03e
000000c0: 8ea6 353d a73e bc3e acc8 89be cc49 29be
000000d0: 4b2d 8f3e 51e1 42bd e99e c23c ee6d 1c3d
000000e0: cb80 8e3c f022 97be a72b 733f 8f08 a7be
000000f0: fe6a 15bf bb2b b8be 6c9e bf3e 7f1f 3d3f
0.081279054 -0.503777 -0.28793275 -0.021758769 0.06245343 -1.9118121 0.08769073 0.5668522
0.059935104 -0.08228446 0.044229075 -0.34344453 0.49090597 0.08602923 0.9396573 -1.5350763
0.027449677 0.053064123 0.5953588 0.94727194 0.45704606 0.69612265 -0.10353833 0.07725979
-0.038460642 0.43532175 0.049435183 -0.10449201 0.6875434 -0.2146889 0.09605785 -1.2383016
-0.1745768 0.02637715 -0.044036172 0.030511452 0.009350508 0.028206881 0.11364145 0.007767752
0.004054319 0.3679888 -0.49734733 0.47945374 -0.19558449 -0.096046984 0.15323052 0.3763136
0.044348292 0.3676655 -0.26910913 -0.16532058 0.27964243 -0.04757816 0.023757415 0.038190775
0.017395398 -0.29518843 0.94988483 -0.32623717 -0.5836638 -0.35970864 0.37425554 0.73876184

exp_avg f4 [64, 3]
00000000: 0000 0000 0000 0000 0000 0000 706c e041
00000010: f03f 3241 425c c341 776d 8fbd 32d5 ca40
00000020: 32fb 8e41 98ec bcc2 db7b 6ec2 3734 1cc3
00000030: cf87 adc0 6a59 9dc1 a946 71c2 f891 8441
00000040: 41dd 0441 4a85 9441 a9ba 0e40 8f53 5e3f
00000050: a72f f23e 54ac eec1 e554 b6c1 f58a 5ec2
00000060: beb8 cf3f 11ae 203e 02d7 26c0 0000 0000
00000070: 0000 0000 0000 0000 83e5 c241 ba9f 0441
00000080: 58f8 8541 0400 0000 0400 0000 0400 0000
00000090: b4d5 ab41 69bc 1141 ebea 3541 51ce b741
000000a0: 27f4 9541 7069 4642 1597 8741 01c1 d640
000000b0: 2c6b 4f41 ae61 553b 3895 5f3c b941 203b
000000c0: 0000 0000 0000 0000 0000 0000 0000 0000
000000d0: 0000 0000 0000 0000 f83b d0be cd71 e4bf
000000e0: 9769 d1c0 c46e be41 3cc1 a241 598b 6542
000000f0: 012e 48c2 b2ae 27c2 3207 bcc2 0000 0000
00000100: 0000 0000 0000 0000 0000 0000 0000 0000
00000110: 0000 0000 bc7a 9cc1 c911 f6c0 57a5 8cc1
00000120: 0000 0000 0000 0000 0000 0000 bf1f c13f
00000130: 44a4 2340 5df8 9741 b416 07c2 89ee fec1
00000140: 3088 5cc2 88a4 d741 2ccd ac41 5ba0 6f42
00000150: a6bb 2abe 5746 eebe 8ecf 9741 13c2 2e41
00000160: bcbe 0841 6e6a dc41 5775 363f a2fa c23e
00000170: 09ad e13f 6d85 a640 3026 0cc1 79c9 f7c1
00000180: 0000 0000 0000 0000 0000 0000 cfb4 2c41
00000190: 5225 0541 38e2 a041 e5a8 8a41 67cf 0141
000001a0: c08d 6e41 a173 a43c 3146 8fbd b27b 3bc0
000001b0: 0000 0000 0000 0000 0000 0000 4d4b 00c0
000001c0: 9e7d 1dc0 4a9d 90c0 6025 373d b806 dc3d
000001d0: efd0 fe3f 0000 0000 0000 0000 0000 0000
000001e0: 3a7c c2c1 3fef c1c1 c8cc 8bc2 0000 0000
000001f0: 0000 0000 0000 0000 0000 0000 0000 0000
00000200: 0000 0000 7052 66bf 2cc3 08be 55a0 8fbf
00000210: f47a 1d42 dffb 0842 2762 c642 87e2 5cbf
00000220: 1c2e 56c0 57e2 d1c0 14bc 1dc3 59e7 0ac3
00000230: 1f6e 9ec3 4723 7141 c335 8640 4005 5540
00000240: b7f7 d140 be5a 0841 016f e141 0000 0000
00000250: 0000 0000 0000 0000 b827 bc3c 4694 8b3e
00000260: c364 a33d 0000 0000 0000 0000 0000 0000
00000270: 0000 0000 0000 0000 0000 0000 afa2 483e
00000280: 7e9d 9540 8e9b 283f bfee 40c0 2b6d 3ec0
00000290: 61e8 24c1 c73d b4bc 73b0 afbc 9842 f4bc
000002a0: 14ab b2bf 1eaf b2c0 e9d0 8fc1 0000 0000
000002b0: 0000 0000 0000 0000 691d 91c0 c453 4240
000002c0: de05 f23e 650e 013d 3b5a f0be b31b 78c1
000002d0: 9f07 8b3f c655 7c3e d4c6 a140 0000 0000
000002e0: 0000 0000 0000 0000 15fc 8f41 b94c 8741
000002f0: 5eda 1042 d0f5 73be 6d1e 60bd d80b a13e
0.0 0.0 0.0 28.052948 11.14061 24.420048 -0.07003301 6.338525
17.872654 -94.4621 -59.620953 -156.20396 -5.422828 -19.66866 -60.319004 16.571274
8.304017 18.565083 2.2301428 0.8684625 0.4730198 -29.834145 -22.791452 -55.6357
1.6228254 0.15691401 -2.606873 0.0 0.0 0.0 24.362066 8.288996
16.746262 6e-45 6e-45 6e-45 21.479347 9.108499 11.369853 22.97574
18.744215 49.602966 16.94877 6.71106 12.963665 0.0032559442 0.013646416 0.0024453236
0.0 0.0 0.0 0.0 0.0 0.0 -0.40670753 -1.7847229
-6.5441394 23.804085 20.344353 57.38608 -50.044926 -41.9206 -94.01405 0.0
0.0 0.0 0.0 0.0 0.0 -19.559929 -7.689671 -17.580732
0.0 0.0 0.0 1.5087813 2.556901 18.996271 -33.77217 -31.866472
-55.132996 26.955338 21.600182 59.906597 -0.16673145 -0.4653804 18.976345 10.922381
8.546566 27.551968 0.71272796 0.38081843 1.7630931 5.2037873 -8.759323 -30.973375
0.0 0.0 0.0 10.794143 8.321611 20.110458 17.332468 8.113135
14.909607 0.020074667 -0.0699581 -2.9294248 0.0 0.0 0.0 -2.004596
-2.460792 -4.5192003 0.044713378 0.10743469 1.9907511 0.0 0.0 0.0
-24.310658 -24.24182 -69.89996 0.0 0.0 0.0 0.0 0.0
0.0 -0.8996954 -0.13355702 -1.1220804 39.37007 34.245968 99.1917 -0.86283153
-3.3465643 -6.5588794 -157.73468 -138.9037 -316.86032 15.071113 4.1940627 3.3284454
6.5614886 8.522154 28.179201 0.0 0.0 0.0 0.022968158 0.2726156
0.07978203 0.0 0.0 0.0 0.0 0.0 0.0 0.19593309
4.675475 0.6586236 -3.014572 -2.975413 -10.306733 -0.022002114 -0.021446442 -0.02981691
-1.3958459 -5.5838766 -17.977007 0.0 0.0 0.0 -4.53484 3.0363626
0.472701 0.03150787 -0.4694384 -15.5067625 1.0861701 0.24642095 5.055521 0.0
0.0 0.0 17.998087 16.912462 36.21325 -0.23824239 -0.054716516 0.3145435
