beergame/baseline/models/dqn_agent_firm_1_episode_3500.pth (torch, 101224 bytes, 24 tensors)

fc1.weight f4 [64, 3]
-0.10047095 0.18269037 0.32731 -0.27425957 0.49952057 0.16099297 -0.43797266 -0.22595593
0.057499703 -0.05423534 -0.14721778 -0.06254923 -0.64148796 -0.79478616 0.21620806 -0.12361756
-0.47632858 0.010486173 0.17805101 0.19815925 -0.13369599 -0.5778817 -0.21764338 0.0010897566
0.5165202 0.45517176 0.10418357 -0.3792958 -0.066511855 -0.5003139 -0.013034446 0.05807229
-0.46546793 -0.15213938 -0.42434824 -0.062166452 -0.20250946 -0.09715563 0.00591682 0.52027166
-0.19334629 0.13363078 0.015851283 -0.09482538 0.050903358 -0.14662437 0.39302945 0.26656833
-0.35256934 -0.064915806 0.14325851 0.22164229 0.15432508 -0.15415601 0.36708024 -0.36404064
-0.18188848 -0.04925523 0.29494777 0.06762244 -0.35271722 -0.5761401 -0.26984358 -0.49622923
-0.15820718 -0.3719406 0.120692104 0.4801453 0.11674462 0.33293977 -0.20944604 0.304958
-0.5881329 -0.3075501 -0.07268248 -0.2767447 -0.24442169 -0.56960654 -0.238849 -0.28574276
0.07746716 0.42191708 -0.27262372 0.086627975 -0.89419425 -0.37372065 0.118669316 0.023613974
-0.44805232 0.22510174 -0.27641812 0.04062757 0.13830712 -0.19615732 -0.6886247 -0.043095093
-0.18254939 0.16811165 -0.09921486 -0.11627659 -0.33071384 0.36847472 0.176404 -0.32055923
-0.2539846 -0.3526346 -0.2198523 -0.2272633 -0.08093112 -0.52550805 0.04522493 0.23260182
0.0009715557 -0.23008609 -0.965707 -0.20926388 0.16658407 -0.091560595 0.295168 0.15658104
-0.4021025 -0.8907591 -0.021575224 0.11090941 0.26766765 0.05750203 0.23983388 -0.06735867
-0.047343727 0.325995 0.31662157 0.18286788 -0.13122815 -0.33762774 -0.057125226 -0.22912055
0.15516874 0.09589113 0.21804866 -0.24766752 -0.69888467 -0.29135692 0.019866223 -0.07676883
-0.0006697852 -0.13065109 0.06315639 0.14201084 0.25592124 -0.27471337 0.028416395 -0.3691707
-0.030994117 -0.413052 -0.14400354 -0.52238387 -0.37678698 -0.5933531 0.17119424 -0.11420213
0.3565522 0.0817659 0.5329837 0.21144417 0.27612278 0.07613751 -0.002206521 0.06614772
0.09588943 0.21086392 -0.4036075 0.7392523 0.18810785 0.4357702 0.03599888 -0.09739265
-0.17783591 -0.28875828 -0.47407123 0.2953557 0.16105965 -0.21849586 -0.030308243 -0.52550614
-0.5044147 -0.17744395 0.29527286 -0.078564845 0.07154724 0.25990427 0.21204585 0.08436467
00000000: b7c3 cdbd 2f13 3b3e 2d95 a73e c06b 8cbe
00000010: 29c1 ff3e 57db 243e f43d e0be fe60 67be
00000020: cf84 6b3d e025 5ebd 42c0 16be d019 80bd
00000030: 8e38 24bf 1b77 4bbf a565 5d3e 342b fdbd
00000040: 57e1 f3be 33ce 2b3c 0153 363e 42ea 4a3e
00000050: 9ae7 08be 0ef0 13bf e8dd 5ebe 2ad6 8e3a
00000060: ab3a 043f 460c e93e 325e d53d 0f33 c2be
00000070: 5e37 88bd 9214 00bf 6e8e 55bc 36dd 6d3d
00000080: d051 eebe 6dca 1bbe 2c44 d9be 40a2 7ebd
00000090: a45e 4fbe 88f9 c6bd e2e1 c13b 8630 053f
000000a0: 92fc 45be 82d6 083e 8dda 813c cf33 c2bd
000000b0: 0a80 503d b324 16be 283b c93e a57b 883e
000000c0: f883 b4be 94f2 84bd 5cb2 123e 32f6 623e
000000d0: 6507 1e3e 13db 1dbe f1f1 bb3e 8963 babe
000000e0: f940 3abe dabf 49bd 6503 973e a27d 8a3d
000000f0: 5a97 b4be eb7d 13bf f028 8abe c211 febe
00000100: 1001 22be 006f bebe 6c2d f73d 9bd5 f53e
00000110: ce17 ef3d 1577 aa3e 0679 56be 7423 9c3e
00000120: e18f 16bf 3577 9dbe 8dda 94bd 7bb1 8dbe
00000130: ae49 7abe bcd1 11bf d594 74be e04c 92be
00000140: 1aa7 9e3d 8405 d83e 5695 8bbe 026a b13d
00000150: eae9 64bf 5058 bfbe e608 f33d 1872 c13c
00000160: 1d67 e5be 1281 663e ad86 8dbe 1869 263d
00000170: 62a0 0d3e 77dd 48be b549 30bf 7b84 30bd
00000180: 3aee 3abe 7625 2c3e 2931 cbbd 6c22 eebd
00000190: 5353 a9be b8a8 bc3e 40a3 343e 5720 a4be
000001a0: 450a 82be 868c b4be f620 61be b6b7 68be
000001b0: 37bf a5bd b287 06bf c73d 393d 2c2f 6e3e
000001c0: 00b0 7e3a b09b 6bbe 9338 77bf 4549 56be
000001d0: 0495 2a3e 1f84 bbbd 4320 973e c856 203e
000001e0: 61e0 cdbe ca08 64bf 86be b0bc 7924 e33d
000001f0: bc0b 893e 4087 6b3d 0397 753e 58f3 89bd
00000200: 7feb 41bd d1e8 a63e 391c a23e b841 3b3e
00000210: ac60 06be 8bdd acbe 24fc 69bd 949e 6abe
00000220: 8ee4 1e3e 9262 c43d 2648 5f3e 8e9c 7dbe
00000230: 1bea 32bf bc2c 95be 7dbe a23c fa38 9dbd
00000240: 8694 2fba 66c9 05be 2358 813d 4a6b 113e
00000250: 1c08 833e 3ba7 8cbe 80c9 e83c f103 bdbe
00000260: 60e7 fdbc 8d7b d3be aa75 13be f3ba 05bf
00000270: 39ea c0be fde5 17bf 8b4d 2f3e cee2 e9bd
00000280: 038e b63e e174 a73d 9f71 083f d284 583e
00000290: f75f 8d3e fced 9b3d 489b 10bb 7578 873d
000002a0: ad61 c43d b6ec 573e a4a5 cebe a43f 3d3f
000002b0: 589f 403e 461d df3e 9073 133d cc75 c7bd
000002c0: 9e1a 36be 20d8 93be 77b9 f2be dd38 973e
000002d0: d2ec 243e 61bd 5fbe fe48 f8bc 9287 06bf
000002e0: 5221 01bf deb3 35be 012e 973e 9be6 a0bd
000002f0: 5c87 923d 2c12 853e 8c22 593e 62c7 ac3d

fc1.bias f4 [64]
1.3464428 3.397568 3.991645 -0.34018263 -3.1815653 3.0852342 4.40652 4.1865997
-2.4820569 2.867175 3.9699938 2.565881 3.3894699 2.915317 3.00352 -0.87085086
2.4405901 4.109924 -0.2325218 2.4625175 -0.4189071 1.314324 0.3490028 -2.426335
3.4036348 -0.088908374 3.8377583 2.8399813 -3.855104 3.1600296 2.0930173 2.6515648
-0.2034214 -1.8907862 -0.5167546 0.13273221 2.593424 -0.18286133 -3.6078827 -0.83104396
1.6073302 3.3345628 2.0413103 -1.1088853 1.7276453 2.5189018 2.602439 1.2297076
2.8611987 3.7740836 0.21434045 0.4422661 -3.4356184 2.8372042 -1.2377975 3.6172738
3.650967 -2.717604 -0.53733265 -2.416569 2.3012667 -0.047917366 3.7049038 2.795695
00000000: 3d58 ac3f c171 5940 1d77 7f40 6b2c aebe
00000010: c49e 4bc0 7a74 4540 3602 8d40 a0f8 8540
00000020: 05da 1ec0 cc7f 3740 6114 7e40 6537 2440
00000030: 13ed 5840 8e94 3a40 ac39 4040 15f0 5ebf
00000040: a132 1c40 7f84 8340 321a 6ebe e399 1d40
00000050: fe7a d6be c53b a83f 7fb0 b23e 1349 1bc0
00000060: 27d5 5940 9815 b6bd d59d 7540 41c2 3540
00000070: 06ba 76c0 ed3d 4a40 fff3 0540 3db3 2940
00000080: b34d 50be 4805 f2bf 084a 04bf f4ea 073e
00000090: a9fa 2540 0040 3bbe 8de7 66c0 4cbf 54bf
000000a0: ffbc cd3f 7a69 5540 d4a4 0240 f4ef 8dbf
000000b0: 7b23 dd3f b035 2140 5c8e 2640 0f67 9d3f
000000c0: e11d 3740 968a 7140 107c 5b3e b470 e23e
000000d0: 2ce1 5bc0 c194 3540 2670 9ebf 6a81 6740
000000e0: 71a9 6940 39ed 2dc0 a28e 09bf 11a9 1ac0
000000f0: f447 1340 0045 44bd 251d 6d40 abec 3240

fc2.weight f4 [64, 64]
-0.03411148 0.10875156 1.1900651 0.04864864 -0.104317136 -0.013414643 -0.6339295 1.4343222
-0.16219267 -0.3821721 0.6694657 -0.19912857 0.3290552 0.3158986 0.081186354 0.12403031
-0.00790222 -0.30479762 -0.06957424 -0.06974933 0.0006135851 0.013203774 0.032184206 0.14314976
-0.052557398 0.06812228 0.69894594 0.41626278 -0.21097578 0.3345294 -0.117868505 -0.06010557
-0.1095712 0.15609618 0.00910601 -0.09575702 -0.22675443 0.013924345 -0.39737463 -0.03749872
-0.03438428 0.09816075 -0.5004988 0.020701459 -0.23019114 0.14174555 0.2704334 0.15251109
0.2947491 -0.2919393 -0.1033742 0.042104512 -0.11812036 0.061502 0.07244369 0.15079986
-0.36227906 -0.022738403 0.107822135 -0.026659727 -0.22406021 -0.004068345 0.44527322 -0.06983579
-0.11298779 -0.06716092 0.08123636 0.054671288 -0.11915621 -0.08265495 0.039543286 0.09079242
-0.10505034 0.052332148 0.037986204 -0.0501585 0.016985789 -0.04502216 -0.08021559 -0.09333886
0.11369836 -0.0829 -0.049265414 0.013441697 -0.08600779 -0.105742216 0.11483748 -0.115945
-0.075758174 0.090017766 0.12081878 -0.10906224 -0.023376063 0.0032228678 -0.015781164 -0.03583607
-0.09931132 0.104538515 0.02677916 0.03122294 0.07397123 0.024250478 -0.03594461 -0.04921779
-0.0035485476 -0.03263116 0.014401495 -0.017028585 0.06277256 -0.08553338 0.12447025 0.048484445
-0.014149204 -0.051613927 -0.026530161 -0.09024747 -0.019903123 0.029700458 0.11290382 -0.035154656
-0.026560888 -0.0484076 0.0880447 -0.012196869 -0.12453164 0.03234084 -0.015821412 -0.085733116
0.14513746 0.31965652 0.65076536 -0.07468322 -0.12761623 0.059231 -1.0189837 0.8036286
-0.036680028 -0.021414295 0.6400436 -0.44948936 0.32456815 -0.062360525 0.036762964 0.13066554
0.08209011 -0.60798913 0.047298413 0.042869236 0.04618016 -0.04390523 0.008803855 0.09456958
-0.29420432 -0.039265916 0.58026195 -0.1257065 -0.2637074 0.40762368 0.023866128 -0.02236467
-0.06713805 0.15253249 0.022650018 0.0007868409 -0.2579114 -0.028040618 -0.35529464 0.13086645
-0.117657356 0.12326852 -0.2697012 -0.0055816434 -0.32570487 0.3673248 0.67128736 0.016397009
-0.06580378 -0.21817794 -0.07748766 -0.1195502 -0.19973847 0.20331824 0.15878972 -0.024503449
-0.38954508 0.09717326 0.09152216 -0.14910728 -0.102947034 0.002819866 0.13202116 0.08951119
-0.0857016 -0.073756635 -0.09586087 0.011968821 -0.01689431 0.1210091 0.09226513 -0.03723231
-0.076379836 0.021456718 -0.026119277 -0.029765353 0.0072592646 0.010925338 -0.051062703 0.062009677
-0.030727133 0.0095176995 -0.030161247 0.08360161 -0.05593118 -0.022487074 -0.034790352 -0.09233004
0.10079783 0.07025935 0.06358023 -0.00014165044 0.08230063 -0.0022414178 0.09880167 0.083220005
0.02529715 0.11464991 0.057362318 -0.030878335 0.012099147 0.060576394 0.10000706 -0.062003314
0.07353455 -0.02951023 0.017951354 0.07717961 0.039336413 -0.051482514 0.04959166 -0.12331757
-0.010671452 -0.11309557 -0.086523935 0.116484284 0.026804402 -0.03239402 -0.086581826 -0.033161387
-0.022270232 -0.042657867 -0.10278702 0.026549801 0.052573845 -0.008785129 -0.10194668 -0.09070976
00000000: 7bb8 0bbd 23b9 de3d 0e54 983f cc43 473d
00000010: 39a4 d5bd 17c9 5bbc 3449 22bf df97 b73f
00000020: d615 26be 10ac c3be 1b62 2b3f 5ce8 4bbe
00000030: ec79 a83e 76bd a13e 0845 a63d 9a03 fe3d
00000040: 5078 01bc 6f0e 9cbe f07c 8ebd bdd8 8ebd
00000050: 00d9 203a a454 583c 96d3 033d da95 123e
00000060: 6d46 57bd b283 8b3d 1fee 323f 6520 d53e
00000070: 090a 58be 7047 ab3e 0b65 f1bd 4231 76bd
00000080: de66 e0bd add7 1f3e 6031 153c 421c c4bd
00000090: 5032 68be f022 643c b074 cbbe 4298 19bd
000000a0: 88d6 0cbd 8108 c93d b020 00bf 1b96 a93c
000000b0: 3ab7 6bbe bf25 113e 3f76 8a3e de2b 1c3e
000000c0: 5be9 963e 1179 95be dab5 d3bd c875 2c3d
000000d0: 16e9 f1bd 85e9 7b3d 5b5d 943d 476b 1a3e
000000e0: a47c b9be e345 babc dad1 dc3d 8065 dabc
000000f0: 0a70 65be c04f 85bb dafa e33e 1106 8fbd
00000100: 2466 e7bd aa8b 89bd 405f a63d 00ef 5f3d
00000110: 2c08 f4bd 0047 a9bd 24f8 213d 60f1 b93d
00000120: a224 d7bd 3c5a 563d 6c97 1b3d 0073 4dbd
00000130: c825 8b3c 2869 38bd 1248 a4bd 7228 bfbd
00000140: b0da e83d 7ac7 a9bd 88ca 49bd 903a 5c3c
00000150: da24 b0bd 608f d8bd ea2f eb3d 9274 edbd
00000160: 1a27 9bbd 3c5b b83d d66f f73d 065c dfbd
00000170: 287f bfbc c036 533b 8047 81bc d8c8 12bd
00000180: bc63 cbbd 4a18 d63d f85f db3c 40c7 ff3c
00000190: 3a7e 973d f0a8 c63c a83a 13bd 9898 49bd
000001a0: c08e 68bb 40a8 05bd 40f4 6b3c 887f 8bbc
000001b0: e68e 803d 202c afbd 42ea fe3d a097 463d
000001c0: 10d2 67bc 2069 53bd c855 d9bc aad3 b8bd
000001d0: e00b a3bc 604e f33c 1e3a e73d 54fe 0fbd
000001e0: 3896 d9bc 0c47 46bd c850 b43d 60d5 47bc
000001f0: 720a ffbd d477 043d e89b 81bc d894 afbd
00000200: ea9e 143e 05aa a33e 8f98 263f 84f3 98bd
00000210: d4ad 02be 349c 723d 0f6e 82bf 9bba 4d3f
00000220: cc3d 16bd 086d afbc e6d9 233f 7823 e6be
00000230: cc2d a63e c06d 7fbd c394 163d 30cd 053e
00000240: dc1e a83d 2da5 1bbf fbbb 413d a797 2f3d
00000250: 6827 3d3d f8d5 33bd 0b3e 103c b2ad c13d
00000260: f3a1 96be 4cd5 20bd 0c8c 143f 34b9 00be
00000270: a804 87be 0db4 d03e e682 c33c 1d36 b7bc
00000280: ad7f 89bd 7a31 1c3e 888c b93c 0044 4e3a
00000290: f70c 84be 70b5 e5bc 2ee9 b5be db01 063e
000002a0: 57f6 f0bd 3574 fc3d 4716 8abe 38e6 b6bb
000002b0: cac2 a6be ff11 bc3e 7dd9 2b3f 0553 863c
000002c0: 22c4 86bd 0a6a 5fbe dab1 9ebd bcd6 f4bd
000002d0: 3e88 4cbe a832 503e c699 223e 75bb c8bc
000002e0: 7472 c7be c602 c73d f86f bb3d 94af 18be
000002f0: e5d5 d2bd 80cd 383b 8e30 073e a551 b73d
00000300: 5284 afbd b80d 97bd b452 c4bd e018 443c
00000310: f065 8abc 9ed3 f73d 80f5 bc3d e880 18bd
00000320: 086d 9cbd 00c6 af3c 18f8 d5bc 78d6 f3bc
00000330: 20df ed3b 3000 333c 2027 51bd dcfd 7d3d
00000340: 78b7 fbbc 20f0 1b3c b814 f7bc 5237 ab3d
00000350: 1818 65bd d036 b8bc 5480 0ebd 8817 bdbd
00000360: 186f ce3d 22e4 8f3d 5a36 823d 0088 14b9
00000370: 3c8d a83d c0e4 12bb 8858 ca3d 406f aa3d
00000380: f83b cf3c 92cd ea3d c0f4 6a3d 90f4 fcbc
00000390: 803b 463c f41e 783d 80d0 cc3d 30f7 7dbd
000003a0: 4899 963d 70bf f1bc b80e 933c 5810 9e3d
000003b0: 381f 213d 54df 52bd a020 4b3d ec8d fcbd
000003c0: 50d7 2ebc a69e e7bd 7633 b1bd 508f ee3d
000003d0: e894 db3c 98af 04bd d051 b1bd 3cd4 07bd
000003e0: 1070 b6bc 04ba 2ebd 0082 d2bd f87e d93c
000003f0: ac57 573d 80ef 0fbc 6cc9 d0bd 0ac6 b9bd

fc2.bias f4 [64]
1.8020167 -0.04485491 1.5105823 -0.11560002 2.172805 0.71582544 -0.07289041 0.09842794
-0.0061025154 0.0539318 1.1187232 1.6375092 -0.0010713672 -0.033065587 2.090955 1.7218513
2.2074156 -0.0692459 -2.0957272 2.350169 2.1746473 0.04909639 0.008262905 -0.07920365
0.023001928 -0.11040686 0.056237016 -0.12684703 -0.04964359 -1.843979 1.5008153 1.5028081
-0.1150087 2.0548234 2.2695143 0.10689198 0.45546424 -0.0012336952 -0.064748004 0.827937
0.9754512 -0.00036157653 0.0629653 -0.048649255 1.5186944 1.5196124 0.0408549 0.9053724
0.8370052 1.060978 2.3183734 -0.066519424 1.5445551 -2.136628 -0.03136107 0.073727995
0.20794682 1.9184679 -0.01276838 -0.051667422 0.9771846 1.4997734 0.05612601 -0.11497539
00000000: 7ca8 e63f c8b9 37bd c35a c13f b4bf ecbd
00000010: 3d0f 0b40 5640 373f 9147 95bd 9694 c93d
00000020: 9cf7 c7bb 97e7 5c3d 5232 8f3f e799 d13f
00000030: 1e6d 8cba c86f 07bd 35d2 0540 a065 dc3f
00000040: 4c46 0d40 cbd0 8dbd 6520 06c0 2b69 1640
00000050: 6c2d 0b40 4c19 493d 2361 073c 8635 a2bd
00000060: 8a6e bc3c fe1c e2bd c958 663d 30e4 01be
00000070: 1457 4bbd 8107 ecbf b71a c03f 045c c03f
00000080: ae89 ebbd 3a82 0340 b93f 1140 2fea da3d
00000090: 9c32 e93e f1b3 a1ba 9a9a 84bd aef3 533f
000000a0: 2bb7 793f fb91 bdb9 f4f3 803d 7144 47bd
000000b0: 9464 c23f a982 c23f 7857 273d 7cc6 673f
000000c0: f945 563f 21ce 873f 3b60 1440 563b 88bd
000000d0: fbb3 c53f 83be 08c0 7774 00bd b4fe 963d
000000e0: 03f0 543e 5b90 f53f 7832 51bc 38a1 53bd
000000f0: c528 7a3f 93f8 bf3f 63e4 653d 3878 ebbd

fc3.weight f4 [20, 64]
0.29273272 0.08005497 0.19989532 -0.048612192 0.5329257 -0.5017762 0.034823228 0.048151344
0.08859311 -0.04336108 0.08716141 0.1263957 -0.015400773 -0.07006221 -1.1716694 -0.27230385
0.48499835 0.045624927 -0.35365003 0.8248764 0.40097913 0.010137225 -0.07167438 -0.051473856
0.0449146 -0.10175246 -0.04224083 -0.053088382 0.12310715 -0.45745373 0.13458063 0.1332964
0.037534535 -0.5553573 0.5269752 -0.0657618 0.30604246 0.045731965 0.09753057 0.17699674
-0.4186074 0.009516997 -0.07947744 -0.115637034 0.0819958 0.108381145 0.025438413 -0.15195554
0.020009227 0.10795175 0.61656743 0.11671874 0.17708173 -0.58676535 0.0076639205 0.036008377
-0.026744302 0.4943085 -0.0039640404 0.0014569759 0.11569046 -1.0817301 -0.0701886 0.059059396
0.20156284 -0.092532754 0.25664654 -0.00559929 0.67455107 -0.020443512 0.00032629556 0.12052733
-0.021646917 -0.07635421 -0.24613398 0.13775325 0.02454529 -0.09869173 -0.969317 -0.38990256
0.43855926 0.059885964 -0.4958985 0.5583106 0.31384203 0.002142627 0.13533708 -0.077538125
0.034928195 -0.100910455 0.14345491 0.008493885 0.1348765 -0.3866716 0.26417604 0.1554071
0.070484534 -0.67343843 0.55829805 0.0743565 -0.08387305 -0.0052851588 0.084538594 0.4572776
-0.7979847 0.0034400374 -0.03708402 0.08438772 0.0060304394 0.27695116 -0.110997275 0.2689082
0.15304087 0.25537872 0.6086242 -0.014829233 0.20848571 -0.4608517 -0.03860274 -0.028076202
0.058627445 0.36248684 -0.032046724 0.06775248 -0.20355563 -0.6450701 -0.053502455 0.09988551
0.24120334 0.03612405 0.28181085 -0.004188642 0.6433495 -0.4208598 -0.07759989 -0.027406305
-0.039837077 -0.03993639 -0.65386444 0.13580804 -0.018628327 -0.09322598 -0.8549387 -0.23818511
0.36984473 -0.056252733 -0.14510857 0.6024153 0.35851982 0.0021660584 -0.042846095 -0.02969759
-0.12603968 -0.11560856 0.11816268 0.02109237 0.032634024 -0.24255493 0.15822966 0.06311139
-0.09802233 -0.7774417 0.6353339 -0.10641132 -0.01609587 -0.08904276 -0.0038373768 0.080144346
-0.30707008 0.054780856 -0.0082491925 -0.104906246 0.32737046 0.07911454 0.101631746 0.010269506
0.2698351 0.25542325 0.5151111 0.10175927 0.093192 -0.20837845 -0.0018304884 -0.08728348
0.27293655 0.38117093 0.112463705 -0.063541114 -0.16999456 -0.840002 -0.059930153 0.09086524
0.17037782 0.089649126 0.3342894 0.03529015 0.6335382 0.3444541 0.04620584 -0.0049393475
-0.0325249 -0.17988865 -0.06409834 0.23575892 0.09183531 -0.22185113 -0.8426709 -0.5004853
0.39139652 0.066064075 -0.58364093 0.5317581 0.4219838 0.026033595 -0.045382593 0.06772709
0.008230284 0.07757218 -0.058978498 0.0072176666 0.08364452 -0.4113293 0.06319072 0.21600313
-0.029247105 -0.702994 0.54646605 -0.025644243 0.14565186 0.07696403 -0.013635695 0.3864878
-0.23733042 0.06615785 0.07592597 -0.021133482 0.23419137 0.08463776 -0.08403316 -0.08127709
0.2696865 0.3482956 0.64616627 0.085295156 0.008200846 -0.3131738 -0.09481698 -0.042645186
0.25856358 0.12763079 0.01568982 -0.040994823 0.045586657 -0.6425469 0.08043574 -0.062962234
00000000: 10e1 953e dcf3 a33d 5cb1 4c3e 941d 47bd
00000010: d26d 083f 6874 00bf cda2 0e3d 583a 453d
00000020: 4e70 b53d 639b 31bd ae81 b23d e06d 013e
00000030: 8653 7cbc c77c 8fbd 43f9 95bf 696b 8bbe
00000040: b451 f83e 34e1 3a3d 9e11 b5be 1a2b 533f
00000050: 234d cd3e 9a16 263c 04ca 92bd 40d6 52bd
00000060: 5ff8 373d 9863 d0bd b804 2dbd 3473 59bd
00000070: 9a1f fc3d 6037 eabe 81cf 093e da7e 083e
00000080: d0bd 193d e52b 0ebf d9e7 063f 1fae 86bd
00000090: 99b1 9c3e 7151 3b3d 1cbe c73d a23e 353e
000000a0: b653 d6be 2eed 1b3c 11c5 a2bd 1cd3 ecbd
000000b0: 6aed a73d eff6 dd3d 3864 d03c 3c9a 1bbe
000000c0: 64ea a33c cf15 dd3d 5dd7 1d3f 3c0a ef3d
000000d0: ea54 353e 4136 16bf a021 fb3b 857d 133d
000000e0: de16 dbbc 0116 fd3e c8e4 81bb 00f8 be3a
000000f0: 1fef ec3d 2276 8abf 0abf 8fbd 44e8 713d
00000100: 7d66 4e3e d081 bdbd 2d67 833e 407a b7bb
00000110: 61af 2c3f 2779 a7bc a612 ab39 08d7 f63d
00000120: e054 b1bc 995f 9cbd 8c0a 7cbe 300f 0d3e
00000130: 3413 c93c e41e cabd 2925 78bf 4fa1 c7be
00000140: d78a e03e fc4a 753d 68e6 fdbe 72ed 0e3f
00000150: e7af a03e 516b 0c3b ce95 0a3e 4fcc 9ebd
00000160: de10 0f3d 24aa cebd d8e5 123e f029 0b3c
00000170: 111d 0a3e d2f9 c5be 1542 873e 0a23 1f3e
00000180: 325a 903d 7666 2cbf 9fec 0e3f 3848 983d
00000190: a2c5 abbd 202f adbb 9222 ad3d 4a20 ea3e
000001a0: ba48 4cbf 4072 613b 6ae5 17bd 78d3 ac3d
000001b0: fe9a c53b 8bcc 8d3e 8a52 e3bd 56ae 893e
000001c0: bfb6 1c3e 00c1 823e ccce 1b3f 50f6 72bc
000001d0: 477d 553e c1f4 ebbe e81d 1ebd 1000 e6bc
000001e0: 5523 703d e097 b93e 6d43 03bd d0c1 8a3d
000001f0: e370 50be 5023 25bf 6425 5bbd c690 cc3d
00000200: 02fe 763e d0f6 133d 8349 903e e040 89bb
00000210: 8eb2 243f f07a d7be b1ec 9ebd 3083 e0bc
00000220: 342c 23bd 5794 23bd a963 27bf 4311 0b3e
00000230: 6f9a 98bc 43ed bebd 43dd 5abf cce6 73be
00000240: 4a5c bd3e 4469 66bd 5797 14be e437 1a3f
00000250: e98f b73e 6ef4 0d3b 637f 2fbd 5c48 f3bc
00000260: 8c10 01be 2ec4 ecbd 46ff f13d e8c9 ac3c
00000270: 41ab 053d 5260 78be f506 223e 8b40 813d
00000280: eebf c8bd 6b06 47bf 3ea5 223f 2eee d9bd
00000290: 7cdb 83bc 0d5c b6bd 807c 7bbb b822 a43d
000002a0: 4a38 9dbe e461 603d 9f27 07bc 16d9 d6bd
000002b0: 1a9d a73e ce06 a23d 4e24 d03d 6e41 283c
000002c0: d427 8a3e d6c6 823e 52de 033f 2a67 d03d
000002d0: 73db be3d 2961 55be 00ed efba aec1 b2bd
000002e0: 57be 8b3e d628 c33e 5f53 e63d d821 82bd
000002f0: 0e13 2ebe 5f0a 57bf 5279 75bd 8e17 ba3d
00000300: 8677 2e3e f699 b73d fb27 ab3e 688c 103d
00000310: 8f2f 223f 4a5c b03e 5642 3d3d 40da a1bb
00000320: d438 05bd bb34 38be fe45 83bd c96a 713e
00000330: 2714 bc3d f12c 63be 48b9 57bf ce1f 00bf
00000340: 2065 c83e 9a4c 873d 7e69 15bf 4d21 083f
00000350: 430e d83e 6844 d53c 19e3 39bd 80b4 8a3d
00000360: 50d8 063c 2ade 9e3d 7093 71bd 2d82 ec3b
00000370: d14d ab3d c199 d2be 236a 813d ed2f 5d3e
00000380: a097 efbc 6af7 33bf 33e5 0b3f e013 d2bc
00000390: c325 153e 519f 9d3d 4068 5fbc bbe1 c53e
000003a0: bf06 73be c47d 873d 137f 9b3d 2020 adbc
000003b0: ddcf 6f3e 9056 ad3d 9419 acbd 9a74 a6bd
000003c0: 5914 8a3e cd53 b23e 276b 253f 3aaf ae3d
000003d0: d75c 063c 5158 a0be 682f c2bd b8ac 2ebd
000003e0: 7262 843e a5b1 023e f087 803c 30ea 27bd
000003f0: 13b9 3a3d f47d 24bf 7ebb a43d 58f2 80bd

fc3.bias f4 [20]
1.8715572 0.86480606 0.83518857 0.5844126 0.6375079 0.48747808 0.3348521 0.5024228
0.17474316 0.14044718 0.34058395 0.08537477 0.2058353 0.08935146 -0.07453497 -0.27951768
-0.16350709 -0.15908208 -0.29911712 -0.28756872
00000000: 308f ef3f ee63 5d3f ebce 553f 109c 153f
00000010: b833 233f ba96 f93e bc71 ab3e c89e 003f
00000020: dfef 323e 63d1 0f3e 0561 ae3e f8d8 ae3d
00000030: 7dc6 523e e6fd b63d caa5 98bd f11c 8fbe
00000040: 676e 27be 6ae6 22be e125 99be 353c 93be

fc1.weight f4 [64, 3]
-0.10251548 0.18900791 0.32783538 -0.279168 0.5071463 0.15662752 -0.50374055 -0.22813565
0.06007013 -0.05423534 -0.14721793 -0.06254923 -0.5786693 -0.7569661 0.21560925 -0.13447578
-0.44031155 0.0014648725 0.17342238 0.21108352 -0.1254868 -0.6457214 -0.20938508 -0.00095467997
0.51622444 0.45973012 0.103623725 -0.3887924 -0.033555392 -0.43671605 -0.026265943 0.06070984
-0.4504387 -0.28194842 -0.5141511 -0.06837794 -0.20197445 -0.10483044 0.016971156 0.5182782
-0.19015613 0.12733658 0.0345467 -0.07601017 0.05069894 -0.15007846 0.39710566 0.26466304
-0.39704382 -0.053594664 0.14293276 0.22013156 0.15690967 -0.1626888 0.34776992 -0.38502035
-0.16176529 -0.04808325 0.30460334 0.06677854 -0.35271722 -0.5761401 -0.26984358 -0.49213812
-0.15529765 -0.36839542 0.12159546 0.48672628 0.11735554 0.33016542 -0.22966877 0.30808958
-0.52627873 -0.2934462 -0.061240543 -0.2767447 -0.24442169 -0.56960654 -0.23642391 -0.27282587
0.075825326 0.42733645 -0.25322938 0.08317438 -0.7954533 -0.41987032 0.105345815 0.02676271
-0.47577095 0.22738872 -0.30476373 0.048957527 0.13705681 -0.13791509 -0.6494132 -0.034859292
-0.13730332 0.17673054 -0.08789689 -0.10110222 -0.33791453 0.36681283 0.176404 -0.32055923
-0.2539846 -0.3526346 -0.2198523 -0.2272633 -0.07505937 -0.4999788 0.031489123 0.23260267
0.0009715557 -0.23008609 -0.8589975 -0.2035387 0.1658203 -0.09302622 0.30020514 0.15777817
-0.30767903 -0.8022461 -0.0019082311 0.11374347 0.28242785 0.055153687 0.23684324 -0.077679925
-0.051339477 0.32457188 0.32124436 0.18268421 -0.1463329 -0.34757605 -0.049010713 -0.22720988
0.16777 0.09451685 0.22958773 -0.24629208 -0.68735 -0.2553737 0.036074895 -0.05150742
0.011896082 -0.115453295 0.061021324 0.16314243 0.25021026 -0.27098995 0.028416395 -0.3691707
-0.030994117 -0.413052 -0.14400354 -0.52238387 -0.2988246 -0.60521716 0.16071165 -0.115052134
0.36403346 0.07874743 0.5324229 0.21543834 0.27533603 0.07910013 0.011616064 0.062342253
0.09783202 0.2192062 -0.40170553 0.7357198 0.19012643 0.43391302 0.03599888 -0.09739265
-0.17783591 -0.28704736 -0.4895835 0.28887033 0.16141704 -0.22750509 -0.040378135 -0.52551115
-0.5044147 -0.17744395 0.2984808 -0.06762704 0.06711077 0.260714 0.22195421 0.07925312
00000000: a3f3 d1bd 4a8b 413e 0ada a73e 1cef 8ebe
00000010: 57d4 013f f762 203e 24f5 00bf 649c 69be
00000020: 190c 763d e025 5ebd 4cc0 16be d019 80bd
00000030: ac23 14bf 88c8 41bf acc8 5c3e 05b4 09be
00000040: 8470 e1be f700 c03a a395 313e 4726 583e
00000050: 9d7f 00be ff4d 25bf 0b69 56be 7d43 7aba
00000060: 4927 043f bf61 eb3e ad38 d43d cc0f c7be
00000070: 6171 09bd 3f99 dfbe ad2b d7bc e2aa 783d
00000080: e79f e6be 8b5b 90be 689f 03bf bc09 8cbd
00000090: 64d2 4ebe 57b1 d6bd 1807 8b3c e1ad 043f
000000a0: 4ab8 42be 8564 023e d780 0d3d 38ab 9bbd
000000b0: b1a9 4f3d 2bae 19be 6f51 cb3e ea81 873e
000000c0: 5449 cbbe 1486 5bbd f75c 123e 2b6a 613e
000000d0: eeac 203e e597 26be e60e b23e 6321 c5be
000000e0: cda5 25be f1f2 44bd f8f4 9b3e 30c3 883d
000000f0: 5a97 b4be eb7d 13bf f028 8abe 87f9 fbbe
00000100: 5906 1fbe 539e bcbe 0a07 f93d 3034 f93e
00000110: 1a58 f03d 710b a93e 4a2e 6bbe ebbd 9d3e
00000120: 34ba 06bf 953e 96be 5dd7 7abd 7bb1 8dbe
00000130: ae49 7abe bcd1 11bf 1c19 72be d5af 8bbe
00000140: 4f4a 9b3d d8cb da3e 48a7 81be 5457 aa3d
00000150: d4a2 4bbf 3ef9 d6be 8cbf d73d 793d db3c
00000160: 4098 f3be 97d8 683e fe09 9cbe b087 483d
00000170: 9f58 0c3e 9d39 0dbe f23f 26bf 9ec8 0ebd
00000180: 3e99 0cbe daf8 343e 4903 b4bd ae0e cfbd
00000190: 2203 adbe e4ce bb3e 40a3 343e 5720 a4be
000001a0: 450a 82be 868c b4be f620 61be b6b7 68be
000001b0: bab8 99bd 39fd ffbe bdfa 003d 652f 6e3e
000001c0: 00b0 7e3a b09b 6bbe 43e7 5bbf 736c 50be
000001d0: cccc 293e 8884 bebd 7db4 993e 9a90 213e
000001e0: 1b88 9dbe 0060 4dbf 9c1d faba 56f2 e83d
000001f0: 629a 903e d5e8 613d 0987 723e a716 9fbd
00000200: 5849 52bd 492e a63e 247a a43e 9211 3b3e
00000210: 4bd8 15be 7df5 b1be 75bf 48bd b5a9 68be
00000220: e6cb 2b3e 0d92 c13d 0c19 6b3e fe33 7cbe
00000230: 2bf6 2fbf 57c0 82be 45c3 133d 72f9 52bd
00000240: c9e7 423c c772 ecbd 7ff1 793d cf0e 273e
00000250: 8f1b 803e 32bf 8abe 80c9 e83c f103 bdbe
00000260: 60e7 fdbc 8d7b d3be aa75 13be f3ba 05bf
00000270: 8aff 98be 83ef 1abf 9891 243e 74a0 ebbd
00000280: 9862 ba3e 5546 a13d de4c 083f de9b 5c3e
00000290: d8f8 8c3e 40ff a13d 4e51 3e3c 975a 7f3d
000002a0: 275c c83d 9777 603e 59ac cdbe 2258 3c3f
000002b0: 81b0 423e d929 de3e 9073 133d cc75 c7bd
000002c0: 9e1a 36be dff7 92be b0aa fabe d0e6 933e
000002d0: 824a 253e 18f7 68be 8b63 25bd e687 06bf
000002e0: 5221 01bf deb3 35be 7ad2 983e 0c80 8abd
000002f0: 5f71 893d 4e7c 853e f747 633e 764f a23d

fc1.bias f4 [64]
1.3568465 3.4022338 3.9700475 -0.340183 -3.1311123 3.062792 4.387037 4.1537247
-2.4706867 2.8962708 3.9638224 2.4713557 3.3807745 2.9183772 3.0183084 -0.8646826
2.4293306 4.088621 -0.2507665 2.479534 -0.4189071 1.3184061 0.3624879 -2.427403
3.3993473 -0.088908374 3.835017 2.8504303 -3.8267083 3.1810305 2.100702 2.6493216
-0.18854214 -1.9034328 -0.5167546 0.1327338 2.5679655 -0.18286195 -3.5536351 -0.8206148
1.6474848 3.3484888 1.9899263 -1.0996494 1.6800498 2.5304697 2.6106956 1.2520709
2.8686202 3.7537627 0.21434045 0.4422661 -3.4076786 2.8477995 -1.2281345 3.6251373
3.622117 -2.7112503 -0.53733265 -2.4493835 2.2684085 -0.047917366 3.7112672 2.8027067
00000000: 25ad ad3f 33be 5940 4215 7e40 772c aebe
00000010: 2564 48c0 c904 4440 9b62 8c40 50eb 8440
00000020: bb1f 1ec0 805c 3940 44af 7d40 b12a 1e40
00000030: 9c5e 5840 b1c6 3a40 f72b 4140 d75b 5dbf
00000040: 277a 1b40 fcd5 8240 7764 80be afb0 1e40
00000050: fe7a d6be 88c1 a83f 0498 b93e 925a 1bc0
00000060: e88e 5940 9815 b6bd eb70 7540 736d 3640
00000070: cae8 74c0 0196 4b40 e771 0640 7c8e 2940
00000080: 3111 41be b0a3 f3bf 084a 04bf 5feb 073e
00000090: 8c59 2440 2a40 3bbe c26e 63c0 d013 52bf
000000a0: c8e0 d23f a44d 5640 e8b5 fe3f 50c1 8cbf
000000b0: df0b d73f 37f3 2140 a315 2740 dc43 a03f
000000c0: 7997 3740 a63d 7040 107c 5b3e b470 e23e
000000d0: 6817 5ac0 5942 3640 8333 9dbf 4002 6840
000000e0: c4d0 6740 2085 2dc0 a28e 09bf b3c2 1cc0
000000f0: 9b2d 1140 0045 44bd 6785 6d40 8c5f 3340

fc2.weight f4 [64, 64]
-0.030675028 0.115108915 1.1905935 0.04864864 -0.10264638 -0.022321416 -0.60994846 1.4351403
-0.15132256 -0.28152195 0.69696665 -0.10906436 0.343272 0.33090097 0.102742374 0.12699735
-0.0034144174 -0.28178635 -0.0038614238 -0.056714237 0.0006135851 0.010720286 0.041261584 0.15004517
0.022205591 0.06812228 0.7158226 0.43543956 -0.1896508 0.34115618 -0.10927863 -0.014401379
-0.08280354 0.16090634 0.009106124 -0.09575702 -0.22531606 0.013924345 -0.38282356 -0.031468377
-0.023026971 0.11272789 -0.46696368 0.0288529 -0.16495559 0.15279122 0.2597796 0.13003267
0.3158333 -0.27392697 -0.103374414 0.042104512 -0.11069067 0.07287617 0.07906001 0.16845316
-0.32150784 -0.018317925 0.10782247 -0.018180672 -0.18502071 -0.004068345 0.4634489 -0.055695128
-0.11298779 -0.06716092 0.08123636 0.054671288 -0.11915621 -0.08265495 0.039543286 0.09079242
-0.10505082 0.052332148 0.037986204 -0.0501585 0.016985789 -0.045022577 -0.08021559 -0.09333886
0.11369836 -0.0829 -0.04926574 0.013441697 -0.08600779 -0.105742216 0.11483748 -0.115945
-0.075758174 0.090017766 0.12081878 -0.10906224 -0.023376063 0.0032228678 -0.015781164 -0.03583607
-0.09931132 0.104538515 0.02677916 0.031222992 0.07397123 0.024250478 -0.03594461 -0.04921779
-0.0035485476 -0.03263116 0.014401495 -0.017028585 0.06277256 -0.08553338 0.12447025 0.048484445
-0.014149301 -0.051613927 -0.026530161 -0.09024747 -0.019903123 0.029700458 0.11290383 -0.035154656
-0.026560888 -0.0484076 0.0880447 -0.012196869 -0.12453164 0.03234084 -0.015821412 -0.085733116
0.14128673 0.3146969 0.6621957 -0.07468322 -0.12294189 0.040498458 -1.0267339 0.82567286
-0.043839023 -0.05005233 0.5358732 -0.3085332 0.32868773 -0.06240556 0.044112243 0.1266239
0.08627523 -0.62147397 -0.026984068 0.040635526 0.04618016 -0.04728111 0.0030803587 0.0915999
-0.22088075 -0.039265916 0.59629714 -0.12306608 -0.23685145 0.4039179 0.028423471 0.030326737
-0.13623291 0.1488674 0.022650018 0.0007868409 -0.26705655 -0.028040618 -0.34307998 0.12968998
-0.10066252 0.11986844 -0.27194437 -0.0101524815 -0.20451054 0.36953273 0.6530728 -0.040772658
-0.05668182 -0.24418001 -0.07748766 -0.1195502 -0.19004408 0.20035653 0.15375811 -0.022458086
-0.46767858 0.09139338 0.09152216 -0.14098537 -0.099385746 0.002819866 0.13305384 0.086261295
-0.0857016 -0.073756635 -0.09586087 0.011968821 -0.01689431 0.12101017 0.09226546 -0.03723231
-0.07638061 0.021456718 -0.026119279 -0.029765353 0.0072592646 0.010925338 -0.051062703 0.06201012
-0.030727522 0.009517774 -0.03016127 0.08360161 -0.05593118 -0.022487074 -0.034790352 -0.09233004
0.10079783 0.07025935 0.06358035 -0.00014165044 0.08230063 -0.0022414178 0.09880167 0.08322033
0.02529715 0.11464991 0.057362318 -0.030878399 0.012099147 0.060576394 0.10000706 -0.062003314
0.07353455 -0.02951023 0.017951475 0.07717961 0.039336413 -0.051482514 0.04959166 -0.12331757
-0.010671452 -0.11309557 -0.086523935 0.116484284 0.026804741 -0.03239402 -0.086581826 -0.033161387
-0.022270232 -0.042657867 -0.10278702 0.026549801 0.052573845 -0.008785129 -0.10194668 -0.09070976
00000000: 324a fbbc 39be eb3d 5e65 983f cc43 473d
00000010: 4438 d2bd 67db b6bc 9525 1cbf adb2 b73f
00000020: 4df4 1abe a523 90be 686c 323f 235d dfbd
00000030: 59c1 af3e da6b a93e 986a d23d 980b 023e
00000040: 6bc4 5fbb 4d46 90be f10f 7dbb 304d 68bd
00000050: 00d9 203a 23a4 2f3c e801 293d 71a5 193e
00000060: 80e8 b53c b283 8b3d 2640 373f eff1 de3e
00000070: d233 42be 06ac ae3e 79cd dfbd c3f3 6bbc
00000080: e794 a9bd a2c4 243e da31 153c 421c c4bd
00000090: 41b9 66be f022 643c 7301 c4be fce4 00bd
000000a0: 0fa3 bcbc e1dd e63d dd15 efbe eb5c ec3c
000000b0: 1eea 28be 4d75 1c3e d501 853e 4927 053e
000000c0: e7b4 a13e 2840 8cbe f7b5 d3bd c875 2c3d
000000d0: cab1 e2bd 1a40 953d 37ea a13d fc7e 2c3e
000000e0: ad9c a4be 790f 96bc 07d2 dc3d a2ef 94bc
000000f0: 1276 3dbe c04f 85bb 2d49 ed3e 9320 64bd
00000100: 2466 e7bd aa8b 89bd 405f a63d 00ef 5f3d
00000110: 2c08 f4bd 0047 a9bd 24f8 213d 60f1 b93d
00000120: e224 d7bd 3c5a 563d 6c97 1b3d 0073 4dbd
00000130: c825 8b3c 9869 38bd 1248 a4bd 7228 bfbd
00000140: b0da e83d 7ac7 a9bd dfca 49bd 903a 5c3c
00000150: da24 b0bd 608f d8bd ea2f eb3d 9274 edbd
00000160: 1a27 9bbd 3c5b b83d d66f f73d 065c dfbd
00000170: 287f bfbc c036 533b 8047 81bc d8c8 12bd
00000180: bc63 cbbd 4a18 d63d f85f db3c 5cc7 ff3c
00000190: 3a7e 973d f0a8 c63c a83a 13bd 9898 49bd
000001a0: c08e 68bb 40a8 05bd 40f4 6b3c 887f 8bbc
000001b0: e68e 803d 202c afbd 42ea fe3d a097 463d
000001c0: 78d2 67bc 2069 53bd c855 d9bc aad3 b8bd
000001d0: e00b a3bc 604e f33c 203a e73d 54fe 0fbd
000001e0: 3896 d9bc 0c47 46bd c850 b43d 60d5 47bc
000001f0: 720a ffbd d477 043d e89b 81bc d894 afbd
00000200: 78ad 103e f41f a13e a885 293f 84f3 98bd
00000210: f5c8 fbbd b6e1 253d 046c 83bf 4c5f 533f
00000220: 8c90 33bd ac03 4dbd fc2e 093f 10f8 9dbe
00000230: c249 a83e f99c 7fbd 0aaf 343d b2a9 013e
00000240: 11b1 b03d eb18 1fbf b10d ddbc 7071 263d
00000250: 6827 3d3d d6a9 41bd d8df 493b ba98 bb3d
00000260: 902e 62be 4cd5 20bd eea6 183f 120a fcbd
00000270: 3089 72be 54ce ce3e 57d8 e83c c76f f83c
00000280: a480 0bbe b270 183e 888c b93c 0044 4e3a
00000290: a3bb 88be 70b5 e5bc 2ea8 afbe 73cd 043e
000002a0: 2728 cebd 967d f53d 4b3c 8bbe 9856 26bc
000002b0: 366b 51be 6533 bd3e c72f 273f 3b01 27bd
000002c0: 322b 68bd 530a 7abe dab1 9ebd bcd6 f4bd
000002d0: ea9a 42be 432a 4d3e c472 1d3e 05fa b7bc
000002e0: 9173 efbe 742c bb3d f86f bb3d 785e 10be
000002f0: c18a cbbd 80cd 383b 443f 083e c3a9 b03d
00000300: 5284 afbd b80d 97bd b452 c4bd e018 443c
00000310: f065 8abc 2ed4 f73d acf5 bc3d e880 18bd
00000320: 706d 9cbd 00c6 af3c 19f8 d5bc 78d6 f3bc
00000330: 20df ed3b 3000 333c 2027 51bd 53fe 7d3d
00000340: 49b8 fbbc 70f0 1b3c c514 f7bc 5237 ab3d
00000350: 1818 65bd d036 b8bc 5480 0ebd 8817 bdbd
00000360: 186f ce3d 22e4 8f3d 6a36 823d 0088 14b9
00000370: 3c8d a83d c0e4 12bb 8858 ca3d 6c6f aa3d
00000380: f83b cf3c 92cd ea3d c0f4 6a3d b2f4 fcbc
00000390: 803b 463c f41e 783d 80d0 cc3d 30f7 7dbd
000003a0: 4899 963d 70bf f1bc f90e 933c 5810 9e3d
000003b0: 381f 213d 54df 52bd a020 4b3d ec8d fcbd
000003c0: 50d7 2ebc a69e e7bd 7633 b1bd 508f ee3d
000003d0: 9e95 db3c 98af 04bd d051 b1bd 3cd4 07bd
000003e0: 1070 b6bc 04ba 2ebd 0082 d2bd f87e d93c
000003f0: ac57 573d 80ef 0fbc 6cc9 d0bd 0ac6 b9bd

fc2.bias f4 [64]
1.8105284 -0.04485494 1.5010436 -0.11560097 2.1723228 0.7768242 -0.07288624 0.09842794
-0.006102337 0.053933583 1.1090133 1.6296253 -0.0010696859 0.0006628273 2.1096947 1.7074963
2.2077725 -0.062032565 -2.0956073 2.3399513 2.1791193 0.049099263 0.008263266 -0.07920442
0.02300303 -0.11040785 0.056454785 -0.12684777 -0.049641997 -1.8438935 1.4944677 1.4818468
-0.11500492 2.0426338 2.2672296 0.106898576 0.45425355 -0.0012326805 -0.064748004 0.82807964
1.0379889 -0.0003615761 0.06296939 -0.048647333 1.5351138 1.5401685 0.0408549 0.90129375
0.83850205 1.0851178 2.3161535 -0.066519424 1.550802 -2.1366158 -0.031358037 0.07373562
0.20814595 1.9198159 -0.012768132 -0.051667422 0.9772009 1.4885477 0.056127805 -0.11497512
00000000: 65bf e73f d0b9 37bd 3222 c03f 34c0 ecbd
00000010: 5607 0b40 f3dd 463f 6245 95bd 9694 c93d
00000020: 1df6 c7bb 76e9 5c3d 26f4 8d3f 9097 d03f
00000030: b434 8cba 96c1 2d3a 3d05 0740 3d8f da3f
00000040: 254c 0d40 dc15 7ebd 6e1e 06c0 c3c1 1540
00000050: b176 0b40 4f1c 493d a662 073c ed35 a2bd
00000060: da70 bc3c 831d e2bd 223d 673d 62e4 01be
00000070: 6855 4bbd b404 ecbf b84a bf3f 28ad bd3f
00000080: b387 ebbd 83ba 0240 4a1a 1140 a4ed da3d
00000090: ec93 e83e e591 a1ba 9a9a 84bd 07fd 533f
000000a0: d2dc 843f ec91 bdb9 18f6 803d 6d42 47bd
000000b0: 9c7e c43f 3e24 c53f 7857 273d 30bb 663f
000000c0: 12a8 563f 24e5 8a3f dc3b 1440 563b 88bd
000000d0: ae80 c63f 50be 08c0 4971 00bd b302 973d
000000e0: 3624 553e 87bc f53f 6d31 51bc 38a1 53bd
000000f0: d729 7a3f bb88 be3f 45e6 653d 1378 ebbd

fc3.weight f4 [20, 64]
0.2954921 0.08005497 0.198243 -0.048612192 0.53120464 -0.50752515 0.034826323 0.048151862
0.08859972 -0.043364797 0.10330883 0.1493619 -0.015402276 -0.10330289 -1.2039716 -0.27799705
0.48398572 0.045624927 -0.3536836 0.8248894 0.39973757 0.0101384 -0.07167923 -0.051473856
0.044914544 -0.10175246 -0.04245503 -0.053088382 0.123103805 -0.45748642 0.1406782 0.13745795
0.037534647 -0.50839454 0.52528536 -0.06576339 0.33517638 0.045734115 0.09753057 0.17702214
-0.40856537 0.009516843 -0.07948009 -0.115638226 0.060283445 0.08366241 0.025438413 -0.11832513
0.0203127 0.11734387 0.6154657 0.11671874 0.18782882 -0.58678544 0.0076639205 0.03601098
-0.026743272 0.49851206 -0.003964458 0.0014569759 0.11569782 -1.0374262 -0.07019655 0.059059653
0.16887449 -0.09253368 0.27157614 -0.00559929 0.6778601 -0.08996357 0.000326305 0.12052733
-0.02164701 -0.07635825 -0.07671508 0.107438944 0.024545323 -0.053919133 -0.9916692 -0.3894297
0.4479145 0.059886675 -0.49590215 0.5463395 0.30637434 0.0021362083 0.13532664 -0.07754291
0.03492691 -0.100910455 0.14325802 0.008493885 0.1348647 -0.38667524 0.2267007 0.1423636
0.070484534 -0.6960516 0.55945283 0.07435403 0.04991038 -0.0052851588 0.08453911 0.4573076
-0.7908972 0.0034400374 -0.037087604 0.08438772 0.060181033 0.26215276 -0.110997275 0.4385813
0.15331024 0.22435796 0.6028846 -0.014829233 0.17471395 -0.46085417 -0.03860274 -0.028076202
0.058627512 0.34687617 -0.03204722 0.067752734 -0.20354429 -0.6697643 -0.053505167 0.09988551
0.2396199 0.03612405 0.28485557 -0.004188642 0.64065033 -0.44239 -0.07760252 -0.027406383
-0.039837077 -0.039933767 -0.6384467 0.15192726 -0.018629484 -0.094666995 -0.8665211 -0.22705652
0.3694596 -0.056252733 -0.14511682 0.5983234 0.35492504 0.0021665152 -0.042843256 -0.029699327
-0.1260282 -0.11560856 0.11816401 0.02109237 0.0326321 -0.24257167 0.1805395 0.063862465
-0.09802233 -0.7760769 0.6320988 -0.10640684 0.014242971 -0.08903931 -0.0038373768 0.08024907
-0.29865742 0.054780856 -0.008249297 -0.104906246 0.29554284 0.070002526 0.101631746 0.117820315
0.2690006 0.27568746 0.5118111 0.10175927 0.1031021 -0.20838797 -0.00183048 -0.08728348
0.27291828 0.38025352 0.112471685 -0.063541114 -0.16998719 -0.8490638 -0.05993138 0.09086524
0.1717069 0.089650266 0.35190934 0.03529015 0.62580913 0.36146414 0.04620723 -0.0049393475
-0.0325249 -0.17988169 -0.0641225 0.19029859 0.09184076 -0.2062087 -0.8323803 -0.45621777
0.39027545 0.066064075 -0.583686 0.5347519 0.41092333 0.026033595 -0.04538021 0.06772709
0.0082306685 0.077572726 -0.058978498 0.0072180755 0.08365247 -0.41135183 0.1313505 0.2712376
-0.029247105 -0.6859498 0.536672 -0.025644299 0.053913042 0.076969214 -0.013635695 0.3864319
-0.23384085 0.06615829 0.07593357 -0.021133482 0.1186739 0.11320597 -0.08403316 -0.06484457
0.27076337 0.290869 0.6389007 0.085295156 0.056543093 -0.31318173 -0.09481698 -0.042645186
0.2585534 0.1239205 0.015690193 -0.040994823 0.04558349 -0.62898695 0.08044123 -0.062962234
00000000: be4a 973e dcf3 a33d 3700 4b3e 941d 47bd
00000010: 07fd 073f 2bed 01bf 0ca6 0e3d e33a 453d
00000020: c573 b53d 499f 31bd 9493 d33d 53f2 183e
00000030: d459 7cbc 7790 d3bd be1b 9abf a155 8ebe
00000040: facc f73e 34e1 3a3d 0416 b5be f42b 533f
00000050: 67aa cc3e 881b 263c 8fcc 92bd 40d6 52bd
00000060: 50f8 373d 9863 d0bd 53e5 2dbd 3473 59bd
00000070: d91d fc3d a93b eabe f20d 103e c7c1 0c3e
00000080: eebd 193d 2526 02bf 1a79 063f f5ae 86bd
00000090: 3d9c ab3e b253 3b3d 1cbe c73d 4b45 353e
000000a0: 7b2f d1be 88ec 1b3c 75c6 a2bd bcd3 ecbd
000000b0: c6eb 763d 3357 ab3d 3864 d03c 7254 f2bd
000000c0: d266 a63c fc51 f03d 298f 1d3f 3c0a ef3d
000000d0: 3356 403e 9237 16bf a021 fb3b 4080 133d
000000e0: b514 dbbc f93c ff3e 49e8 81bb 00f8 be3a
000000f0: fbf2 ec3d 62ca 84bf 35c3 8fbd 89e8 713d
00000100: 6fed 2c3e 4c82 bdbd 070c 8b3e 407a b7bb
00000110: 3d88 2d3f d23e b8bd ea13 ab39 08d7 f63d
00000120: 1255 b1bc b761 9cbd cc1c 9dbd f308 dc3d
00000130: 4613 c93c 4fda 5cbd 08de 7dbf 5463 c7be
00000140: 0d55 e53e bb4b 753d e3e6 fdbe e8dc 0b3f
00000150: 19dd 9c3e a1ff 0b3b 1193 0a3e d1ce 9ebd
00000160: 850f 0f3d 24aa cebd 3bb2 123e f029 0b3c
00000170: f919 0a3e 4cfa c5be 3a24 683e c3c7 113e
00000180: 325a 903d 7030 32bf 4d38 0f3f ed46 983d
00000190: d46e 4c3d 202f adbb d722 ad3d 3924 ea3e
000001a0: 3d78 4abf 4072 613b 2ce9 17bd 78d3 ac3d
000001b0: 6380 763d e338 863e 8a52 e3bd ba8d e03e
000001c0: 5cfd 1c3e 18be 653e a556 1a3f 50f6 72bc
000001d0: 37e8 323e 14f5 ebbe e81d 1ebd 1000 e6bc
000001e0: 6723 703d c199 b13e f243 03bd f2c1 8a3d
000001f0: ea6d 50be ac75 2bbf 3c28 5bbd c690 cc3d
00000200: eb5e 753e d0f6 133d 97d8 913e e040 89bb
00000210: a901 243f f180 e2be 12ee 9ebd 5a83 e0bc
00000220: 342c 23bd 9791 23bd 3e71 23bf d292 1b3e
00000230: dc9c 98bc c5e0 c1bd 54d4 5dbf 8181 68be
00000240: cf29 bd3e 4469 66bd 8199 14be b92b 193f
00000250: bcb8 b53e 18fc 0d3b 697c 2fbd 014c f3bc
00000260: 890d 01be 2ec4 ecbd f9ff f13d e8c9 ac3c
00000270: 3da9 053d b564 78be 59df 383e 53ca 823d
00000280: eebf c8bd faac 46bf 3ad1 213f d4eb d9bd
00000290: 5a5b 693c 3e5a b6bd 807c 7bbb a059 a43d
000002a0: a0e9 98be e461 603d 0f28 07bc 16d9 d6bd
000002b0: 6451 973e 7c5d 8f3d 4e24 d03d c74b f13d
000002c0: 72ba 893e e826 8d3e 0d06 033f 2a67 d03d
000002d0: 3227 d33d a863 55be b7ec efba aec1 b2bd
000002e0: f2bb 8b3e 97b0 c23e 8e57 e63d d821 82bd
000002f0: 1f11 2ebe 3f5c 59bf 9b7a 75bd 8e17 ba3d
00000300: efd3 2f3e 8f9a b73d 762d b43e 688c 103d
00000310: 0735 203f d411 b93e cb43 3d3d 40da a1bb
00000320: d438 05bd e832 38be a852 83bd a2dd 423e
00000330: 0217 bc3d 6028 53be e016 55bf 6095 e9be
00000340: 2fd2 c73e 9a4c 873d 726c 15bf 80e5 083f
00000350: 8b64 d23e 6844 d53c 99e0 39bd 80b4 8a3d
00000360: edd9 063c 73de 9e3d 7093 71bd 9b85 ec3b
00000370: fc51 ab3d b59c d2be bf80 063e a8df 8a3e
00000380: a097 efbc 689a 2fbf 5663 093f fe13 d2bc
00000390: ecd3 5c3d 09a2 9d3d 4068 5fbc 67da c53e
000003a0: fa73 6fbe ff7d 873d 0f83 9b3d 2020 adbc
000003b0: 4d0b f33d 88d8 e73d 9419 acbd 3bcd 84bd
000003c0: 7fa1 8a3e c8ec 943e ff8e 233f 3aaf ae3d
000003d0: bb99 673d 5b59 a0be 682f c2bd b8ac 2ebd
000003e0: 1c61 843e 08ca fd3d b888 803c 30ea 27bd
000003f0: c1b5 3a3d 4a05 21bf 5fbe a43d 58f2 80bd

fc3.bias f4 [20]
1.8500936 0.87333864 0.825703 0.57542163 0.66245145 0.46240777 0.3323984 0.52187425
0.19569826 0.11011238 0.35209578 0.080449834 0.19847089 0.089295715 -0.07551052 -0.285661
-0.18145229 -0.1433222 -0.27854562 -0.27500334
00000000: decf ec3f 1f93 5f3f 4661 533f d54e 133f
00000010: 6b96 293f b6c0 ec3e 2030 aa3e 8d99 053f
00000020: 2065 483e 9982 e13d e645 b43e e2c2 a43d
00000030: f43b 4b3e ace0 b63d 42a5 9abd 2942 92be
00000040: a1ce 39be 0ec3 12be 889d 8ebe 3dcd 8cbe

exp_avg f4 [64, 3]
-7.5923667 2.655614 27.972687 -9.677771 5.3793874 51.08414 0.530909 11.52111
80.84969 0.0 0.0 0.0 0.05704809 1.090358 6.7215166 -0.024731994
-0.46551946 3.0929122 54.380344 -22.86965 -102.44542 -0.0633784 -5.4852643 35.644333
-9.275889 0.17496996 17.316423 -0.104884304 -0.93238467 -0.119727746 2.673219 10.508702
5.8738422 0.1566133 0.13315712 3.201611 4.067149 -0.61912847 9.682681 -9.601777
7.0212817 60.415745 -1.6796724 1.924795 19.662155 -13.799563 5.4249835 47.57793
-0.7841601 3.1281784 20.169388 55.34504 21.84452 25.588722 0.11863832 -0.006340044
0.35113323 -4.0055184 -0.49453348 11.044461 0.0 0.0 0.0 6e-45
6e-45 6e-45 -7.329521 1.1811893 19.859804 -6.892959 1.7419543 20.215971
0.108708136 0.12838218 2.7479904 0.0 0.0 0.0 -2.1124487 22.81205
111.45287 -3.9144232 5.192483 34.937996 0.18872048 3.6420376 -12.89018 1.0884095
1.6789875 20.305971 -3.035502 0.9242731 14.732264 0.038298506 0.053505853 1.0886967
-0.009750988 -0.15621264 -0.13787147 -5.539662 16.298191 59.46485 0.0 0.0
0.0 0.0 0.0 0.0 -0.29312202 0.031921845 1.6082424 0.0
0.0 0.0 -0.058199193 -2.8713868 -18.8281 -8.613505 3.0225399 28.202375
6e-45 6e-45 6e-45 -4.49204 0.90658134 19.325466 0.50854635 -1.1695541
-2.6113546 -9.685563 2.1314318 29.136343 0.005165544 0.015517952 0.44820547 -4.0362835
2.6571264 27.109798 6e-45 6e-45 6e-45 -0.02962364 -0.1354651 0.004870903
-1.810098 3.1839006 27.262672 26.499615 24.912146 21.477737 0.0 0.0
0.0 0.0 0.0 0.0 0.03952908 0.6701547 5.2782397 -6.4673395
1.6313388 29.248669 -10.650719 2.9253962 33.93391 -4.763872 3.7807148 34.463577
21.207 22.120089 21.39011 -13.3679495 2.724661 37.875637 0.0 0.0
0.0 -2.4829786 7.4460897 24.500788 5.90573 1.5317177 1.3652977 0.0
0.0 0.0 -5.7429953 5.7873535 46.02203 -6.168582 2.9591675 28.87578
00000000: abf4 f2c0 94f5 2940 10c8 df41 26d8 1ac1
00000010: f123 ac40 2956 4c42 a7e9 073f 7756 3841
00000020: 0bb3 a142 0000 0000 0000 0000 0000 0000
00000030: 42ab 693d da90 8b3f aa16 d740 c09a cabc
00000040: 9158 eebe 46f2 4540 7985 5942 0bf5 b6c1
00000050: 0ee4 ccc2 89cc 81bd 4987 afc0 cc93 0e42
00000060: 0b6a 14c1 532b 333e 0988 8a41 95cd d6bd
00000070: c3b0 6ebf d233 f5bd 0516 2b40 a523 2841
00000080: 84f6 bb40 3d5f 203e 575a 083e 32e7 4c40
00000090: 1626 8240 347f 1ebf 43ec 1a41 e1a0 19c1
000000a0: 57ae e040 b9a9 7142 81ff d6bf af5f f63f
000000b0: 184c 9d41 03cb 5cc1 7799 ad40 cd4f 3e42
000000c0: b7be 48bf 1334 4840 e85a a141 5261 5d42
000000d0: 94c1 ae41 b4b5 cc41 a6f8 f23d 25c0 cfbb
000000e0: bcc7 b33e 352d 80c0 7e33 fdbe 1db6 3041
000000f0: 0000 0000 0000 0000 0000 0000 0400 0000
00000100: 0400 0000 0400 0000 708b eac0 3631 973f
00000110: e1e0 9e41 1f93 dcc0 5cf8 de3f 4fba a141
00000120: 5fa2 de3d 9e76 033e 13df 2f40 0000 0000
00000130: 0000 0000 0000 0000 5c32 07c0 147f b641
00000140: dfe7 de42 e985 7ac0 d228 a640 82c0 0b42
00000150: f13f 413e 2517 6940 2d3e 4ec1 0151 8b3f
00000160: 10e9 d63f a172 a241 aa45 42c0 299d 6c3f
00000170: 5ab7 6b41 e5de 1c3d f428 5b3d 6a5a 8b3f
00000180: 9cc2 1fbc 35f6 1fbe 2e2e 0dbe e944 b1c0
00000190: b262 8241 02dc 6d42 0000 0000 0000 0000
000001a0: 0000 0000 0000 0000 0000 0000 0000 0000
000001b0: 1714 96be 7bc0 023d e3da cd3f 0000 0000
000001c0: 0000 0000 0000 0000 4762 6ebd cdc4 37c0
000001d0: f39f 96c1 ebd0 09c1 4b71 4140 779e e141
000001e0: 0400 0000 0400 0000 0400 0000 cbbe 8fc0
000001f0: b715 683f 8e9a 9a41 1830 023f f3b3 95bf
00000200: 6f20 27c0 11f8 1ac1 6169 0840 3b17 e941
00000210: b943 a93b 023f 7e3c 307b e53e 3c29 81c0
00000220: 5c0e 2a40 dee0 d841 0400 0000 0400 0000
00000230: 0400 0000 47ad f2bc 5db7 0abe 199c 9f3b
00000240: 4bb1 e7bf 07c5 4b40 f419 da41 36ff d341
00000250: 134c c741 68d2 ab41 0000 0000 0000 0000
00000260: 0000 0000 0000 0000 0000 0000 0000 0000
00000270: 3fe9 213d 428f 2b3f 57e7 a840 72f4 cec0
00000280: b6cf d03f 46fd e941 5869 2ac1 b139 3b40
00000290: 53bc 0742 a471 98c0 3bf7 7140 b4da 0942
000002a0: f0a7 a941 f1f5 b041 f21e ab41 1fe3 55c1
000002b0: d960 2e40 a780 1742 0000 0000 0000 0000
000002c0: 0000 0000 1fe9 1ec0 5e46 ee40 9d01 c441
000002d0: bdfb bc40 530f c43f 13c2 ae3f 0000 0000
000002e0: 0000 0000 0000 0000 9ec6 b7c0 0032 b940
000002f0: 8f16 3842 0665 c5c0 0063 3d40 9901 e741

exp_avg_sq f4 [64, 3]
1274.6405 1487.0447 21555.96 1821.3126 2658.2583 75662.14 60.82695 2626.0789
200925.8 0.0 0.0 0.0 2.7156594 46.640514 3511.5425 3.2580848
2.0756726 1302.0297 58789.453 61925.754 289101.28 42.406967 2718.643 378982.84
1826.7749 2035.6506 12191.465 0.77850544 44.940563 1.4142528 383.63477 2960.991
685.8433 17.684607 2.2187335 660.0328 710.72217 1317.2078 30983.107 1733.7966
2860.8586 101880.875 38.85552 243.1987 14690.979 4248.794 4759.333 55390.426
16.233295 232.28952 16113.517 56674.15 56433.03 209414.22 50.991135 5.8650746
68.86438 270.80225 376.51328 6846.513 0.0 0.0 0.0 1.8164694e-09
2.2792632e-08 2.037217e-09 1087.7767 1262.1556 12899.379 1128.4156 909.87335 11741.651
0.4952853 2.0083551 209.62724 0.0 0.0 0.0 516.9981 4098.202
300092.4 318.519 724.72406 36274.375 5.726601 265.24924 63950.293 78.22108
323.84088 17203.943 94.73621 240.51828 10033.284 0.16335714 0.038972337 22.23948
0.6512517 10.779753 6.52142 2455.698 1645.3309 54691.02 0.0 0.0
0.0 0.0 0.0 0.0 31.053314 3.042193 508.23645 0.0
0.0 0.0 5.2148194 357.1119 26816.088 1631.6007 1845.0035 20037.234
0.020532269 0.029800722 216.3139 377.85107 570.8553 14478.098 23.45502 23.353481
279.7874 2029.856 2287.4568 24502.996 0.12048149 0.04368578 16.522726 293.71722
612.6676 24846.549 1.9226776e-05 5.001898e-05 1.922921e-05 0.031607404 0.88986826 0.98788905
65.52706 409.0381 27233.691 17976.78 21626.855 43788.29 0.0 0.0
0.0 0.0 0.0 0.0 2.7598178 31.804924 2720.1936 747.892
1151.952 29573.762 2508.1538 2825.7 30649.533 428.85925 878.11584 38425.605
7332.2026 13875.932 12457.754 3946.0408 4375.621 41956.95 0.0 0.0
0.0 188.90521 180.02478 8511.654 708.28674 351.08884 2996.9905 0.0
0.0 0.0 673.6914 1370.3145 60440.105 709.49756 988.26056 25226.504
00000000: 7f54 9f44 6ee1 b944 ec67 a846 01aa e344
00000010: 2224 2645 12c7 9347 cc4e 7342 4321 2445
00000020: 7337 4448 0000 0000 0000 0000 0000 0000
00000030: 5dcd 2d40 e38f 3a42 ae78 5b45 7684 5040
00000040: d2d7 0440 f3c0 a244 74a5 6547 c1e5 7147
00000050: a929 8d48 bca0 2942 4aea 2945 db0c b948
00000060: cc58 e444 d274 fe44 dc7d 3e46 224c 473f
00000070: 23c3 3342 3c06 b53f 40d1 bf43 db0f 3945
00000080: f975 2b44 137a 8d41 bbff 0d40 1902 2544
00000090: 38ae 3144 a6a6 a444 370e f246 7eb9 d844
000000a0: bdcd 3245 70fc c647 0d6c 1b42 de32 7343
000000b0: ea8b 6546 5ac6 8445 aaba 9445 6d5e 5847
000000c0: cadd 8141 1e4a 6843 11c6 7b46 2662 5d47
000000d0: 0871 5c47 8e81 4c48 ecf6 4b42 b1ae bb40
000000e0: 90ba 8942 b066 8743 b341 bc43 1bf4 d545
000000f0: 0000 0000 0000 0000 0000 0000 56a7 f930
00000100: 87c9 c332 1aff 0b31 dbf8 8744 fbc4 9d44
00000110: 848d 4946 4d0d 8d44 e577 6344 9b76 3746
00000120: 0996 fd3e e488 0040 93a0 5143 0000 0000
00000130: 0000 0000 0000 0000 e13f 0144 9e11 8045
00000140: 8d87 9248 6f42 9f43 572e 3544 60b2 0d47
00000150: 5140 b740 e79f 8443 4bce 7947 3171 9c42
00000160: a2eb a143 e367 8646 f178 bd42 ae84 7043
00000170: 23c5 1c46 1847 273e 75a1 1f3d 74ea b141
00000180: 6eb8 263f de79 2c41 79af d040 2b7b 1945
00000190: 97aa cd44 05a3 5547 0000 0000 0000 0000
000001a0: 0000 0000 0000 0000 0000 0000 0000 0000
000001b0: 306d f841 4ab3 4240 441e fe43 0000 0000
000001c0: 0000 0000 0000 0000 cddf a640 538e b243
000001d0: 2d80 d146 39f3 cb44 1da0 e644 788a 9c46
000001e0: 4a33 a83c a520 f43c 5c50 5843 f0ec bc43
000001f0: bdb6 0e44 6438 6246 e2a3 bb41 eed3 ba41
00000200: cae4 8b43 64bb fd44 4ff7 0e45 fe6d bf46
00000210: 00bf f63d dcef 323d 8b2e 8441 cedb 9243
00000220: ba2a 1944 191d c246 3049 a137 79cb 5138
00000230: 6a4e a137 c476 013d 68ce 633f 4ce6 7c3f
00000240: db0d 8342 e084 cc43 62c3 d446 8f71 8c46
00000250: b6f5 a846 4a0c 2b47 0000 0000 0000 0000
00000260: 0000 0000 0000 0000 0000 0000 0000 0000
00000270: dba0 3040 7c70 fe41 1903 2a45 17f9 3a44
00000280: 77fe 8f44 860b e746 76c2 1c45 339b 3045
00000290: 1173 ef46 fc6d d643 6a87 5b44 9b19 1647
000002a0: 9f21 e545 bacf 5846 04a7 4246 a7a0 7645
000002b0: f8bc 8845 f3e4 2347 0000 0000 0000 0000
000002c0: 0000 0000 bce7 3c43 5806 3443 9efe 0446
000002d0: 5a12 3144 5f8b af43 d94f 3b45 0000 0000
000002e0: 0000 0000 0000 0000 406c 2844 104a ab44
000002f0: 1b18 6c47 d85f 3144 ad10 7744 0215 c546
