beergame/baseline/models/dqn_agent_firm_1_episode_2000.pth (torch, 101224 bytes, 24 tensors)

fc1.weight f4 [64, 3]
0	0xbde357f1	-0.11100758
1	0x3e66bdff	0.22533415
2	0x3ea57735	0.3231751
3	0xbe909d5a	-0.2824505
4	0x3f0d2557	0.551351
5	0x3dd933c9	0.1060558
6	0xbe8e4a79	-0.27791193
7	0xbd99dad8	-0.07512444
8	0x3d5aae88	0.053389102
9	0xbd5e25e0	-0.05423534
10	0xbe16c042	-0.14721778
11	0xbd8019d0	-0.06254923
12	0xbf25b5c8	-0.647305
13	0xbf307dfd	-0.6894224
14	0x3e8376fd	0.25676718
15	0x3e323f5d	0.17406984
16	0xbdec04d1	-0.11524356
17	0x3cc8a7dd	0.024494106
18	0x3e21998f	0.15781234
19	0x3e771f71	0.24133088
20	0xbdfacd7e	-0.12246226
21	0xbea176f5	-0.3153607
22	0xbe58a38a	-0.21156135
23	0x3ce6d2a8	0.02817662
24	0x3efa6249	0.4890311
25	0x3ee9a526	0.4563381
26	0x3d945073	0.07241907
27	0xbec66b55	-0.38753763
28	0x3c86ac31	0.01643953
29	0x3c0e54b5	0.008687188
30	0xbdca5a57	-0.09880512
31	0x3d95c9eb	0.073139034
32	0xbec629f5	-0.38703886
33	0xbe672400	-0.22572327
34	0xbf170e54	-0.5900624
35	0x3d038961	0.032113437
36	0xbe2f2abb	-0.17106144
37	0xbdf179c6	-0.117908046
38	0x3d11d174	0.03560014
39	0x3f0bf801	0.546753
40	0xbe4a037d	-0.19727893
41	0x3d5b6e35	0.0535719
42	0x3e36be5e	0.17846057
43	0x3d8e20bb	0.069398366
44	0x39564662	0.0002043485
45	0xbe4a4b0e	-0.19755194
46	0x3ebe8a93	0.372151
47	0x3e764735	0.24050601
48	0xbed2c716	-0.41167516
49	0x3d9e8d90	0.07741845
50	0x3e117e8d	0.14208432
51	0x3e5686aa	0.20949808
52	0x3e6c2256	0.23059973
53	0xbe3ef68c	-0.18648738
54	0x3ea2387b	0.31683716
55	0xbe66278f	-0.22476028
56	0xbdc76c2b	-0.09737428
57	0xbba2f495	-0.004973004
58	0x3ed5675c	0.4168042
59	0x3cb8b672	0.022547934
60	0xbeb4975a	-0.35271722
61	0xbf137deb	-0.5761401
62	0xbe8a28f0	-0.26984358
63	0xbe1be5dd	-0.15224405
64	0xbbcfa8d6	-0.0063372655
65	0xbc317342	-0.010830702
66	0x3de192b9	0.11014313
67	0x3f04b519	0.51838833
68	0x3dc22d20	0.09481263
69	0x3eb91869	0.36151436
70	0xbea6c455	-0.32571664
71	0x3eb17866	0.3466217
72	0xbe95dbac	-0.2926916
73	0xbe836c28	-0.25668454
74	0xbb0f2432	-0.0021841642
75	0xbe8db17b	-0.2767447
76	0xbe7a49ae	-0.24442169
77	0xbf11d1bc	-0.56960654
78	0xbda80f74	-0.082060724
79	0xbdf6138c	-0.12015447
80	0x3d2c78fa	0.04210756
81	0x3f0a76b6	0.5408739
82	0xbe14c1f8	-0.14527118
83	0x3cb014e5	0.021494338
84	0xbead39bd	-0.33833113
85	0xbe163dba	-0.14671984
86	0x3dce757f	0.10081004
87	0x3e0edaf7	0.13950716
88	0xbf02d08e	-0.5109948
89	0x3e24475c	0.16042846
90	0xbed6cfea	-0.419555
91	0x3e275436	0.16340718
92	0x3dc81378	0.09769338
93	0x3e44e4fd	0.19227977
94	0xbf130c7a	-0.5744091
95	0x3cc32de4	0.023825593
96	0xbdaabe59	-0.08337087
97	0x3eba3782	0.36370474
98	0x3c119751	0.008886174
99	0xbd5b85a1	-0.053594235
100	0xbee8cb44	-0.4546758
101	0x3ebecb2a	0.37264377
102	0x3e34a340	0.176404
103	0xbea42057	-0.32055923
104	0xbe820a45	-0.2539846
105	0xbeb48c86	-0.3526346
106	0xbe6120f6	-0.2198523
107	0xbe68b7b6	-0.2272633
108	0x3da21486	0.07914071
109	0x3d3a3145	0.045457143
110	0xbd6f37b1	-0.05840272
111	0x3e6e2f2c	0.23260182
112	0x3a7eb000	0.0009715557
113	0xbe6b9bb0	-0.23008609
114	0xbeee109f	-0.46497056
115	0xbe53600c	-0.20642108
116	0x3e21edea	0.15813413
117	0xbdfbd488	-0.122963965
118	0x3e96df42	0.29467207
119	0x3e1d3062	0.15350488
120	0xbdd42282	-0.10358144
121	0xbeb164a3	-0.34647092
122	0x3e224e51	0.15850188
123	0x3e34afed	0.17645235
124	0x3ec861af	0.39137027
125	0x3a0f5ebe	0.0005469135
126	0x3e807c7d	0.25094977
127	0x3d939afb	0.072072946
128	0xbdb90096	-0.09033315
129	0x3e9b1c43	0.30295
130	0x3ea5a03c	0.32348812
131	0x3e2d2bf7	0.16911303
132	0xbc8f9254	-0.01752583
133	0xbe39100d	-0.18072529
134	0xbd61eb70	-0.05515617
135	0xbe335cb5	-0.17515834
136	0x3e938a6f	0.28816554
137	0x3d7214f4	0.059102014
138	0x3ed580ab	0.41699728
139	0xbe848eeb	-0.25890288
140	0xbf0002a5	-0.50004035
141	0xbe4611b5	-0.19342692
142	0x3e88f581	0.26749805
143	0x3da7a42f	0.081856124
144	0x3e061b6a	0.13096395
145	0x3ccc21a3	0.024918383
146	0x3beea78e	0.0072831577
147	0x3e5b5d14	0.21422225
148	0x3e722ed1	0.23650672
149	0xbe8e8eea	-0.2784341
150	0x3ce8c980	0.028416395
151	0xbebd03f1	-0.3691707
152	0xbcfde760	-0.030994117
153	0xbed37b8d	-0.413052
154	0xbe1375aa	-0.14400354
155	0xbf05baf3	-0.52238387
156	0xbed31676	-0.41228074
157	0xbf10b17c	-0.5652082
158	0x3e46bfb0	0.1940906
159	0xbdba7389	-0.09104068
160	0x3ee09ae3	0.4386817
161	0x3cd5ca99	0.026097583
162	0x3f02250d	0.50837785
163	0x3e58c3c1	0.21168424
164	0x3e826daf	0.25474307
165	0x3e12030a	0.14258972
166	0x3dd78906	0.10524182
167	0x3ba155fa	0.0049235793
168	0x3d8eb0fc	0.06967351
169	0x3e7f326a	0.24921575
170	0xbebddaa8	-0.37080884
171	0x3f306a9c	0.68912673
172	0x3e255af9	0.16147985
173	0x3ed6bbe1	0.41940215
174	0x3d137390	0.03599888
175	0xbdc775cc	-0.09739265
176	0xbe361a9e	-0.17783591
177	0xbed12a9e	-0.40852827
178	0xbee7c12c	-0.45264566
179	0x3ea7c664	0.32768548
180	0x3e0cf006	0.13763437
181	0xbe839dfd	-0.25706473
182	0x3c27ac7d	0.0102339955
183	0xbf068792	-0.52550614
184	0xbf012152	-0.5044147
185	0xbe35b3de	-0.17744395
186	0x3ebc3dd8	0.36765933
187	0x3be47541	0.0069719856
188	0x3a5fb6ea	0.0008534031
189	0x3e974635	0.2954575
190	0x3e8fa0c2	0.28052336
191	0x3c88f2ec	0.016717397

fc1.bias f4 [64]
0	0x3fbd1549	1.4772121
1	0x4061ee84	3.5301828
2	0x40848bd2	4.142068
3	0xbeae2c6b	-0.34018263
4	0xc052329b	-3.2843387
5	0x405a45ce	3.4105105
6	0x408753ca	4.228978
7	0x4086a55b	4.207685
8	0xc01b24ec	-2.4241285
9	0x403928bc	2.8931112
10	0x407c49ad	3.9419968
11	0x4016a941	2.3540804
12	0x4062505f	3.5361555
13	0x40428936	3.0396247
14	0x4050e46c	3.2639418
15	0xbf54e12e	-0.83156097
16	0x402a2cad	2.6589768
17	0x407e3a69	3.972315
18	0xbe4fb485	-0.20283706
19	0x402c1245	2.688615
20	0xbed67afe	-0.4189071
21	0x3fbf4ed3	1.494593
22	0x3eecfb29	0.4628537
23	0xc016319a	-2.3467774
24	0x405800e2	3.375054
25	0xbdb61598	-0.088908374
26	0x40814329	4.0394483
27	0x40430fa1	3.047829
28	0xc06d7d52	-3.710774
29	0x40667fa3	3.6015403
30	0x4013a064	2.3066645
31	0x403ab6c9	2.9174063
32	0x3c88e5c6	0.016711127
33	0xbff3383a	-1.9001534
34	0xbf044a08	-0.5167546
35	0x3e07eaf4	0.13273221
36	0x401e92b4	2.477704
37	0xbe3b4000	-0.18286133
38	0xc05fcaa7	-3.496744
39	0xbf40f05c	-0.7536676
40	0x4008ec97	2.1394403
41	0x40627604	3.538453
42	0x3fd5bb24	1.6697736
43	0xbf83f2cb	-1.030847
44	0x3fbe09f1	1.4846784
45	0x402f44d6	2.7385764
46	0x4028fa56	2.6402793
47	0x3fbd5f47	1.4794701
48	0x404601d3	3.0938613
49	0x40677e75	3.6170933
50	0x3e5b7c10	0.21434045
51	0x3ee270b4	0.4422661
52	0xc0631017	-3.547857
53	0x40413421	3.0188067
54	0xbf94d2f4	-1.1626878
55	0x407374f6	3.8040137
56	0x4060e1fc	3.513793
57	0xc02b86e7	-2.6801088
58	0xbf098ea2	-0.53733265
59	0xc0247831	-2.569836
60	0x40087d0e	2.1326327
61	0xbd444500	-0.047917366
62	0x4077eeb4	3.8739443
63	0x403bbfb5	2.9335759

fc2.weight f4 [64, 64]
0	0xbc93fc2b	-0.018064579
1	0x3e3ff9e7	0.18747674
2	0x3fa5d47e	1.2955472
3	0x3d4743cc	0.04864864
4	0xbd3ceb7f	-0.046123024
5	0x3dca407b	0.0987558
6	0xbee02d45	-0.43784538
7	0x3fd24972	1.6428664
8	0xbdf96934	-0.12178269
9	0x3d09e16e	0.033662252
10	0x3e157e06	0.14598855
11	0x3bdb1ac2	0.0066865394
12	0x3eefc17c	0.46827304
13	0x3edd10d3	0.43176898
14	0x3e98110c	0.29700506
15	0x3e0b7f7e	0.13622853
16	0x3d5cf08b	0.053940337
17	0xbe394736	-0.18093571
18	0x3d901019	0.070343204
19	0x3d936d59	0.07198591
20	0x3a20d900	0.0006135851
21	0x3d739256	0.05946573
22	0x3dd472bf	0.103734486
23	0x3e132bd0	0.14372182
24	0x3e923c1e	0.2856149
25	0x3d8b83b2	0.06812228
26	0x3f66b8ae	0.9012555
27	0x3f1228ba	0.57093394
28	0xbdf2e755	-0.11860529
29	0x3ec65e63	0.38743886
30	0xbcaf79c9	-0.021420376
31	0x3d7702eb	0.060305517
32	0x3d83ac7e	0.06429385
33	0x3e24355d	0.16035981
34	0x3c153160	0.00910601
35	0xbdc41c42	-0.09575702
36	0xbe58ee26	-0.21184596
37	0x3c6422f0	0.013924345
38	0xbeae3e5c	-0.3403195
39	0x3b81dd63	0.003963159
40	0x3d74b754	0.059745148
41	0x3e7a89b1	0.24466588
42	0xbea31960	-0.31855297
43	0x3d700b30	0.05860442
44	0xbd97b286	-0.074070975
45	0x3e8ccfbf	0.27502248
46	0x3e7fdcfe	0.24986646
47	0x3e160e95	0.14654
48	0x3f057308	0.5212865
49	0xbe53afa5	-0.20672472
50	0xbdd3b5da	-0.1033742
51	0x3d2c75c8	0.042104512
52	0xbda33751	-0.07969535
53	0x3e4b71ec	0.19867676
54	0x3db6e4be	0.08930348
55	0x3eacc4dd	0.33743945
56	0xbea559d7	-0.32295105
57	0xbd039fe7	-0.032134917
58	0x3ddcd1da	0.107822135
59	0xbc0d707b	-0.008632774
60	0xbc2ddb73	-0.010611403
61	0xbb854fc0	-0.004068345
62	0x3f1d799b	0.6151368
63	0x3d8009e1	0.06251884
64	0xbde76624	-0.11298779
65	0xbd898baa	-0.06716092
66	0x3da65f40	0.08123636
67	0x3d5fef00	0.054671288
68	0xbdf4082c	-0.11915621
69	0xbda94700	-0.08265495
70	0x3d21f824	0.039543286
71	0x3db9f160	0.09079242
72	0xbdd724a2	-0.10505034
73	0x3d565a3c	0.052332148
74	0x3d1b976c	0.037986204
75	0xbd4d7300	-0.0501585
76	0x3c8b25c8	0.016985789
77	0xbd386928	-0.04502216
78	0xbda44812	-0.08021559
79	0xbdbf2872	-0.09333886
80	0x3de8dab0	0.11369836
81	0xbda9c77a	-0.0829
82	0xbd49ca88	-0.049265414
83	0x3c5c3a90	0.013441697
84	0xbdb024da	-0.08600779
85	0xbdd88f60	-0.105742216
86	0x3deb2fea	0.11483748
87	0xbded7492	-0.115945
88	0xbd9b271a	-0.075758174
89	0x3db85b3c	0.090017766
90	0x3df76fd6	0.12081878
91	0xbddf5c06	-0.10906224
92	0xbcbf7f28	-0.023376063
93	0x3b5336c0	0.0032228678
94	0xbc814780	-0.015781164
95	0xbd12c8d8	-0.03583607
96	0xbdcb63bc	-0.09931132
97	0x3dd6184a	0.104538515
98	0x3cdb5ff8	0.02677916
99	0x3cffc740	0.03122294
100	0x3d977e3a	0.07397123
101	0x3cc6a8f0	0.024250478
102	0xbd133aa8	-0.03594461
103	0xbd499898	-0.04921779
104	0xbb688ec0	-0.0035485476
105	0xbd05a840	-0.03263116
106	0x3c6bf440	0.014401495
107	0xbc8b7f88	-0.017028585
108	0x3d808ee6	0.06277256
109	0xbdaf2c20	-0.08553338
110	0x3dfeea42	0.12447025
111	0x3d4697a0	0.048484445
112	0xbc67d210	-0.014149204
113	0xbd536920	-0.051613927
114	0xbcd955c8	-0.026530161
115	0xbdb8d3aa	-0.09024747
116	0xbca30be0	-0.019903123
117	0x3cf34e60	0.029700458
118	0x3de73a1e	0.11290382
119	0xbd0ffe54	-0.035154656
120	0xbcd99638	-0.026560888
121	0xbd46470c	-0.0484076
122	0x3db450c8	0.0880447
123	0xbc47d560	-0.012196869
124	0xbdff0a72	-0.12453164
125	0x3d0477d4	0.03234084
126	0xbc819be8	-0.015821412
127	0xbdaf94d8	-0.085733116
128	0x3e1787b6	0.14797863
129	0x3ebeb7de	0.37249655
130	0x3f4e720d	0.8064278
131	0xbd98f384	-0.07468322
132	0xbd1a19a9	-0.037622128
133	0x3e2e1ded	0.17003603
134	0xbf6d662a	-0.92734015
135	0x3f9604f5	1.1720263
136	0xbcfac7df	-0.030612884
137	0xbe0ea31b	-0.13929407
138	0x3e2d08c1	0.1689787
139	0xbc687ae3	-0.014189455
140	0x3ee02043	0.43774614
141	0x3d0d55ae	0.03450554
142	0x3e585fe2	0.21130326
143	0x3dfec635	0.12440149
144	0x3e1186f6	0.1421164
145	0xbf15febb	-0.5859181
146	0xbdac0d1c	-0.08400938
147	0x3e133241	0.14374639
148	0x3d3d2768	0.04618016
149	0xbdc3b6ed	-0.09556375
150	0x3d428cff	0.047497746
151	0x3dbb8b04	0.091573745
152	0x3e57b936	0.21066746
153	0xbd20d54c	-0.039265916
154	0x3f510251	0.8164416
155	0xbb44b6eb	-0.0030016254
156	0xbe0ceac1	-0.13761427
157	0x3ef0faf7	0.4706647
158	0x3dd732b5	0.105077185
159	0x3e1fe61f	0.15615128
160	0xbcdcb46a	-0.026941497
161	0x3e1bbf9e	0.15209815
162	0x3cb98c88	0.022650018
163	0x3a4e4400	0.0007868409
164	0xbe8a3bfe	-0.26998895
165	0xbce5b570	-0.028040618
166	0xbe8c414f	-0.27393577
167	0x3e1eaf61	0.15496589
168	0x3d88d47b	0.066811524
169	0x3e65b784	0.22433287
170	0xbe3e601e	-0.18591353
171	0x3beff80e	0.0073232716
172	0xbdeaf3c0	-0.11472273
173	0x3ef597fc	0.47967517
174	0x3ed987ce	0.42486423
175	0xbd9525c6	-0.07282595
176	0x3e02b09f	0.12762688
177	0xbe47b9c3	-0.19504456
178	0xbd9eb1da	-0.07748766
179	0xbdf4d6bc	-0.1195502
180	0xbdfeb8d4	-0.12437597
181	0x3e9aa842	0.30206496
182	0x3e1f5416	0.1555942
183	0x3e007f99	0.12548675
184	0xbf089164	-0.5334685
185	0x3d8e4044	0.069458514
186	0x3dbb6ff8	0.09152216
187	0xbddaa513	-0.10676017
188	0xbcff613c	-0.031174295
189	0x3b38cd80	0.002819866
190	0x3e887036	0.2664811
191	0x3e3a7fcc	0.18212813
192	0xbdaf8452	-0.0857016
193	0xbd970db8	-0.073756635
194	0xbdc452b4	-0.09586087
195	0x3c4418e0	0.011968821
196	0xbc8a65f0	-0.01689431
197	0x3df7d39e	0.1210091
198	0x3dbcf580	0.09226513
199	0xbd1880e8	-0.03723231
200	0xbd9c6d08	-0.076379836
201	0x3cafc600	0.021456718
202	0xbcd5f818	-0.026119277
203	0xbcf3d678	-0.029765353
204	0x3beddf20	0.0072592646
205	0x3c330030	0.010925338
206	0xbd512720	-0.051062703
207	0x3d7dfddc	0.062009677
208	0xbcfbb778	-0.030727133
209	0x3c1bf020	0.0095176995
210	0xbcf714b8	-0.030161247
211	0x3dab3752	0.08360161
212	0xbd651818	-0.05593118
213	0xbcb836d0	-0.022487074
214	0xbd0e8054	-0.034790352
215	0xbdbd1788	-0.09233004
216	0x3dce6f18	0.10079783
217	0x3d8fe422	0.07025935
218	0x3d82365a	0.06358023
219	0xb9148800	-0.00014165044
220	0x3da88d3c	0.08230063
221	0xbb12e4c0	-0.0022414178
222	0x3dca5888	0.09880167
223	0x3daa6f40	0.083220005
224	0x3ccf3bf8	0.02529715
225	0x3deacd92	0.11464991
226	0x3d6af4c0	0.057362318
227	0xbcfcf490	-0.030878335
228	0x3c463b80	0.012099147
229	0x3d781ef4	0.060576394
230	0x3dccd080	0.10000706
231	0xbd7df730	-0.062003314
232	0x3d969948	0.07353455
233	0xbcf1bf70	-0.02951023
234	0x3c930eb8	0.017951354
235	0x3d9e1058	0.07717961
236	0x3d211f38	0.039336413
237	0xbd52df54	-0.051482514
238	0x3d4b20a0	0.04959166
239	0xbdfc8dec	-0.12331757
240	0xbc2ed750	-0.010671452
241	0xbde79ea6	-0.11309557
242	0xbdb13376	-0.086523935
243	0x3dee8f50	0.116484284
244	0x3cdb94e8	0.026804402
245	0xbd04af98	-0.03239402
246	0xbdb151d0	-0.086581826
247	0xbd07d43c	-0.033161387
248	0xbcb67010	-0.022270232
249	0xbd2eba04	-0.042657867
250	0xbdd28200	-0.10278702
251	0x3cd97ef8	0.026549801
252	0x3d5757ac	0.052573845
253	0xbc0fef80	-0.008785129
254	0xbdd0c96c	-0.10194668
255	0xbdb9c60a	-0.09070976

fc2.bias f4 [64]
0	0x3ff2f7ae	1.8981836
1	0xbd37b9c8	-0.04485491
2	0x3fcb151f	1.5865821
3	0xbdecbfb4	-0.11560002
4	0x400ca778	2.1977215
5	0x3f3d6d8b	0.73995274
6	0xbd954791	-0.07289041
7	0x3dc99496	0.09842794
8	0xbbc7f79c	-0.0061025154
9	0x3d5ce797	0.0539318
10	0x3f8a70f8	1.0815725
11	0x3fd4c342	1.6622088
12	0xba8c6d1e	-0.0010713672
13	0x3e372571	0.17885377
14	0x400b4247	2.1759202
15	0x3fd8c4ac	1.693502
16	0x400ff161	2.2491076
17	0xbd2ba7b4	-0.04190798
18	0xc0062065	-2.0957272
19	0x40137e7f	2.3045957
20	0x400f6ad1	2.2408946
21	0x3d80d28b	0.06290158
22	0x3c076123	0.008262905
23	0xbda23586	-0.07920365
24	0x3cbc6e8a	0.023001928
25	0xbde21cfe	-0.11040686
26	0x3db540e4	0.088502675
27	0xbe01e430	-0.12684703
28	0xbd4b5714	-0.04964359
29	0xbfec0781	-1.843979
30	0x3fd35b34	1.6512208
31	0x3fc84c2b	1.5648245
32	0xbdeb89ae	-0.1150087
33	0x4001efa4	2.0302515
34	0x4012aa75	2.2916539
35	0x3ddaea2f	0.10689198
36	0x3f09b5eb	0.5379321
37	0xbaa1b3f1	-0.0012336952
38	0xbd849a9a	-0.064748004
39	0x3f5e2eeb	0.8679034
40	0x3f91974a	1.1374295
41	0xb9bd91fb	-0.00036157653
42	0x3d80f3f4	0.0629653
43	0xbd474471	-0.048649255
44	0x3fc1bfc1	1.5136644
45	0x3fd48f19	1.660617
46	0x3d275778	0.0408549
47	0x3f7af1bd	0.98025113
48	0x3f82f9c6	1.0232475
49	0x3f9ad78c	1.209703
50	0x4015b0fa	2.3389268
51	0xbd883b56	-0.066519424
52	0x3fd5cc4d	1.6702973
53	0xc008be83	-2.136628
54	0xbd007477	-0.03136107
55	0x3d96feb4	0.073727995
56	0x3e757733	0.23971252
57	0x3ffb6489	1.9640056
58	0xbc513278	-0.01276838
59	0xbd53a138	-0.051667422
60	0x3f8acd8c	1.0843978
61	0x3fc6c984	1.5530248
62	0x3d65e463	0.05612601
63	0xbdeb7838	-0.11497539

fc3.weight f4 [20, 64]
0	0x3eb01914	0.34394133
1	0x3da3f3dc	0.08005497
2	0x3e55ff92	0.20898274
3	0xbd471d94	-0.048612192
4	0x3f086808	0.5328374
5	0xbdc6f029	-0.09713776
6	0x3d0ea2cd	0.034823228
7	0x3d453a58	0.048151344
8	0x3db5704e	0.08859311
9	0xbd319b63	-0.04336108
10	0xbdf5cba4	-0.12001732
11	0x3e796bc2	0.24357513
12	0xbc7c5386	-0.015400773
13	0xbe684579	-0.22682752
14	0xbfa3c180	-1.2793427
15	0xbe931bc0	-0.2873211
16	0x3eff3a4a	0.4984916
17	0x3d3ae134	0.045624927
18	0xbeb5119e	-0.35365003
19	0x3f6f4783	0.93468493
20	0x3ecd29ae	0.40070862
21	0x3c2bafe1	0.0104789445
22	0xbd92ca04	-0.07167438
23	0xbd52d640	-0.051473856
24	0x3d37f85f	0.0449146
25	0xbdd06398	-0.10175246
26	0xbd9790c2	-0.07400657
27	0xbd597334	-0.053088382
28	0x3dfc1f9a	0.12310715
29	0xbeea3760	-0.45745373
30	0x3e4ccbe6	0.19999656
31	0x3e5ee524	0.21767098
32	0x3d19bdd0	0.037534535
33	0xbefef37c	-0.4979514
34	0x3f065a6e	0.52481735
35	0xbd86ae1f	-0.0657618
36	0x3ecc1537	0.39859936
37	0x3d3b5171	0.045731965
38	0x3dc7be1c	0.09753057
39	0x3e4f5c18	0.20249975
40	0xbe1cd8ea	-0.15317121
41	0x3c1bed2e	0.009516997
42	0xbda2c511	-0.07947744
43	0xbdecd31c	-0.115637034
44	0x3d2fb04c	0.04289274
45	0x3e50e11d	0.20398374
46	0x3cd06438	0.025438413
47	0xbea6508b	-0.32483324
48	0x3d05a2ca	0.03262595
49	0x3dca914c	0.098909944
50	0x3f1fea51	0.62466913
51	0x3def0a3c	0.11671874
52	0x3e8a314f	0.26990744
53	0xbf163641	-0.58676535
54	0x3bfb21a0	0.0076639205
55	0x3d137d85	0.036008377
56	0xbcdb16de	-0.026744302
57	0x3f0c7741	0.5486947
58	0xbb81e4c8	-0.0039640404
59	0x3abef800	0.0014569759
60	0x3decef1f	0.11569046
61	0xbfa6ef35	-1.304175
62	0xbd8fbf0a	-0.0701886
63	0x3d71e844	0.059059396
64	0x3e337919	0.17526664
65	0xbdbd81d0	-0.092532754
66	0x3e8cf897	0.2753341
67	0xbbb77a40	-0.00559929
68	0x3f2b9cc1	0.6703606
69	0x3dcf80ac	0.10131964
70	0x39ab12a6	0.00032629556
71	0x3df6d708	0.12052733
72	0xbcb154e0	-0.021646917
73	0xbd9c5f99	-0.07635421
74	0x3e22f107	0.15912257
75	0x3e661ae6	0.22471198
76	0x3cc91334	0.02454529
77	0xbe31cb56	-0.17362723
78	0xbf7d5476	-0.98957
79	0xbedcd2a4	-0.43129456
80	0x3ee4b23c	0.44667232
81	0x3d754afc	0.059885964
82	0xbefde668	-0.4958985
83	0x3f12e179	0.57375294
84	0x3e9a73ec	0.30166566
85	0xbcf0d493	-0.029398238
86	0x3e0a95ce	0.13533708
87	0xbd9ecc4f	-0.077538125
88	0x3d0f10de	0.034928195
89	0xbdceaa24	-0.100910455
90	0x3de9ab6a	0.11409648
91	0x3c0b29f0	0.008493885
92	0x3e0a1d11	0.1348765
93	0xbec5f9d2	-0.3866716
94	0x3e5f0ec3	0.21782975
95	0x3e4525e8	0.19252741
96	0x3d905a32	0.070484534
97	0xbf570771	-0.8399573
98	0x3f0c7bc8	0.54876375
99	0x3d984838	0.0743565
100	0xbd87de8c	-0.06634244
101	0xbbad2f20	-0.0052851588
102	0x3dad2292	0.084538594
103	0x3f07a6a2	0.52988636
104	0xbe3cfd59	-0.1845602
105	0x3b617240	0.0034400374
106	0xbd17e56a	-0.03708402
107	0x3dacd378	0.08438772
108	0x3e4266b4	0.1898449
109	0x3e91d86a	0.28485423
110	0xbde3528a	-0.110997275
111	0x3e696fc6	0.22796544
112	0x3e83d4a0	0.25748158
113	0x3e9e45e4	0.30912697
114	0x3f1a0bd3	0.6017429
115	0xbc72f650	-0.014829233
116	0x3e296a68	0.16544497
117	0xbeebf4c1	-0.4608517
118	0xbd1e1de8	-0.03860274
119	0xbce60010	-0.028076202
120	0x3d702355	0.058627445
121	0x3ebe7f43	0.37206468
122	0xbd03436d	-0.032046724
123	0x3d8ac1d0	0.06775248
124	0xbe433406	-0.19062814
125	0xbf346a9a	-0.7047516
126	0xbd5b2564	-0.053502455
127	0x3dcc90c6	0.09988551
128	0x3e8903f8	0.2676084
129	0x3d13f6d0	0.03612405
130	0x3eafa05c	0.34302032
131	0xbb8940e0	-0.004188642
132	0x3f20d130	0.62819195
133	0xbe40910c	-0.18805331
134	0xbd9eecb1	-0.07759989
135	0xbce08330	-0.027406305
136	0xbd232c34	-0.039837077
137	0xbd239457	-0.03993639
138	0xbe85713f	-0.26062962
139	0x3e914eeb	0.28380522
140	0xbc989a6f	-0.018628327
141	0xbe4be7ef	-0.19912694
142	0xbf62f709	-0.88658196
143	0xbee49b4d	-0.44649735
144	0x3ebc0e0b	0.36729464
145	0xbd666944	-0.056252733
146	0xbe149757	-0.14510857
147	0x3f1bb2d5	0.6081975
148	0x3eb36865	0.35040584
149	0x3b0df46e	0.0021660584
150	0xbd2f7f63	-0.042846095
151	0xbcf3485c	-0.02969759
152	0xbe01108c	-0.12603968
153	0xbdecc42e	-0.11560856
154	0x3df1ff46	0.11816268
155	0x3cacc9e8	0.02109237
156	0x3d05ab41	0.032634024
157	0xbe786052	-0.24255493
158	0x3e9eb6d5	0.30998865
159	0x3e170ab2	0.14750174
160	0xbdc8bfee	-0.09802233
161	0xbf48e2a8	-0.7847085
162	0x3f1d52b0	0.61454296
163	0xbdd9ee2e	-0.10641132
164	0x3e53f520	0.20698977
165	0xbdb65c0d	-0.08904276
166	0xbb7b7c80	-0.0038373768
167	0xbcc3a286	-0.023881208
168	0xbe25acc9	-0.16179194
169	0x3d6061e4	0.054780856
170	0xbc07279f	-0.0082491925
171	0xbdd6d916	-0.104906246
172	0x3d5abf43	0.053405058
173	0x3d9fc203	0.07800677
174	0x3dd0244e	0.101631746
175	0x3d8f5d4f	0.07000219
176	0x3e6a5dba	0.22887316
177	0x3e4a5f6b	0.19762962
178	0x3f01a64b	0.5064437
179	0x3dd0672a	0.10175927
180	0x3e49e120	0.19714785
181	0xbe556129	-0.20837845
182	0xbaefed00	-0.0018304884
183	0xbdb2c1ae	-0.08728348
184	0x3e8bbe57	0.27293655
185	0x3ecdd2e6	0.40199965
186	0x3de6535f	0.112463705
187	0xbd8221d8	-0.063541114
188	0xbe2e130e	-0.16999456
189	0xbf65b249	-0.89725167
190	0xbd757952	-0.059930153
191	0x3dba178e	0.09086524
192	0x3e1a3205	0.15058143
193	0x3db799f6	0.089649126
194	0x3e91793f	0.28412816
195	0x3d108c68	0.03529015
196	0x3f225564	0.63411546
197	0x3e715b72	0.2357004
198	0x3d3d4256	0.04620584
199	0xbba1da40	-0.0049393475
200	0xbd0538d4	-0.0325249
201	0xbe3834bb	-0.17988865
202	0xbe518c23	-0.20463614
203	0x3d5687ca	0.052375592
204	0x3dbc1427	0.09183531
205	0xbe6ffea2	-0.23436978
206	0xbf45abc0	-0.77215195
207	0xbf150c6e	-0.5822209
208	0x3ecc358f	0.39884612
209	0x3d874c9a	0.066064075
210	0xbf15697e	-0.58364093
211	0x3f0f8703	0.56065387
212	0x3ecb647d	0.39725104
213	0x3cd54468	0.026033595
214	0xbd39e319	-0.045382593
215	0x3d8ab480	0.06772709
216	0x3c06d850	0.008230284
217	0x3d9ede2a	0.07757218
218	0xbd719370	-0.058978498
219	0x3bec822d	0.0072176666
220	0x3dab4dd1	0.08364452
221	0xbed299c1	-0.4113293
222	0x3e2f14dc	0.17097801
223	0x3e860fd1	0.26183942
224	0xbcef97a0	-0.029247105
225	0xbf29e8af	-0.6637067
226	0x3f0af7c2	0.542843
227	0xbcd213e0	-0.025644243
228	0xbb25c14f	-0.0025292223
229	0x3d9d9f51	0.07696403
230	0xbc5f6840	-0.013635695
231	0x3cdb3c49	0.026762145
232	0xbe9cab60	-0.305995
233	0x3d877dc4	0.06615785
234	0x3d9b7f13	0.07592597
235	0xbcad2020	-0.021133482
236	0xbdced1a1	-0.10098577
237	0x3d6996f6	0.057028733
238	0xbdac1994	-0.08403316
239	0x3e0239cc	0.1271736
240	0x3e865971	0.26240113
241	0x3e4d13ca	0.2002708
242	0x3f22ae0e	0.63546836
243	0x3daeaf3a	0.085295156
244	0xbb9df5d1	-0.0048205634
245	0xbea05851	-0.3131738
246	0xbdc22f68	-0.09481698
247	0xbd2eacb8	-0.042645186
248	0x3e846272	0.25856358
249	0x3e20adec	0.15691346
250	0x3c8087f0	0.01568982
251	0xbd27ea30	-0.040994823
252	0x3c637802	0.013883593
253	0xbf26a174	-0.6509011
254	0x3da4bb7e	0.08043574
255	0xbd80f258	-0.062962234

fc3.bias f4 [20]
0	0x3fdf13e6	1.7427948
1	0x3f57626c	0.84134555
2	0x3f404231	0.75101
3	0x3f2f86be	0.68564975
4	0x3f2850e4	0.6574843
5	0x3eed5871	0.46356538
6	0x3ead8960	0.3389387
7	0x3efa1d68	0.4885056
8	0x3e0e7975	0.1391352
9	0x3de5846d	0.11206899
10	0x3e9c10e0	0.30481625
11	0x3dfa4943	0.12221005
12	0x3e459608	0.19295514
13	0x3d94c0b3	0.07263317
14	0xbdb8e511	-0.09028066
15	0xbe7207cf	-0.23635791
16	0xbdfde12f	-0.12396466
17	0xbe21e705	-0.15810783
18	0xbe65e126	-0.22449169
19	0xbe81478a	-0.25249892

fc1.weight f4 [64, 3]
0	0xbddc1184	-0.10745528
1	0x3e6bcc2c	0.23027104
2	0x3ea6374d	0.32464066
3	0xbe928c17	-0.28622505
4	0x3f0e694f	0.5562944
5	0x3dc8cadf	0.098043196
6	0xbe90499c	-0.2818116
7	0xbd81b892	-0.06334032
8	0x3d3c46a6	0.045965813
9	0xbd5e25e0	-0.05423534
10	0xbe16c04c	-0.14721793
11	0xbd8019d0	-0.06254923
12	0xbf1cdaa1	-0.612711
13	0xbf23ea83	-0.6402971
14	0x3e8ea902	0.27863318
15	0x3e2c2099	0.1680931
16	0xbdcdcec7	-0.10049205
17	0x3ca14ce6	0.019689988
18	0x3e16db8c	0.14732188
19	0x3e750c30	0.2393043
20	0xbe16491d	-0.14676328
21	0xbe84fb7a	-0.2597311
22	0xbe3c3ffd	-0.18383785
23	0x3d032f09	0.032027278
24	0x3efc0a8d	0.492268
25	0x3ee8fa4a	0.45503455
26	0x3d968de6	0.07351284
27	0xbecaeca3	-0.39633664
28	0x3c63903e	0.0138893705
29	0x3c9da5ac	0.019244038
30	0xbd6aaa51	-0.057291333
31	0x3d92cde6	0.07168178
32	0xbec8f7c7	-0.3925154
33	0xbe317e82	-0.17333415
34	0xbf138781	-0.5762864
35	0x3d6ff3ca	0.058582105
36	0xbe3caaa2	-0.18424466
37	0xbdec917a	-0.11551185
38	0x3d045541	0.032307867
39	0x3f09fe84	0.53903985
40	0xbe4d1d06	-0.20030603
41	0x3d32a495	0.04361399
42	0x3e2f4f50	0.17120099
43	0x3d9f6b69	0.07784159
44	0xbc0fda4e	-0.008780075
45	0xbe4d2ed2	-0.20037392
46	0x3ebcb3bf	0.36855885
47	0x3e721994	0.2364257
48	0xbede031c	-0.43361747
49	0x3dcfcc9f	0.1014645
50	0x3e0e5f2a	0.1390349
51	0x3e475caf	0.1946895
52	0x3e6e5a13	0.23276548
53	0xbe4be22c	-0.19910496
54	0x3e94bc1d	0.2904977
55	0xbe552f53	-0.20818834
56	0xbd9dcb32	-0.07704772
57	0xbc14cc8e	-0.009081973
58	0x3eda9656	0.42692822
59	0x3c7c8cca	0.015414426
60	0xbeb4975a	-0.35271722
61	0xbf137deb	-0.5761401
62	0xbe8a28f0	-0.26984358
63	0xbdce23d5	-0.10065428
64	0xbcfc5ddd	-0.030806476
65	0xbce67755	-0.028133074
66	0x3de4a200	0.111637115
67	0x3f067b40	0.52531815
68	0x3dc0b92f	0.09410321
69	0x3eba8677	0.36430714
70	0xbeb57951	-0.3544412
71	0x3eb9cef3	0.36290702
72	0xbe29a44d	-0.16566582
73	0xbe45759c	-0.19283146
74	0x3c7deb51	0.015497998
75	0xbe8db17b	-0.2767447
76	0xbe7a49ae	-0.24442169
77	0xbf11d1bc	-0.56960654
78	0xbdb61132	-0.088899985
79	0xbdebed76	-0.115199015
80	0x3d065f00	0.032805443
81	0x3f099cf5	0.5375512
82	0xbe0e1f7c	-0.13879198
83	0x3c520a3d	0.012819824
84	0xbeacfd6f	-0.33787104
85	0xbe1b7785	-0.15182312
86	0x3dd16aec	0.10225472
87	0x3da7c615	0.08192078
88	0xbf059610	-0.521821
89	0x3e1c668d	0.15273495
90	0xbeee4cd2	-0.46542984
91	0x3e389e9e	0.18029258
92	0x3dbb3b8f	0.09142219
93	0x3e58a6dc	0.21157402
94	0xbf03a7a8	-0.514277
95	0x3d1d03aa	0.038333572
96	0xbdc2e1d4	-0.095157295
97	0x3ebe6866	0.37189025
98	0x3cdaab95	0.026693145
99	0xbd94dd93	-0.072688244
100	0xbeef01ee	-0.4668116
101	0x3ebfc755	0.37456766
102	0x3e34a340	0.176404
103	0xbea42057	-0.32055923
104	0xbe820a45	-0.2539846
105	0xbeb48c86	-0.3526346
106	0xbe6120f6	-0.2198523
107	0xbe68b7b6	-0.2272633
108	0x3dc6cb2e	0.09706722
109	0x3dcdd0ad	0.10049567
110	0xbd51aa82	-0.051188
111	0x3e6e2f65	0.23260267
112	0x3a7eb000	0.0009715557
113	0xbe6b9bb0	-0.23008609
114	0xbeeee50d	-0.46659127
115	0xbe6090df	-0.21930264
116	0x3e1f78ec	0.15573472
117	0xbe08dadf	-0.13364743
118	0x3e95c459	0.29251364
119	0x3e19c71b	0.15017359
120	0xbe1155e6	-0.14192924
121	0xbead3611	-0.33830312
122	0x3e294e50	0.1653378
123	0x3e32246d	0.17396708
124	0x3ecbb166	0.39783782
125	0xbc033dda	-0.008010352
126	0x3e822e24	0.25425828
127	0x3d5744fb	0.05255602
128	0xbd8fd3d0	-0.07022822
129	0x3e9ccef3	0.3062664
130	0x3ea657b9	0.32488802
131	0x3e30b285	0.172556
132	0x3d45f037	0.04832479
133	0xbe297313	-0.16547804
134	0xbd02d716	-0.031943403
135	0xbe352501	-0.17689897
136	0x3e97f210	0.29676867
137	0x3d539049	0.051651273
138	0x3ebf45ff	0.3735809
139	0xbe9555cb	-0.29167017
140	0xbf0960da	-0.5366341
141	0xbe440c5c	-0.1914534
142	0x3e8f2fc6	0.27966136
143	0x3dc19c23	0.09453609
144	0x3dfeef54	0.12447992
145	0x3d00481a	0.03131876
146	0xbaa8f655	-0.0012890795
147	0x3e513e24	0.20433861
148	0x3e7790ec	0.24176377
149	0xbe907bf1	-0.2821956
150	0x3ce8c980	0.028416395
151	0xbebd03f1	-0.3691707
152	0xbcfde760	-0.030994117
153	0xbed37b8d	-0.413052
154	0xbe1375aa	-0.14400354
155	0xbf05baf3	-0.52238387
156	0xbecb41af	-0.3969855
157	0xbf00fe74	-0.50388265
158	0x3e613cc9	0.21995844
159	0xbdc4d308	-0.096105635
160	0x3ee3c576	0.44486588
161	0x3c8d4882	0.017246488
162	0x3f02c841	0.51086813
163	0x3e57dd84	0.21080595
164	0x3e83e2ad	0.25758877
165	0x3e0ef70e	0.13961431
166	0x3de1526e	0.1100205
167	0xbb9a9eac	-0.004718622
168	0x3d6a20f4	0.057160333
169	0x3e83bbcf	0.25729224
170	0xbeba0247	-0.36329862
171	0x3f30b7e1	0.69030577
172	0x3e2075ae	0.15669891
173	0x3eda28d1	0.42609265
174	0x3d137390	0.03599888
175	0xbdc775cc	-0.09739265
176	0xbe361a9e	-0.17783591
177	0xbeea7a86	-0.45796603
178	0xbee70bcc	-0.45126188
179	0x3eade560	0.33964062
180	0x3e01c036	0.12670979
181	0xbe8f05e1	-0.27934173
182	0x3c4c1a64	0.012457464
183	0xbf0687e6	-0.52551115
184	0xbf012152	-0.5044147
185	0xbe35b3de	-0.17744395
186	0x3eb9cf0f	0.36290786
187	0x3c29c46a	0.01036177
188	0xbc1307c2	-0.008974018
189	0x3e96a724	0.29424393
190	0x3e9246b3	0.28569564
191	0x3bf3f951	0.0074454923

fc1.bias f4 [64]
0	0x3fbee82a	1.4914601
1	0x40622a15	3.5338185
2	0x4084ae5a	4.146283
3	0xbeae2c77	-0.340183
4	0xc04fc04f	-3.2461126
5	0x405af891	3.4214213
6	0x4086a05f	4.2070765
7	0x4086bcb5	4.2105355
8	0xc01af122	-2.4209676
9	0x40389f6c	2.8847303
10	0x407a7882	3.9136052
11	0x4015fbdb	2.343497
12	0x4062b0c7	3.5420396
13	0x40422b00	3.0338745
14	0x4050ea9b	3.2643192
15	0xbf54ca48	-0.83121157
16	0x402ad141	2.6690218
17	0x407d76de	3.96038
18	0xbe52ab69	-0.205732
19	0x402c9946	2.696855
20	0xbed67afe	-0.4189071
21	0x3fb8b57e	1.4430387
22	0x3ef2e049	0.4743674
23	0xc016692b	-2.350169
24	0x40591987	3.392183
25	0xbdb61598	-0.088908374
26	0x40813d50	4.0387344
27	0x4042f1d1	3.0460093
28	0xc06c45d9	-3.6917632
29	0x406699ca	3.6031365
30	0x401419db	2.314078
31	0x403b9b17	2.931341
32	0x3ce7f490	0.028314859
33	0xbff3f592	-1.9059317
34	0xbf044a08	-0.5167546
35	0x3e07eb5f	0.1327338
36	0x401f9c9d	2.493934
37	0xbe3b402a	-0.18286195
38	0xc05f52d7	-3.4894311
39	0xbf413068	-0.7546449
40	0x400a708b	2.163119
41	0x4062ba3f	3.5426176
42	0x3fd25a9e	1.6433904
43	0xbf82c55c	-1.0216479
44	0x3fbc9690	1.4733448
45	0x402fb20e	2.7452426
46	0x40253fd8	2.5820217
47	0x3fbff227	1.4995774
48	0x4045f120	3.092842
49	0x4066b653	3.6048782
50	0x3e5b7c10	0.21434045
51	0x3ee270b4	0.4422661
52	0xc0605447	-3.505144
53	0x40417c0e	3.0231967
54	0xbf93c236	-1.1543643
55	0x407369ad	3.803325
56	0x405f60cf	3.4902837
57	0xc02b3be4	-2.6755304
58	0xbf098ea2	-0.53733265
59	0xc02411a0	-2.5635757
60	0x4007d879	2.1225874
61	0xbd444500	-0.047917366
62	0x4077c8cb	3.8716304
63	0x403bbe08	2.9334736

fc2.weight f4 [64, 64]
0	0xbcad8d8f	-0.021185664
1	0x3e466dd8	0.1937784
2	0x3fa71f1f	1.3056372
3	0x3d4743cc	0.04864864
4	0xbd4d4739	-0.05011675
5	0x3df4ab7f	0.11946773
6	0xbed0d8a4	-0.40790284
7	0x3fd3e866	1.6555297
8	0xbe008248	-0.12549698
9	0x3d47e47e	0.04880189
10	0x3e4fdc61	0.20298912
11	0x39f49aef	0.0004665474
12	0x3ef47d99	0.47752073
13	0x3ee41149	0.44544438
14	0x3ea77671	0.3270755
15	0x3e06dc24	0.13169914
16	0x3d65c4d0	0.0560959
17	0xbe1c84ca	-0.1528503
18	0x3d946220	0.07245278
19	0x3dbb2f04	0.09139827
20	0x3a20d900	0.0006135851
21	0x3d59bfe8	0.05316153
22	0x3de237c2	0.11045791
23	0x3e0ae0dd	0.13562341
24	0x3e9bdd1c	0.3044213
25	0x3d8b83b2	0.06812228
26	0x3f6a9e17	0.91647476
27	0x3f174799	0.59093624
28	0xbe03580b	-0.12826554
29	0x3ec67bca	0.3876632
30	0xbc2e8745	-0.010652368
31	0x3d48353b	0.04887889
32	0x3da71829	0.08158905
33	0x3e1d2d66	0.1534935
34	0x3c1531da	0.009106124
35	0xbdc41c42	-0.09575702
36	0xbe3dd07c	-0.18536562
37	0x3c6422f0	0.013924345
38	0xbeb142e8	-0.34621358
39	0x3b16e42a	0.002302418
40	0x3d75f4ba	0.060047843
41	0x3e8829f6	0.26594514
42	0xbe94fb50	-0.29097986
43	0x3d6ecaa9	0.05829874
44	0xbd33a990	-0.04386288
45	0x3e935801	0.2877808
46	0x3edd4a2a	0.43220645
47	0x3e1d0624	0.15334374
48	0x3f0d5495	0.55207187
49	0xbe26b4c8	-0.162799
50	0xbdd3b5f7	-0.103374414
51	0x3d2c75c8	0.042104512
52	0xbdb011b2	-0.08597125
53	0x3e5e2799	0.21694793
54	0x3db0ee85	0.08639244
55	0x3eb97d72	0.3622852
56	0xbe8a3ceb	-0.26999602
57	0xbd2296e7	-0.039694693
58	0x3ddcd207	0.10782247
59	0xbc497d6c	-0.012297969
60	0xbc22fa14	-0.009947319
61	0xbb854fc0	-0.004068345
62	0x3f2382e6	0.6387161
63	0x3da93da6	0.08263712
64	0xbde76624	-0.11298779
65	0xbd898baa	-0.06716092
66	0x3da65f40	0.08123636
67	0x3d5fef00	0.054671288
68	0xbdf4082c	-0.11915621
69	0xbda94700	-0.08265495
70	0x3d21f824	0.039543286
71	0x3db9f160	0.09079242
72	0xbdd724e2	-0.10505082
73	0x3d565a3c	0.052332148
74	0x3d1b976c	0.037986204
75	0xbd4d7300	-0.0501585
76	0x3c8b25c8	0.016985789
77	0xbd386998	-0.045022577
78	0xbda44812	-0.08021559
79	0xbdbf2872	-0.09333886
80	0x3de8dab0	0.11369836
81	0xbda9c77a	-0.0829
82	0xbd49cadf	-0.04926574
83	0x3c5c3a90	0.013441697
84	0xbdb024da	-0.08600779
85	0xbdd88f60	-0.105742216
86	0x3deb2fea	0.11483748
87	0xbded7492	-0.115945
88	0xbd9b271a	-0.075758174
89	0x3db85b3c	0.090017766
90	0x3df76fd6	0.12081878
91	0xbddf5c06	-0.10906224
92	0xbcbf7f28	-0.023376063
93	0x3b5336c0	0.0032228678
94	0xbc814780	-0.015781164
95	0xbd12c8d8	-0.03583607
96	0xbdcb63bc	-0.09931132
97	0x3dd6184a	0.104538515
98	0x3cdb5ff8	0.02677916
99	0x3cffc75c	0.031222992
100	0x3d977e3a	0.07397123
101	0x3cc6a8f0	0.024250478
102	0xbd133aa8	-0.03594461
103	0xbd499898	-0.04921779
104	0xbb688ec0	-0.0035485476
105	0xbd05a840	-0.03263116
106	0x3c6bf440	0.014401495
107	0xbc8b7f88	-0.017028585
108	0x3d808ee6	0.06277256
109	0xbdaf2c20	-0.08553338
110	0x3dfeea42	0.12447025
111	0x3d4697a0	0.048484445
112	0xbc67d278	-0.014149301
113	0xbd536920	-0.051613927
114	0xbcd955c8	-0.026530161
115	0xbdb8d3aa	-0.09024747
116	0xbca30be0	-0.019903123
117	0x3cf34e60	0.029700458
118	0x3de73a20	0.11290383
119	0xbd0ffe54	-0.035154656
120	0xbcd99638	-0.026560888
121	0xbd46470c	-0.0484076
122	0x3db450c8	0.0880447
123	0xbc47d560	-0.012196869
124	0xbdff0a72	-0.12453164
125	0x3d0477d4	0.03234084
126	0xbc819be8	-0.015821412
127	0xbdaf94d8	-0.085733116
128	0x3e13dbbb	0.1443929
129	0x3ec177fd	0.37786856
130	0x3f5351d8	0.8254676
131	0xbd98f384	-0.07468322
132	0xbd243144	-0.040086046
133	0x3e43b3c5	0.19111545
134	0xbf6a5def	-0.9154958
135	0x3f992ce2	1.1966822
136	0xbd2d43f7	-0.042301144
137	0xbddca24f	-0.107731454
138	0x3e67ac96	0.2262443
139	0xbc99af5f	-0.018760381
140	0x3ee7fcc9	0.45310047
141	0x3d3b1c2a	0.045681156
142	0x3e702e0d	0.23455067
143	0x3df2812d	0.118410446
144	0x3e178d93	0.148001
145	0xbf13f917	-0.57801956
146	0xbd53499d	-0.051583875
147	0x3e214c89	0.15751852
148	0x3d3d2768	0.04618016
149	0xbd43a09f	-0.047760602
150	0x3d498e05	0.049207706
151	0x3dae8d3f	0.08523034
152	0x3e78eb52	0.24308518
153	0xbd20d54c	-0.039265916
154	0x3f5713c8	0.8401456
155	0x3c3a8b4a	0.011385748
156	0xbe19f6b9	-0.15035523
157	0x3ef30b09	0.47469357
158	0x3dff7655	0.12473742
159	0x3e1150ef	0.1419103
160	0xbc86987a	-0.016430128
161	0x3e1650fe	0.14679334
162	0x3cb98c88	0.022650018
163	0x3a4e4400	0.0007868409
164	0xbe833e66	-0.25633544
165	0xbce5b570	-0.028040618
166	0xbe906ea7	-0.2820942
167	0x3e1b8ad4	0.15189677
168	0x3d8b8c6b	0.06813892
169	0x3e73dcac	0.23814648
170	0xbe369d26	-0.17833385
171	0x3b33ad91	0.0027416686
172	0xbdac5bbb	-0.08415934
173	0x3efc12f4	0.4923321
174	0x3f13c9ca	0.5772978
175	0xbd86ee8d	-0.06588469
176	0x3e1d3b6d	0.153547
177	0xbe397f31	-0.18114926
178	0xbd9eb1da	-0.07748766
179	0xbdf4d6bc	-0.1195502
180	0xbe055180	-0.13019371
181	0x3ea1db15	0.3161246
182	0x3e18b768	0.14913714
183	0x3e158c24	0.1460424
184	0xbf00e257	-0.5034537
185	0x3d703c1c	0.058651075
186	0x3dbb6ff8	0.09152216
187	0xbde0f8ff	-0.10984992
188	0xbd04965a	-0.03236995
189	0x3b38cd80	0.002819866
190	0x3e9182fa	0.2842024
191	0x3e4788c2	0.19485763
192	0xbdaf8452	-0.0857016
193	0xbd970db8	-0.073756635
194	0xbdc452b4	-0.09586087
195	0x3c4418e0	0.011968821
196	0xbc8a65f0	-0.01689431
197	0x3df7d42e	0.12101017
198	0x3dbcf5ac	0.09226546
199	0xbd1880e8	-0.03723231
200	0xbd9c6d70	-0.07638061
201	0x3cafc600	0.021456718
202	0xbcd5f819	-0.026119279
203	0xbcf3d678	-0.029765353
204	0x3beddf20	0.0072592646
205	0x3c330030	0.010925338
206	0xbd512720	-0.051062703
207	0x3d7dfe53	0.06201012
208	0xbcfbb849	-0.030727522
209	0x3c1bf070	0.009517774
210	0xbcf714c5	-0.03016127
211	0x3dab3752	0.08360161
212	0xbd651818	-0.05593118
213	0xbcb836d0	-0.022487074
214	0xbd0e8054	-0.034790352
215	0xbdbd1788	-0.09233004
216	0x3dce6f18	0.10079783
217	0x3d8fe422	0.07025935
218	0x3d82366a	0.06358035
219	0xb9148800	-0.00014165044
220	0x3da88d3c	0.08230063
221	0xbb12e4c0	-0.0022414178
222	0x3dca5888	0.09880167
223	0x3daa6f6c	0.08322033
224	0x3ccf3bf8	0.02529715
225	0x3deacd92	0.11464991
226	0x3d6af4c0	0.057362318
227	0xbcfcf4b2	-0.030878399
228	0x3c463b80	0.012099147
229	0x3d781ef4	0.060576394
230	0x3dccd080	0.10000706
231	0xbd7df730	-0.062003314
232	0x3d969948	0.07353455
233	0xbcf1bf70	-0.02951023
234	0x3c930ef9	0.017951475
235	0x3d9e1058	0.07717961
236	0x3d211f38	0.039336413
237	0xbd52df54	-0.051482514
238	0x3d4b20a0	0.04959166
239	0xbdfc8dec	-0.12331757
240	0xbc2ed750	-0.010671452
241	0xbde79ea6	-0.11309557
242	0xbdb13376	-0.086523935
243	0x3dee8f50	0.116484284
244	0x3cdb959e	0.026804741
245	0xbd04af98	-0.03239402
246	0xbdb151d0	-0.086581826
247	0xbd07d43c	-0.033161387
248	0xbcb67010	-0.022270232
249	0xbd2eba04	-0.042657867
250	0xbdd28200	-0.10278702
251	0x3cd97ef8	0.026549801
252	0x3d5757ac	0.052573845
253	0xbc0fef80	-0.008785129
254	0xbdd0c96c	-0.10194668
255	0xbdb9c60a	-0.09070976

fc2.bias f4 [64]
0	0x3ff2d1fb	1.8970331
1	0xbd37b9d0	-0.04485494
2	0x3fcbc245	1.5918661
3	0xbdecc034	-0.11560097
4	0x400c20fa	2.1895127
5	0x3f423106	0.75856054
6	0xbd950077	-0.07275479
7	0x3dc99496	0.09842794
8	0xbbaff619	-0.0053699133
9	0x3d5ce976	0.053933583
10	0x3f8e801f	1.113285
11	0x3fd57704	1.6676946
12	0x3c9bfc90	0.01904133
13	0x3e59543d	0.2122354
14	0x400c17e1	2.1889575
15	0x3fd81cd7	1.6883801
16	0x400f75e8	2.2415714
17	0xbd2ba7ed	-0.041908193
18	0xc0056413	-2.084233
19	0x40128b7a	2.289763
20	0x400eefa3	2.2333763
21	0x3d846834	0.06465188
22	0x3c0792b3	0.008274722
23	0xbda235ed	-0.07920442
24	0x3cbc70da	0.02300303
25	0xbde21bed	-0.11040483
26	0x3db540fd	0.08850286
27	0xbe01e462	-0.12684777
28	0xbd4b5568	-0.049641997
29	0xbfe9a43f	-1.8253249
30	0x3fd46d6c	1.6595893
31	0x3fc8c824	1.5686078
32	0xbde0d524	-0.10978153
33	0x400252a7	2.0362947
34	0x40121331	2.2824214
35	0x3ddaeda4	0.106898576
36	0x3f0b4ef8	0.5441737
37	0x3c2bc2e3	0.010483476
38	0xbd849a9a	-0.064748004
39	0x3f610542	0.8789865
40	0x3f90203f	1.1259841
41	0xb9b039c1	-0.00033612366
42	0x3d80f618	0.06296939
43	0xbd473708	-0.048636466
44	0x3fc068c7	1.5031976
45	0x3fd5b550	1.6695957
46	0x3d275778	0.0408549
47	0x3f753cc1	0.9579583
48	0x3f89384f	1.0720309
49	0x3f9c3c05	1.2205817
50	0x401504d1	2.328419
51	0xbd883b56	-0.066519424
52	0x3fd60e88	1.6723185
53	0xc0076159	-2.1153166
54	0xbd007149	-0.031358037
55	0x3d9702b3	0.07373562
56	0x3e75b33b	0.23994152
57	0x3ffa2e4e	1.9545381
58	0xbc51316d	-0.012768132
59	0xbd53a138	-0.051667422
60	0x3f8c7906	1.0974433
61	0x3fcae2cd	1.5850464
62	0x3d65e645	0.056127805
63	0xbdeb7813	-0.11497512

fc3.weight f4 [20, 64]
0	0x3eb4a5b3	0.35282668
1	0x3da3f3dc	0.08005497
2	0x3e5de2d3	0.21668558
3	0xbd471d94	-0.048612192
4	0x3f09af4d	0.5378311
5	0xbdbf839f	-0.093512766
6	0x3d0f40c3	0.03497387
7	0x3d453ae3	0.048151862
8	0x3db6f1df	0.08932852
9	0xbd319f49	-0.043364797
10	0xbd02440a	-0.03180317
11	0x3e840a03	0.25788888
12	0xbd1176a1	-0.035513524
13	0xbe830972	-0.25593144
14	0xbfae3bbe	-1.3611982
15	0xbe913d07	-0.28366873
16	0x3f01a866	0.5064758
17	0x3d3ae134	0.045624927
18	0xbebfa341	-0.3742924
19	0x3f74005e	0.9531306
20	0x3ecf4064	0.40478814
21	0x3c99c689	0.018771427
22	0xbd92cc8f	-0.07167923
23	0xbd52d640	-0.051473856
24	0x3d37f850	0.044914544
25	0xbdd06398	-0.10175246
26	0xbd9790c2	-0.07400657
27	0xbd597334	-0.053088382
28	0x3dfc1dd9	0.123103805
29	0xbef25ffe	-0.4733886
30	0x3e5925ab	0.21205775
31	0x3e694222	0.22779134
32	0x3d19bdee	0.037534647
33	0xbf0ddd7a	-0.5541607
34	0x3f077ade	0.52921855
35	0xbd86aef5	-0.06576339
36	0x3f024bd3	0.5089695
37	0x3d82f009	0.06393439
38	0x3dc7be1c	0.09753057
39	0x3e330831	0.17483594
40	0xbd87ea2f	-0.06636464
41	0x3c1b83ae	0.009491844
42	0xbda2c675	-0.07948009
43	0xbdecd3bc	-0.115638226
44	0x3df40554	0.11915079
45	0x3e6877cb	0.22701947
46	0x3cd06438	0.025438413
47	0xbd83eb24	-0.06441334
48	0x3d4857c9	0.048911843
49	0x3dd565ff	0.10419845
50	0x3f215412	0.63018906
51	0x3def0a3c	0.11671874
52	0x3e906680	0.282032
53	0xbf1d0806	-0.6134037
54	0x3bfb21a0	0.0076639205
55	0x3d138040	0.03601098
56	0xbcdb0c27	-0.026739193
57	0x3f0f3895	0.5594571
58	0xbb81e849	-0.003964458
59	0x3abef800	0.0014569759
60	0x3defec2b	0.11714967
61	0xbfafb015	-1.3725611
62	0xbd8fc335	-0.07019655
63	0x3d71e889	0.059059653
64	0x3e3d33e9	0.18476833
65	0xbdbd824c	-0.09253368
66	0x3e85239c	0.2600373
67	0xbbb77a40	-0.00559929
68	0x3f2a847c	0.66608405
69	0x3ddae4f7	0.10688203
70	0x3a0e2066	0.0005421698
71	0x3df6d708	0.12052733
72	0xbcb15512	-0.02164701
73	0xbd9c61b7	-0.07635825
74	0x3e2df11b	0.16986506
75	0x3e5b8444	0.21437174
76	0x3cc91346	0.024545323
77	0xbe3cf444	-0.18452555
78	0xbf773436	-0.9656404
79	0xbef6537e	-0.48110574
80	0x3edd3187	0.4320185
81	0x3d754bbb	0.059886675
82	0xbefaa2db	-0.48952374
83	0x3f1de862	0.61682713
84	0x3e9a6221	0.3015299
85	0xbd099f9f	-0.033599492
86	0x3e0a9311	0.13532664
87	0xbd9eced1	-0.07754291
88	0x3d0f0f85	0.03492691
89	0xbdceaa24	-0.100910455
90	0x3de9ab6a	0.11409648
91	0x3c0b29f0	0.008493885
92	0x3e0a19f9	0.1348647
93	0xbec2a108	-0.38013482
94	0x3e572099	0.21008529
95	0x3e4807c9	0.1953422
96	0x3d905a32	0.070484534
97	0xbf5630cf	-0.83668226
98	0x3f0b7a11	0.54483134
99	0x3d9846ed	0.07435403
100	0xbe3431b1	-0.17597081
101	0xbbad2f20	-0.0052851588
102	0x3dad22d7	0.08453911
103	0x3eb24c2e	0.34823745
104	0xbe49524a	-0.19660297
105	0x3b617240	0.0034400374
106	0xbd17e92c	-0.037087604
107	0x3dacd378	0.08438772
108	0x3e1c1038	0.15240562
109	0x3e82dad1	0.2555757
110	0xbde3528a	-0.110997275
111	0x3e13325d	0.14374681
112	0x3e4a7333	0.19770508
113	0x3e86e35b	0.26345333
114	0x3f1a6a57	0.6031851
115	0xbc72f650	-0.014829233
116	0x3e1a78c1	0.15085126
117	0xbee8c531	-0.45462945
118	0xbd1e1de8	-0.03860274
119	0xbce60010	-0.028076202
120	0x3d701766	0.058616064
121	0x3ec0aeb9	0.37633303
122	0xbd0343f2	-0.03204722
123	0x3d8ac1f2	0.067752734
124	0xbdbcf75a	-0.09226866
125	0xbf2de13a	-0.67921793
126	0xbd5b283c	-0.053505167
127	0x3dcc90c6	0.09988551
128	0x3e877e4c	0.26463544
129	0x3d13f6d0	0.03612405
130	0x3eb24a17	0.3482215
131	0xbb8940e0	-0.004188642
132	0x3f21611b	0.63038796
133	0xbe1b6d25	-0.15178354
134	0xbd9eee12	-0.07760252
135	0xbce0835a	-0.027406383
136	0xbd232c34	-0.039837077
137	0xbd239197	-0.039933767
138	0xbe62f25c	-0.22162765
139	0x3e8d2338	0.27565932
140	0xbc989cdc	-0.018629484
141	0xbe3eef67	-0.18646012
142	0xbf663ab5	-0.8993333
143	0xbef413ed	-0.47671452
144	0x3ebd78e5	0.37006298
145	0xbd666944	-0.056252733
146	0xbe1e507c	-0.1546039
147	0x3f1b1a20	0.6058674
148	0x3eb230e4	0.34802926
149	0x3bf76e4c	0.00755099
150	0xbd2f7c69	-0.042843256
151	0xbcf34c01	-0.029699327
152	0xbe010d89	-0.1260282
153	0xbdecc42e	-0.11560856
154	0x3df1fff9	0.11816401
155	0x3cacc9e8	0.02109237
156	0x3d05a93d	0.0326321
157	0xbe8114ea	-0.2521127
158	0x3ea056be	0.3131618
159	0x3e13aef1	0.14422204
160	0xbdc8bfee	-0.09802233
161	0xbf4bc6c4	-0.7960017
162	0x3f1db47b	0.61603516
163	0xbdd9ebd4	-0.10640684
164	0x3e58c3a2	0.21168378
165	0xbdb65a3e	-0.08903931
166	0xbb7b7c80	-0.0038373768
167	0xbc4fa81b	-0.012674357
168	0xbe0875e5	-0.13326223
169	0x3d6061e4	0.054780856
170	0xbc07280f	-0.008249297
171	0xbdd6d916	-0.104906246
172	0x3dd72102	0.105043426
173	0x3dab44a3	0.08362701
174	0x3dd0244e	0.101631746
175	0x3d6d8e43	0.057997
176	0x3e60382a	0.21896425
177	0x3e3681f9	0.17823018
178	0x3f01611c	0.505388
179	0x3dd0672a	0.10175927
180	0x3e4b51f2	0.19855478
181	0xbe5f6c86	-0.21818742
182	0xbaefecb7	-0.00183048
183	0xbdb2c1ae	-0.08728348
184	0x3e8bb9d8	0.27290225
185	0x3ecb579a	0.39715272
186	0x3de6578e	0.112471685
187	0xbd8221d8	-0.063541114
188	0xbe08a455	-0.13343938
189	0xbf667bf5	-0.90032893
190	0xbd757a9b	-0.05993138
191	0x3dba178e	0.09086524
192	0x3e2527ac	0.16128415
193	0x3db79a8f	0.089650266
194	0x3e9baefd	0.30406943
195	0x3d108c68	0.03529015
196	0x3f257982	0.6463853
197	0x3e6e28a8	0.23257697
198	0x3d3d43cb	0.04620723
199	0xbba1da40	-0.0049393475
200	0xbd0538d4	-0.0325249
201	0xbe3832e8	-0.17988169
202	0xbdaf5ae7	-0.0856226
203	0x3d9c0f5a	0.076201156
204	0x3dbc1702	0.09184076
205	0xbe9184c1	-0.28421596
206	0xbf4fea58	-0.81216955
207	0xbf1f1119	-0.62135464
208	0x3ed6d5ff	0.4196014
209	0x3d874c9a	0.066064075
210	0xbf15ac86	-0.58466375
211	0x3f062616	0.52401865
212	0x3ed13210	0.40858507
213	0x3cb75874	0.022381045
214	0xbd39da96	-0.045374475
215	0x3d8ab480	0.06772709
216	0x3c06d9ed	0.0082306685
217	0x3d9ede73	0.077572726
218	0xbd719370	-0.058978498
219	0x3bec859b	0.0072180755
220	0x3dab51fc	0.08365247
221	0xbedc4b20	-0.43026066
222	0x3e47b2ed	0.19501849
223	0x3e8c6166	0.2741806
224	0xbcef97a0	-0.029247105
225	0xbf333688	-0.70005083
226	0x3f0df082	0.5544511
227	0xbcd213fe	-0.025644299
228	0x3d392c14	0.04520805
229	0x3d9da209	0.076969214
230	0xbc5f6840	-0.013635695
231	0x3da00717	0.07813852
232	0xbe63f613	-0.22261839
233	0x3d877dff	0.06615829
234	0x3d9b830f	0.07593357
235	0xbcad2020	-0.021133482
236	0xbd78754a	-0.06065873
237	0x3dbbea30	0.09175527
238	0xbdac1994	-0.08403316
239	0x3dcba47f	0.099434845
240	0x3eb3219c	0.3498658
241	0x3e8d756e	0.27628654
242	0x3f25652d	0.64607507
243	0x3daeaf3a	0.085295156
244	0x3ca00544	0.01953376
245	0xbeb8c802	-0.36090094
246	0xbdc22f68	-0.09481698
247	0xbd2eacb8	-0.042645186
248	0x3e8460a4	0.2585498
249	0x3e31cb45	0.17362697
250	0x3c8088b8	0.015690193
251	0xbd27ea30	-0.040994823
252	0x3c008cba	0.007846052
253	0xbf318788	-0.6934743
254	0x3da4be5f	0.08044123
255	0xbd80f258	-0.062962234

fc3.bias f4 [20]
0	0x3fdb8971	1.7151319
1	0x3f5b3fb9	0.8564411
2	0x3f3fb719	0.7488876
3	0x3f2e7eba	0.6816212
4	0x3f26afa6	0.6511177
5	0x3eefd702	0.46843725
6	0x3eb0d849	0.34540012
7	0x3efa2305	0.48854843
8	0x3e12cfbc	0.14337057
9	0x3dcd9813	0.100387715
10	0x3e9ac74b	0.30230173
11	0x3df80f48	0.1211229
12	0x3e42b7d7	0.19015442
13	0x3d8e0fee	0.06936632
14	0xbdbd5e81	-0.09246541
15	0xbe814b64	-0.2525283
16	0xbe065ecb	-0.13122098
17	0xbe3879ba	-0.18015185
18	0xbe5b2397	-0.21400295
19	0xbe83fd7f	-0.2577934

exp_avg f4 [64, 3]
0	0x3fd6db64	1.6785703
1	0x40ecf9b2	7.4054804
2	0x41f6f208	30.86818
3	0x40180822	2.3754964
4	0x4151001f	13.06253
5	0x42dedaef	111.427605
6	0xbf23517d	-0.63796216
7	0x4146320c	12.387218
8	0x439632b9	300.39627
9	0x00000000	0.0
10	0x00000000	0.0
11	0x00000000	0.0
12	0x3ef9899e	0.48737806
13	0xbf46bc85	-0.7763141
14	0xc2371a59	-45.77573
15	0x3f3a3915	0.7274335
16	0x40a698bd	5.206145
17	0x42914981	72.64356
18	0xc15e720a	-13.902842
19	0xc21cea2c	-39.228683
20	0x40ac4b30	5.384178
21	0xbfc79ad6	-1.5594127
22	0x419a4f08	19.28859
23	0x43e46c48	456.84595
24	0x40075edf	2.1151655
25	0x40ce4324	6.445696
26	0xc11b9772	-9.724474
27	0xc02945df	-2.6448896
28	0xc0b714bf	-5.7212825
29	0x41d10048	26.125137
30	0xc0d45018	-6.634777
31	0xc1d9a912	-27.207554
32	0xc17f951b	-15.973903
33	0xbe8e9992	-0.2785154
34	0xbe219331	-0.15778805
35	0x412e1c91	10.881974
36	0xbf9b61d0	-1.2139225
37	0xbf8c432b	-1.0957998
38	0x4320bcf8	160.73816
39	0x3ff40df0	1.9066753
40	0x4158e725	13.556432
41	0x430d0bd1	141.04616
42	0x3fadf8e5	1.3591582
43	0x4110d89b	9.052882
44	0x42d4d827	106.42217
45	0x406dda0c	3.7164335
46	0x414f9afe	12.97534
47	0x417f26af	15.946944
48	0xbf19fbbb	-0.60149735
49	0x3fd8bab0	1.6931973
50	0x428a18ee	69.04869
51	0xc11b276a	-9.697123
52	0xc248e657	-50.22494
53	0xc1ab1fe3	-21.39057
54	0xbe32e278	-0.17469203
55	0xbeb2eba0	-0.34945393
56	0x3f045b09	0.5170141
57	0x3f95994b	1.1687406
58	0x40d5c1e7	6.6799197
59	0x4272a9d1	60.665836
60	0x00000000	0.0
61	0x00000000	0.0
62	0x00000000	0.0
63	0xbf27c650	-0.65536976
64	0xbf865f8c	-1.0497909
65	0xbea0c224	-0.31398118
66	0x3fe77a3d	1.8084179
67	0x40e7ef39	7.247952
68	0x41bc9550	23.572906
69	0x3dd40313	0.10352149
70	0x3f9c94e3	1.2232937
71	0xbfa5ca43	-1.295235
72	0x3ee18d32	0.44053036
73	0x404793ad	3.1183884
74	0x42de354e	111.10411
75	0x00000000	0.0
76	0x00000000	0.0
77	0x00000000	0.0
78	0x4057f9bc	3.3746176
79	0x41ca13fd	25.25976
80	0x439ea799	317.30936
81	0x3fab0660	1.336132
82	0x411189a9	9.096108
83	0x42d862fa	108.19331
84	0x3e9d278e	0.3069424
85	0xc09c8ab1	-4.89193
86	0xc2d7df3d	-107.93601
87	0xbf8fd272	-1.1236098
88	0x40bafddd	5.843489
89	0x43134072	147.25174
90	0x3f9611c4	1.1724172
91	0x40cd7612	6.420663
92	0x42a1dba7	80.92901
93	0xbec541d9	-0.385268
94	0xbf7ce992	-0.987939
95	0x4192df58	18.359055
96	0x3fa657e4	1.2995572
97	0x4083ea97	4.1223865
98	0x4127e7be	10.494078
99	0x40142374	2.314664
100	0x40f70ff2	7.7206964
101	0xbf82e6f3	-1.022673
102	0x00000000	0.0
103	0x00000000	0.0
104	0x00000000	0.0
105	0x00000000	0.0
106	0x00000000	0.0
107	0x00000000	0.0
108	0x3e658891	0.22415377
109	0x3d7b7955	0.061395008
110	0x405782a4	3.3673487
111	0x00000000	0.0
112	0x00000000	0.0
113	0x00000000	0.0
114	0xbd96ca82	-0.07362844
115	0xc0a6efc1	-5.216767
116	0xc2db6cd8	-109.712585
117	0x3fecf62b	1.8512625
118	0x410dbace	8.858107
119	0x41617f45	14.093572
120	0xbe5385ce	-0.20656511
121	0x4044840c	3.0705595
122	0x4221e005	40.46877
123	0x3fcb4623	1.5880779
124	0x410b91fa	8.723139
125	0x42a2242f	81.07067
126	0x3f140e6c	0.57834506
127	0xbf1f8476	-0.62311494
128	0x3fff2493	1.9933037
129	0x40119bdd	2.2751381
130	0x4105e914	8.369404
131	0x418d4edd	17.663507
132	0xbbc4e523	-0.0060087605
133	0xba37f15f	-0.0007016863
134	0x3e2eb05d	0.17059465
135	0x4007cb6d	2.1217911
136	0x412460bb	10.273616
137	0x42cdebdb	102.960655
138	0xbee35b97	-0.44405815
139	0xbe54680d	-0.20742817
140	0xbee2ceff	-0.4429855
141	0x3f88136d	1.0630928
142	0x408d1267	4.4084964
143	0x41a98641	21.190554
144	0x3ff22045	1.8916098
145	0x4134bd9b	11.29629
146	0x4304b2d2	132.69852
147	0xc17d1db9	-15.8197565
148	0xc20a0a99	-34.51035
149	0xc22af21a	-42.736427
150	0x00000000	0.0
151	0x00000000	0.0
152	0x00000000	0.0
153	0x00000000	0.0
154	0x00000000	0.0
155	0x00000000	0.0
156	0x3eb68874	0.3565098
157	0x3f4ae491	0.79255015
158	0xc210b2f8	-36.174774
159	0x3fe2ae0c	1.7709365
160	0x412b8e77	10.722281
161	0x42c618ef	99.0487
162	0x4020ea89	2.514315
163	0x410eaa6b	8.916606
164	0x41838bf1	16.44333
165	0x3ff39a48	1.9031458
166	0x413bc889	11.736459
167	0x42ef8e06	119.77739
168	0xc023fcd2	-2.562306
169	0xc18241f2	-16.2822
170	0xc029de43	-2.6541908
171	0x402bb247	2.6827562
172	0x410f97d5	8.974568
173	0xc09c8af8	-4.891964
174	0x00000000	0.0
175	0x00000000	0.0
176	0x00000000	0.0
177	0xc06e3781	-3.7221377
178	0xc09a859c	-4.8288097
179	0xc1f658fb	-30.793447
180	0xbf714989	-0.9425283
181	0xbfc021a7	-1.501027
182	0x417a0930	15.627243
183	0x00000000	0.0
184	0x00000000	0.0
185	0x00000000	0.0
186	0x40124d39	2.2859633
187	0x4152f55c	13.184902
188	0x4309d3ce	137.82736
189	0x3fff2f0c	1.9936233
190	0x4113d738	9.240044
191	0x42948618	74.2619
