beergame/baseline/models/dqn_agent_firm_1_episode_3000.pth (torch, 101224 bytes, 24 tensors)

fc1.weight f4 [64, 3]
00000000: d950 d6bd 13a7 463e 0586 a63e 1415 93be
00000010: bd06 033f beb0 133e 8b6e 04bf ca37 41be
00000020: 6a87 963d e025 5ebd 42c0 16be d019 80bd
00000030: 99f9 17bf b5cb 35bf 8e80 5e3e 4a2c 9dbd
00000040: 41cc cebe 9dfc e33b 5a85 233e a326 663e
00000050: e8b3 10be 2565 50bf b0a2 1dbe 3c80 453b
00000060: 5ec2 033f f4a4 ea3e cb94 be3d 1a04 08bf
00000070: 1c5f 1cbd b9a3 a5be f962 fabc 98ac 813d
00000080: c2e5 cebe 322f d6be 7146 28bf 0715 86bd
00000090: ffa1 4cbe fe88 06be 8175 1c3d 683d 043f
000000a0: cc7c 4bbe 91f4 e43d 1fc1 8b3d 48e1 07bd
000000b0: 168e 463d f958 26be faa8 c83e 04da 823e
000000c0: db8c 0bbf aef4 71bd 44a7 133e 51db 5f3e
000000d0: 1d1e 1e3e bba9 40be f9bc be3e af2c a7be
000000e0: c92e ddbd 4dba 16bd eb21 a53e 6a87 7d3d
000000f0: 5a97 b4be eb7d 13bf f028 8abe c211 febe
00000100: 1001 22be 006f bebe 4051 f63d 8af2 fb3e
00000110: cc4f e63d 920d a43e b3ee a8be 03ff 9a3e
00000120: 12b1 c9be cf40 adbe 2fc4 a5bc 7bb1 8dbe
00000130: ae49 7abe bcd1 11bf 961f 78be 3be1 8bbe
00000140: d35c 8e3d d541 e23e 9ed0 62be 7ef5 963d
00000150: 4ce3 12bf 3925 aabe 3c45 9c3d 0007 f33c
00000160: 3316 0dbf 5ebf 693e a23e b0be 0554 943d
00000170: 4027 0c3e 7ed7 9abb c81d 1abf 1ac9 7f3c
00000180: 119d 9ebd 567a 593e 83d2 2dbd 7abb cfbd
00000190: 3a5e bcbe d2fd b63e 40a3 343e 5720 a4be
000001a0: 450a 82be 868c b4be f620 61be b6b7 68be
000001b0: a012 b2bb b3fa 90be 695c c8bc 2c2f 6e3e
000001c0: 00b0 7e3a b09b 6bbe 6247 25bf f265 6abe
000001d0: be61 133e 8c38 cbbd d365 983e 8071 1f3e
000001e0: 9b29 09be 3b2d 24bf 74e3 1e3c b7a8 003e
000001f0: 14b3 9e3e 30c8 3c3d 5ac4 983e ab6e 8cbd
00000200: 3fcf 57bd db11 a33e 43f6 a23e c282 333e
00000210: 7334 e1bd 6e3c a9be b726 00bd ba34 62be
00000220: 951d 453e ba30 b93d c4d5 a33e 3c73 6dbe
00000230: 7ad2 18bf d77a 5ebe bb46 a73d 7846 d3bc
00000240: 506e da3c 1e2e b9bd 8e1e 613d 74cc 223e
00000250: b935 7b3e 452c 89be 80c9 e83c f103 bdbe
00000260: 60e7 fdbc 8d7b d3be aa75 13be f3ba 05bf
00000270: 8547 88be eab9 0ebf 9a4a 333e e54d e8bd
00000280: 47a2 bf3e 96a0 8b3d 9f19 073f b00f 5b3e
00000290: 9c16 893e 9588 a93d 8592 ed3c 74b2 543d
000002a0: d827 a73d e135 783e 3aa8 c6be e5cb 393f
000002b0: 41c0 3a3e 496c d83e 9073 133d cc75 c7bd
000002c0: 9e1a 36be a9c6 94be 5ccd f1be 93c1 9e3e
000002d0: 37be 243e ad36 91be 60b9 47bd 9287 06bf
000002e0: 5221 01bf deb3 35be 3b8e 9b3e 4e93 60bd
000002f0: 4431 603d 7709 873e 3bca 6f3e d838 893d
-0.10464639 0.19399671 0.32524124 -0.2872702 0.51182157 0.1442289 -0.51731175 -0.18868938
0.07350047 -0.05423534 -0.14721778 -0.06254923 -0.5936523 -0.7101396 0.21728727 -0.07674463
-0.40390208 0.006957604 0.15968838 0.22475676 -0.14131129 -0.81404334 -0.15394092 0.0030136248
0.51468456 0.45828974 0.09305724 -0.5313126 -0.03817664 -0.32351473 -0.030564772 0.06331748
-0.40409666 -0.41832882 -0.65732485 -0.065469794 -0.19983672 -0.13138196 0.038197998 0.516562
-0.19871825 0.1117946 0.06823944 -0.03317383 0.048475347 -0.16244878 0.3919142 0.25556958
-0.54511803 -0.059071235 0.14419276 0.21861006 0.15441175 -0.18814747 0.3725355 -0.32651278
-0.10799939 -0.036798764 0.3225244 0.06189672 -0.35271722 -0.5761401 -0.26984358 -0.49622923
-0.15820718 -0.3719406 0.12027216 0.4920848 0.11245689 0.32041603 -0.32994613 0.30272684
-0.39392906 -0.33838508 -0.02023515 -0.2767447 -0.24442169 -0.56960654 -0.24230799 -0.27320275
0.069512986 0.4419085 -0.22149894 0.07371043 -0.5737808 -0.33231524 0.07630393 0.029666424
-0.55112 0.22826907 -0.34422785 0.07242588 0.13686848 -0.0047253957 -0.6020169 0.015611911
-0.07744802 0.21238074 -0.042437088 -0.1014318 -0.3679064 0.35740525 0.176404 -0.32055923
-0.2539846 -0.3526346 -0.2198523 -0.2272633 -0.005434349 -0.28316268 -0.024458127 0.23260182
0.0009715557 -0.23008609 -0.64562047 -0.22890452 0.14392754 -0.09922895 0.29765186 0.1557064
-0.13394777 -0.64131516 0.009697784 0.1256436 0.30996 0.04608935 0.29837304 -0.06857046
-0.05268788 0.3184956 0.31828508 0.17530349 -0.10996332 -0.33053917 -0.03128692 -0.22090426
0.19249566 0.09042497 0.31999028 -0.2318849 -0.5969616 -0.21726547 0.08167788 -0.025790438
0.02666393 -0.09041999 0.05496078 0.15898305 0.24532212 -0.26791587 0.028416395 -0.3691707
-0.030994117 -0.413052 -0.14400354 -0.52238387 -0.26617065 -0.5575243 0.17508927 -0.11342982
0.37428495 0.06817739 0.5277347 0.21392703 0.26775062 0.08278004 0.02900053 0.051928
0.081618965 0.24239303 -0.38800222 0.72576743 0.18237402 0.42270115 0.03599888 -0.09739265
-0.17783591 -0.29057816 -0.4722699 0.3100706 0.16088186 -0.28362027 -0.04876077 -0.52550614
-0.5044147 -0.17744395 0.3038195 -0.05482798 0.054734483 0.2637441 0.23416989 0.06700295

fc1.bias f4 [64]
00000000: c3e5 b13f 037a 5b40 7fcc 7f40 6b2c aebe
00000010: a487 47c0 e2cc 4240 7293 8a40 5d2c 8440
00000020: 407f 1cc0 fa98 3640 b2bb 7d40 d8e7 1640
00000030: 576d 5940 e89a 3c40 2370 4540 a8dc 59bf
00000040: 58d0 1b40 1969 8140 061a 63be 4257 2240
00000050: fe7a d6be c53b a83f 992f cb3e 5e45 1cc0
00000060: 85f1 5840 9815 b6bd d34b 7640 2d92 3940
00000070: dbdf 73c0 6bbf 5240 2018 0a40 fb50 2f40
00000080: aabb f5bd b63c f7bf 084a 04bf f4ea 073e
00000090: 8807 2240 0040 3bbe 931a 62c0 f96c 4bbf
000000a0: 0fe4 db3f 1442 5940 e6ac f23f de00 8abf
000000b0: 9c18 d63f 5d47 2540 6636 2a40 626a a53f
000000c0: dac2 3a40 dd03 6e40 107c 5b3e b470 e23e
000000d0: c4c8 58c0 c2ea 3840 d621 9abf 098b 6a40
000000e0: 7ce5 6440 1da0 2cc0 a28e 09bf 63a7 1dc0
000000f0: 36fc 0b40 0045 44bd f1da 6f40 5a68 3540
1.3898243 3.429322 3.9968565 -0.34018263 -3.1176538 3.043755 4.3304987 4.1304154
-2.4452667 2.853087 3.964581 2.3579006 3.3972986 2.9469547 3.0849693 -0.8510232
2.4345913 4.0440793 -0.22177896 2.5365758 -0.4189071 1.314324 0.39684752 -2.4417338
3.3897412 -0.088908374 3.848378 2.8995469 -3.810538 3.2929332 2.1577225 2.7393177
-0.11998685 -1.9315403 -0.5167546 0.13273221 2.5317097 -0.18286133 -3.532872 -0.79463154
1.7178973 3.394658 1.8959014 -1.0781515 1.672626 2.5824807 2.6595702 1.292309
2.9181428 3.7189858 0.21434045 0.4422661 -3.3872538 2.8893285 -1.2041576 3.664736
3.5765066 -2.6972725 -0.53733265 -2.4633415 2.1872687 -0.047917366 3.7477381 2.834494

fc2.weight f4 [64, 64]
00000000: 7e31 fcbc b0bc f43d 5496 9a3f cc43 473d
00000010: 2d06 dabd bffd 53bc e1ef 19bf ef40 c13f
00000020: 072d 2dbe 16a5 debd e4cf 163f a79b a23d
00000030: 0b93 c33e 96ad ae3e d4a6 0d3e e3dc fe3d
00000040: f0a5 493c ff87 92be 3d21 8b3c d2fa 36bd
00000050: 00d9 203a a454 583c fe9c 183d 8246 1a3e
00000060: e984 e83d b283 8b3d 6f7e 433f bdf7 e83e
00000070: 68b0 fcbd 0522 b43e 6570 b1bd d2a8 42bc
00000080: e3fd 92bd 2aa4 2a3e 6031 153c 421c c4bd
00000090: 1876 6fbe f022 643c 609c b9be fef1 eabc
000000a0: e3a9 1a3c fe4a fa3d 095a e0be 1205 b73c
000000b0: 5131 d4bd 9385 323e 73f1 803e 44cd 6c3d
000000c0: 516a b63e ea6d 99be dab5 d3bd c875 2c3d
000000d0: 2b88 f3bd b8ac ab3d b9d5 903d eda4 453e
000000e0: 0d08 b2be dce2 f0bc dad1 dc3d a2f8 69ba
000000f0: d1b1 29be c04f 85bb dcdd f63e 22e6 49bd
00000100: 2466 e7bd aa8b 89bd 405f a63d 00ef 5f3d
00000110: 2c08 f4bd 0047 a9bd 24f8 213d 60f1 b93d
00000120: a224 d7bd 3c5a 563d 6c97 1b3d 0073 4dbd
00000130: c825 8b3c 2869 38bd 1248 a4bd 7228 bfbd
00000140: b0da e83d 7ac7 a9bd 88ca 49bd 903a 5c3c
00000150: da24 b0bd 608f d8bd ea2f eb3d 9274 edbd
00000160: 1a27 9bbd 3c5b b83d d66f f73d 065c dfbd
00000170: 287f bfbc c036 533b 8047 81bc d8c8 12bd
00000180: bc63 cbbd 4a18 d63d f85f db3c 40c7 ff3c
00000190: 3a7e 973d f0a8 c63c a83a 13bd 9898 49bd
000001a0: c08e 68bb 40a8 05bd 40f4 6b3c 887f 8bbc
000001b0: e68e 803d 202c afbd 42ea fe3d a097 463d
000001c0: 10d2 67bc 2069 53bd c855 d9bc aad3 b8bd
000001d0: e00b a3bc 604e f33c 1e3a e73d 54fe 0fbd
000001e0: 3896 d9bc 0c47 46bd c850 b43d 60d5 47bc
000001f0: 720a ffbd d477 043d e89b 81bc d894 afbd
00000200: ffac 113e 226a a73e d713 313f 84f3 98bd
00000210: fb1a 00be 5761 4b3d eeea 7cbf f61a 743f
00000220: 566b f2bc b33b 38be 565e ca3e bbb7 d3bd
00000230: ba36 b13e e35b 0dbd 7df7 b03d 394f 003e
00000240: 357b c83d 0eda 19bf 58b0 81bc 4503 893d
00000250: 6827 3d3d f8d5 33bd ba31 933c 330c bd3d
00000260: 616e 0cbe 4cd5 20bd 7e14 253f c711 b8bd
00000270: 4997 1ebe 3305 d53e ee3e 343d a690 603d
00000280: 5640 f3bd 8880 123e 888c b93c 0044 4e3a
00000290: 1a25 81be 70b5 e5bc 7048 acbe c4ea 0a3e
000002a0: 5256 28bd 23e3 183e 7c51 71be 0a1f ddb8
000002b0: 16f1 e9bd 98fe c83e c637 153f ac75 1ebe
000002c0: 4db7 67bc 571e 69be dab1 9ebd bcd6 f4bd
000002d0: 832c 43be d16f 653e b6d3 233e 4e79 6d3c
000002e0: e6f4 f4be 017a bb3d f86f bb3d 2e4e 02be
000002f0: baa4 84bd 80cd 383b 8efe 2d3e 369e e93d
00000300: 5284 afbd b80d 97bd b452 c4bd e018 443c
00000310: f065 8abc 9ed3 f73d 80f5 bc3d e880 18bd
00000320: 086d 9cbd 00c6 af3c 18f8 d5bc 78d6 f3bc
00000330: 20df ed3b 3000 333c 2027 51bd dcfd 7d3d
00000340: 78b7 fbbc 20f0 1b3c b814 f7bc 5237 ab3d
00000350: 1818 65bd d036 b8bc 5480 0ebd 8817 bdbd
00000360: 186f ce3d 22e4 8f3d 5a36 823d 0088 14b9
00000370: 3c8d a83d c0e4 12bb 8858 ca3d 406f aa3d
00000380: f83b cf3c 92cd ea3d c0f4 6a3d 90f4 fcbc
00000390: 803b 463c f41e 783d 80d0 cc3d 30f7 7dbd
000003a0: 4899 963d 70bf f1bc b80e 933c 5810 9e3d
000003b0: 381f 213d 54df 52bd a020 4b3d ec8d fcbd
000003c0: 50d7 2ebc a69e e7bd 7633 b1bd 508f ee3d
000003d0: e894 db3c 98af 04bd d051 b1bd 3cd4 07bd
000003e0: 1070 b6bc 04ba 2ebd 0082 d2bd f87e d93c
000003f0: ac57 573d 80ef 0fbc 6cc9 d0bd 0ac6 b9bd
-0.030785318 0.11950052 1.2077127 0.04864864 -0.10645709 -0.012938916 -0.6013165 1.5097941
-0.16911708 -0.108713314 0.58910966 0.079398446 0.38198122 0.3411681 0.13833171 0.124444745
0.012307629 -0.28619382 0.016983623 -0.044672795 0.0006135851 0.013203774 0.037259094 0.15065959
0.113534756 0.06812228 0.763648 0.4550151 -0.12338334 0.35182205 -0.08664016 -0.01188107
-0.07177331 0.16664186 0.00910601 -0.09575702 -0.23384893 0.013924345 -0.36252117 -0.028679844
0.009439918 0.12221335 -0.4381869 0.022341285 -0.10360969 0.17433767 0.2518421 0.057812944
0.35627988 -0.2996667 -0.1033742 0.042104512 -0.11891206 0.08382553 0.07072014 0.19301195
-0.34771767 -0.02940505 0.107822135 -0.0008925294 -0.16571738 -0.004068345 0.4821614 -0.049291737
-0.11298779 -0.06716092 0.08123636 0.054671288 -0.11915621 -0.08265495 0.039543286 0.09079242
-0.10505034 0.052332148 0.037986204 -0.0501585 0.016985789 -0.04502216 -0.08021559 -0.09333886
0.11369836 -0.0829 -0.049265414 0.013441697 -0.08600779 -0.105742216 0.11483748 -0.115945
-0.075758174 0.090017766 0.12081878 -0.10906224 -0.023376063 0.0032228678 -0.015781164 -0.03583607
-0.09931132 0.104538515 0.02677916 0.03122294 0.07397123 0.024250478 -0.03594461 -0.04921779
-0.0035485476 -0.03263116 0.014401495 -0.017028585 0.06277256 -0.08553338 0.12447025 0.048484445
-0.014149204 -0.051613927 -0.026530161 -0.09024747 -0.019903123 0.029700458 0.11290382 -0.035154656
-0.026560888 -0.0484076 0.0880447 -0.012196869 -0.12453164 0.03234084 -0.015821412 -0.085733116
0.14226149 0.3269816 0.691709 -0.07468322 -0.12510292 0.049653377 -0.98795974 0.9535364
-0.029592197 -0.17991523 0.39525098 -0.10337778 0.34612066 -0.034511458 0.08640955 0.12530221
0.09789125 -0.6009835 -0.015831158 0.06690077 0.04618016 -0.04390523 0.017968047 0.092308424
-0.13713981 -0.039265916 0.64484394 -0.08987766 -0.15487398 0.4160553 0.044005327 0.054825447
-0.118775055 0.14306843 0.022650018 0.0007868409 -0.2522362 -0.028040618 -0.33649015 0.13566118
-0.041097946 0.14930396 -0.2356624 -0.00010543883 -0.114229366 0.3925674 0.5828823 -0.15474576
-0.014142823 -0.2276548 -0.07748766 -0.1195502 -0.19059949 0.22405936 0.1599873 0.014494253
-0.47843093 0.0915413 0.09152216 -0.12725136 -0.064767316 0.002819866 0.16991636 0.114071295
-0.0857016 -0.073756635 -0.09586087 0.011968821 -0.01689431 0.1210091 0.09226513 -0.03723231
-0.076379836 0.021456718 -0.026119277 -0.029765353 0.0072592646 0.010925338 -0.051062703 0.062009677
-0.030727133 0.0095176995 -0.030161247 0.08360161 -0.05593118 -0.022487074 -0.034790352 -0.09233004
0.10079783 0.07025935 0.06358023 -0.00014165044 0.08230063 -0.0022414178 0.09880167 0.083220005
0.02529715 0.11464991 0.057362318 -0.030878335 0.012099147 0.060576394 0.10000706 -0.062003314
0.07353455 -0.02951023 0.017951354 0.07717961 0.039336413 -0.051482514 0.04959166 -0.12331757
-0.010671452 -0.11309557 -0.086523935 0.116484284 0.026804402 -0.03239402 -0.086581826 -0.033161387
-0.022270232 -0.042657867 -0.10278702 0.026549801 0.052573845 -0.008785129 -0.10194668 -0.09070976

fc2.bias f4 [64]
00000000: d6a9 e83f c8b9 37bd 366b c33f b4bf ecbd
00000010: d28f 0b40 b5b1 493f 9147 95bd 9694 c93d
00000020: 9cf7 c7bb 97e7 5c3d 9695 863f c616 cd3f
00000030: 1e6d 8cba f812 843d 03e8 0840 e520 d93f
00000040: 0dfe 0d40 b4a7 2bbd 6520 06c0 8fd6 1440
00000050: 61da 0c40 4c19 493d 2361 073c 8635 a2bd
00000060: 8a6e bc3c fe1c e2bd c958 663d 30e4 01be
00000070: 1457 4bbd 8107 ecbf c797 c33f 2428 b53f
00000080: ae89 ebbd c67a 0140 609c 1140 2fea da3d
00000090: 91d7 d83e f1b3 a1ba 9a9a 84bd aef3 533f
000000a0: 12e8 943f fb91 bdb9 f4f3 803d 7144 47bd
000000b0: b783 b63f 66cd c63f 7857 273d 4afa 623f
000000c0: f945 563f 972a 953f 2a92 1440 563b 88bd
000000d0: eb48 c93f 83be 08c0 7774 00bd b4fe 963d
000000e0: 03f0 543e af56 f73f 7832 51bc 38a1 53bd
000000f0: c528 7a3f 2fcd bb3f 63e4 653d 3878 ebbd
1.817683 -0.04485491 1.5267093 -0.11560002 2.180653 0.78786784 -0.07289041 0.09842794
-0.0061025154 0.0539318 1.05144 1.6022575 -0.0010713672 0.064489305 2.1391609 1.6963164
2.218631 -0.04190798 -2.0957272 2.3255956 2.2008288 0.04909639 0.008262905 -0.07920365
0.023001928 -0.11040686 0.056237016 -0.12684703 -0.04964359 -1.843979 1.5280694 1.4152875
-0.1150087 2.0231185 2.2751694 0.10689198 0.42351964 -0.0012336952 -0.064748004 0.827937
1.1633322 -0.00036157653 0.0629653 -0.048649255 1.4258946 1.5531433 0.0408549 0.8866316
0.8370052 1.1653622 2.3214211 -0.066519424 1.5725378 -2.136628 -0.03136107 0.073727995
0.20794682 1.9323329 -0.01276838 -0.051667422 0.9771846 1.4671992 0.05612601 -0.11497539

fc3.weight f4 [20, 64]
00000000: db44 9d3e dcf3 a33d cfb7 4f3e 941d 47bd
00000010: 594c 073f 5385 d6be cda2 0e3d 583a 453d
00000020: 4e70 b53d 639b 31bd 57ea 5b3e bb05 4b3e
00000030: 8653 7cbc 9b0c 1ebe b022 9dbf e90a a6be
00000040: 8f3a f83e 34e1 3a3d 9e11 b5be a2a6 553f
00000050: 2f9d cb3e 9a16 263c 04ca 92bd 40d6 52bd
00000060: 5ff8 373d 9863 d0bd b804 2dbd 3473 59bd
00000070: 9a1f fc3d 6037 eabe d077 2a3e b646 383e
00000080: d0bd 193d 3c85 f6be 6299 053f 1fae 86bd
00000090: 9caf a03e 7151 3b3d 1cbe c73d a23e 353e
000000a0: 145d adbe 2eed 1b3c 11c5 a2bd 1cd3 ecbd
000000b0: 98a5 39bd 62ff f03d 3864 d03c f212 91be
000000c0: 64ea a33c 916c 013e 1c63 1d3f 3c0a ef3d
000000d0: b2ab 663e 4136 16bf a021 fb3b 857d 133d
000000e0: de16 dbbc 2fa8 023f c8e4 81bb 00f8 be3a
000000f0: 1fef ec3d 2597 80bf 0abf 8fbd 44e8 713d
00000100: c621 1f3e d081 bdbd 7a2d 863e 407a b7bb
00000110: f00e 2e3f 39e3 efbd a612 ab39 08d7 f63d
00000120: e054 b1bc 995f 9cbd 64f3 b2bc 2fc4 2b3e
00000130: 3413 c93c 55b7 7cbd 4a88 7cbf 4d31 ccbe
00000140: ac1b e83e fc4a 753d 68e6 fdbe 0ea7 083f
00000150: db39 9c3e 516b 0c3b ce95 0a3e 4fcc 9ebd
00000160: de10 0f3d 24aa cebd d8e5 123e f029 0b3c
00000170: 111d 0a3e d2f9 c5be 6611 493e 8fa5 283e
00000180: 325a 903d f1f6 3abf 6ab8 0f3f 3848 983d
00000190: 59c8 22be 202f adbb 9222 ad3d 4a20 ea3e
000001a0: 6b0a 33bf 4072 613b 6ae5 17bd 78d3 ac3d
000001b0: 470e 8ebd d9c1 263e 8a52 e3bd 8db7 4e3e
000001c0: bfb6 1c3e 97b9 803e c830 1a3f 50f6 72bc
000001d0: c2a5 0e3e c1f4 ebbe e81d 1ebd 1000 e6bc
000001e0: 5523 703d fbbb b63e 6d43 03bd d0c1 8a3d
000001f0: e370 50be 229a 35bf 6425 5bbd c690 cc3d
00000200: 75c9 7c3e d0f6 133d bb4d 993e e040 89bb
00000210: fc61 233f 5b9b f6be b1ec 9ebd 3083 e0bc
00000220: 342c 23bd 5794 23bd 9291 18bf f878 563e
00000230: 6f9a 98bc cd44 c5bd de7b 61bf e6fe 9ebe
00000240: 69d7 bd3e 4469 66bd 5797 14be 5a93 193f
00000250: cb96 b53e 6ef4 0d3b 637f 2fbd 5c48 f3bc
00000260: 8c10 01be 2ec4 ecbd 46ff f13d e8c9 ac3c
00000270: 41ab 053d 5260 78be f33e 753e 8794 873d
00000280: eebf c8bd 3479 42bf 10d6 203f 2eee d9bd
00000290: 6494 573e 0d5c b6bd 807c 7bbb b822 a43d
000002a0: 7ca2 5dbe e461 603d 9f27 07bc 16d9 d6bd
000002b0: e42f 793e cf2c 023d 4e24 d03d 79bb 393e
000002c0: d427 8a3e 574c 973e 66d3 023f 2a67 d03d
000002d0: 4354 0b3e 2961 55be 00ed efba aec1 b2bd
000002e0: 57be 8b3e 6a46 c33e 5f53 e63d d821 82bd
000002f0: 0e13 2ebe ce82 54bf 5279 75bd 8e17 ba3d
00000300: 316c 2b3e f699 b73d a937 a03e 688c 103d
00000310: 72d9 223f e18f e63e 5642 3d3d 40da a1bb
00000320: d438 05bd bb34 38be fe45 83bd b1f4 483e
00000330: 2714 bc3d 828d 52be 25c2 53bf 11dd 04bf
00000340: 7898 cb3e 9a4c 873d 7e69 15bf 6da3 093f
00000350: 8bb5 d03e 6844 d53c 19e3 39bd 80b4 8a3d
00000360: 50d8 063c 2ade 9e3d 7093 71bd 2d82 ec3b
00000370: d14d ab3d c199 d2be 7700 083e f579 a13e
00000380: a097 efbc 31dd 35bf dec0 0b3f e013 d2bc
00000390: 881b 9fbd 519f 9d3d 4068 5fbc bbe1 c53e
000003a0: 087e 8dbe c47d 873d 137f 9b3d 2020 adbc
000003b0: 65bd f5bd 6b56 4f3e 9419 acbd a4ba 7a3c
000003c0: 5914 8a3e eaed 173e ead5 233f 3aaf ae3d
000003d0: 3841 693c 5158 a0be 682f c2bd b8ac 2ebd
000003e0: 7262 843e b8a8 103e f087 803c 30ea 27bd
000003f0: 13b9 3a3d f68e 28bf 7ebb a43d 58f2 80bd
0.30716595 0.08005497 0.20284961 -0.048612192 0.5285087 -0.41898593 0.034823228 0.048151344
0.08859311 -0.04336108 0.21476112 0.19826405 -0.015400773 -0.15434496 -1.2276211 -0.324302
0.48482177 0.045624927 -0.35365003 0.83457386 0.3976836 0.010137225 -0.07167438 -0.051473856
0.0449146 -0.10175246 -0.04224083 -0.053088382 0.12310715 -0.45745373 0.16647267 0.17995724
0.037534535 -0.48148525 0.5218717 -0.0657618 0.3138398 0.045731965 0.09753057 0.17699674
-0.33860075 0.009516997 -0.07947744 -0.115637034 -0.045323938 0.117674604 0.025438413 -0.28334767
0.020009227 0.12639071 0.61479354 0.11671874 0.22526434 -0.58676535 0.0076639205 0.036008377
-0.026744302 0.5103788 -0.0039640404 0.0014569759 0.11569046 -1.0046126 -0.0701886 0.059059396
0.15540227 -0.092532754 0.2620657 -0.00559929 0.6799154 -0.11713261 0.00032629556 0.12052733
-0.021646917 -0.07635421 -0.021844573 0.16774057 0.02454529 -0.061698277 -0.9864546 -0.39881364
0.45333612 0.059885964 -0.4958985 0.53379905 0.3051289 0.002142627 0.13533708 -0.077538125
0.034928195 -0.100910455 0.14345491 0.008493885 0.1348765 -0.3866716 0.19635543 0.16469406
0.070484534 -0.7303305 0.5614077 0.0743565 -0.15896739 -0.0052851588 0.084538594 0.4572776
-0.6993777 0.0034400374 -0.03708402 0.08438772 -0.06936317 0.16284885 -0.110997275 0.20187207
0.15304087 0.25141594 0.60230684 -0.014829233 0.13930419 -0.4608517 -0.03860274 -0.028076202
0.058627445 0.35690293 -0.032046724 0.06775248 -0.20355563 -0.70938313 -0.053502455 0.09988551
0.24686225 0.03612405 0.29942116 -0.004188642 0.6382139 -0.48165402 -0.07759989 -0.027406305
-0.039837077 -0.03993639 -0.5959712 0.20944583 -0.018628327 -0.09632263 -0.8807963 -0.31053847
0.37078407 -0.056252733 -0.14510857 0.59990466 0.35466608 0.0021660584 -0.042846095 -0.02969759
-0.12603968 -0.11560856 0.11816268 0.02109237 0.032634024 -0.24255493 0.23949794 0.06620126
-0.09802233 -0.7596619 0.62826633 -0.10641132 0.210527 -0.08904276 -0.0038373768 0.080144346
-0.21644014 0.054780856 -0.0082491925 -0.104906246 0.24334675 0.031781014 0.101631746 0.18137921
0.2698351 0.2955043 0.5110382 0.10175927 0.13606362 -0.20837845 -0.0018304884 -0.08728348
0.27293655 0.3813966 0.112463705 -0.063541114 -0.16999456 -0.8301209 -0.059930153 0.09086524
0.1674049 0.089649126 0.31292465 0.03529015 0.63613045 0.45031646 0.04620584 -0.0049393475
-0.0325249 -0.17988865 -0.06409834 0.19624592 0.09183531 -0.20561793 -0.82718116 -0.5189982
0.39764762 0.066064075 -0.58364093 0.5376499 0.40763506 0.026033595 -0.045382593 0.06772709
0.008230284 0.07757218 -0.058978498 0.0072176666 0.08364452 -0.4113293 0.13281427 0.31538358
-0.029247105 -0.71040636 0.54591167 -0.025644243 -0.07768923 0.07696403 -0.013635695 0.3864878
-0.27635217 0.06615785 0.07592597 -0.021133482 -0.11999015 0.2024781 -0.08403316 0.015303288
0.2696865 0.14836851 0.6399828 0.085295156 0.014236741 -0.3131738 -0.09481698 -0.042645186
0.25856358 0.14126861 0.01568982 -0.040994823 0.045586657 -0.6584314 0.08043574 -0.062962234

fc3.bias f4 [20]
00000000: 3021 e73f 810d 663f caaa 4c3f 9188 1c3f
00000010: b7df 293f c829 ee3e 832e a73e d638 0c3f
00000020: df5a 6f3e 7342 a63d 175b c33e e124 6a3d
00000030: 756d 4b3e 791b c13d 06ee b7bd 9c9a 96be
00000040: 0529 35be 3672 10be 9db2 7dbe 9a1a a3be
1.8057003 0.89864355 0.79948103 0.61145884 0.66356987 0.46516252 0.32652673 0.54774225
0.23374508 0.08118143 0.38155434 0.057164077 0.19865973 0.09429068 -0.08980946 -0.29414833
-0.17691429 -0.14106068 -0.24775167 -0.31856233

fc1.weight f4 [64, 3]
00000000: 5881 ccbd 5680 4e3e 47ca a63e f3e3 90be
00000010: 6434 043f f31a 0e3e b17b e5be 62e8 30be
00000020: fa81 983d e025 5ebd 4cc0 16be d019 80bd
00000030: 6c95 22bf 5fd4 3cbf fe98 533e a7e3 3ebc
00000040: f965 a0be 9b23 dc3c 81bc 1e3e f0b4 6f3e
00000050: 7dee 06be 1b37 2fbf 530f 1cbe a7ca 803b
00000060: 75cf 043f 0746 ee3e e9bd c03d bcb6 03bf
00000070: bea3 b1bc 58a8 88be 8d6c a8bd 497c 963d
00000080: b820 c4be db0f cabe 7cce 1ebf e75b 55bd
00000090: 29d6 57be 71a5 09be 95c2 103d 69e5 053f
000000a0: 5d3a 4ebe a281 d23d e5c7 b23d b992 c0bc
000000b0: 0fc6 273d d507 25be 8ec1 c93e 0a02 833e
000000c0: a907 e7be 4417 e7bc 550d 173e 326e 643e
000000d0: 4339 283e 6df8 35be 5247 b73e e82f a6be
000000e0: 42a3 ecbd be5c f5bc 5aaa ad3e 2e61 673d
000000f0: 5a97 b4be eb7d 13bf f028 8abe 3c26 cebe
00000100: 0428 bcbd 5617 95be 4292 003e ccee ff3e
00000110: 37c3 e53d 2617 b03e a0da a4be 1bc5 9e3e
00000120: 4edf d4be 3711 91be e34c 25bd 7bb1 8dbe
00000130: ae49 7abe bcd1 11bf c5fe 51be 527a 79be
00000140: 4eae 8b3d 2e0c ea3e b1bc 58be 88ee 863d
00000150: a1b3 0dbf a524 8ebe 5240 b43d 4d24 803d
00000160: 040f 11bf 513b 583e edf7 bbbe aa33 a33d
00000170: 067a 023e 7d5c 213d 6f98 11bf d5b0 f53c
00000180: e899 69bd e856 833e a2bf cfbc 7990 c4bd
00000190: 6f7c cbbe f705 b73e 40a3 343e 5720 a4be
000001a0: 450a 82be 868c b4be f620 61be b6b7 68be
000001b0: b12b 8bbc 8d9b 68be 6f6f 0ebd 652f 6e3e
000001c0: 00b0 7e3a b09b 6bbe ec6c 30bf e6e3 8fbe
000001d0: 5963 093e dcef c3bd dfe9 9a3e b00d 213e
000001e0: 3caa d5bd eb3e 0cbf 6ee8 103d 25b3 093e
000001f0: 5ad7 a43e 0785 233d 05e9 9d3e dbd7 a83a
00000200: 9b1f 91bd 30ef a43e 1bb7 a53e 38e9 343e
00000210: 26d0 6ebd 9c6b 82be ac27 2abd 62db 55be
00000220: e9eb 513e 07ec ae3d 217c b73e d9dc 8abe
00000230: c10c 0fbf 0900 42be cb87 1c3e 5b90 f03b
00000240: 4c48 3f3d 84f0 a5bd 95ee 413d 72e6 263e
00000250: 5c1b 753e c93b 8cbe 80c9 e83c f103 bdbe
00000260: 60e7 fdbc 8d7b d3be aa75 13be f3ba 05bf
00000270: 4da4 8abe 71c2 16bf f77f 393e e0a0 dabd
00000280: 0961 c43e a3ef 7d3d 9a19 083f 5414 5f3e
00000290: f921 893e 4912 c33d 49d5 163d 7f71 383d
000002a0: e18e bf3d 0aa4 743e 3da4 c2be 861b 3a3f
000002b0: 5ee4 3c3e 9d7f d93e 9073 133d cc75 c7bd
000002c0: 9e1a 36be 2134 98be 2841 e9be 468c a23e
000002d0: 1ff2 2f3e 9e06 84be 0851 11bd e687 06bf
000002e0: 5221 01bf deb3 35be 0029 a23e db4e 50bd
000002f0: 8681 3e3d cd01 8b3e f064 783e 7474 753d
-0.09985608 0.20166144 0.325762 -0.2829891 0.5164244 0.13877468 -0.44820932 -0.17276147
0.07446666 -0.05423534 -0.14721793 -0.06254923 -0.6350925 -0.7376155 0.2066383 -0.011650956
-0.313278 0.026872447 0.15501596 0.23408866 -0.13176914 -0.6844346 -0.1524022 0.003930408
0.51879054 0.46537802 0.094112225 -0.51450706 -0.021684524 -0.26690936 -0.082238294 0.07347924
-0.38306212 -0.39465222 -0.6203382 -0.052089598 -0.2107779 -0.13442017 0.035341818 0.5230318
-0.20139451 0.10278632 0.08729533 -0.023507463 0.040960368 -0.16116269 0.39405483 0.25587493
-0.45123032 -0.028209336 0.1475118 0.22307661 0.16428094 -0.17770548 0.357966 -0.32458425
-0.115545765 -0.02995145 0.3391903 0.056489162 -0.35271722 -0.5761401 -0.26984358 -0.40263546
-0.0918732 -0.29119366 0.12555793 0.49986875 0.11218875 0.3439266 -0.32198048 0.31009755
-0.41576618 -0.28333446 -0.040356528 -0.2767447 -0.24442169 -0.56960654 -0.20507343 -0.24363068
0.06820355 0.45712417 -0.2116573 0.06588465 -0.55352217 -0.27762333 0.088013306 0.06256924
-0.5666354 0.21116377 -0.3671259 0.079688385 0.12741861 0.039394844 -0.5687322 0.029991547
-0.057031542 0.25652242 -0.025359932 -0.095978685 -0.39743373 0.35746738 0.176404 -0.32055923
-0.2539846 -0.3526346 -0.2198523 -0.2272633 -0.016988607 -0.22715588 -0.03477424 0.23260267
0.0009715557 -0.23008609 -0.689162 -0.2810356 0.13416804 -0.09567234 0.30256554 0.15727878
-0.1043286 -0.54783505 0.035377912 0.13447244 0.3219555 0.039921787 0.30841842 0.0012881713
-0.070861064 0.32213736 0.3236626 0.17667091 -0.058303975 -0.25472724 -0.04154174 -0.20884469
0.20500149 0.085411124 0.3583689 -0.27121618 -0.55878836 -0.18945326 0.15286176 0.0073414273
0.046699807 -0.08102515 0.04734667 0.16298845 0.23936218 -0.27389362 0.028416395 -0.3691707
-0.030994117 -0.413052 -0.14400354 -0.52238387 -0.27078477 -0.58890444 0.18115221 -0.10675216
0.38355282 0.061996114 0.53164065 0.21785098 0.26783732 0.09524972 0.0368245 0.045030113
0.09353424 0.23890701 -0.3801593 0.7269825 0.1844649 0.42480174 0.03599888 -0.09739265
-0.17783591 -0.2972727 -0.45557523 0.31747645 0.17182206 -0.257863 -0.035477668 -0.52551115
-0.5044147 -0.17744395 0.31671906 -0.050856452 0.046510242 0.2714981 0.24257255 0.05992551

fc1.bias f4 [64]
00000000: b17e b33f b83f 5c40 257a 8040 772c aebe
00000010: 55ec 4ac0 a123 4740 ccff 8940 cb5e 8440
00000020: dc12 1cc0 771a 3740 3470 7d40 05a1 1840
00000030: 9729 5a40 8c46 3d40 7b04 4740 f910 59bf
00000040: d708 1f40 853a 8140 3762 5ebe 3dc5 2340
00000050: fe7a d6be 8f36 b43f 4f80 d03e 6322 1bc0
00000060: 638e 5740 9815 b6bd 8862 7840 08e6 3a40
00000070: 51d3 71c0 706e 5640 3ba1 0b40 dc24 3240
00000080: 11e0 9bbd 94ab f7bf 084a 04bf 5feb 073e
00000090: 17ee 2040 2a40 3bbe 6a29 62c0 b1a6 49bf
000000a0: 78e5 e53f 9c8b 5a40 b7f0 ec3f 240a 89bf
000000b0: 3ca2 d43f ecaf 2640 142e 2b40 1a51 ac3f
000000c0: c643 3c40 2e96 6c40 107c 5b3e b470 e23e
000000d0: 2f03 5ac0 d60e 3a40 2d44 99bf 1fba 6b40
000000e0: cecf 6440 0768 2cc0 a28e 09bf 2b5c 1fc0
000000f0: 387d 0c40 0045 44bd 1ed7 7040 4b2e 3640
1.4023038 3.441389 4.01491 -0.340183 -3.1706746 3.1115496 4.312475 4.1365714
-2.438651 2.8609903 3.9599733 2.3848279 3.4087884 2.9574308 3.1096485 -0.84791523
2.4849145 4.0383935 -0.21717153 2.5589135 -0.4189071 1.407915 0.40722892 -2.4239738
3.3680656 -0.088908374 3.8810139 2.92029 -3.7785227 3.3504906 2.1817157 2.7834997
-0.07611097 -1.9349236 -0.5167546 0.1327338 2.5145319 -0.18286195 -3.5337777 -0.78769976
1.7960653 3.414771 1.851096 -1.070622 1.661201 2.6044874 2.6746874 1.346225
2.9416366 3.6966662 0.21434045 0.4422661 -3.4064443 2.9071555 -1.1973931 3.683235
3.5751834 -2.6938493 -0.53733265 -2.4900005 2.1951427 -0.047917366 3.7631297 2.8465755

fc2.weight f4 [64, 64]
00000000: a69d f0bc bc4a fa3d 79f9 9b3f cc43 473d
00000010: 4661 c2bd 24bc abbb e379 14bf f92f c13f
00000020: 339d 22be d964 b0bd 5289 ec3e 40b7 9c3d
00000030: 9471 ca3e 4e41 b83e a6a8 243e 8ed2 fe3d
00000040: b8dd 943c 077a 8ebe 2d63 a93c 1fea 0cbd
00000050: 00d9 203a 70c9 31bd 6052 323d ee56 1d3e
00000060: 2a82 383e b283 8b3d 5dc5 483f 490e f53e
00000070: 4dbf f5bd 4a03 b73e 84fd a5bd a858 bfbb
00000080: 6bc4 91bd c31c 2b3e da31 153c 421c c4bd
00000090: fa58 89be f022 643c 959c b7be 0ee1 d3bc
000000a0: fb89 ad3c 44a6 0a3e fcc2 d3be de74 f03c
000000b0: 4a70 dcbd 64d0 3a3e c87e 243e a4cc 5f3d
000000c0: a092 c23e cce3 94be f7b5 d3bd c875 2c3d
000000d0: d8bf e3bd 0c64 bd3d cda1 9d3d 57c8 583e
000000e0: 3825 c7be 111b cfbc 07d2 dc3d a49a 033b
000000f0: 3814 22be c04f 85bb 42d2 003f c95d 0fbd
00000100: 2466 e7bd aa8b 89bd 405f a63d 00ef 5f3d
00000110: 2c08 f4bd 0047 a9bd 24f8 213d 60f1 b93d
00000120: e224 d7bd 3c5a 563d 6c97 1b3d 0073 4dbd
00000130: c825 8b3c 9869 38bd 1248 a4bd 7228 bfbd
00000140: b0da e83d 7ac7 a9bd dfca 49bd 903a 5c3c
00000150: da24 b0bd 608f d8bd ea2f eb3d 9274 edbd
00000160: 1a27 9bbd 3c5b b83d d66f f73d 065c dfbd
00000170: 287f bfbc c036 533b 8047 81bc d8c8 12bd
00000180: bc63 cbbd 4a18 d63d f85f db3c 5cc7 ff3c
00000190: 3a7e 973d f0a8 c63c a83a 13bd 9898 49bd
000001a0: c08e 68bb 40a8 05bd 40f4 6b3c 887f 8bbc
000001b0: e68e 803d 202c afbd 42ea fe3d a097 463d
000001c0: 78d2 67bc 2069 53bd c855 d9bc aad3 b8bd
000001d0: e00b a3bc 604e f33c 203a e73d 54fe 0fbd
000001e0: 3896 d9bc 0c47 46bd c850 b43d 60d5 47bc
000001f0: 720a ffbd d477 043d e89b 81bc d894 afbd
00000200: ffcc 0e3e 6743 a63e 27a0 353f 84f3 98bd
00000210: f27d eebd 7697 433d dd12 7ebf b7fd 793f
00000220: 94c0 01bd 0802 43be 8926 9e3e 2e80 cfbd
00000230: 0406 b53e 1907 f6bc 11f1 c33d a15f fa3d
00000240: 26c1 d43d 21b6 1dbf 69c3 5fbd 7971 8c3d
00000250: 6827 3d3d 9371 f7bd 40af 823c 17b8 c13d
00000260: 06dd 08bd 4cd5 20bd 09f0 2a3f 05e6 a8bd
00000270: c8fb 23be f666 d83e 3276 473d e1b7 453d
00000280: 1829 eebd 8209 133e 888c b93c 0044 4e3a
00000290: 671f 97be 70b5 e5bc cc68 aabe 9df4 0a3e
000002a0: 34de 57bc f02d 1a3e 91f5 70be b127 f0ba
000002b0: e9cd cebd 4402 cb3e 5c0b dd3e c9ca 1cbe
000002c0: aa34 09bb 6c8b 72be dab1 9ebd bcd6 f4bd
000002d0: 89a2 3fbe bf8c 663e 1f11 213e 7aec a93c
000002e0: dd0b 06bf ea30 b33d f86f bb3d 2d05 fabd
000002f0: 6980 93bd 80cd 383b e1d5 333e e567 ec3d
00000300: 5284 afbd b80d 97bd b452 c4bd e018 443c
00000310: f065 8abc 2ed4 f73d acf5 bc3d e880 18bd
00000320: 706d 9cbd 00c6 af3c 19f8 d5bc 78d6 f3bc
00000330: 20df ed3b 3000 333c 2027 51bd 53fe 7d3d
00000340: 49b8 fbbc 70f0 1b3c c514 f7bc 5237 ab3d
00000350: 1818 65bd d036 b8bc 5480 0ebd 8817 bdbd
00000360: 186f ce3d 22e4 8f3d 6a36 823d 0088 14b9
00000370: 3c8d a83d c0e4 12bb 8858 ca3d 6c6f aa3d
00000380: f83b cf3c 92cd ea3d c0f4 6a3d b2f4 fcbc
00000390: 803b 463c f41e 783d 80d0 cc3d 30f7 7dbd
000003a0: 4899 963d 70bf f1bc f90e 933c 5810 9e3d
000003b0: 381f 213d 54df 52bd a020 4b3d ec8d fcbd
000003c0: 50d7 2ebc a69e e7bd 7633 b1bd 508f ee3d
000003d0: 9e95 db3c 98af 04bd d051 b1bd 3cd4 07bd
000003e0: 1070 b6bc 04ba 2ebd 0082 d2bd f87e d93c
000003f0: ac57 573d 80ef 0fbc 6cc9 d0bd 0ac6 b9bd
-0.029372048 0.12221286 1.2185508 0.04864864 -0.0949121 -0.005240934 -0.57998484 1.5092765
-0.15880279 -0.08612985 0.46198517 0.0765214 0.39539778 0.35987324 0.1607996 0.12442504
0.01817213 -0.27827474 0.020677174 -0.034402963 0.0006135851 -0.043404996 0.04353559 0.15365192
0.18018404 0.06812228 0.7842615 0.4786246 -0.11999378 0.35744697 -0.08104995 -0.005839426
-0.07117542 0.1671019 0.009106124 -0.09575702 -0.26825696 0.013924345 -0.3586165 -0.02586415
0.021183958 0.13539988 -0.413597 0.029352602 -0.10763605 0.18243557 0.16063988 0.05463852
0.3800249 -0.29080045 -0.103374414 0.042104512 -0.11120576 0.09247598 0.07696877 0.21170174
-0.38895583 -0.025281461 0.10782247 0.0020081187 -0.15828025 -0.004068345 0.5032083 -0.03500155
-0.11298779 -0.06716092 0.08123636 0.054671288 -0.11915621 -0.08265495 0.039543286 0.09079242
-0.10505082 0.052332148 0.037986204 -0.0501585 0.016985789 -0.045022577 -0.08021559 -0.09333886
0.11369836 -0.0829 -0.04926574 0.013441697 -0.08600779 -0.105742216 0.11483748 -0.115945
-0.075758174 0.090017766 0.12081878 -0.10906224 -0.023376063 0.0032228678 -0.015781164 -0.03583607
-0.09931132 0.104538515 0.02677916 0.031222992 0.07397123 0.024250478 -0.03594461 -0.04921779
-0.0035485476 -0.03263116 0.014401495 -0.017028585 0.06277256 -0.08553338 0.12447025 0.048484445
-0.014149301 -0.051613927 -0.026530161 -0.09024747 -0.019903123 0.029700458 0.11290383 -0.035154656
-0.026560888 -0.0484076 0.0880447 -0.012196869 -0.12453164 0.03234084 -0.015821412 -0.085733116
0.13945387 0.324733 0.709475 -0.07468322 -0.11645116 0.047751866 -0.99247533 0.97652763
-0.031677797 -0.19043744 0.30888775 -0.1013187 0.35356152 -0.030032681 0.09567464 0.12225271
0.10388403 -0.6160603 -0.054629717 0.06857581 0.04618016 -0.120822094 0.015952706 0.094589405
-0.03341391 -0.039265916 0.66772515 -0.08246998 -0.16014016 0.42266053 0.048696704 0.048271064
-0.11628932 0.14359096 0.022650018 0.0007868409 -0.29516146 -0.028040618 -0.3328308 0.13569875
-0.013175536 0.15056586 -0.23531176 -0.0018322376 -0.10097868 0.39650166 0.4317273 -0.15311731
-0.0020935931 -0.23685998 -0.07748766 -0.1195502 -0.18714346 0.22514628 0.15729187 0.020742644
-0.5236185 0.08749564 0.09152216 -0.122080185 -0.07202227 0.002819866 0.17562057 0.11543254
-0.0857016 -0.073756635 -0.09586087 0.011968821 -0.01689431 0.12101017 0.09226546 -0.03723231
-0.07638061 0.021456718 -0.026119279 -0.029765353 0.0072592646 0.010925338 -0.051062703 0.06201012
-0.030727522 0.009517774 -0.03016127 0.08360161 -0.05593118 -0.022487074 -0.034790352 -0.09233004
0.10079783 0.07025935 0.06358035 -0.00014165044 0.08230063 -0.0022414178 0.09880167 0.08322033
0.02529715 0.11464991 0.057362318 -0.030878399 0.012099147 0.060576394 0.10000706 -0.062003314
0.07353455 -0.02951023 0.017951475 0.07717961 0.039336413 -0.051482514 0.04959166 -0.12331757
-0.010671452 -0.11309557 -0.086523935 0.116484284 0.026804741 -0.03239402 -0.086581826 -0.033161387
-0.022270232 -0.042657867 -0.10278702 0.026549801 0.052573845 -0.008785129 -0.10194668 -0.09070976

fc2.bias f4 [64]
00000000: f08b e93f d0b9 37bd 14d2 c23f 34c0 ecbd
00000010: b4a3 0b40 2f31 463f 6245 95bd 9694 c93d
00000020: 21ec c7bb 76e9 5c3d dcaa 863f c84b ce3f
00000030: d45a 87ba 2c57 af3d cc8b 0940 298a d83f
00000040: fb34 0e40 eda7 2bbd 6e1e 06c0 0734 1440
00000050: f249 0d40 8e5d 493d a662 073c ed35 a2bd
00000060: da70 bc3c 831d e2bd 049e 7a3d 62e4 01be
00000070: 6855 4bbd b404 ecbf cb89 c53f 5f22 b63f
00000080: 4684 ebbd b557 0140 e2b4 1140 a4ed da3d
00000090: acb7 dc3e 87be 9eba 9a9a 84bd 7de1 543f
000000a0: 6170 933f 408d bdb9 18f6 803d 6d42 47bd
000000b0: f22f bc3f 462d ca3f 7857 273d 928b 683f
000000c0: 25d2 5e3f ad4a 973f 3ea6 1440 563b 88bd
000000d0: ee48 ca3f 50be 08c0 4971 00bd b302 973d
000000e0: d78c 593e 1f84 f73f 6d31 51bc 38a1 53bd
000000f0: c04c 7a3f cb3c bd3f 45e6 653d 1378 ebbd
1.824583 -0.04485494 1.5220361 -0.11560097 2.1818666 0.774188 -0.07288624 0.09842794
-0.006101147 0.053933583 1.0520892 1.6116877 -0.0010326752 0.085615486 2.1491575 1.6917163
2.2219837 -0.041908193 -2.0956073 2.3156755 2.2076383 0.049161486 0.008263266 -0.07920442
0.02300303 -0.11040785 0.06118585 -0.12684777 -0.049641997 -1.8438935 1.5432676 1.4229239
-0.114998385 2.0209782 2.2766652 0.106898576 0.4310888 -0.0012111225 -0.064748004 0.8315657
1.151867 -0.0003615413 0.06296939 -0.048647333 1.4702132 1.5795066 0.0408549 0.9083797
0.87039405 1.1819664 2.3226466 -0.066519424 1.5803506 -2.1366158 -0.031358037 0.07373562
0.21245132 1.9337195 -0.012768132 -0.051667422 0.9777336 1.4784178 0.056127805 -0.11497512

fc3.weight f4 [20, 64]
00000000: 7d05 a03e dcf3 a33d 703c 523e 941d 47bd
00000010: f8a4 073f babe a0be 0ca6 0e3d e33a 453d
00000020: c573 b53d 499f 31bd c2ac 5a3e 836e 4b3e
00000030: fcf4 7cbc 4377 2ebe cd82 9fbf eed3 9fbe
00000040: 028b f93e 34e1 3a3d 6419 b5be aa78 573f
00000050: 808c cc3e 7861 263c 8fcc 92bd 40d6 52bd
00000060: 50f8 373d 9863 d0bd a2f2 40bd 3473 59bd
00000070: d91d fc3d 063e eabe 0969 2e3e 7b7e 373e
00000080: eebd 193d 1773 f0be 70f0 053f f5ae 86bd
00000090: de98 b73e 7876 3b3d 1cbe c73d 0dce 353e
000000a0: 9f77 76be 88ec 1b3c 75c6 a2bd bcd3 ecbd
000000b0: 9013 30bd 5188 ca3d 3864 d03c 5988 d8be
000000c0: 35a9 dc3c a64a 053e 68f4 1d3f 3c0a ef3d
000000d0: a4ee 6e3e 3d39 16bf a021 fb3b 4080 133d
000000e0: b514 dbbc 1723 043f 49e8 81bb 00f8 be3a
000000f0: fbf2 ec3d eddd 86bf 35c3 8fbd 89e8 713d
00000100: dd28 2b3e 4c82 bdbd 77e1 883e 407a b7bb
00000110: 25a7 2d3f 23c1 e7bd 4f49 ab39 08d7 f63d
00000120: 1255 b1bc b761 9cbd 7907 9dbc 2e27 313e
00000130: 4613 c93c 7573 a3bd 7986 7cbf ca50 d0be
00000140: da58 e63e bb4b 753d e3e6 fdbe 5a2a 0a3f
00000150: 93d0 9d3e 65a1 023b 1193 0a3e d1ce 9ebd
00000160: 850f 0f3d 24aa cebd 414b 0e3e f029 0b3c
00000170: f919 0a3e 4cfa c5be 112a 4b3e 6221 2f3e
00000180: 325a 903d be8c 3bbf fb5c 0f3f ed46 983d
00000190: 2ff0 19be 202f adbb d722 ad3d d142 ea3e
000001a0: f4fe 29bf 4072 613b 2ce9 17bd 78d3 ac3d
000001b0: 9cff 72bd 1624 2c3e 8a52 e3bd 051d 2f3e
000001c0: f716 233e fc9b 883e bcca 1a3f 50f6 72bc
000001d0: 7107 193e 14f5 ebbe e81d 1ebd 1000 e6bc
000001e0: 6723 703d 8b14 b73e f243 03bd f2c1 8a3d
000001f0: 843b 50be ed25 36bf 3c28 5bbd c690 cc3d
00000200: febe 813e d0f6 133d a286 9b3e e040 89bb
00000210: efdf 213f 7bcc d9be 12ee 9ebd 5a83 e0bc
00000220: 342c 23bd 9791 23bd 7cae 16bf 01a2 763e
00000230: dc9c 98bc 573b efbd 30c3 5cbf 113e aebe
00000240: 1321 bc3e 4469 66bd 8e9c 14be 5e05 1b3f
00000250: f517 b33e 31a2 0e3b 697c 2fbd 014c f3bc
00000260: 890d 01be 2ec4 ecbd f9ff f13d e8c9 ac3c
00000270: 3da9 053d c867 78be acb0 853e 54ce e83d
00000280: eebf c8bd f7d7 45bf bc29 1f3f d4eb d9bd
00000290: b8f9 7d3e 3e5a b6bd 807c 7bbb 65e8 a83d
000002a0: 9b2c 09be e461 603d 0f28 07bc 16d9 d6bd
000002b0: 7fb2 443e c8a6 773d 4e24 d03d 7877 b73d
000002c0: ad6e 803e 66ce 8f3e 23ee 013f 2a67 d03d
000002d0: 5307 213e d566 55be b7ec efba aec1 b2bd
000002e0: f2bb 8b3e 36f2 c53e 8e57 e63d d821 82bd
000002f0: 9900 2ebe dcb0 56bf 9b7a 75bd 8e17 ba3d
00000300: 9fa0 233e 8f9a b73d e552 a33e 688c 103d
00000310: 9eda 233f abb9 e53e cb43 3d3d 40da a1bb
00000320: d438 05bd e832 38be 2967 84bd 35a3 313e
00000330: 0217 bc3d ade8 4abe 3277 54bf 82c4 fdbe
00000340: 2c28 d03e 9a4c 873d 726c 15bf 6f91 083f
00000350: cbd8 cf3e 8f37 d53c 99e0 39bd 80b4 8a3d
00000360: edd9 063c 73de 9e3d 7093 71bd 9b85 ec3b
00000370: fc51 ab3d bf9f d2be 55c3 213e 9f14 963e
00000380: a097 efbc a9c9 34bf 4976 0c3f fe13 d2bc
00000390: 66b3 9cbd 09a2 9d3d 4068 5fbc 6d4d c53e
000003a0: e099 8dbe ff7d 873d 0f83 9b3d 2020 adbc
000003b0: 8874 04be 0a67 593e 9419 acbd 19ee 9b3c
000003c0: 19ab 963e 6660 243e dfdd 233f 3aaf ae3d
000003d0: d4b1 963c 8b63 a0be 682f c2bd b8ac 2ebd
000003e0: 1c61 843e a261 143e b888 803c 30ea 27bd
000003f0: 596c 3a3d 9cc3 29bf 5fbe a43d 58f2 80bd
0.31254187 0.08005497 0.20530868 -0.048612192 0.529861 -0.31395513 0.034826323 0.048151862
0.08859972 -0.043364797 0.21354964 0.19866376 -0.015439268 -0.17037682 -1.2461792 -0.31216377
0.48738867 0.045624927 -0.35370934 0.84168494 0.39950943 0.010155074 -0.07167923 -0.051473856
0.044914544 -0.10175246 -0.047106393 -0.053088382 0.123103805 -0.45750445 0.17032255 0.17919342
0.037534647 -0.46962807 0.52320004 -0.06576339 0.35858816 0.045767277 0.09753057 0.17754383
-0.2406907 0.009516843 -0.07948009 -0.115638226 -0.042987406 0.098892815 0.025438413 -0.42291525
0.026936153 0.13016757 0.6170106 0.11671874 0.23333222 -0.5868109 0.0076639205 0.03601098
-0.026743272 0.5161604 -0.003964458 0.0014569759 0.11569782 -1.0536476 -0.07019655 0.059059653
0.16714807 -0.09253368 0.26734516 -0.00559929 0.6783317 -0.11316135 0.0003267028 0.12052733
-0.02164701 -0.07635825 -0.019168602 0.17300102 0.024545323 -0.07981006 -0.9864269 -0.40686637
0.44989663 0.059886675 -0.49590215 0.53970873 0.30823192 0.0019932624 0.13532664 -0.07754291
0.03492691 -0.100910455 0.13895895 0.008493885 0.1348647 -0.38667524 0.19840266 0.17102578
0.070484534 -0.7326163 0.5600125 0.07435403 -0.15033029 -0.0052851588 0.08453911 0.45754102
-0.6640465 0.0034400374 -0.037087604 0.08438772 -0.0593258 0.1681064 -0.110997275 0.17100914
0.15926729 0.26681507 0.604656 -0.014829233 0.14944245 -0.46085417 -0.03860274 -0.028076202
0.058627512 0.3575786 -0.03204722 0.067752734 -0.20335203 -0.7115162 -0.053505167 0.09988551
0.25341028 0.03612405 0.30376154 -0.004188642 0.6323232 -0.4253882 -0.07760252 -0.027406383
-0.039837077 -0.039933767 -0.5885999 0.24085237 -0.018629484 -0.1168124 -0.8623533 -0.34031728
0.36743984 -0.056252733 -0.14512846 0.60555065 0.34979215 0.0021764154 -0.042843256 -0.029699327
-0.1260282 -0.11560856 0.11816401 0.02109237 0.0326321 -0.2425834 0.26111352 0.11367479
-0.09802233 -0.7728266 0.62173057 -0.10640684 0.24802291 -0.08903931 -0.0038373768 0.08247451
-0.13395922 0.054780856 -0.008249297 -0.104906246 0.19208716 0.06046179 0.101631746 0.08958334
0.2508444 0.28087157 0.5075399 0.10175927 0.1572545 -0.20840009 -0.00183048 -0.08728348
0.27291828 0.38661355 0.112471685 -0.063541114 -0.16992415 -0.83863616 -0.05993138 0.09086524
0.15979241 0.089650266 0.3189918 0.03529015 0.6400546 0.44868216 0.04620723 -0.0049393475
-0.0325249 -0.17988169 -0.06464989 0.17347415 0.09184076 -0.19815321 -0.8299438 -0.49563986
0.4065565 0.066064075 -0.583686 0.53346914 0.40595087 0.026027469 -0.04538021 0.06772709
0.0082306685 0.077572726 -0.058978498 0.0072180755 0.08365247 -0.41137502 0.1579717 0.29312608
-0.029247105 -0.7062021 0.5486799 -0.025644299 -0.07651405 0.076969214 -0.013635695 0.38535634
-0.2765646 0.06615829 0.07593357 -0.021133482 -0.12935078 0.21230713 -0.08403316 0.019034432
0.29427412 0.16052398 0.64010423 0.085295156 0.018395342 -0.31325945 -0.09481698 -0.042645186
0.2585534 0.14490369 0.015690193 -0.040994823 0.045513485 -0.663141 0.08044123 -0.062962234

fc3.bias f4 [20]
00000000: 8495 e53f 46cd 633f 0711 483f 45ba 1f3f
00000010: 5e07 2b3f 803f f13e 0fe5 a43e 8e76 093f
00000020: 878a 5d3e 8ebc ca3d 75ce bf3e 3f1c 8e3d
00000030: f2d6 473e a612 a63d 348c c2bd 86df 8cbe
00000040: a723 29be 73ea 20be fd19 77be 46ae 99be
1.7936254 0.889851 0.7815098 0.623936 0.66808116 0.4711876 0.32206008 0.53696525
0.21634875 0.09899245 0.37462202 0.06938981 0.19515589 0.08109026 -0.09499398 -0.27514285
-0.16517507 -0.15714435 -0.24131007 -0.30015773

exp_avg f4 [64, 3]
00000000: 821a 4b41 2fcb e93f fd7b 48c2 bc88 7241
00000010: 80f3 c4bf 9b7e dfc2 0a61 3dc0 e2fd 8ac1
00000020: 1d1c 5ac3 0000 0000 0000 0000 0000 0000
00000030: 30fe 113e 0caf 823e e4d2 6d41 4960 22bf
00000040: 1af5 13be 4a4f 8cc1 8c8b b3c2 06ed c8c1
00000050: b562 08c1 2444 b6bf 488b 6ec1 af5b 8fc3
00000060: 3b79 7641 98fe aa40 baec 9ac1 f9ae 72be
00000070: 12dd c8bf 95b5 c5be 3d32 8e40 2b75 4e41
00000080: def1 e940 0400 0000 0400 0000 0400 0000
00000090: caa7 9fc0 7795 34c0 b532 8fc2 8112 6441
000000a0: d772 66c0 8686 02c3 92cc 6740 37e8 13c0
000000b0: 17b9 6ac2 13bd b141 7d11 4540 38b7 90c2
000000c0: 19dd 52bf 4898 94c0 42c4 62c2 2580 b4c2
000000d0: 537e 6ec2 d9f4 b6c2 daf5 e9bf 33a7 88bf
000000e0: 81ba e7bf a916 ea40 d767 bf3f 79d6 fbc1
000000f0: 0000 0000 0000 0000 0000 0000 9af1 070d
00000100: 6aea cb0d 9af1 070d 600c 4541 06c0 3440
00000110: 928a 0cc2 66c0 5841 26f6 8740 16e9 f6c1
00000120: 777a ee3d d155 b73e b1d4 94c1 0000 0000
00000130: 0000 0000 0000 0000 5964 f6bf 21d3 aec1
00000140: 8f14 87c3 357c c240 4d09 56c0 c543 a1c2
00000150: 62e6 9bbc 4a84 febe 6015 6542 d2f9 bcbf
00000160: cdaa 44c0 2a25 74c2 6962 3440 994d fabf
00000170: 6e4a 45c2 ed75 96be da53 dabd b697 33c0
00000180: ac36 463f af3f 0a40 eb59 cc40 3fff d940
00000190: 99a7 27c1 75e9 bec2 0000 0000 0000 0000
000001a0: 0000 0000 0000 0000 0000 0000 0000 0000
000001b0: 29b7 2e3f 7e24 003f c63f c240 0000 0000
000001c0: 0000 0000 0000 0000 22c4 193f 4527 8e40
000001d0: 763c 8442 a12d 6941 4c35 0340 2e19 3fc2
000001e0: 5893 e33c a551 d03c eb09 4540 767d 0141
000001f0: e886 253f 91e8 3bc2 f3f7 ca3f 84f2 363f
00000200: f5a7 ee3f 99d9 7541 e6bb 4b40 fcd8 30c2
00000210: 8083 a8bd fb25 b3bd bdee e3bf 6400 f640
00000220: cb2d d9bf 0a57 94c2 5bfc 03be 40fd 03be
00000230: 5bfc 03be 99b1 a1bc 56b7 c0be d8e2 0cbf
00000240: 6f8e 7740 f077 7ec0 210c a0c2 57fd 66c2
00000250: 7975 27c2 f3b7 9bc2 0000 0000 0000 0000
00000260: 0000 0000 0000 0000 0000 0000 0000 0000
00000270: af75 f73d 82c3 903e 9c5d 8141 799d 3141
00000280: cc87 d03e 6a04 8fc2 854b 8941 154e 6040
00000290: 064d 45c2 2439 0241 ff85 2cc0 cba2 aec2
000002a0: 623b 10c2 176c e6c1 ca6b 31c2 a5fa a941
000002b0: 36a4 a440 f349 4dc2 0000 0000 0000 0000
000002c0: 0000 0000 bc76 09c0 01ad 1ac1 615f 65c2
000002d0: 8930 d9c0 05b2 86c0 4ca0 1fc1 0000 0000
000002e0: 0000 0000 0000 0000 58ab 1441 3760 7bc0
000002f0: 4c48 d8c2 4049 1c41 8c88 fcbe 3d53 7dc2
12.693972 1.8265132 -50.121082 15.158382 -1.538681 -111.74728 -2.9590478 -17.373966
-218.10982 0.0 0.0 0.0 0.14257121 0.25524175 14.863987 -0.6342817
-0.14448968 -17.538715 -89.77255 -25.115734 -8.524098 -1.4239545 -14.909004 -286.71628
15.404597 5.3435783 -19.36559 -0.2369956 -1.5692465 -0.386151 4.4436326 12.903605
7.310775 6e-45 6e-45 6e-45 -4.989232 -2.8216226 -71.59904 14.254518
-3.6007593 -130.52548 3.621861 -2.3110483 -58.68075 22.217321 3.0791924 -72.35785
-0.8236862 -4.643589 -56.691658 -90.25028 -59.623363 -91.47822 -1.8278153 -1.0676025
-1.8103791 7.315266 1.4953564 -31.479723 0.0 0.0 0.0 4.1890904e-31
1.2567274e-30 4.1890904e-31 12.315521 2.8242202 -35.135323 13.546972 4.2487974 -30.863811
0.11644452 0.3580766 -18.603853 0.0 0.0 0.0 -1.9249374 -21.85309
-270.1606 6.077662 -3.3443177 -80.63236 -0.019030754 -0.49710304 57.270874 -1.4763739
-3.0729249 -61.036293 2.8185065 -1.9554931 -49.322685 -0.29386845 -0.10660525 -2.8061347
0.7742717 2.160137 6.3859763 6.812408 -10.478417 -95.45597 0.0 0.0
0.0 0.0 0.0 0.0 0.6824823 0.5005568 6.070285 0.0
0.0 0.0 0.600649 4.4422936 66.11809 14.57364 2.050128 -47.77459
0.02778022 0.025429556 3.0787303 8.09313 0.64658976 -46.977116 1.5856918 0.714638
1.8645006 15.365624 3.1833434 -44.2119 -0.08228207 -0.087474786 -1.7807232 7.6875477
-1.69671 -74.17 -0.12889235 -0.12889576 -0.12889235 -0.019738005 -0.37639874 -0.55033636
3.8680685 -3.9760704 -80.02369 -57.747402 -41.86472 -77.859276 0.0 0.0
0.0 0.0 0.0 0.0 0.12082993 0.2827416 16.170708 11.100945
0.40728605 -71.50862 17.161875 3.5047657 -49.32522 8.13895 -2.6956785 -87.317955
-36.05799 -28.802778 -44.355263 21.247385 5.1450453 -51.322216 0.0 0.0
0.0 -2.147872 -9.667237 -57.343143 -6.7871747 -4.209231 -9.976635 0.0
0.0 0.0 9.291832 -3.9277475 -108.141205 9.767883 -0.49322927 -63.331287

exp_avg_sq f4 [64, 3]
00000000: bc96 a444 2042 c744 3bbb b646 575d 0c45
00000010: b6a7 3a45 a166 a847 4598 9642 63e2 fb44
00000020: f50f 6248 0000 0000 0000 0000 0000 0000
00000030: d49d b340 007e 9e42 2b65 aa45 ba70 1f41
00000040: 631c c840 4751 c244 b2aa 8047 45af 7d47
00000050: cbe0 8f48 6e1f 9242 6351 7845 a264 0249
00000060: abfe e144 2878 0345 59f7 4b46 eea3 e83f
00000070: b660 2343 c403 1041 b983 6244 0b0a 9145
00000080: 44ec b444 7e5a 4c3a fefb 993a cc58 603e
00000090: be1a 6844 41b8 a244 29b1 0047 891d 0445
000000a0: e484 2b45 8bc3 cc47 3acd 3d43 cafc a943
000000b0: d2a5 9c46 2e9d 8a45 b047 a545 5e72 8047
000000c0: 1083 3b41 5d86 ff42 87ff 5946 30df 7047
000000d0: a090 6747 1221 4348 95c1 0a43 14fd db41
000000e0: 7713 8a43 6666 c643 849e f943 98e3 0246
000000f0: 0000 0000 0000 0000 0000 0000 7c8e 003a
00000100: 29a3 c93b 112e 103a 0bdf 9b44 2627 b544
00000110: b20f 7146 afed 9244 03fa 2744 9633 6046
00000120: d7a3 0041 59e3 bc40 98f3 fe44 0000 0000
00000130: 0000 0000 0000 0000 447d 9844 5073 6f45
00000140: d6ef ae48 2f37 e243 a9e9 2644 6303 1347
00000150: b718 0940 ee4b 0d42 597c f146 468c a542
00000160: 90d5 0943 bfba 6646 e597 f842 c1b1 8043
00000170: 25c2 2f46 7cf4 0c42 b56d 8840 7e63 a743
00000180: 55c5 d640 4f29 e141 0630 7943 8011 1745
00000190: baf0 c444 6946 8647 0000 0000 0000 0000
000001a0: 0000 0000 0000 0000 0000 0000 0000 0000
000001b0: 4ecf d040 bfb4 c13f 784c 0344 0000 0000
000001c0: 0000 0000 0000 0000 cfcb 6c40 1a9d 2443
000001d0: 3314 ac46 7c3e ec44 f47e 0d45 0701 d446
000001e0: b7a4 b63f 24cd 523e a048 c343 6b97 0a44
000001f0: aef6 4244 d9d9 8746 36b1 a741 ef3c a841
00000200: 3fd6 2843 9606 f244 1dce 1145 e117 d346
00000210: 1cf0 303f efcf 663e 008d bd42 ef68 1a44
00000220: 00a3 6e44 df3b 0547 f8c5 5a3f 7005 863f
00000230: e0f1 5a3f 5159 1b40 a698 fe40 eb49 0e42
00000240: c611 6d43 e464 ed43 98e7 0e47 5c3c 8d46
00000250: 686c af46 2d88 2047 0000 0000 0000 0000
00000260: 0000 0000 0000 0000 0000 0000 0000 0000
00000270: 2f26 be40 0ce8 5642 1174 8945 4687 8544
00000280: 3b3f ba44 acbf 0e47 adc7 1845 0158 3545
00000290: bebc fa46 3bc6 3344 9483 8544 b84e 3a47
000002a0: 5131 0946 c6c3 8946 1b51 7a46 a530 6345
000002b0: 8c54 8445 5862 2447 0000 0000 0000 0000
000002c0: 0000 0000 3280 bb43 f593 d043 1164 9c46
000002d0: 8336 2144 3054 3043 f0e5 4045 0000 0000
000002e0: 0000 0000 0000 0000 05dd 8244 976b c044
000002f0: ba20 8a47 7d96 6044 4b82 8d44 bc02 e146
1316.7104 1594.0664 23389.615 2245.8337 2986.482 86221.26 75.2974 2015.0746
231487.83 0.0 0.0 0.0 5.613016 79.24609 5452.646 9.965021
6.253465 1554.5399 65877.39 64943.27 294662.34 73.061386 3973.0867 534090.1
1807.9584 2103.5098 13053.837 1.8175027 163.37778 9.000919 906.05817 4641.2554
1447.3833 0.0007795467 0.0011748073 0.21908873 928.41785 1301.7579 32945.16 2113.846
2744.3057 104839.086 189.80167 339.9749 20050.91 4435.6475 5288.961 65764.734
11.719498 127.76243 13951.882 61663.188 59280.625 199812.28 138.75618 27.498573
276.15207 396.8 499.2384 8376.898 0.0 0.0 0.0 0.00049040443
0.0061534834 0.00055000285 1246.9701 1449.2234 15427.924 1175.4276 671.90643 14348.896
8.04 5.9027524 2039.6123 0.0 0.0 0.0 1219.9146 3831.207
358270.7 452.43112 667.65094 37635.387 2.1421335 35.32415 30910.174 82.77397
137.83423 14766.687 124.29667 257.3887 11248.536 35.238754 4.263392 334.77728
6.7115884 28.14517 249.18759 2417.0938 1575.5227 68748.82 0.0 0.0
0.0 0.0 0.0 0.0 6.5253057 1.5133284 525.1948 0.0
0.0 0.0 3.6999395 164.61368 22026.1 1889.9526 2263.9346 27136.514
1.4269017 0.20586067 390.56738 554.3659 779.8544 17388.924 20.961529 21.029753
168.8369 1936.2058 2332.882 27019.94 0.6911638 0.22540258 94.77539 617.6396
954.5469 34107.87 0.85458326 1.0470409 0.8552532 2.4273264 7.956134 35.572186
237.06943 474.7882 36583.594 18078.18 22454.203 41096.176 0.0 0.0
0.0 0.0 0.0 0.0 5.942161 53.72661 4398.5083 1068.2273
1489.976 36543.67 2444.4797 2901.5002 32094.371 719.09735 1068.1118 47694.72
8780.329 17633.887 16020.276 3635.0403 4234.5684 42082.344 0.0 0.0
0.0 375.00153 417.1559 20018.033 644.85175 176.32886 3086.371 0.0
0.0 0.0 1046.9069 1539.3622 70721.45 898.3514 1132.0717 28801.367
