beergame/baseline/models/dqn_agent_firm_1_episode_1000.pth (torch, 101224 bytes, 24 tensors)

fc1.weight f4 [64, 3]
0	0xbda900fe	-0.08252142
1	0x3e8e9897	0.27850792
2	0x3ea77518	0.32706523
3	0xbe971c89	-0.29513958
4	0x3f133b84	0.5751269
5	0x3d9759d6	0.07390182
6	0xbe68ebfd	-0.22746272
7	0xbcb7d805	-0.022441873
8	0x3cef7d66	0.0292346
9	0xbd5e25e0	-0.05423534
10	0xbe16c042	-0.14721778
11	0xbd8019d0	-0.06254923
12	0xbf28a3eb	-0.6587512
13	0xbf134cd4	-0.57539105
14	0x3ea8557e	0.32877725
15	0x3e625059	0.22100963
16	0xbd8c3634	-0.06846276
17	0x3c067f30	0.008209035
18	0x3de0562a	0.109539345
19	0x3e908729	0.2822812
20	0xbe492b1c	-0.19645351
21	0xbdfa578e	-0.12223731
22	0xbe0b72dd	-0.13618036
23	0x3cc1e17c	0.02366709
24	0x3f003d74	0.5009377
25	0x3eeee31e	0.46657652
26	0x3dc46122	0.09588839
27	0xbefb7130	-0.49109793
28	0x3dad3193	0.08456721
29	0x3d42598e	0.047448687
30	0xbda599cf	-0.08085977
31	0x3dfcb0c4	0.12338403
32	0xbefdcf06	-0.4957201
33	0x3d528eac	0.051405594
34	0xbf01c11c	-0.50685287
35	0x3e01a349	0.12659945
36	0xbdf9e7ee	-0.1220244
37	0xbdd43049	-0.10360772
38	0x3d095bdf	0.03353488
39	0x3f0ac646	0.5420879
40	0xbe737f2f	-0.23778985
41	0x3cc41e4b	0.023940226
42	0x3e40f2b9	0.18842591
43	0x3db52203	0.08844378
44	0xbccaac54	-0.024740376
45	0xbe8393c5	-0.25698677
46	0x3ebb39b6	0.36567467
47	0x3e802f8d	0.25036278
48	0xbf242698	-0.6412139
49	0x3dcf1cbf	0.10112905
50	0x3e0be2f9	0.13660802
51	0x3e3dae09	0.1852342
52	0x3e65d547	0.2244464
53	0xbe768df6	-0.24077591
54	0x3eb7d991	0.35908177
55	0xbcaef584	-0.021357305
56	0x3c8bcd9a	0.017065812
57	0x3ccb88a1	0.024845423
58	0x3ee7a55f	0.45243356
59	0xbc1730ad	-0.009227914
60	0xbeb4975a	-0.35271722
61	0xbf137deb	-0.5761401
62	0xbe8a28f0	-0.26984358
63	0x3d6e4601	0.05817223
64	0x3e0f58a2	0.13998654
65	0x3cba9099	0.022774028
66	0x3e082049	0.13293566
67	0x3f113df2	0.56735146
68	0x3df0336e	0.117285594
69	0x3ebb9450	0.3663659
70	0xbee08644	-0.43852437
71	0x3edf63e2	0.43630892
72	0xbaf653a2	-0.0018793235
73	0xbe26a3ef	-0.16273473
74	0x3c0cdb60	0.008597225
75	0xbe8db17b	-0.2767447
76	0xbe7a49ae	-0.24442169
77	0xbf11d1bc	-0.56960654
78	0xbdc62ffa	-0.096771196
79	0xbddcae6a	-0.10775454
80	0x3c2ddfaa	0.010612408
81	0x3f127b6b	0.5721957
82	0xbe0794c8	-0.1324035
83	0xbb3e510d	-0.002904001
84	0xbba5e38c	-0.005062526
85	0xbd9d2f1f	-0.07675003
86	0x3e0d63a6	0.13807544
87	0xbd95f5ef	-0.07322299
88	0xbf0d1007	-0.5510258
89	0x3e0c2614	0.136864
90	0xbf03ef98	-0.51537466
91	0x3e4f8e09	0.20269026
92	0x3da404fc	0.08008763
93	0x3e5a969e	0.21346518
94	0xbedc0bad	-0.42977658
95	0x3db9620a	0.090519026
96	0xbe68b6c9	-0.22725977
97	0x3eea4026	0.45752066
98	0x3d885519	0.06656856
99	0xbdf49765	-0.11942939
100	0xbed16229	-0.40895203
101	0x3ed6b420	0.419343
102	0x3e34a340	0.176404
103	0xbea42057	-0.32055923
104	0xbe820a45	-0.2539846
105	0xbeb48c86	-0.3526346
106	0xbe6120f6	-0.2198523
107	0xbe68b7b6	-0.2272633
108	0x3eae7afa	0.340782
109	0x3e27fb36	0.16404423
110	0xbc920e81	-0.017829182
111	0x3e6e2f2c	0.23260182
112	0x3a7eb000	0.0009715557
113	0xbe6b9bb0	-0.23008609
114	0xbe900370	-0.28127623
115	0xbe2cb47a	-0.16865721
116	0x3e3511cf	0.17682575
117	0xbe6046bf	-0.21901987
118	0x3e9bda8c	0.30440176
119	0x3e1ffe10	0.15624261
120	0xbe8030e2	-0.25037295
121	0xbeb3fc7b	-0.35153565
122	0x3e50575c	0.20345825
123	0x3e4ffdf8	0.20311725
124	0x3ed70754	0.41997778
125	0xbcd9614a	-0.026535649
126	0x3eeac539	0.45853594
127	0x3d4a6ca4	0.049420014
128	0xbd9154b4	-0.07096234
129	0x3ea6f70f	0.32610366
130	0x3eb375a4	0.3505069
131	0x3e7be75b	0.24599974
132	0x3eb4b4c6	0.3529417
133	0xbd1f7d5a	-0.038937904
134	0x3ca8a1b3	0.020584917
135	0xbe2b010f	-0.16699623
136	0x3ea6eca9	0.32602432
137	0x3ce016ff	0.027354715
138	0x3efbc7d8	0.49175906
139	0xbe86f590	-0.26359224
140	0xbedff247	-0.4373953
141	0xbe1d5d94	-0.15367728
142	0x3ec0efce	0.37682956
143	0x3e42c0d7	0.19018875
144	0x3e0a3fe7	0.1350094
145	0x3d1c55a1	0.0381676
146	0xbca513ee	-0.020151105
147	0x3e535103	0.20636372
148	0x3e80333b	0.25039086
149	0xbea9dd2e	-0.3317656
150	0x3ce8c980	0.028416395
151	0xbebd03f1	-0.3691707
152	0xbcfde760	-0.030994117
153	0xbed37b8d	-0.413052
154	0xbe1375aa	-0.14400354
155	0xbf05baf3	-0.52238387
156	0xbeb08a7a	-0.3448065
157	0xbec266b3	-0.37968978
158	0x3e92ba06	0.2865755
159	0xbdc1df6e	-0.09466444
160	0x3eed4757	0.4634349
161	0xbbbb500e	-0.0057163304
162	0x3f065c64	0.52484727
163	0x3e717e06	0.2358323
164	0x3e9c9cb7	0.30588314
165	0x3e16192b	0.14658038
166	0x3df3db14	0.1190702
167	0xbcd99047	-0.026558055
168	0x3c906755	0.017627398
169	0x3e955f4f	0.29174277
170	0xbecffc89	-0.40622357
171	0x3f2f37ce	0.68444526
172	0x3e1ac3ed	0.15113802
173	0x3eef4a85	0.4673654
174	0x3d137390	0.03599888
175	0xbdc775cc	-0.09739265
176	0xbe361a9e	-0.17783591
177	0xbec782a0	-0.38966846
178	0xbef8ec82	-0.4861794
179	0x3ed65416	0.41861027
180	0x3e00f52c	0.12593526
181	0xbe5e5e71	-0.21715714
182	0x3d4ad530	0.049519718
183	0xbf068792	-0.52550614
184	0xbf012152	-0.5044147
185	0xbe35b3de	-0.17744395
186	0x3ebb4e4c	0.36583173
187	0x3c4cf16c	0.012508731
188	0xbcf0a42c	-0.029375158
189	0x3ea55992	0.322949
190	0x3e98b93f	0.29828832
191	0xbc8aa8de	-0.016926225

fc1.bias f4 [64]
0	0x3fc6daab	1.5535482
1	0x4057c0e3	3.3711479
2	0x407b25e6	3.9241881
3	0xbeae2c6b	-0.34018263
4	0xc0358c20	-2.8366776
5	0x404fae2a	3.2450051
6	0x4082339d	4.0688004
7	0x407f0ca8	3.9851475
8	0xc00adad3	-2.169606
9	0x40266d38	2.6004162
10	0x406f8403	3.7424324
11	0x400cfeac	2.203044
12	0x4053d17c	3.309661
13	0x40342541	2.8147738
14	0x404422fb	3.064635
15	0xbf430b7d	-0.76189405
16	0x401b7b81	2.429413
17	0x4078123f	3.8761137
18	0xbd80813c	-0.062746495
19	0x4023605c	2.5527563
20	0xbed67afe	-0.4189071
21	0x3fc61279	1.5474387
22	0x3f15a5e8	0.5845628
23	0xc00b29bc	-2.1744223
24	0x404b34ce	3.175098
25	0xbdb61598	-0.088908374
26	0x40749b82	3.8219914
27	0x40357916	2.8355155
28	0xc056d851	-3.356953
29	0x40568cd2	3.352345
30	0x4009de34	2.1541872
31	0x4030c092	2.7617536
32	0x3db96d64	0.09054068
33	0xbfe0b82d	-1.7556206
34	0xbf044a08	-0.5167546
35	0x3e07eaf4	0.13273221
36	0x4019a738	2.4008312
37	0xbe3b4000	-0.18286133
38	0xc04b97f3	-3.1811492
39	0xbf308cf6	-0.6896509
40	0x4000565a	2.0052705
41	0x40579c8c	3.3689299
42	0x3fc46ab5	1.5345064
43	0xbf6067a6	-0.87658155
44	0x3fc89747	1.5671166
45	0x4024a501	2.572571
46	0x40279f56	2.6191
47	0x3fca0e22	1.5785563
48	0x4038a59c	2.885108
49	0x405d6b0d	3.4596589
50	0x3e5b7c10	0.21434045
51	0x3ee270b4	0.4422661
52	0xc04609e9	-3.0943549
53	0x4036ec54	2.8581743
54	0xbf805d55	-1.0028483
55	0x4066c6ac	3.605876
56	0x4053bf8d	3.3085663
57	0xc01e3876	-2.472196
58	0xbf098ea2	-0.53733265
59	0xc014e334	-2.3263674
60	0x3fff1fd3	1.9931587
61	0xbd444500	-0.047917366
62	0x406a86aa	3.6644692
63	0x40310a26	2.7662444

fc2.weight f4 [64, 64]
0	0xbd116bd1	-0.035503212
1	0x3e570cae	0.2100093
2	0x3fa406cc	1.2814574
3	0x3d4743cc	0.04864864
4	0xbd827a09	-0.063709326
5	0x3e1961a5	0.14978655
6	0xbe572355	-0.21009572
7	0x3fcd859f	1.6056403
8	0xbdf50f49	-0.11965806
9	0x3d518382	0.051150806
10	0x3eef99a3	0.46796903
11	0x3ca1972d	0.019725407
12	0x3ee39fbd	0.44457808
13	0x3ef386b4	0.47563708
14	0x3ed9a9c0	0.4251232
15	0x3de709ba	0.11281152
16	0x3d4d4b1d	0.05012046
17	0x3ccacce5	0.024755904
18	0x3e1dc017	0.15405308
19	0x3e31aeb8	0.17351806
20	0x3a20d900	0.0006135851
21	0x3e264472	0.16237047
22	0x3e0a0dfd	0.13481899
23	0x3dbafad3	0.09129872
24	0x3e910d5c	0.28330505
25	0x3d8b83b2	0.06812228
26	0x3f64c287	0.89359325
27	0x3f272ea3	0.65305537
28	0xbde8b602	-0.1136284
29	0x3eaf75b2	0.34269482
30	0x3c1f41ea	0.009720305
31	0x3d065243	0.032793295
32	0x3df51a1d	0.11967871
33	0x3df00f3b	0.11721655
34	0x3c153160	0.00910601
35	0xbdc41c42	-0.09575702
36	0xbd7bc368	-0.06146565
37	0x3c6422f0	0.013924345
38	0xbeb54c1d	-0.35409632
39	0xbc00cdc1	-0.007861556
40	0x3d0d45f1	0.03449053
41	0x3eb053c7	0.34438917
42	0xbe2cbc82	-0.16868785
43	0x3d49b972	0.04924912
44	0x3cbf0110	0.023315936
45	0x3ea9da95	0.33174577
46	0x3f28a239	0.6587253
47	0x3e2c2979	0.16812696
48	0x3f26e9b4	0.6520035
49	0x3dce75f5	0.10081092
50	0xbdd3b5da	-0.1033742
51	0x3d2c75c8	0.042104512
52	0xbdd438e7	-0.10362416
53	0x3e92d36d	0.2867693
54	0x3d9094c9	0.070596285
55	0x3ed9570c	0.42449224
56	0x3d1e7368	0.03868428
57	0xbd89b97e	-0.06724833
58	0x3ddcd1da	0.107822135
59	0xbd191741	-0.037375692
60	0x3c24bf33	0.010055351
61	0xbb854fc0	-0.004068345
62	0x3f32c70f	0.6983499
63	0x3e2cf7e0	0.16891432
64	0xbde76624	-0.11298779
65	0xbd898baa	-0.06716092
66	0x3da65f40	0.08123636
67	0x3d5fef00	0.054671288
68	0xbdf4082c	-0.11915621
69	0xbda94700	-0.08265495
70	0x3d21f824	0.039543286
71	0x3db9f160	0.09079242
72	0xbdd724a2	-0.10505034
73	0x3d565a3c	0.052332148
74	0x3d1b976c	0.037986204
75	0xbd4d7300	-0.0501585
76	0x3c8b25c8	0.016985789
77	0xbd386928	-0.04502216
78	0xbda44812	-0.08021559
79	0xbdbf2872	-0.09333886
80	0x3de8dab0	0.11369836
81	0xbda9c77a	-0.0829
82	0xbd49ca88	-0.049265414
83	0x3c5c3a90	0.013441697
84	0xbdb024da	-0.08600779
85	0xbdd88f60	-0.105742216
86	0x3deb2fea	0.11483748
87	0xbded7492	-0.115945
88	0xbd9b271a	-0.075758174
89	0x3db85b3c	0.090017766
90	0x3df76fd6	0.12081878
91	0xbddf5c06	-0.10906224
92	0xbcbf7f28	-0.023376063
93	0x3b5336c0	0.0032228678
94	0xbc814780	-0.015781164
95	0xbd12c8d8	-0.03583607
96	0xbdcb63bc	-0.09931132
97	0x3dd6184a	0.104538515
98	0x3cdb5ff8	0.02677916
99	0x3cffc740	0.03122294
100	0x3d977e3a	0.07397123
101	0x3cc6a8f0	0.024250478
102	0xbd133aa8	-0.03594461
103	0xbd499898	-0.04921779
104	0xbb688ec0	-0.0035485476
105	0xbd05a840	-0.03263116
106	0x3c6bf440	0.014401495
107	0xbc8b7f88	-0.017028585
108	0x3d808ee6	0.06277256
109	0xbdaf2c20	-0.08553338
110	0x3dfeea42	0.12447025
111	0x3d4697a0	0.048484445
112	0xbc67d210	-0.014149204
113	0xbd536920	-0.051613927
114	0xbcd955c8	-0.026530161
115	0xbdb8d3aa	-0.09024747
116	0xbca30be0	-0.019903123
117	0x3cf34e60	0.029700458
118	0x3de73a1e	0.11290382
119	0xbd0ffe54	-0.035154656
120	0xbcd99638	-0.026560888
121	0xbd46470c	-0.0484076
122	0x3db450c8	0.0880447
123	0xbc47d560	-0.012196869
124	0xbdff0a72	-0.12453164
125	0x3d0477d4	0.03234084
126	0xbc819be8	-0.015821412
127	0xbdaf94d8	-0.085733116
128	0x3e013389	0.12617315
129	0x3ec8f446	0.39248866
130	0x3f56209e	0.8364352
131	0xbd98f384	-0.07468322
132	0xbd3edfa8	-0.046600014
133	0x3e6fad99	0.23406066
134	0xbf499189	-0.78737694
135	0x3f97c1f2	1.1856062
136	0xbd920e59	-0.07131643
137	0xbd99a2c8	-0.07501751
138	0x3ed7ba6e	0.42134422
139	0x3cbdb541	0.023157718
140	0x3ee5ca94	0.44881117
141	0x3d9b4a5c	0.07582542
142	0x3ea040e7	0.31299517
143	0x3dbf02d4	0.09326711
144	0x3e219462	0.1577926
145	0xbef690af	-0.4815726
146	0xbba22a10	-0.004948862
147	0x3e5f99d7	0.21836029
148	0x3d3d2768	0.04618016
149	0x3dc87069	0.097870655
150	0x3d74303d	0.059616316
151	0x3d25f476	0.04051634
152	0x3e8ab627	0.27092096
153	0xbd20d54c	-0.039265916
154	0x3f5e8626	0.86923444
155	0x3d53d7cd	0.051719476
156	0xbe0ba542	-0.1363726
157	0x3ee9647d	0.4558448
158	0x3e29112d	0.16510458
159	0x3e11ae49	0.14226641
160	0x3cb55227	0.0221339
161	0x3de30889	0.11085612
162	0x3cb98c88	0.022650018
163	0x3a4e4400	0.0007868409
164	0xbe344633	-0.17604904
165	0xbce5b570	-0.028040618
166	0xbe972a17	-0.295243
167	0x3e0d6cb1	0.13810994
168	0x3d53397d	0.051568497
169	0x3e942bbd	0.2893962
170	0xbe0c4486	-0.13698015
171	0xbc99b454	-0.018762745
172	0xbc99f4dc	-0.018793516
173	0x3f098ca6	0.5373024
174	0x3f4c319d	0.79763204
175	0xbd559870	-0.05214733
176	0x3e795faf	0.24352907
177	0xbd0c4069	-0.034241114
178	0xbd9eb1da	-0.07748766
179	0xbdf4d6bc	-0.1195502
180	0xbe15f441	-0.14643957
181	0x3ebf47eb	0.37359557
182	0x3df70f9c	0.12063524
183	0x3e50630d	0.20350285
184	0xbea7177d	-0.32635108
185	0x3c8c084d	0.017093802
186	0x3dbb6ff8	0.09152216
187	0xbe056dad	-0.13030119
188	0xbb3baa6a	-0.002863551
189	0x3b38cd80	0.002819866
190	0x3ea89392	0.32925087
191	0x3e7e3219	0.24823798
192	0xbdaf8452	-0.0857016
193	0xbd970db8	-0.073756635
194	0xbdc452b4	-0.09586087
195	0x3c4418e0	0.011968821
196	0xbc8a65f0	-0.01689431
197	0x3df7d39e	0.1210091
198	0x3dbcf580	0.09226513
199	0xbd1880e8	-0.03723231
200	0xbd9c6d08	-0.076379836
201	0x3cafc600	0.021456718
202	0xbcd5f818	-0.026119277
203	0xbcf3d678	-0.029765353
204	0x3beddf20	0.0072592646
205	0x3c330030	0.010925338
206	0xbd512720	-0.051062703
207	0x3d7dfddc	0.062009677
208	0xbcfbb778	-0.030727133
209	0x3c1bf020	0.0095176995
210	0xbcf714b8	-0.030161247
211	0x3dab3752	0.08360161
212	0xbd651818	-0.05593118
213	0xbcb836d0	-0.022487074
214	0xbd0e8054	-0.034790352
215	0xbdbd1788	-0.09233004
216	0x3dce6f18	0.10079783
217	0x3d8fe422	0.07025935
218	0x3d82365a	0.06358023
219	0xb9148800	-0.00014165044
220	0x3da88d3c	0.08230063
221	0xbb12e4c0	-0.0022414178
222	0x3dca5888	0.09880167
223	0x3daa6f40	0.083220005
224	0x3ccf3bf8	0.02529715
225	0x3deacd92	0.11464991
226	0x3d6af4c0	0.057362318
227	0xbcfcf490	-0.030878335
228	0x3c463b80	0.012099147
229	0x3d781ef4	0.060576394
230	0x3dccd080	0.10000706
231	0xbd7df730	-0.062003314
232	0x3d969948	0.07353455
233	0xbcf1bf70	-0.02951023
234	0x3c930eb8	0.017951354
235	0x3d9e1058	0.07717961
236	0x3d211f38	0.039336413
237	0xbd52df54	-0.051482514
238	0x3d4b20a0	0.04959166
239	0xbdfc8dec	-0.12331757
240	0xbc2ed750	-0.010671452
241	0xbde79ea6	-0.11309557
242	0xbdb13376	-0.086523935
243	0x3dee8f50	0.116484284
244	0x3cdb94e8	0.026804402
245	0xbd04af98	-0.03239402
246	0xbdb151d0	-0.086581826
247	0xbd07d43c	-0.033161387
248	0xbcb67010	-0.022270232
249	0xbd2eba04	-0.042657867
250	0xbdd28200	-0.10278702
251	0x3cd97ef8	0.026549801
252	0x3d5757ac	0.052573845
253	0xbc0fef80	-0.008785129
254	0xbdd0c96c	-0.10194668
255	0xbdb9c60a	-0.09070976

fc2.bias f4 [64]
0	0x3fdf47af	1.7443751
1	0xbd37b9c8	-0.04485491
2	0x3fbf5983	1.4949192
3	0xbdecbfb4	-0.11560002
4	0x4000cb93	2.0124252
5	0x3f59ab1f	0.85026735
6	0xbd3504e6	-0.044194125
7	0x3dc99496	0.09842794
8	0x3cd23bc8	0.025663272
9	0x3d5ce797	0.0539318
10	0x3f8a6f34	1.0815187
11	0x3fc499c6	1.5359428
12	0x3cfb72bb	0.030694356
13	0x3eee0e4e	0.4649529
14	0x400a616d	2.1621964
15	0x3fcdd871	1.6081678
16	0x4003de39	2.0604384
17	0xbd2ba7b4	-0.04190798
18	0xbfeca0f2	-1.8486617
19	0x4007fc48	2.124773
20	0x400502d6	2.078298
21	0x3d8f9d52	0.07012428
22	0x3c076123	0.008262905
23	0xbda23586	-0.07920365
24	0x3cbc6e8a	0.023001928
25	0xbde21cfe	-0.11040686
26	0x3db540e4	0.088502675
27	0xbe01e430	-0.12684703
28	0xbd4b5714	-0.04964359
29	0xbfcc9688	-1.5983438
30	0x3fc777df	1.5583457
31	0x3fbaa270	1.4580822
32	0xbdaa7b86	-0.083243415
33	0x3ffd702f	1.9799861
34	0x4006acc3	2.1042945
35	0x3ddaea2f	0.10689198
36	0x3ef0f9ee	0.4706568
37	0x3c8ca252	0.017167244
38	0xbd849a9a	-0.064748004
39	0x3f54c355	0.83110553
40	0x3f80c51a	1.0060151
41	0xb9bd91fb	-0.00036157653
42	0x3d80f3f4	0.0629653
43	0xbd474471	-0.048649255
44	0x3fb49e8e	1.4110887
45	0x3fc6811c	1.5508151
46	0x3d275778	0.0408549
47	0x3f61bf9a	0.88182986
48	0x3f8a1ec6	1.0790641
49	0x3f90fb1f	1.1326636
50	0x4008adf6	2.1356177
51	0xbd883b56	-0.066519424
52	0x3fc4112c	1.531774
53	0xbff0a76d	-1.8801094
54	0xbd007477	-0.03136107
55	0x3d96feb4	0.073727995
56	0x3e8802cd	0.26564637
57	0x3fe0b476	1.7555072
58	0xbc513278	-0.01276838
59	0xbd53a138	-0.051667422
60	0x3f90acd9	1.1302749
61	0x3fd1e361	1.6397516
62	0x3d65e463	0.05612601
63	0xbdeb7838	-0.11497539

fc3.weight f4 [20, 64]
0	0x3eb681c3	0.35645875
1	0x3da3f3dc	0.08005497
2	0x3e657fce	0.22412035
3	0xbd471d94	-0.048612192
4	0x3f064a05	0.52456695
5	0x3e11b723	0.14230017
6	0x3d885fcf	0.06658899
7	0x3d453a58	0.048151344
8	0x3df67ea2	0.12035872
9	0xbd319b63	-0.04336108
10	0x3d1f9c04	0.038967147
11	0x3e8c891b	0.27448353
12	0xbd4130e8	-0.04716578
13	0xbedb5920	-0.42841434
14	0xbfb811e1	-1.4380456
15	0xbe5a40a6	-0.21313724
16	0x3f002753	0.50060004
17	0x3d3ae134	0.045624927
18	0xbed3c42a	-0.413606
19	0x3f573f6d	0.84081155
20	0x3ec4bdfc	0.38426197
21	0x3d53d5e1	0.051717643
22	0xbd92ca04	-0.07167438
23	0xbd52d640	-0.051473856
24	0x3d37f85f	0.0449146
25	0xbdd06398	-0.10175246
26	0xbd9790c2	-0.07400657
27	0xbd597334	-0.053088382
28	0x3dfc1f9a	0.12310715
29	0xbef91502	-0.4864884
30	0x3e68a1e8	0.22718012
31	0x3e76332e	0.24042961
32	0x3d19bdd0	0.037534535
33	0xbf24b452	-0.64337647
34	0x3f03aa00	0.51431274
35	0xbd86ae1f	-0.0657618
36	0x3eaa8a4a	0.3330863
37	0x3d98373c	0.0743241
38	0x3dc7be1c	0.09753057
39	0x3d981701	0.07426263
40	0x3da11f68	0.078673184
41	0x3c1bed2e	0.009516997
42	0xbda2c511	-0.07947744
43	0xbdecd31c	-0.115637034
44	0x3e6c2a16	0.2306293
45	0x3e8b92ac	0.2726034
46	0x3cd06438	0.025438413
47	0x3e2dc5d3	0.16969995
48	0x3e0195ee	0.1265485
49	0x3df2395f	0.11827349
50	0x3f1dce73	0.6164314
51	0x3def0a3c	0.11671874
52	0x3e9a8853	0.30182132
53	0xbf241ca3	-0.64106196
54	0x3bfb21a0	0.0076639205
55	0x3d137d85	0.036008377
56	0xbcdb16de	-0.026744302
57	0x3f0fd532	0.56184685
58	0xbb81e4c8	-0.0039640404
59	0x3abef800	0.0014569759
60	0x3e31a322	0.17347386
61	0xbfbc5bbf	-1.4715499
62	0xbd8fbf0a	-0.0701886
63	0x3d71e844	0.059059396
64	0x3e4411c1	0.19147398
65	0xbdbd81d0	-0.092532754
66	0x3e82ceed	0.25548497
67	0xbbb77a40	-0.00559929
68	0x3f24b510	0.6433878
69	0xbdec3c7b	-0.11534973
70	0x3d3d5210	0.04622084
71	0x3df6d708	0.12052733
72	0xbcb154e0	-0.021646917
73	0xbd9c5f99	-0.07635421
74	0x3e0887da	0.13333073
75	0x3e6257a8	0.2210375
76	0x3cc91334	0.02454529
77	0xbe75dda4	-0.2401033
78	0xbf8658eb	-1.0495886
79	0xbf19169c	-0.59800124
80	0x3ed7f827	0.42181513
81	0x3d754afc	0.059885964
82	0xbe93274f	-0.28740928
83	0x3ef98718	0.4873588
84	0x3e987a49	0.29780796
85	0xbd56bce6	-0.05242624
86	0x3e0a95ce	0.13533708
87	0xbd9ecc4f	-0.077538125
88	0x3d0f10de	0.034928195
89	0xbdceaa24	-0.100910455
90	0x3de9ab6a	0.11409648
91	0x3c0b29f0	0.008493885
92	0x3e0a1d11	0.1348765
93	0xbe3e17d8	-0.18563783
94	0x3e6b7651	0.22994353
95	0x3e49c0fa	0.19702521
96	0x3d905a32	0.070484534
97	0xbf5e8d53	-0.86934394
98	0x3f05eab3	0.5231125
99	0x3d984838	0.0743565
100	0x3d7b8040	0.061401606
101	0xbbad2f20	-0.0052851588
102	0x3dad2292	0.084538594
103	0x3e13dff3	0.14440899
104	0x3c736bb6	0.014857223
105	0x3b617240	0.0034400374
106	0xbd17e56a	-0.03708402
107	0x3dacd378	0.08438772
108	0x3e04a1a6	0.12952289
109	0x3e71df8b	0.23620431
110	0xbde3528a	-0.110997275
111	0x3e2642ca	0.16236416
112	0x3e2a03a9	0.16602959
113	0x3ec4e586	0.38456362
114	0x3f17ca22	0.59292805
115	0xbc72f650	-0.014829233
116	0x3e1957ad	0.14974852
117	0xbe90061b	-0.28129658
118	0xbd1e1de8	-0.03860274
119	0xbce60010	-0.028076202
120	0x3d702355	0.058627445
121	0x3ecb2561	0.39676955
122	0xbd03436d	-0.032046724
123	0x3d8ac1d0	0.06775248
124	0x3d8c3cc9	0.06847531
125	0xbf3cb796	-0.7371763
126	0xbd5b2564	-0.053502455
127	0x3dcc90c6	0.09988551
128	0x3e74962f	0.23885415
129	0x3d13f6d0	0.03612405
130	0x3eb6f261	0.35731795
131	0xbb8940e0	-0.004188642
132	0x3f1cc7e1	0.6124249
133	0x3a2bfa78	0.0006560455
134	0xbd9eecb1	-0.07759989
135	0xbce08330	-0.027406305
136	0xbd232c34	-0.039837077
137	0xbd239457	-0.03993639
138	0x3d5941e4	0.053041354
139	0x3e918bb5	0.284269
140	0xbc989a6f	-0.018628327
141	0xbe7c1d46	-0.24620542
142	0xbf6b3e0a	-0.9189154
143	0xbef6eef2	-0.48229176
144	0x3eba5fb7	0.3640115
145	0xbd666944	-0.056252733
146	0xbe9b366b	-0.30314955
147	0x3f162f39	0.58665806
148	0x3ea60a95	0.32429948
149	0x3d02e1a6	0.031953476
150	0xbd2f7f63	-0.042846095
151	0xbcf3485c	-0.02969759
152	0xbe01108c	-0.12603968
153	0xbdecc42e	-0.11560856
154	0x3df1ff46	0.11816268
155	0x3cacc9e8	0.02109237
156	0x3d05ab41	0.032634024
157	0xbec9d34d	-0.39419022
158	0x3ea3513a	0.31897908
159	0x3e068b93	0.13139181
160	0xbdc8bfee	-0.09802233
161	0xbf51d079	-0.8195873
162	0x3f18245a	0.5943047
163	0xbdd9ee2e	-0.10641132
164	0x3dfd32fd	0.12363241
165	0xbdb65c0d	-0.08904276
166	0xbb7b7c80	-0.0038373768
167	0xbc5eaf4a	-0.013591597
168	0xbdd94ab1	-0.106099494
169	0x3d6061e4	0.054780856
170	0xbc07279f	-0.0082491925
171	0xbdd6d916	-0.104906246
172	0x3dde5cba	0.1085753
173	0x3dda1e54	0.10650316
174	0x3dd0244e	0.101631746
175	0x3dec7878	0.11546415
176	0x3e974d92	0.2955137
177	0x3df737b5	0.12071172
178	0x3ef5a730	0.47979116
179	0x3dd0672a	0.10175927
180	0x3e4f0d92	0.2022002
181	0xbebb2e1f	-0.36558625
182	0xbaefed00	-0.0018304884
183	0xbdb2c1ae	-0.08728348
184	0x3e8bbe57	0.27293655
185	0x3ebf06f6	0.37309998
186	0x3de6535f	0.112463705
187	0xbd8221d8	-0.063541114
188	0x3dbf64e0	0.09345412
189	0xbf6ec417	-0.9326796
190	0xbd757952	-0.059930153
191	0x3dba178e	0.09086524
192	0x3e0fbd1f	0.14036988
193	0x3db799f6	0.089649126
194	0x3e8c0be5	0.27352825
195	0x3d108c68	0.03529015
196	0x3f1ee474	0.6206734
197	0x3e4bc0bb	0.1989774
198	0x3d3d4256	0.04620584
199	0xbba1da40	-0.0049393475
200	0xbd0538d4	-0.0325249
201	0xbe3834bb	-0.17988865
202	0x3e54ca6f	0.20780347
203	0x3d2a02ab	0.04150645
204	0x3dbc1427	0.09183531
205	0xbe9b2ccf	-0.30307624
206	0xbf46103c	-0.7736852
207	0xbf2ba23d	-0.6704443
208	0x3ec7dae0	0.39034176
209	0x3d874c9a	0.066064075
210	0xbf47200a	-0.7778326
211	0x3f0d9153	0.5529987
212	0x3ec0845f	0.3760099
213	0x3b9ec8a3	0.004845695
214	0xbd39e319	-0.045382593
215	0x3d8ab480	0.06772709
216	0x3c06d850	0.008230284
217	0x3d9ede2a	0.07757218
218	0xbd719370	-0.058978498
219	0x3bec822d	0.0072176666
220	0x3dab4dd1	0.08364452
221	0xbf33210a	-0.6997229
222	0x3e3d2121	0.18469669
223	0x3e83947a	0.25699216
224	0xbcef97a0	-0.029247105
225	0xbf2ea6a9	-0.68223053
226	0x3f064e79	0.5246349
227	0xbcd213e0	-0.025644243
228	0xbbda0838	-0.006653812
229	0x3d9d9f51	0.07696403
230	0xbc5f6840	-0.013635695
231	0x3e1f4864	0.15554959
232	0xbdc4e180	-0.09613323
233	0x3d877dc4	0.06615785
234	0x3d9b7f13	0.07592597
235	0xbcad2020	-0.021133482
236	0xbd4759e9	-0.04866973
237	0x3db81c91	0.089898236
238	0xbdac1994	-0.08403316
239	0xbce287a0	-0.027652562
240	0x3ea017e5	0.3126823
241	0x3d7eb08c	0.062180087
242	0x3f1ebbb2	0.6200515
243	0x3daeaf3a	0.085295156
244	0x3aa39ad3	0.0012482054
245	0xbf2e45d8	-0.68075323
246	0xbdc22f68	-0.09481698
247	0xbd2eacb8	-0.042645186
248	0x3e846272	0.25856358
249	0x3e243f51	0.16039778
250	0x3c8087f0	0.01568982
251	0xbd27ea30	-0.040994823
252	0xbd17a661	-0.037023906
253	0xbf2e8b3a	-0.6818119
254	0x3da4bb7e	0.08043574
255	0xbd80f258	-0.062962234

fc3.bias f4 [20]
0	0x3fb936e9	1.4469882
1	0x3f56b956	0.8387655
2	0x3f36b7ac	0.7137401
3	0x3f2fba5b	0.6864373
4	0x3f22b249	0.6355329
5	0x3ee49fa1	0.44653037
6	0x3ea8327d	0.3285102
7	0x3eeea6bf	0.46611592
8	0x3dfdf3f8	0.12400049
9	0x3d91a882	0.071122184
10	0x3e86d0dd	0.26331225
11	0x3dcb4fde	0.09927343
12	0x3e07d98c	0.13266581
13	0x3d79b176	0.060960256
14	0xbe1228dd	-0.142734
15	0xbe8bf2f4	-0.27333796
16	0xbe18fac5	-0.14939411
17	0xbe22bcf9	-0.158924
18	0xbe3226b8	-0.17397583
19	0xbe877103	-0.2645341

fc1.weight f4 [64, 3]
0	0xbd8a0c2c	-0.06740603
1	0x3e974a5d	0.29548922
2	0x3ea577e6	0.32318038
3	0xbe9919cd	-0.29902497
4	0x3f13d719	0.5775009
5	0x3d8da9d5	0.069171585
6	0xbe6197f2	-0.22030619
7	0xbc90cadf	-0.017674861
8	0x3ce51406	0.02796365
9	0xbd5e25e0	-0.05423534
10	0xbe16c04c	-0.14721793
11	0xbd8019d0	-0.06254923
12	0xbf1099be	-0.5648459
13	0xbf051083	-0.5197832
14	0x3eb187a5	0.346738
15	0x3e73dd2d	0.2381484
16	0xbd7c1aaf	-0.061548885
17	0x3bd1f95d	0.0064079002
18	0x3dd77f39	0.10522313
19	0x3e9740be	0.29541582
20	0xbe62600c	-0.22106951
21	0xbdf22616	-0.118236706
22	0xbe0a970d	-0.13534184
23	0x3ca77c10	0.0204449
24	0x3f027b87	0.5096974
25	0x3ef2cbb4	0.47421038
26	0x3dd2ca11	0.10292447
27	0xbf07b66f	-0.53012747
28	0x3d8bfc77	0.06835263
29	0x3d5bd3c2	0.053668745
30	0xbd853dc8	-0.065059245
31	0x3e18f20e	0.14936087
32	0xbf0c0c26	-0.5470604
33	0x3dcc2a33	0.09968986
34	0xbf0011f4	-0.50027394
35	0x3e0a07e8	0.13479578
36	0xbe021056	-0.12701544
37	0xbdd5d730	-0.104414344
38	0x3cff01b1	0.031128736
39	0x3f0c7a29	0.548739
40	0xbe7358ea	-0.23764387
41	0x3cac7c0a	0.02105524
42	0x3e4a0090	0.19726777
43	0x3dc23c7b	0.09484192
44	0xbcdd92e0	-0.027047575
45	0xbe8b3b18	-0.27193522
46	0x3eb94534	0.3618561
47	0x3e846688	0.25859475
48	0xbf36e1f5	-0.71438533
49	0x3db2652d	0.08710704
50	0x3e09be7b	0.13451569
51	0x3e3a871c	0.18215603
52	0x3e575236	0.21027455
53	0xbe8d0239	-0.27540758
54	0x3ec91019	0.39270094
55	0xbd47b330	-0.04875487
56	0x3cf5743d	0.029962653
57	0x3cf33778	0.029689535
58	0x3eebeb47	0.4607794
59	0xbc8bc825	-0.01706321
60	0xbeb4975a	-0.35271722
61	0xbf137deb	-0.5761401
62	0xbe8a28f0	-0.26984358
63	0x3dacfaf1	0.08446301
64	0x3e32f681	0.17476846
65	0x3cebd257	0.028786821
66	0x3e143b4b	0.14475743
67	0x3f1563e9	0.58355576
68	0x3df64bd0	0.12026179
69	0x3ebc31a0	0.3675661
70	0xbee3db86	-0.4450342
71	0x3ee6f981	0.4511223
72	0x3bbf2713	0.0058335154
73	0xbe20ebf4	-0.15715009
74	0x3be8382c	0.0070867743
75	0xbe8db17b	-0.2767447
76	0xbe7a49ae	-0.24442169
77	0xbf11d1bc	-0.56960654
78	0xbdbdd3d0	-0.09268916
79	0xbdd886d5	-0.10572592
80	0x3c04394a	0.008070299
81	0x3f147803	0.57995623
82	0xbe063b3b	-0.13108532
83	0xbbc16d92	-0.0059029544
84	0x3d27c928	0.040963322
85	0xbd5324f4	-0.051548913
86	0x3e194cac	0.14970654
87	0xbdba43a3	-0.09094932
88	0xbf082dd1	-0.5319491
89	0x3e10ab1b	0.14127772
90	0xbf0df7e3	-0.5545637
91	0x3e4fb918	0.20285451
92	0x3d933ac8	0.07188946
93	0x3e7bebcb	0.24601667
94	0xbed74013	-0.42041072
95	0x3dc72c4e	0.09725247
96	0xbe55b01d	-0.20867963
97	0x3ef919b5	0.48652425
98	0x3dd24851	0.102676995
99	0xbdfc3fee	-0.12316881
100	0xbecb3da7	-0.39695475
101	0x3edb94f2	0.42887074
102	0x3e34a340	0.176404
103	0xbea42057	-0.32055923
104	0xbe820a45	-0.2539846
105	0xbeb48c86	-0.3526346
106	0xbe6120f6	-0.2198523
107	0xbe68b7b6	-0.2272633
108	0x3eb7da63	0.35908803
109	0x3e4500d1	0.19238593
110	0xbccf8dcd	-0.02533617
111	0x3e6e2f65	0.23260267
112	0x3a7eb000	0.0009715557
113	0xbe6b9bb0	-0.23008609
114	0xbe6c38e0	-0.23068571
115	0xbe133e12	-0.14379147
116	0x3e3dd491	0.18538119
117	0xbe5c9fdd	-0.21545358
118	0x3e9db0a8	0.3079884
119	0x3e30cd9f	0.17265938
120	0xbe83da3b	-0.25752434
121	0xbeb5bece	-0.35497135
122	0x3e582f58	0.2111181
123	0x3e5753ec	0.21028107
124	0x3edb7d17	0.42868873
125	0xbcf9c83c	-0.030490987
126	0x3eec473d	0.461481
127	0x3de61de1	0.11236168
128	0xbdeabd4b	-0.11461886
129	0x3eabaae3	0.33528814
130	0x3eb739c7	0.35786268
131	0x3e8b44a7	0.27200815
132	0x3ecafde9	0.39646843
133	0xbcb4a64c	-0.022051953
134	0x3c01fa88	0.007933266
135	0xbe273d16	-0.16331896
136	0x3ea9c399	0.33157042
137	0x3cbc667f	0.022998093
138	0x3ef38073	0.47558936
139	0xbe37b53e	-0.17940232
140	0xbef68417	-0.48147652
141	0xbe096485	-0.13417251
142	0x3ed2858c	0.41117513
143	0x3e5f1bb4	0.21787912
144	0x3e123741	0.1427889
145	0x3d2ba646	0.041906618
146	0xbcbe3a11	-0.023221048
147	0x3e504fb0	0.20342898
148	0x3e6e073d	0.23244949
149	0xbeba74b4	-0.36417162
150	0x3ce8c980	0.028416395
151	0xbebd03f1	-0.3691707
152	0xbcfde760	-0.030994117
153	0xbed37b8d	-0.413052
154	0xbe1375aa	-0.14400354
155	0xbf05baf3	-0.52238387
156	0xbe8e8371	-0.27834657
157	0xbeafc49c	-0.3432969
158	0x3e9a1d2d	0.30100384
159	0xbdb76e58	-0.08956593
160	0x3eeffb9e	0.46871656
161	0xbc256e87	-0.010097153
162	0x3f09ac14	0.53778195
163	0x3e7bf6aa	0.24605814
164	0x3ea6432c	0.32473123
165	0x3e1d7bc6	0.15379247
166	0x3dfbef85	0.12301544
167	0xbcf5e8c5	-0.03001822
168	0x3d1328b2	0.035927482
169	0x3e9accab	0.30234274
170	0xbed3f276	-0.4139592
171	0x3f3073a9	0.68926483
172	0x3e173270	0.14765334
173	0x3ef3a689	0.47587994
174	0x3d137390	0.03599888
175	0xbdc775cc	-0.09739265
176	0xbe361a9e	-0.17783591
177	0xbeb492e8	-0.3526833
178	0xbee07070	-0.43835783
179	0x3ee6197c	0.44941318
180	0x3e18c0c2	0.14917281
181	0xbe667db7	-0.22508894
182	0x3d7b5554	0.061360672
183	0xbf0687e6	-0.52551115
184	0xbf012152	-0.5044147
185	0xbe35b3de	-0.17744395
186	0x3ebfd3e0	0.37466335
187	0x3c839fff	0.016067503
188	0xbd04e6ce	-0.032446675
189	0x3ea94dec	0.33067262
190	0x3e9b957e	0.3038749
191	0xbcb80b7c	-0.022466414

fc1.bias f4 [64]
0	0x3fc7f9a1	1.5623056
1	0x4050380d	3.253421
2	0x40722ed6	3.7841086
3	0xbeae2c77	-0.340183
4	0xc026ab23	-2.6041954
5	0x4046c639	3.1058486
6	0x407e4b79	3.9733565
7	0x4075b9e9	3.839472
8	0xc00022d5	-2.002126
9	0x401ae8c1	2.4204562
10	0x4068e734	3.6391115
11	0x40052ad5	2.0807393
12	0x404935e0	3.1439133
13	0x402bb4c6	2.6829085
14	0x403baa08	2.932253
15	0xbf2d9833	-0.6781036
16	0x4011a12f	2.2754629
17	0x4072561c	3.7865057
18	0x3bb7f16b	0.005613496
19	0x401b4b23	2.426461
20	0xbed67afe	-0.4189071
21	0x3fc26147	1.5185937
22	0x3f24c48f	0.64362425
23	0xc0009000	-2.008789
24	0x4041ce44	3.0282145
25	0xbdb61598	-0.088908374
26	0x406bf596	3.6868644
27	0x402ccefb	2.700133
28	0xc04b6f53	-3.1786697
29	0x404d3c20	3.2067947
30	0x4001ad28	2.0261936
31	0x4027d9ff	2.6226804
32	0x3e3369bd	0.17520805
33	0xbfd10498	-1.6329527
34	0xbf044a08	-0.5167546
35	0x3e07eb5f	0.1327338
36	0x40115d20	2.271309
37	0xbe3b402a	-0.18286195
38	0xc0408400	-3.0080566
39	0xbf192814	-0.5982678
40	0x3ff13983	1.8845676
41	0x404f6950	3.2408028
42	0x3fc2fb07	1.5232857
43	0xbf434525	-0.7627738
44	0x3fbf11c0	1.4927292
45	0x401ccba0	2.4499283
46	0x40247147	2.569414
47	0x3fcb9fd5	1.5908152
48	0x40301d6c	2.7517958
49	0x4055c201	3.339966
50	0x3e5b7c10	0.21434045
51	0x3ee270b4	0.4422661
52	0xc0380511	-2.8753092
53	0x402f3e46	2.7381759
54	0xbf610874	-0.87903523
55	0x405e5ecd	3.4745362
56	0x404dd957	3.2163904
57	0xc0142eea	-2.3153634
58	0xbf098ea2	-0.53733265
59	0xc0091b37	-2.142286
60	0x3fee1a8e	1.8601854
61	0xbd444500	-0.047917366
62	0x40622568	3.533533
63	0x402996a6	2.6498199

fc2.weight f4 [64, 64]
0	0xbd186a5a	-0.0372108
1	0x3e4ea748	0.20181
2	0x3f9edb1c	1.2410617
3	0x3d4743cc	0.04864864
4	0xbd6c97c6	-0.05776193
5	0x3e03b0dc	0.12860435
6	0xbe110ff3	-0.1416624
7	0x3fc67b80	1.5506439
8	0xbddc69e5	-0.10762385
9	0x3d1f0a85	0.03882839
10	0x3edc46cc	0.43022764
11	0x3be1e575	0.0068938085
12	0x3ed17635	0.40910497
13	0x3eeec9f5	0.46638456
14	0x3ed0a7b7	0.40752956
15	0x3de28fd0	0.11062586
16	0x3d287c18	0.04113397
17	0x3d9c765a	0.07639761
18	0x3e26a0a5	0.16272219
19	0x3e32c66b	0.17458503
20	0x3a20d900	0.0006135851
21	0x3e2ae5a6	0.16689166
22	0x3e0ca58d	0.13735028
23	0x3db5cf96	0.088774845
24	0x3e6ff0bb	0.23431675
25	0x3d8b83b2	0.06812228
26	0x3f561768	0.83629465
27	0x3f2609cf	0.64858717
28	0xbdbe3cc2	-0.092889324
29	0x3ea45060	0.3209257
30	0x38e95511	0.00011126151
31	0x3c6a2666	0.014291381
32	0x3df5c879	0.12001128
33	0x3debde53	0.11517014
34	0x3c1531da	0.009106124
35	0xbdc41c42	-0.09575702
36	0xbd5b9981	-0.05361319
37	0x3c6422f0	0.013924345
38	0xbead3960	-0.33832836
39	0xbc226408	-0.009911545
40	0x3ceb0a83	0.028691536
41	0x3ead5bb5	0.3385903
42	0xbdd444a0	-0.10364652
43	0x3d49cd9e	0.049268357
44	0x3d11a321	0.035555962
45	0x3ea67ec6	0.32518595
46	0x3f175dc7	0.5912747
47	0x3e2baff9	0.16766347
48	0x3f2124fd	0.62947065
49	0x3e32e8a5	0.1747156
50	0xbdd3b5f7	-0.103374414
51	0x3d2c75c8	0.042104512
52	0xbdc83883	-0.09776404
53	0x3e902e64	0.28160393
54	0x3d91ae50	0.071133256
55	0x3eca990a	0.39569885
56	0x3de7b606	0.11314015
57	0xbd84c174	-0.06482211
58	0x3ddcd207	0.10782247
59	0xbd174015	-0.036926348
60	0x39d602c3	0.00040819318
61	0xbb854fc0	-0.004068345
62	0x3f2c9ee5	0.67429954
63	0x3e2e1bce	0.17002794
64	0xbde76624	-0.11298779
65	0xbd898baa	-0.06716092
66	0x3da65f40	0.08123636
67	0x3d5fef00	0.054671288
68	0xbdf4082c	-0.11915621
69	0xbda94700	-0.08265495
70	0x3d21f824	0.039543286
71	0x3db9f160	0.09079242
72	0xbdd724e2	-0.10505082
73	0x3d565a3c	0.052332148
74	0x3d1b976c	0.037986204
75	0xbd4d7300	-0.0501585
76	0x3c8b25c8	0.016985789
77	0xbd386998	-0.045022577
78	0xbda44812	-0.08021559
79	0xbdbf2872	-0.09333886
80	0x3de8dab0	0.11369836
81	0xbda9c77a	-0.0829
82	0xbd49cadf	-0.04926574
83	0x3c5c3a90	0.013441697
84	0xbdb024da	-0.08600779
85	0xbdd88f60	-0.105742216
86	0x3deb2fea	0.11483748
87	0xbded7492	-0.115945
88	0xbd9b271a	-0.075758174
89	0x3db85b3c	0.090017766
90	0x3df76fd6	0.12081878
91	0xbddf5c06	-0.10906224
92	0xbcbf7f28	-0.023376063
93	0x3b5336c0	0.0032228678
94	0xbc814780	-0.015781164
95	0xbd12c8d8	-0.03583607
96	0xbdcb63bc	-0.09931132
97	0x3dd6184a	0.104538515
98	0x3cdb5ff8	0.02677916
99	0x3cffc75c	0.031222992
100	0x3d977e3a	0.07397123
101	0x3cc6a8f0	0.024250478
102	0xbd133aa8	-0.03594461
103	0xbd499898	-0.04921779
104	0xbb688ec0	-0.0035485476
105	0xbd05a840	-0.03263116
106	0x3c6bf440	0.014401495
107	0xbc8b7f88	-0.017028585
108	0x3d808ee6	0.06277256
109	0xbdaf2c20	-0.08553338
110	0x3dfeea42	0.12447025
111	0x3d4697a0	0.048484445
112	0xbc67d278	-0.014149301
113	0xbd536920	-0.051613927
114	0xbcd955c8	-0.026530161
115	0xbdb8d3aa	-0.09024747
116	0xbca30be0	-0.019903123
117	0x3cf34e60	0.029700458
118	0x3de73a20	0.11290383
119	0xbd0ffe54	-0.035154656
120	0xbcd99638	-0.026560888
121	0xbd46470c	-0.0484076
122	0x3db450c8	0.0880447
123	0xbc47d560	-0.012196869
124	0xbdff0a72	-0.12453164
125	0x3d0477d4	0.03234084
126	0xbc819be8	-0.015821412
127	0xbdaf94d8	-0.085733116
128	0x3df2231e	0.11823104
129	0x3ec05357	0.37563583
130	0x3f4a677a	0.7906414
131	0xbd98f384	-0.07468322
132	0xbd464f1c	-0.04841529
133	0x3e5f1f33	0.21789245
134	0xbf37c31d	-0.71782094
135	0x3f907df9	1.1288444
136	0xbd8348af	-0.06410348
137	0xbdbe7f4f	-0.09301626
138	0x3ef357ef	0.47528026
139	0x3bef534b	0.0073036305
140	0x3ed0e86b	0.4080232
141	0x3d9fe6b8	0.07807678
142	0x3e9a0a7e	0.3008613
143	0x3dabaf9d	0.08383105
144	0x3e101bd3	0.14073114
145	0xbedeb768	-0.43499303
146	0x3c603768	0.013685085
147	0x3e593343	0.21210961
148	0x3d3d2768	0.04618016
149	0x3dcb3724	0.099226266
150	0x3d66b9df	0.056329604
151	0x3d1b6c18	0.037944883
152	0x3e66cf83	0.22540097
153	0xbd20d54c	-0.039265916
154	0x3f4fce75	0.81174403
155	0x3d6a4f3b	0.057204466
156	0xbdecd8c3	-0.115647815
157	0x3edc465e	0.43022436
158	0x3e17a90d	0.14810582
159	0x3e05ea0e	0.13077566
160	0x3c885b14	0.016644992
161	0x3dd3f6b0	0.10349786
162	0x3cb98c88	0.022650018
163	0x3a4e4400	0.0007868409
164	0xbe2726b3	-0.16323356
165	0xbce5b570	-0.028040618
166	0xbe916862	-0.2839995
167	0x3e047f30	0.12939143
168	0x3d1d37ba	0.038383223
169	0x3e8fbc7d	0.28073493
170	0xbda77565	-0.08176688
171	0xbcc2ef6e	-0.02379581
172	0xbb11b96b	-0.0022235762
173	0x3f05b012	0.52221787
174	0x3f39ff6a	0.72655356
175	0xbd728e15	-0.05921753
176	0x3e6982fa	0.2280387
177	0x3c694590	0.014237776
178	0xbd9eb1da	-0.07748766
179	0xbdf4d6bc	-0.1195502
180	0xbe16e90d	-0.1473734
181	0x3eb864c6	0.36014384
182	0x3def3fc9	0.11682088
183	0x3e384b62	0.17997506
184	0xbe895dc7	-0.2682936
185	0x3c748a99	0.014925622
186	0x3dbb6ff8	0.09152216
187	0xbe0c1a74	-0.13681966
188	0xbc2cdcb7	-0.010550669
189	0x3b38cd80	0.002819866
190	0x3ea21d0e	0.31662792
191	0x3e7e3542	0.24825004
192	0xbdaf8452	-0.0857016
193	0xbd970db8	-0.073756635
194	0xbdc452b4	-0.09586087
195	0x3c4418e0	0.011968821
196	0xbc8a65f0	-0.01689431
197	0x3df7d42e	0.12101017
198	0x3dbcf5ac	0.09226546
199	0xbd1880e8	-0.03723231
200	0xbd9c6d70	-0.07638061
201	0x3cafc600	0.021456718
202	0xbcd5f819	-0.026119279
203	0xbcf3d678	-0.029765353
204	0x3beddf20	0.0072592646
205	0x3c330030	0.010925338
206	0xbd512720	-0.051062703
207	0x3d7dfe53	0.06201012
208	0xbcfbb849	-0.030727522
209	0x3c1bf070	0.009517774
210	0xbcf714c5	-0.03016127
211	0x3dab3752	0.08360161
212	0xbd651818	-0.05593118
213	0xbcb836d0	-0.022487074
214	0xbd0e8054	-0.034790352
215	0xbdbd1788	-0.09233004
216	0x3dce6f18	0.10079783
217	0x3d8fe422	0.07025935
218	0x3d82366a	0.06358035
219	0xb9148800	-0.00014165044
220	0x3da88d3c	0.08230063
221	0xbb12e4c0	-0.0022414178
222	0x3dca5888	0.09880167
223	0x3daa6f6c	0.08322033
224	0x3ccf3bf8	0.02529715
225	0x3deacd92	0.11464991
226	0x3d6af4c0	0.057362318
227	0xbcfcf4b2	-0.030878399
228	0x3c463b80	0.012099147
229	0x3d781ef4	0.060576394
230	0x3dccd080	0.10000706
231	0xbd7df730	-0.062003314
232	0x3d969948	0.07353455
233	0xbcf1bf70	-0.02951023
234	0x3c930ef9	0.017951475
235	0x3d9e1058	0.07717961
236	0x3d211f38	0.039336413
237	0xbd52df54	-0.051482514
238	0x3d4b20a0	0.04959166
239	0xbdfc8dec	-0.12331757
240	0xbc2ed750	-0.010671452
241	0xbde79ea6	-0.11309557
242	0xbdb13376	-0.086523935
243	0x3dee8f50	0.116484284
244	0x3cdb959e	0.026804741
245	0xbd04af98	-0.03239402
246	0xbdb151d0	-0.086581826
247	0xbd07d43c	-0.033161387
248	0xbcb67010	-0.022270232
249	0xbd2eba04	-0.042657867
250	0xbdd28200	-0.10278702
251	0x3cd97ef8	0.026549801
252	0x3d5757ac	0.052573845
253	0xbc0fef80	-0.008785129
254	0xbdd0c96c	-0.10194668
255	0xbdb9c60a	-0.09070976

fc2.bias f4 [64]
0	0x3fd4faf0	1.663908
1	0xbd37b9d0	-0.04485494
2	0x3fb57db8	1.4178991
3	0xbdecc034	-0.11560097
4	0x3ff4a5c6	1.911309
5	0x3f4d72eb	0.80253476
6	0xbd34d83e	-0.044151537
7	0x3dc99496	0.09842794
8	0x3cd23bc8	0.025663272
9	0x3d608b45	0.054820318
10	0x3f8843b1	1.0645658
11	0x3fba46a1	1.4552804
12	0x3cfbd1cb	0.030739686
13	0x3efd257f	0.4944267
14	0x4006e415	2.107671
15	0x3fc3a195	1.5283686
16	0x3ffb945d	1.9654652
17	0xbd2ba7ed	-0.041908193
18	0xbfdb0ddb	-1.7113603
19	0x400219ed	2.0328324
20	0x3ffc8acc	1.9729857
21	0x3d8f6b35	0.0700287
22	0x3c6cd5f0	0.014455304
23	0xbda229a1	-0.07918096
24	0x3cbcf051	0.02306381
25	0xbddb70ee	-0.10714899
26	0x3db540fd	0.08850286
27	0xbe01e0ba	-0.12683383
28	0xbd4b18ca	-0.049584188
29	0xbfbd5b0a	-1.4793408
30	0x3fbd4b8e	1.4788682
31	0x3fb08616	1.379092
32	0xbdaa7b86	-0.083243415
33	0x3ff51d3e	1.9149549
34	0x40001e37	2.0018442
35	0x3ddafcca	0.10692747
36	0x3ed2021e	0.4101724
37	0x3c8cc3f2	0.017183278
38	0xbd849a9a	-0.064748004
39	0x3f588d54	0.8459065
40	0x3f776565	0.9663909
41	0x3c52da6e	0.0128694605
42	0x3d80f618	0.06296939
43	0xbd2c2e7c	-0.04203652
44	0x3fac3930	1.3454952
45	0x3fbd6830	1.479742
46	0x3d275778	0.0408549
47	0x3f4c61f6	0.79836977
48	0x3f83340d	1.025026
49	0x3f88cf96	1.068835
50	0x400253f8	2.036375
51	0xbd883b56	-0.066519424
52	0x3fba076f	1.4533519
53	0xbfe2cb35	-1.7718264
54	0xbd005b83	-0.031337272
55	0x3d97239b	0.07379838
56	0x3e96d930	0.29462576
57	0x3fd4cc95	1.6624933
58	0xbc502f34	-0.012706567
59	0xbd53a138	-0.051667422
60	0x3f8b2661	1.0871087
61	0x3fc9b4df	1.5758322
62	0x3d665479	0.056232903
63	0xbdeb3145	-0.11484007

fc3.weight f4 [20, 64]
0	0x3eae9997	0.34101555
1	0x3da3f3dc	0.08005497
2	0x3e5dd3c9	0.21662821
3	0xbd471d94	-0.048612192
4	0x3f00cb16	0.50309885
5	0x3e13e64e	0.14443323
6	0x3d8849ea	0.06654723
7	0x3d453ae3	0.048151862
8	0x3df67ea2	0.12035872
9	0xbd31eb22	-0.04343713
10	0x3d72a316	0.059237562
11	0x3e871411	0.26382497
12	0xbd414887	-0.047188308
13	0xbeda85d0	-0.42680216
14	0xbfac1e80	-1.3446808
15	0xbe864ecc	-0.26231992
16	0x3ef744f3	0.48294792
17	0x3d3ae134	0.045624927
18	0xbeb259d2	-0.34834152
19	0x3f40c1da	0.75295794
20	0x3eb8031d	0.35939875
21	0x3d543f09	0.051817928
22	0xbd94fedc	-0.07275173
23	0xbd52d640	-0.051473856
24	0x3d37e1b0	0.044892967
25	0xbdd06398	-0.10175246
26	0xbd9790c2	-0.07400657
27	0xbd597334	-0.053088382
28	0x3dfbfe98	0.12304419
29	0xbed0e082	-0.40796286
30	0x3e5cea58	0.2157377
31	0x3e678293	0.22608404
32	0x3d19bdee	0.037534647
33	0xbf213b50	-0.6298113
34	0x3efc78a5	0.49310794
35	0xbd86c880	-0.06581211
36	0x3e688bea	0.22709623
37	0x3d98374d	0.07432423
38	0x3dc7be1c	0.09753057
39	0x3db3d513	0.08780875
40	0x3dc663ce	0.09687005
41	0xbb735c1a	-0.0037133754
42	0xbda2d3db	-0.079505645
43	0xbdecd3bc	-0.115638226
44	0x3e67e946	0.2264758
45	0x3e8730af	0.2640433
46	0x3cd06438	0.025438413
47	0x3e11b925	0.14230783
48	0x3e0178af	0.12643693
49	0x3e082fcd	0.13299485
50	0x3f184a76	0.5948862
51	0x3def0a3c	0.11671874
52	0x3e97421e	0.2954263
53	0xbf0d2812	-0.5513927
54	0x3bfb21a0	0.0076639205
55	0x3d13c3fb	0.036075573
56	0xbcc5d55a	-0.024149586
57	0x3f0b05ba	0.54305613
58	0xbb832bf5	-0.004003043
59	0x3abef800	0.0014569759
60	0x3e3be474	0.18348867
61	0xbfaec090	-1.3652515
62	0xbd8fd16f	-0.07022368
63	0x3d71e889	0.059059653
64	0x3e2fde2c	0.17174596
65	0xbdbd824c	-0.09253368
66	0x3e63be7f	0.22240637
67	0xbbb77a40	-0.00559929
68	0x3f1e019d	0.6172121
69	0xbd175ddb	-0.036954742
70	0x3d3d2f66	0.04618778
71	0x3df6d708	0.12052733
72	0xbcb15512	-0.02164701
73	0xbd9e2e99	-0.077237315
74	0x3e30d60e	0.17269155
75	0x3e4dc671	0.2009523
76	0x3cc8e6b2	0.024524067
77	0xbe774d84	-0.24150664
78	0xbf765f44	-0.96239114
79	0xbf0fe6d1	-0.5621157
80	0x3ec62153	0.386973
81	0x3d754bbb	0.059886675
82	0xbeca69f7	-0.3953397
83	0x3f01a7f3	0.50646895
84	0x3e8c770c	0.27434576
85	0xbd5615d5	-0.052266914
86	0x3e0717fd	0.13192745
87	0xbd9ed92b	-0.07756265
88	0x3d0efa2c	0.03490655
89	0xbdceaa24	-0.100910455
90	0x3de9ab6a	0.11409648
91	0x3c0b29f0	0.008493885
92	0x3e0a0d38	0.13481605
93	0xbe8c1f8f	-0.27367827
94	0x3e4feb47	0.20304595
95	0x3e3e2fa2	0.18572858
96	0x3d905a32	0.070484534
97	0xbf49e753	-0.788686
98	0x3efdaf6b	0.49547896
99	0x3d983b95	0.07433239
100	0x3cec4db4	0.028845645
101	0xbbad2f20	-0.0052851588
102	0x3dad22d7	0.08453911
103	0x3e0cb009	0.13739027
104	0x3df58990	0.119891286
105	0x3b617240	0.0034400374
106	0xbd17f380	-0.037097454
107	0x3dacd378	0.08438772
108	0x3deeb33a	0.116552785
109	0x3e566127	0.20935498
110	0xbde3528a	-0.110997275
111	0x3e52eb02	0.20597461
112	0x3e05d06c	0.13067788
113	0x3e96259a	0.29325563
114	0x3f124d91	0.57149607
115	0xbc72f650	-0.014829233
116	0x3dea44c4	0.11438897
117	0xbebf0c8e	-0.37314266
118	0xbd1e1de8	-0.03860274
119	0xbce60010	-0.028076202
120	0x3d53ca93	0.05170686
121	0x3ec29781	0.38006213
122	0xbd03682d	-0.03208177
123	0x3d8ac1f2	0.067752734
124	0x3d40a6a8	0.047033936
125	0xbf300aa4	-0.68766236
126	0xbd5b45a5	-0.053533215
127	0x3dcc90c6	0.09988551
128	0x3e5b1360	0.2139411
129	0x3d13f6d0	0.03612405
130	0x3ea8d81b	0.32977375
131	0xbb8940e0	-0.004188642
132	0x3f15986c	0.584357
133	0x3d63e7c0	0.055640936
134	0xbd9ef310	-0.07761204
135	0xbce0835a	-0.027406383
136	0xbd232c34	-0.039837077
137	0xbd232ba7	-0.039836552
138	0x3dab6b43	0.08370068
139	0x3e833ac9	0.25630787
140	0xbc98a4b7	-0.01863323
141	0xbe62dbe1	-0.2215419
142	0xbf5a9d3d	-0.85396177
143	0xbf1141f7	-0.5674128
144	0x3ea9c707	0.33159658
145	0xbd666944	-0.056252733
146	0xbe9df74e	-0.3085274
147	0x3f132394	0.5747616
148	0x3e978e18	0.29600596
149	0x3d02658a	0.031835116
150	0xbd2f2e8c	-0.042769
151	0xbcf37ab3	-0.029721593
152	0xbe010809	-0.12600721
153	0xbdecc42e	-0.11560856
154	0x3df1fff9	0.11816401
155	0x3cacc9e8	0.02109237
156	0x3d057fe1	0.032592658
157	0xbec34275	-0.3813664
158	0x3e95c9a2	0.29255396
159	0x3de509e2	0.111835256
160	0xbdc8bfee	-0.09802233
161	0xbf4772c7	-0.7790951
162	0x3f10b0c4	0.5651972
163	0xbdd9eae8	-0.10640508
164	0x3d9c491b	0.07631131
165	0xbdb6568d	-0.08903227
166	0xbb7b7c80	-0.0038373768
167	0x3d5798c8	0.052635938
168	0xbd9196d9	-0.0710885
169	0x3d6061e4	0.054780856
170	0xbc06a913	-0.008219021
171	0xbdd6d916	-0.104906246
172	0x3da9df89	0.08294589
173	0x3da25431	0.079262145
174	0x3dd0244e	0.101631746
175	0x3d58fb2a	0.052973904
176	0x3e934380	0.28762436
177	0x3dceb156	0.10092418
178	0x3ee6b3dc	0.45059097
179	0x3dd0672a	0.10175927
180	0x3e33455d	0.17506929
181	0xbeb90fac	-0.3614477
182	0xbaece985	-0.0018074965
183	0xbdb2c1ae	-0.08728348
184	0x3e841e36	0.258043
185	0x3eb1560f	0.3463597
186	0x3de6578e	0.112471685
187	0xbd8221d8	-0.063541114
188	0x3d8239ef	0.06358706
189	0xbf59d375	-0.8508828
190	0xbd758cf9	-0.059948895
191	0x3dba178e	0.09086524
192	0x3e0e339e	0.13886878
193	0x3db79a8f	0.089650266
194	0x3e876dec	0.2645105
195	0x3d108c68	0.03529015
196	0x3f19b166	0.60036314
197	0x3e179068	0.1480118
198	0x3d3d6bb2	0.046245284
199	0xbba1da40	-0.0049393475
200	0xbd0538d4	-0.0325249
201	0xbe381782	-0.17977718
202	0x3e1698c8	0.14706719
203	0x3d080094	0.033203676
204	0x3dbc2284	0.09186271
205	0xbeb12de2	-0.34605318
206	0xbf3b6b6e	-0.732108
207	0xbf22dfc9	-0.6362272
208	0x3ebee9ae	0.37287658
209	0x3d874c9a	0.066064075
210	0xbf15d2a2	-0.58524525
211	0x3f03b453	0.5144703
212	0x3eb8d3e7	0.3609917
213	0x3ba19858	0.004931491
214	0xbd2a0a50	-0.04151374
215	0x3d8ab480	0.06772709
216	0x3c074563	0.008256289
217	0x3d9ede73	0.077572726
218	0xbd719370	-0.058978498
219	0x3bed35e7	0.0072390917
220	0x3dab5aed	0.08366952
221	0xbf02a863	-0.5103819
222	0x3e31ed70	0.17375731
223	0x3e802d02	0.25034338
224	0xbcef97a0	-0.029247105
225	0xbf237347	-0.63847774
226	0x3f015e0d	0.50534135
227	0xbcd1d0e6	-0.025612306
228	0x3c52cd70	0.012866363
229	0x3d9da796	0.0769798
230	0xbc5f6840	-0.013635695
231	0x3d65f9a6	0.056146286
232	0xbd8e49b4	-0.069476515
233	0x3d877dff	0.06615829
234	0x3d9b9405	0.07596592
235	0xbcad2020	-0.021133482
236	0xbcea7dc3	-0.028624421
237	0x3d9c3b85	0.0762854
238	0xbdac1994	-0.08403316
239	0x3d14fc9a	0.036373712
240	0x3e8d80e4	0.27637398
241	0x3c98dff5	0.018661479
242	0x3f1b3b61	0.6063748
243	0x3daeaf3a	0.085295156
244	0xbbdaec9b	-0.0066810376
245	0xbef5d761	-0.48015884
246	0xbdc22f68	-0.09481698
247	0xbd2eacb8	-0.042645186
248	0x3e7ebd0d	0.24876805
249	0x3e201194	0.15631706
250	0x3c8097a5	0.01569731
251	0xbd27ea30	-0.040994823
252	0xbc45897e	-0.0120567065
253	0xbf28827e	-0.65824115
254	0x3da4cc59	0.08046789
255	0xbd80f258	-0.062962234

fc3.bias f4 [20]
0	0x3fae5ed1	1.3622686
1	0x3f51d0a9	0.81959015
2	0x3f2ee9f3	0.6832573
3	0x3f2bc596	0.6709837
4	0x3f1ef683	0.620949
5	0x3edbab60	0.42904186
6	0x3e9d1632	0.30680996
7	0x3ee5eca9	0.4490712
8	0x3dcb1fbc	0.09918162
9	0x3d6ca64d	0.057775784
10	0x3e7655be	0.24056146
11	0x3dabf57c	0.08396432
12	0x3dda3452	0.106545106
13	0x3d388800	0.045051575
14	0xbe302245	-0.17200573
15	0xbe9bbd97	-0.30418083
16	0xbe3cbe14	-0.18431884
17	0xbe45b76b	-0.1930825
18	0xbe62e0d8	-0.22156084
19	0xbe96cffe	-0.2945556

exp_avg f4 [64, 3]
0	0xc0a3c2f9	-5.1175504
1	0xbfc59a69	-1.5437747
2	0x41794601	15.579591
3	0x4035a5d5	2.8382466
4	0x42395159	46.32944
5	0x43a85762	336.68268
6	0x42487311	50.11237
7	0x434517a7	197.09239
8	0x44996ba0	1227.3633
9	0x00000000	0.0
10	0x00000000	0.0
11	0x00000000	0.0
12	0xc09d251b	-4.9107795
13	0xc19bb429	-19.462969
14	0xc31d6044	-157.37604
15	0x40d83177	6.756038
16	0x421c9338	39.14377
17	0x438515ec	266.17126
18	0x4282b772	65.35829
19	0x4280ead6	64.458664
20	0x430f7043	143.43852
21	0x42987695	76.231606
22	0x4394df20	297.74316
23	0x44e7e2ef	1855.0917
24	0xc15524e4	-13.3215065
25	0xc1ee1d4f	-29.76431
26	0xc31c6601	-156.39845
27	0x4074cf54	3.8251543
28	0x4189464a	17.15932
29	0x42f8685e	124.20384
30	0xc19ae03d	-19.359491
31	0xc1c7967b	-24.948477
32	0xc164cea5	-14.30045
33	0x40140651	2.3128855
34	0x41145751	9.2713175
35	0x42781327	62.018703
36	0x420b829c	34.87755
37	0x42cdf192	102.97182
38	0x441b9234	622.2844
39	0x4162a73d	14.16583
40	0x42af7fb0	87.74939
41	0x440a38c5	552.887
42	0x4155c097	13.359519
43	0x429311d0	73.53479
44	0x43ed67d2	474.8111
45	0xc18c605e	-17.547054
46	0xc18b9c48	-17.45131
47	0xc264a73c	-57.163315
48	0x40c4d9f2	6.1516047
49	0x4207e6a5	33.97524
50	0x436cbeab	236.7448
51	0x428f34b0	71.602905
52	0x42762bc4	61.54274
53	0x42fe3d79	127.12006
54	0xc03cd2ee	-2.9503741
55	0xbfd706f2	-1.6798995
56	0x4046a970	3.1040916
57	0x4008f215	2.1397755
58	0x41d21bed	26.263636
59	0x4340f800	192.96875
60	0x00000000	0.0
61	0x00000000	0.0
62	0x00000000	0.0
63	0xc000be98	-2.011633
64	0x4005ebb8	2.0925121
65	0x41e852e8	29.040482
66	0xc0ed4f1e	-7.415908
67	0xc0c69647	-6.2058444
68	0xc10789fd	-8.471189
69	0xc1515dd3	-13.085406
70	0xc1aba454	-21.455238
71	0xc2b338dd	-89.61106
72	0x41aa903e	21.32043
73	0x42b03cbd	88.11863
74	0x4408d6c7	547.3559
75	0x00000000	0.0
76	0x00000000	0.0
77	0x00000000	0.0
78	0x421a3310	38.549866
79	0x4348c7ad	200.77998
80	0x44a14088	1290.0166
81	0x416feaf8	14.994865
82	0x4293daaf	73.92712
83	0x43ea8057	469.00266
84	0xc16068c1	-14.025575
85	0xc2700318	-60.00302
86	0xc3be9d79	-381.23026
87	0x41b33c33	22.404394
88	0x42a204db	81.00948
89	0x44005a7e	513.41394
90	0x41255acd	10.334668
91	0x4220a5b3	40.161816
92	0x4383ced4	263.61584
93	0x40c0cddd	6.02513
94	0x41a61600	20.760742
95	0x4304008b	132.00212
96	0xc0b53f7f	-5.664001
97	0xc0ac9d82	-5.394227
98	0xc1081925	-8.506139
99	0xc167043d	-14.438535
100	0xc1822f15	-16.27299
101	0xc2b03e7d	-88.12205
102	0x00000000	0.0
103	0x00000000	0.0
104	0x00000000	0.0
105	0x00000000	0.0
106	0x00000000	0.0
107	0x00000000	0.0
108	0x3fd021f0	1.6260357
109	0x411bcc27	9.737342
110	0x426fc191	59.93903
111	0x00000000	0.0
112	0x00000000	0.0
113	0x00000000	0.0
114	0xc115858d	-9.345105
115	0xc265142c	-57.2697
116	0xc3bfe59f	-383.7939
117	0xc14c6da6	-12.77677
118	0xc1443ee3	-12.265353
119	0xc226ee7d	-41.7329
120	0x4092102e	4.564475
121	0x41845dcc	16.5458
122	0x42d5e1ef	106.94128
123	0x40c2d68d	6.0886903
124	0x4233d7d1	44.96076
125	0x4398299a	304.325
126	0xbe421589	-0.18953528
127	0x3ead3c7c	0.33835208
128	0xc0dcd874	-6.9014225
129	0xc1314557	-11.079429
130	0xc157306b	-13.449321
131	0xc233a916	-44.915123
132	0xbfb6dc69	-1.4286014
133	0x40260810	2.594242
134	0x41fe705b	31.804861
135	0x40d45e37	6.636501
136	0x424cbaab	51.182293
137	0x43b03925	352.44644
138	0x412cc299	10.797509
139	0x40ae383d	5.444365
140	0x4126a5a0	10.415436
141	0xc01e4cef	-2.4734457
142	0x40230e48	2.5477467
143	0x41fc2bbe	31.521358
144	0x4182ffb6	16.374859
145	0x42b9397d	92.61228
146	0x4415aab2	598.6671
147	0x420f48e3	35.82118
148	0x4209e068	34.469147
149	0x42778be8	61.886627
150	0x00000000	0.0
151	0x00000000	0.0
152	0x00000000	0.0
153	0x00000000	0.0
154	0x00000000	0.0
155	0x00000000	0.0
156	0xc00aba4d	-2.167621
157	0xc1aa0dec	-21.256798
158	0xc320f61f	-160.96141
159	0x40950845	4.6572595
160	0x424481c4	49.126724
161	0x43aeec4d	349.8461
162	0xc123db54	-10.241047
163	0xc147bdcb	-12.483836
164	0xc23ea918	-47.66513
165	0x4139434c	11.57893
166	0x429888a5	76.266884
167	0x43fb0178	502.01147
168	0x419eb774	19.839577
169	0x41c4e917	24.613813
170	0x4216a69f	37.662716
171	0xc186d811	-16.855501
172	0xc1e8d419	-29.103563
173	0xc3058c7b	-133.54875
174	0x00000000	0.0
175	0x00000000	0.0
176	0x00000000	0.0
177	0xbf11c355	-0.5693868
178	0xc082cb7f	-4.087341
179	0xc25c81df	-55.126827
180	0x41032314	8.196064
181	0x415c051a	13.7512455
182	0x42943bca	74.116776
183	0x00000000	0.0
184	0x00000000	0.0
185	0x00000000	0.0
186	0x4178275b	15.509608
187	0x42b518dd	90.54856
188	0x44127431	585.8155
189	0x4080831d	4.016005
190	0x421dc9ea	39.44718
191	0x4386b891	269.44193
