beergame/baseline/models/dqn_agent_firm_1_episode_1500.pth (torch, 101224 bytes, 24 tensors)

fc1.weight f4 [64, 3]
000000 7c 25 cd bd a6 63 82 3e 7e 4b a5 3e 8e c9 92 be
       -0.10016915 0.2546665 0.32284158 -0.286694
000010 67 7c 11 3f 24 09 b1 3d 4f a1 89 be 5e 00 36 bd
       0.5683045 0.086443216 -0.2688088 -0.044433944
000020 87 5f 15 3d e0 25 5e bd 42 c0 16 be d0 19 80 bd
       0.036468055 -0.05423534 -0.14721778 -0.06254923
000030 10 a3 0d bf 9a 2d 24 bf 0f ff 94 3e 9e 69 3d 3e
       -0.5532694 -0.6413208 0.29100844 0.18497321
000040 99 ba a3 bd eb 59 6a 3c 9b f6 04 3e 35 86 80 3e
       -0.07994575 0.014303665 0.12984698 0.25102392
000050 15 e0 36 be 16 71 6c be 23 e8 2c be de ec d3 3c
       -0.17858918 -0.23090014 -0.16885428 0.025869783
000060 8c cf fb 3e 32 c7 eb 3e ad 21 a4 3d e3 65 c8 be
       0.49181783 0.4605041 0.08014236 -0.39140233
000070 f3 e0 0c 3d 23 42 0a 3d 17 9d 38 bd b3 55 8e 3d
       0.034394216 0.03375448 -0.045071688 0.069499396
000080 86 c6 cf be b0 16 64 bd d4 05 1e bf 0c e2 93 3d
       -0.4058115 -0.0556857 -0.61727643 0.072208494
000090 93 76 73 be 0c 09 08 be 45 17 db 3c 52 36 0a 3f
       -0.23775701 -0.13284701 0.026744494 0.53989136
0000a0 53 f5 62 be 47 56 04 3d 8d 97 2f 3e 6c 35 ab 3d
       -0.22163896 0.032308843 0.17147656 0.08359799
0000b0 ce 15 91 bc 25 5b 58 be ec 5a bb 3e 3d e8 6c 3e
       -0.017710593 -0.21128519 0.36592805 0.23135467
0000c0 fa ff 04 bf 6e de ee 3d e3 02 0a 3e 92 a3 3f 3e
       -0.5195309 0.11663519 0.13477664 0.18714741
0000d0 69 6c 6c 3e a3 c8 58 be 49 7d 88 3e f3 c6 9a bd
       0.2308823 -0.21170287 0.26658085 -0.07557478
0000e0 f2 9e 77 bd 4a 75 ac 39 2e a0 e4 3e e4 03 c3 3b
       -0.060454316 0.00032893784 0.44653457 0.0059513915
0000f0 5a 97 b4 be eb 7d 13 bf f0 28 8a be cf 29 15 bc
       -0.35271722 -0.5761401 -0.26984358 -0.009104206
000100 c1 ea a1 3d 56 2d b9 3b 34 f2 ec 3d 0d 1f 0c 3f
       0.07906104 0.0056511564 0.11569634 0.5473488
000110 32 70 bf 3d da b8 be 3e a7 53 bd be e9 84 ca 3e
       0.093475714 0.37250406 -0.36977884 0.39554527
000120 11 c9 d4 bd 81 1d 3a be 46 8f 6c 3c 7b b1 8d be
       -0.10389913 -0.18175317 0.014438456 -0.2767447
000130 ae 49 7a be bc d1 11 bf d1 f6 b9 bd e0 98 e4 bd
       -0.24442169 -0.56960654 -0.090802796 -0.11161971
000140 a7 0f af 3c 67 29 0c 3f 12 79 0c be 86 e5 5c 3b
       0.021369768 0.54750675 -0.1371806 0.0033706143
000150 9b 1a 41 be 8d 0f 0c be 4d 71 e2 3d a4 d1 ef 3c
       -0.18857805 -0.13677807 0.11056767 0.02927477
000160 97 b3 0a bf b5 c3 11 3e c8 5f f6 be a7 b9 5f 3e
       -0.5418028 0.14234813 -0.4811995 0.21848164
000170 1d 67 b1 3d ff 13 59 3e e3 71 01 bf 6f d3 34 3d
       0.086622454 0.21199034 -0.505644 0.04414695
000180 32 5d 14 be 9c 6e ce 3e 0d 8f 29 3d 61 b1 f7 bd
       -0.14488676 0.40318763 0.04139619 -0.12094379
000190 17 fa e7 be 44 97 c4 3e 40 a3 34 3e 57 20 a4 be
       -0.4530799 0.38396657 0.176404 -0.32055923
0001a0 45 0a 82 be 86 8c b4 be f6 20 61 be b6 b7 68 be
       -0.2539846 -0.3526346 -0.2198523 -0.2272633
0001b0 7e f1 43 3e a3 4e 27 3e 78 ac a1 bc 2c 2f 6e 3e
       0.1913509 0.16338591 -0.01973556 0.23260182
0001c0 00 b0 7e 3a b0 9b 6b be 67 6f 95 be d8 9c 3f be
       0.0009715557 -0.23008609 -0.29186556 -0.18712175
0001d0 4e 19 2b 3e 2a 41 22 be c9 a2 97 3e 3e ab 18 3e
       0.16708872 -0.1584517 0.29616383 0.14909074
0001e0 3d e0 63 be 7b 55 af be 1b 58 3a 3e e0 e8 36 3e
       -0.22253509 -0.34244904 0.18197672 0.17862272
0001f0 55 fc d1 3e 5c ed 92 bc c8 00 9b 3e 70 8b 9a 3d
       0.41012827 -0.017935447 0.30274034 0.07546127
000200 bb a5 19 bd 08 36 9f 3e f7 3d ac 3e 7c 8d 40 3e
       -0.03751157 0.3109591 0.33641025 0.18803972
000210 1b bf 43 3e 98 07 b3 bd a3 5a b4 3c d8 c0 30 be
       0.1911587 -0.08741683 0.022015875 -0.17261064
000220 b2 6e a1 3e 4c 91 26 3d db 3a cf 3e 66 47 ab be
       0.31529766 0.04066591 0.4047459 -0.3345291
000230 6c fb f7 be 14 a4 3c be 7d e4 a1 3e ca 29 02 3e
       -0.48434007 -0.18421966 0.31619635 0.12711254
000240 e0 f3 ff 3d ac 98 0d 3d 71 8c 30 bc 59 74 51 3e
       0.12497687 0.034569427 -0.010775671 0.2045454
000250 f3 9e 80 3e 09 9c 93 be 80 c9 e8 3c f1 03 bd be
       0.2512127 -0.28829983 0.028416395 -0.3691707
000260 60 e7 fd bc 8d 7b d3 be aa 75 13 be f3 ba 05 bf
       -0.030994117 -0.413052 -0.14400354 -0.52238387
000270 dd cd c5 be 3b a8 e4 be e6 a4 78 3e c0 83 c7 bd
       -0.38633624 -0.446596 0.24281654 -0.09741926
000280 6f 1d ea 3e d4 eb d0 3b ca 44 03 3f 92 95 5e 3e
       0.4572558 0.006375769 0.5127684 0.21736744
000290 3b 8e 85 3e 41 17 0f 3e e6 e3 e7 3d e0 ee 83 bc
       0.26085076 0.13973714 0.11322765 -0.016105115
0002a0 43 dd 03 3d 0b 0f 8d 3e 8b d8 ae be 20 9e 2f 3f
       0.032193433 0.2755054 -0.34149584 0.68600655
0002b0 93 eb 19 3e 42 21 e1 3e 90 73 13 3d cc 75 c7 bd
       0.1503127 0.43970686 0.03599888 -0.09739265
0002c0 9e 1a 36 be 59 4f fb be 0b f2 f7 be a3 37 b6 3e
       -0.17783591 -0.49083975 -0.48426852 0.35589322
0002d0 9c ed f5 3d 05 0a 87 be 1f 3b 85 3c 92 87 06 bf
       0.12008211 -0.26374832 0.016263543 -0.52550614
0002e0 52 21 01 bf de b3 35 be d6 93 b7 3e 99 f2 27 3c
       -0.5044147 -0.17744395 0.35854977 0.010250711
0002f0 5c f6 a3 bc 93 fe 99 3e b5 ac 95 3e 22 d0 8c bb
       -0.020014934 0.30077037 0.29233328 -0.0042972723

fc1.bias f4 [64]
000000 63 f1 c1 3f 5f d4 60 40 c8 94 83 40 6b 2c ae be
       1.515179 3.512962 4.111912 -0.34018263
000010 eb ce 4a c0 23 c4 59 40 1e 34 85 40 7a 7b 85 40
       -3.1688793 3.4025962 4.162612 4.171323
000020 97 83 18 c0 d0 69 36 40 42 4c 78 40 5f 06 14 40
       -2.3830316 2.8502083 3.8796544 2.3128889
000030 a8 bf 5f 40 67 61 3f 40 be dd 4e 40 a3 2b 52 bf
       3.4960728 2.99032 3.232284 -0.82097834
000040 a3 31 28 40 94 4f 7c 40 57 60 47 be 78 da 2b 40
       2.6280296 3.942357 -0.19470344 2.6852093
000050 fe 7a d6 be b3 76 bf 3f e7 2c 00 3f ab 91 13 c0
       -0.4189071 1.4958099 0.50068516 -2.3057659
000060 51 e9 56 40 98 15 b6 bd 27 14 80 40 43 a8 40 40
       3.3579905 -0.088908374 4.00246 3.0102699
000070 43 33 67 c0 a6 c4 63 40 a9 f2 12 40 94 a6 39 40
       -3.6125038 3.5588775 2.2960608 2.9007921
000080 f3 22 0a 3d 29 b5 ef bf 08 4a 04 bf f4 ea 07 3e
       0.033724736 -1.8727161 -0.5167546 0.13273221
000090 7e 7d 20 40 00 40 3b be 6e 4b 5a c0 38 cf 3e bf
       2.5076594 -0.18286133 -3.4108539 -0.7453494
0000a0 47 93 09 40 09 42 61 40 61 fa cb 3f d3 72 7e bf
       2.149614 3.5196555 1.5935785 -0.9939396
0000b0 aa ec c7 3f 99 69 2e 40 71 9d 23 40 de 81 c4 3f
       1.5619099 2.7251952 2.5564845 1.5352132
0000c0 35 c5 43 40 90 50 65 40 10 7c 5b 3e b4 70 e2 3e
       3.0589116 3.5830421 0.21434045 0.4422661
0000d0 ae 6d 5a c0 ae 28 40 40 c6 bb 90 bf 6a 5b 71 40
       -3.4129443 3.002483 -1.1307304 3.7712045
0000e0 4d 1f 5e 40 11 80 29 c0 a2 8e 09 bf 86 ad 20 c0
       3.4706604 -2.6484416 -0.53733265 -2.510591
0000f0 48 7f 07 40 00 45 44 bd cc 85 75 40 3d 24 3a 40
       2.1171436 -0.047917366 3.8362913 2.9084618

fc2.weight f4 [64, 64]
000000 ef 31 d5 bc 7c 2f 58 3e e7 69 a8 3f cc 43 47 3d
       -0.026024787 0.21111864 1.3157319 0.04864864
000010 d4 3b 73 bd 2c 19 1a 3e cc 4b a6 be 7d 2a d4 3f
       -0.05938323 0.15048665 -0.32479703 1.6575466
000020 ba 53 f9 bd c6 ff 8c 3d 88 bc 84 3e 40 cc e1 3b
       -0.12174173 0.068847224 0.25925088 0.0068908036
000030 2a 87 f7 3e cd 47 ef 3e 61 90 c9 3e af 4d 01 3e
       0.4834531 0.46734467 0.39367965 0.1262729
000040 2c 49 76 3d ae 1b 95 bd 49 eb bb 3d fc 79 10 3e
       0.060128376 -0.0728067 0.091757365 0.14109033
000050 00 d9 20 3a d8 4c fb 3d fa 9a 05 3e a4 88 e6 3d
       0.0006135851 0.12270516 0.130474 0.11256531
000060 db 02 a6 3e b2 83 8b 3d 18 84 6e 3f a4 29 21 3f
       0.32424054 0.06812228 0.9317031 0.62954164
000070 2c 45 08 be 74 37 be 3e 9b 92 b3 3b cc a6 02 3d
       -0.13307637 0.37151682 0.005480123 0.03189735
000080 74 5b e9 3d d5 b2 0b 3e 60 31 15 3c 42 1c c4 bd
       0.113943964 0.13642438 0.00910601 -0.09575702
000090 c8 68 e4 bd f0 22 64 3c ec 67 b7 be c9 bd 2b 3b
       -0.11152798 0.013924345 -0.35821474 0.002620565
0000a0 53 17 58 3d f4 cb a3 3e 40 ac 66 be d3 3a 75 3d
       0.05275662 0.3199154 -0.22526646 0.059870552
0000b0 c5 a8 c8 bc e7 b1 a2 3e 00 4c 36 3f 17 cc 2a 3e
       -0.024494538 0.31776354 0.71209717 0.16679417
0000c0 57 fb 1d 3f 6b 04 85 bd da b5 d3 bd c8 75 2c 3d
       0.6171164 -0.06494983 -0.1033742 0.042104512
0000d0 e2 b7 c6 bd f9 e6 86 3e ba ad a8 3d 1d 8d d4 3e
       -0.097030416 0.26348093 0.08236261 0.4151391
0000e0 00 92 1f be 59 98 5b bd da d1 dc 3d c6 b4 bf bc
       -0.15583038 -0.053612087 0.107822135 -0.02340163
0000f0 0d bc 9e bc c0 4f 85 bb d1 10 30 3f 4b a1 09 3e
       -0.019376779 -0.004068345 0.6877566 0.13440435
000100 24 66 e7 bd aa 8b 89 bd 40 5f a6 3d 00 ef 5f 3d
       -0.11298779 -0.06716092 0.08123636 0.054671288
000110 2c 08 f4 bd 00 47 a9 bd 24 f8 21 3d 60 f1 b9 3d
       -0.11915621 -0.08265495 0.039543286 0.09079242
000120 a2 24 d7 bd 3c 5a 56 3d 6c 97 1b 3d 00 73 4d bd
       -0.10505034 0.052332148 0.037986204 -0.0501585
000130 c8 25 8b 3c 28 69 38 bd 12 48 a4 bd 72 28 bf bd
       0.016985789 -0.04502216 -0.08021559 -0.09333886
000140 b0 da e8 3d 7a c7 a9 bd 88 ca 49 bd 90 3a 5c 3c
       0.11369836 -0.0829 -0.049265414 0.013441697
000150 da 24 b0 bd 60 8f d8 bd ea 2f eb 3d 92 74 ed bd
       -0.08600779 -0.105742216 0.11483748 -0.115945
000160 1a 27 9b bd 3c 5b b8 3d d6 6f f7 3d 06 5c df bd
       -0.075758174 0.090017766 0.12081878 -0.10906224
000170 28 7f bf bc c0 36 53 3b 80 47 81 bc d8 c8 12 bd
       -0.023376063 0.0032228678 -0.015781164 -0.03583607
000180 bc 63 cb bd 4a 18 d6 3d f8 5f db 3c 40 c7 ff 3c
       -0.09931132 0.104538515 0.02677916 0.03122294
000190 3a 7e 97 3d f0 a8 c6 3c a8 3a 13 bd 98 98 49 bd
       0.07397123 0.024250478 -0.03594461 -0.04921779
0001a0 c0 8e 68 bb 40 a8 05 bd 40 f4 6b 3c 88 7f 8b bc
       -0.0035485476 -0.03263116 0.014401495 -0.017028585
0001b0 e6 8e 80 3d 20 2c af bd 42 ea fe 3d a0 97 46 3d
       0.06277256 -0.08553338 0.12447025 0.048484445
0001c0 10 d2 67 bc 20 69 53 bd c8 55 d9 bc aa d3 b8 bd
       -0.014149204 -0.051613927 -0.026530161 -0.09024747
0001d0 e0 0b a3 bc 60 4e f3 3c 1e 3a e7 3d 54 fe 0f bd
       -0.019903123 0.029700458 0.11290382 -0.035154656
0001e0 38 96 d9 bc 0c 47 46 bd c8 50 b4 3d 60 d5 47 bc
       -0.026560888 -0.0484076 0.0880447 -0.012196869
0001f0 72 0a ff bd d4 77 04 3d e8 9b 81 bc d8 94 af bd
       -0.12453164 0.03234084 -0.015821412 -0.085733116
000200 2e ca 0a 3e 00 47 ca 3e bf c3 59 3f 84 f3 98 bd
       0.13553688 0.39507294 0.8506431 -0.07468322
000210 8d 92 63 bd a9 dd 65 3e a4 b0 5e bf 19 40 9b 3f
       -0.055559684 0.22447838 -0.8698828 1.2128936
000220 4d 95 64 bd 38 1e 97 bd 13 03 80 3e 21 c6 8f bc
       -0.055806447 -0.07378811 0.25002345 -0.01755053
000230 aa 61 f0 3e d5 35 7c 3d 6a f7 93 3e 9f d3 dc 3d
       0.46949512 0.061574776 0.288997 0.10782551
000240 eb ea 1f 3e 99 0d 0a bf 3f 44 6a bd 72 20 4c 3e
       0.15616958 -0.53927 -0.05719399 0.19934252
000250 68 27 3d 3d fa 06 62 3d 40 16 7b 3d 9c 87 63 3d
       0.04618016 0.055182435 0.061300516 0.05554925
000260 f9 89 8f 3e 4c d5 20 bd a4 80 5f 3f 67 6c 19 3d
       0.28034952 -0.039265916 0.87305665 0.037456896
000270 0b 00 28 be 39 fe e9 3e 19 e6 18 3e a0 be ec 3d
       -0.16406266 0.4570177 0.14931525 0.11559796
000280 ed 63 62 3c 44 98 ff 3d 88 8c b9 3c 00 44 4e 3a
       0.0138177695 0.12480214 0.022650018 0.0007868409
000290 a3 73 53 be 70 b5 e5 bc 42 4c 9c be df 58 17 3e
       -0.2064958 -0.028040618 -0.3052693 0.14779995
0002a0 dc 51 6f 3d 93 fa 8e 3e fb 6e 1c be c1 44 9a bb
       0.058427677 0.27925548 -0.1527671 -0.004707903
0002b0 60 1b 78 bd 4b 1e 06 3f c2 9c 54 3f 92 dc 59 bd
       -0.06057298 0.52389973 0.83051693 -0.053188868
0002c0 45 1a 58 3e 99 84 0c be da b1 9e bd bc d6 f4 bd
       0.21103771 -0.13722457 -0.07748766 -0.1195502
0002d0 38 6c 18 be 11 74 b7 3e a7 3b 0b 3e 4e d2 45 3e
       -0.14885032 0.3583074 0.13596974 0.19318506
0002e0 5e fb e8 be e7 a9 0f 3d f8 6f bb 3d c1 5d 00 be
       -0.45504278 0.03507414 0.09152216 -0.12535764
0002f0 09 44 4f bd 80 cd 38 3b 78 0a a5 3e 2d 97 6d 3e
       -0.050601993 0.002819866 0.3223455 0.232022
000300 52 84 af bd b8 0d 97 bd b4 52 c4 bd e0 18 44 3c
       -0.0857016 -0.073756635 -0.09586087 0.011968821
000310 f0 65 8a bc 9e d3 f7 3d 80 f5 bc 3d e8 80 18 bd
       -0.01689431 0.1210091 0.09226513 -0.03723231
000320 08 6d 9c bd 00 c6 af 3c 18 f8 d5 bc 78 d6 f3 bc
       -0.076379836 0.021456718 -0.026119277 -0.029765353
000330 20 df ed 3b 30 00 33 3c 20 27 51 bd dc fd 7d 3d
       0.0072592646 0.010925338 -0.051062703 0.062009677
000340 78 b7 fb bc 20 f0 1b 3c b8 14 f7 bc 52 37 ab 3d
       -0.030727133 0.0095176995 -0.030161247 0.08360161
000350 18 18 65 bd d0 36 b8 bc 54 80 0e bd 88 17 bd bd
       -0.05593118 -0.022487074 -0.034790352 -0.09233004
000360 18 6f ce 3d 22 e4 8f 3d 5a 36 82 3d 00 88 14 b9
       0.10079783 0.07025935 0.06358023 -0.00014165044
000370 3c 8d a8 3d c0 e4 12 bb 88 58 ca 3d 40 6f aa 3d
       0.08230063 -0.0022414178 0.09880167 0.083220005
000380 f8 3b cf 3c 92 cd ea 3d c0 f4 6a 3d 90 f4 fc bc
       0.02529715 0.11464991 0.057362318 -0.030878335
000390 80 3b 46 3c f4 1e 78 3d 80 d0 cc 3d 30 f7 7d bd
       0.012099147 0.060576394 0.10000706 -0.062003314
0003a0 48 99 96 3d 70 bf f1 bc b8 0e 93 3c 58 10 9e 3d
       0.07353455 -0.02951023 0.017951354 0.07717961
0003b0 38 1f 21 3d 54 df 52 bd a0 20 4b 3d ec 8d fc bd
       0.039336413 -0.051482514 0.04959166 -0.12331757
0003c0 50 d7 2e bc a6 9e e7 bd 76 33 b1 bd 50 8f ee 3d
       -0.010671452 -0.11309557 -0.086523935 0.116484284
0003d0 e8 94 db 3c 98 af 04 bd d0 51 b1 bd 3c d4 07 bd
       0.026804402 -0.03239402 -0.086581826 -0.033161387
0003e0 10 70 b6 bc 04 ba 2e bd 00 82 d2 bd f8 7e d9 3c
       -0.022270232 -0.042657867 -0.10278702 0.026549801
0003f0 ac 57 57 3d 80 ef 0f bc 6c c9 d0 bd 0a c6 b9 bd
       0.052573845 -0.008785129 -0.10194668 -0.09070976

fc2.bias f4 [64]
000000 6f 76 ef 3f c8 b9 37 bd f7 00 cb 3f b4 bf ec bd
       1.8708018 -0.04485491 1.585967 -0.11560002
000010 55 df 09 40 5a b8 58 3f 91 47 95 bd 96 94 c9 3d
       2.154256 0.846563 -0.07289041 0.09842794
000020 9c f7 c7 bb 97 e7 5c 3d 07 c5 8c 3f 8e 6e d3 3f
       -0.0061025154 0.0539318 1.0997628 1.6518114
000030 bb 72 fb 3c 5b c3 90 3e 00 46 0d 40 c2 76 d7 3f
       0.030694356 0.28274044 2.2073975 1.6833117
000040 0e 02 0d 40 b4 a7 2b bd e6 53 03 c0 7d d9 0f 40
       2.2032504 -0.04190798 -2.0519958 2.2476494
000050 ed 1b 0d 40 52 9d 8f 3d 23 61 07 3c 86 35 a2 bd
       2.2048295 0.07012428 0.008262905 -0.07920365
000060 8a 6e bc 3c fe 1c e2 bd e4 40 b5 3d 30 e4 01 be
       0.023001928 -0.11040686 0.088502675 -0.12684703
000070 14 57 4b bd 84 42 df bf 22 4e d3 3f 1c 8a c7 3f
       -0.04964359 -1.7442174 1.6508219 1.5589023
000080 86 7b aa bd 7a a3 01 40 0f b5 0f 40 2f ea da 3d
       -0.083243415 2.0256028 2.245426 0.10689198
000090 c8 4c 0a 3f 52 a2 8c 3c 9a 9a 84 bd e0 ed 5c 3f
       0.5402341 0.017167244 -0.064748004 0.8630047
0000a0 9b 2e 8d 3f fb 91 bd b9 f4 f3 80 3d 71 44 47 bd
       1.1029848 -0.00036157653 0.0629653 -0.048649255
0000b0 97 ed bf 3f 63 46 d4 3f 78 57 27 3d e7 e6 70 3f
       1.4994382 1.658398 0.0408549 0.9410233
0000c0 b8 ed 8e 3f ae d1 9e 3f c7 63 12 40 56 3b 88 bd
       1.1166296 1.2407739 2.28734 -0.066519424
0000d0 70 f5 d2 3f 98 5b 04 c0 77 74 00 bd b4 fe 96 3d
       1.6481152 -2.0680904 -0.03136107 0.073727995
0000e0 33 77 75 3e d6 0e f4 3f 78 32 51 bc 38 a1 53 bd
       0.23971252 1.9067028 -0.01276838 -0.051667422
0000f0 8c fc 93 3f 79 26 d0 3f 63 e4 65 3d 38 78 eb bd
       1.1561446 1.6261741 0.05612601 -0.11497539

fc3.weight f4 [20, 64]
000000 ea ef bb 3e dc f3 a3 3d ff b9 69 3e 94 1d 47 bd
       0.36706477 0.08005497 0.22824858 -0.048612192
000010 24 c2 0a 3f 8f 00 2b be cd a2 0e 3d 58 3a 45 3d
       0.54202485 -0.16699432 0.034823228 0.048151344
000020 4e 70 b5 3d 63 9b 31 bd 62 7f 19 3e 15 36 91 3e
       0.08859311 -0.04336108 0.14989999 0.28361574
000030 e8 30 41 bd 28 ca 9d be b4 95 b8 bf 0b d2 b2 be
       -0.04716578 -0.30818295 -1.4420686 -0.34925875
000040 f8 d7 03 3f 34 e1 3a 3d fc b8 ff be 83 70 75 3f
       0.5150142 0.045624927 -0.4994582 0.95874804
000050 0a 2d d1 3e e1 d5 53 3d 04 ca 92 bd 40 d6 52 bd
       0.40854675 0.051717643 -0.07167438 -0.051473856
000060 5f f8 37 3d 98 63 d0 bd c2 90 97 bd 34 73 59 bd
       0.0449146 -0.10175246 -0.07400657 -0.053088382
000070 9a 1f fc 3d 84 ab 0f bf 9b 6e 6c 3e 06 83 7b 3e
       0.12310715 -0.5612109 0.23089068 0.245617
000080 d0 bd 19 3d 4e 83 20 bf db 40 08 3f 1f ae 86 bd
       0.037534535 -0.62700355 0.5322396 -0.0657618
000090 57 96 10 3f 3c 37 98 3d 1c be c7 3d 14 22 07 3e
       0.564794 0.0743241 0.09753057 0.13196594
0000a0 32 67 6e 3e 2e ed 1b 3c 11 c5 a2 bd 1c d3 ec bd
       0.23281553 0.009516997 -0.07947744 -0.115637034
0000b0 5c d4 48 3e e4 89 87 3e 38 64 d0 3c 94 be 6d 3e
       0.19612259 0.2647239 0.025438413 0.23217231
0000c0 29 08 cb 3d e7 6d f8 3d fd db 22 3f 3c 0a ef 3d
       0.09913666 0.12130337 0.63616925 0.11671874
0000d0 8d 0f 9a 3e c8 91 36 bf a0 21 fb 3b 85 7d 13 3d
       0.3008999 -0.71316195 0.0076639205 0.036008377
0000e0 de 16 db bc bc ba 13 3f c8 e4 81 bb 00 f8 be 3a
       -0.026744302 0.5770681 -0.0039640404 0.0014569759
0000f0 80 f4 eb 3d cc 1c bb bf 0a bf 8f bd 44 e8 71 3d
       0.11521244 -1.4618163 -0.0701886 0.059059396
000100 41 b8 3d 3e d0 81 bd bd 45 87 73 3e 40 7a b7 bb
       0.18527319 -0.092532754 0.2378207 -0.00559929
000110 51 0a 28 3f 4d 5c a6 3c a6 12 ab 39 08 d7 f6 3d
       0.6564074 0.020307684 0.00032629556 0.12052733
000120 e0 54 b1 bc 99 5f 9c bd 3f ba 81 3e fb b3 3d 3e
       -0.021646917 -0.07635421 0.25337407 0.18525688
000130 34 13 c9 3c 1b 2f 47 be 62 54 74 bf 65 80 01 bf
       0.02454529 -0.19451563 -0.9544126 -0.5058654
000140 b1 ee d2 3e fc 4a 75 3d ea 2b e3 be f6 c7 24 3f
       0.41197732 0.059885964 -0.4436944 0.64367616
000150 1a 36 97 3e e6 bc 56 bd ce 95 0a 3e 4f cc 9e bd
       0.29533464 -0.05242624 0.13533708 -0.077538125
000160 de 10 0f 3d 24 aa ce bd 6a ab e9 3d f0 29 0b 3c
       0.034928195 -0.100910455 0.11409648 0.008493885
000170 11 1d 0a 3e e9 55 ae be 17 d7 47 3e 07 2a 40 3e
       0.1348765 -0.3404992 0.19515644 0.18766032
000180 32 5a 90 3d ee 0b 56 bf 0d 40 09 3f 38 48 98 3d
       0.070484534 -0.83611953 0.5361336 0.0743565
000190 cd c6 73 be 20 2f ad bb 92 22 ad 3d c9 be 1d 3e
       -0.23806305 -0.0052851588 0.084538594 0.1540481
0001a0 16 56 9c bd 40 72 61 3b 6a e5 17 bd 78 d3 ac 3d
       -0.07633607 0.0034400374 -0.03708402 0.08438772
0001b0 bd 36 f8 3d 19 a4 53 3e 8a 52 e3 bd 8f 6e 40 3e
       0.121198155 0.20668067 -0.110997275 0.18792175
0001c0 2e 47 f1 3d be dd 82 3e 4a 4c 19 3f 50 f6 72 bc
       0.117811546 0.255598 0.5988203 -0.014829233
0001d0 ef 62 fe 3d 2e 52 d0 be e8 1d 1e bd 10 00 e6 bc
       0.12421214 -0.40687698 -0.03860274 -0.028076202
0001e0 55 23 70 3d a6 8f bf 3e 6d 43 03 bd d0 c1 8a 3d
       0.058627445 0.37414283 -0.032046724 0.06775248
0001f0 4d 91 aa bd 17 26 2c bf 64 25 5b bd c6 90 cc 3d
       -0.08328495 -0.6724562 -0.053502455 0.09988551
000200 47 e7 83 3e d0 f6 13 3d 8a 7b b5 3e e0 40 89 bb
       0.25762388 0.03612405 0.35445815 -0.004188642
000210 c4 6b 1f 3f 1b 28 49 bd b1 ec 9e bd 30 83 e0 bc
       0.6227381 -0.049110513 -0.07759989 -0.027406305
000220 34 2c 23 bd 57 94 23 bd 08 d6 35 be 19 e9 93 3e
       -0.039837077 -0.03993639 -0.17757428 0.28888777
000230 6f 9a 98 bc 09 c6 57 be 80 13 66 bf 08 86 e7 be
       -0.018628327 -0.21071638 -0.89873505 -0.45219445
000240 e5 47 be 3e 44 69 66 bd 4f f0 99 be 10 52 1c 3f
       0.37164226 -0.056252733 -0.30066153 0.6106272
000250 e3 52 ad 3e a6 e1 02 3d 63 7f 2f bd 5c 48 f3 bc
       0.338523 0.031953476 -0.042846095 -0.02969759
000260 8c 10 01 be 2e c4 ec bd 46 ff f1 3d e8 c9 ac 3c
       -0.12603968 -0.11560856 0.11816268 0.02109237
000270 41 ab 05 3d cb 07 c7 be bb 56 a5 3e 68 e8 10 3e
       0.032634024 -0.38873133 0.32292733 0.14151156
000280 ee bf c8 bd 85 80 4b bf 0f 5c 1b 3f 2e ee d9 bd
       -0.09802233 -0.7949298 0.60687345 -0.10641132
000290 31 9a 31 3e 0d 5c b6 bd 80 7c 7b bb 30 93 0a bd
       0.17343976 -0.08904276 -0.0038373768 -0.033831775
0002a0 91 b2 e7 bd e4 61 60 3d 9f 27 07 bc 16 d9 d6 bd
       -0.11313356 0.054780856 -0.0082491925 -0.104906246
0002b0 57 c3 d9 3d 79 99 da 3d 4e 24 d0 3d ee 94 25 3d
       0.10632961 0.10673804 0.101631746 0.040425234
0002c0 c9 10 7c 3e a8 a9 07 3e 64 d3 fd 3e 2a 67 d0 3d
       0.24615778 0.13248312 0.4957534 0.10175927
0002d0 d4 a6 4e 3e 32 0a bb be 00 ed ef ba ae c1 b2 bd
       0.20180827 -0.36531216 -0.0018304884 -0.08728348
0002e0 57 be 8b 3e e5 03 c7 3e 5f 53 e6 3d d8 21 82 bd
       0.27293655 0.3887016 0.112463705 -0.063541114
0002f0 d6 77 9b bb 91 ff 67 bf 52 79 75 bd 8e 17 ba 3d
       -0.00474451 -0.9062434 -0.059930153 0.09086524
000300 30 bf 29 3e f6 99 b7 3d 53 eb 96 3e 68 8c 10 3d
       0.16576838 0.089649126 0.29476413 0.03529015
000310 14 30 26 3f 34 14 1c 3e 56 42 3d 3d 40 da a1 bb
       0.6491711 0.15242082 0.04620584 -0.0049393475
000320 d4 38 05 bd bb 34 38 be 12 d4 9d bd 53 dc 35 3d
       -0.0325249 -0.17988865 -0.07706465 0.04439957
000330 27 14 bc 3d e7 a1 8e be 73 5c 51 bf 7f 90 29 bf
       0.09183531 -0.27857897 -0.8178169 -0.6623611
000340 ce 9f d9 3e 9a 4c 87 3d 7e 69 15 bf e1 af 07 3f
       0.42504734 0.066064075 -0.58364093 0.53002745
000350 85 f9 cc 3e a3 c8 9e 3b 19 e3 39 bd 80 b4 8a 3d
       0.40034118 0.004845695 -0.045382593 0.06772709
000360 50 d8 06 3c 2a de 9e 3d 70 93 71 bd 2d 82 ec 3b
       0.008230284 0.07757218 -0.058978498 0.0072176666
000370 d1 4d ab 3d f8 b6 f4 be c4 e5 52 3e b9 9d 89 3e
       0.08364452 -0.47795844 0.20595461 0.26878145
000380 a0 97 ef bc 32 45 34 bf 5c ff 0d 3f e0 13 d2 bc
       -0.029247105 -0.70418084 0.5546777 -0.025644243
000390 3c ba b3 3d 51 9f 9d 3d 40 68 5f bc 0a fe d6 3d
       0.08775756 0.07696403 -0.013635695 0.10497673
0003a0 e4 ef 1f be c4 7d 87 3d 13 7f 9b 3d 20 20 ad bc
       -0.15618855 0.06615785 0.07592597 -0.021133482
0003b0 a8 69 fb bd 57 7b da 3d 94 19 ac bd 9d 48 b6 3a
       -0.12276012 0.106680565 -0.08403316 0.0013907138
0003c0 74 ce 8d 3e 47 6a 54 3e 49 f6 24 3f 3a af ae 3d
       0.27696574 0.20743667 0.644383 0.085295156
0003d0 29 0f 05 3d 22 ef ea be 68 2f c2 bd b8 ac 2e bd
       0.03248516 -0.4588557 -0.09481698 -0.042645186
0003e0 72 62 84 3e 08 30 34 3e f0 87 80 3c 30 ea 27 bd
       0.25856358 0.17596447 0.01568982 -0.040994823
0003f0 c9 51 e7 bd 60 0c 33 bf 7e bb a4 3d 58 f2 80 bd
       -0.11294896 -0.6994076 0.08043574 -0.062962234

fc3.bias f4 [20]
000000 ee 14 d1 3f 5a 98 5d 3f f8 e1 3b 3f e4 f7 33 3f
       1.6334512 0.86560595 0.73391676 0.70300126
000010 d0 b3 25 3f b1 53 ed 3e aa e1 b0 3e ab 2c fa 3e
       0.647275 0.46352914 0.34547168 0.48862204
000020 eb e9 1f 3e 24 56 df 3d 66 4b 94 3e 54 5a fb 3d
       0.15616576 0.10905102 0.28963774 0.12273088
000030 25 45 29 3e 9d 6a 5c 3d de 33 e0 bd a6 fe 88 be
       0.16530283 0.05381261 -0.10947393 -0.2675678
000040 bd 2c 1e be bd 25 21 be a3 4b 3c be bf c2 88 be
       -0.15446754 -0.15737052 -0.18388228 -0.2671108

fc1.weight f4 [64, 3]
000000 81 9f c9 bd 93 0e 90 3e 84 de a4 3e 2e 6c 95 be
       -0.09844876 0.2813612 0.32201016 -0.29184097
000010 6c 5d 13 3f 68 52 a8 3d 95 18 84 be a8 0c 12 bd
       0.57564425 0.08218843 -0.25800005 -0.0356566
000020 ac bd 0d 3d e0 25 5e bd 4c c0 16 be d0 19 80 bd
       0.034604713 -0.05423534 -0.14721793 -0.06254923
000030 4a 3e 0a bf 4c e9 22 bf 87 1b 9b 3e a3 40 45 3e
       -0.54001296 -0.6363723 0.3029444 0.19262938
000040 fb 77 98 bd 95 8e 48 3c 79 12 02 3e ad 83 82 3e
       -0.074447595 0.012241025 0.1270236 0.25491086
000050 ad 18 3f be 9f 00 49 be f4 ac 1f be df dd d9 3c
       -0.18661757 -0.19629143 -0.1559332 0.026595054
000060 12 c7 fe 3e 2f 3e ef 3e fb fd ac 3d 82 7e e3 be
       0.49761254 0.4672713 0.084468804 -0.44432455
000070 4b a8 2d 3d 8d ac 06 3d 35 09 5c bd 52 8c c6 3d
       0.042396825 0.0328794 -0.053719718 0.09694733
000080 56 86 ce be 04 72 d8 3b 88 64 13 bf 26 d9 b0 3d
       -0.40336865 0.0066053886 -0.57575274 0.08635168
000090 89 d8 51 be d4 cd 02 be 91 93 f2 3c b5 ff 08 3f
       -0.20492758 -0.1277383 0.02961138 0.5351518
0000a0 dc 0a 6c be d0 86 ec 3c 06 1a 32 3e 32 04 a8 3d
       -0.23051018 0.028872877 0.1739274 0.08203925
0000b0 8d 41 a6 bc 61 6f 60 be 0a ed bd 3e d5 99 73 3e
       -0.020294929 -0.21917488 0.3709491 0.23789151
0000c0 4c 26 10 bf f6 80 f0 3d 3e 80 0b 3e 30 d1 40 3e
       -0.56308436 0.11743347 0.1362314 0.18829799
0000d0 ee c7 65 3e 80 37 5b be ad c5 9c 3e 54 34 4e bd
       0.22439548 -0.2140789 0.30619565 -0.050342873
0000e0 e5 c6 fd bc 85 23 80 3b 7f 34 e9 3e 0e 69 16 37
       -0.03097863 0.0039104843 0.45547864 8.965157e-06
0000f0 5a 97 b4 be eb 7d 13 bf f0 28 8a be 4d de f7 3b
       -0.35271722 -0.5761401 -0.26984358 0.007564342
000100 12 63 03 3e 0d b7 71 3c 7e dd f7 3d fb b6 11 3f
       0.12830761 0.014753115 0.12102793 0.5691983
000110 78 5d ca 3d f5 de be 3e 40 26 ca be 95 50 cf 3e
       0.09881109 0.37279478 -0.39482307 0.40491167
000120 90 29 b1 bd f8 ea 39 be 58 ad 32 3c 7b b1 8d be
       -0.086505055 -0.1815604 0.010905586 -0.2767447
000130 ae 49 7a be bc d1 11 bf ad 94 cc bd eb 7e e4 bd
       -0.24442169 -0.56960654 -0.09989295 -0.1115702
000140 34 67 92 3c 5e ca 0c 3f cd b9 0e be 51 ab 84 3a
       0.017871477 0.5499629 -0.13938065 0.0010121857
000150 c2 43 00 be dd fd ed bd 6a 92 f5 3d d7 88 31 bc
       -0.12525848 -0.11620686 0.11990817 -0.010835848
000160 76 5c 09 bf 35 21 10 3e 7f cb 03 bf 0f 54 60 3e
       -0.5365671 0.14075167 -0.51482385 0.21907066
000170 e5 93 ab 3d f6 b1 39 3e ba 24 f9 be f1 02 73 3d
       0.08377818 0.18134293 -0.48660833 0.059328977
000180 05 04 17 be e7 a0 df 3e 1d 71 67 3d ad bd fe bd
       -0.14747627 0.43677446 0.056504358 -0.124385215
000190 c9 f8 e7 be 6b 4f c7 3e 40 a3 34 3e 57 20 a4 be
       -0.45306996 0.3892778 0.176404 -0.32055923
0001a0 45 0a 82 be 86 8c b4 be f6 20 61 be b6 b7 68 be
       -0.2539846 -0.3526346 -0.2198523 -0.2272633
0001b0 3a 84 68 3e 33 ac 19 3e a1 ff af bc 65 2f 6e 3e
       0.2270669 0.15007095 -0.021484198 0.23260267
0001c0 00 b0 7e 3a b0 9b 6b be 70 05 90 be 21 0c 3e be
       0.0009715557 -0.23008609 -0.28129148 -0.18559314
0001d0 31 c1 2b 3e 8a 43 2d be 29 47 9c 3e ee a5 1e 3e
       0.16772915 -0.16920295 0.3052304 0.15492985
0001e0 7f d9 66 be 7b 4e a6 be 5a 0e 41 3e c8 53 3a 3e
       -0.22543906 -0.3248175 0.18853131 0.18196023
0001f0 25 86 d3 3e 9c 78 b2 bc 76 34 ad 3e 6b fc 35 3d
       0.41313282 -0.021786027 0.33829087 0.044430178
000200 14 08 3e bd 3a 6d a1 3e 5f ea b0 3e a6 fc 4b 3e
       -0.046394423 0.31528646 0.3455381 0.19920596
000210 1c 96 7b 3e 6a 72 80 bd e3 f4 69 3c b5 7d 32 be
       0.24568981 -0.06271823 0.014279577 -0.17430766
000220 9d cb a5 3e 07 ed 14 3d 48 db e7 3e 05 14 97 be
       0.32381907 0.03635886 0.45284486 -0.2950746
000230 8f 1c e4 be 3b d6 33 be 20 08 b0 3e ef 79 15 3e
       -0.44553038 -0.17562191 0.343812 0.14597295
000240 60 16 fc 3d 7f 12 02 3d b5 f1 68 bc 76 36 56 3e
       0.12308955 0.03175592 -0.014217784 0.20919213
000250 b5 a7 82 3e f8 64 95 be 80 c9 e8 3c f1 03 bd be
       0.25518575 -0.29178596 0.028416395 -0.3691707
000260 60 e7 fd bc 8d 7b d3 be aa 75 13 be f3 ba 05 bf
       -0.030994117 -0.413052 -0.14400354 -0.52238387
000270 b0 ec b8 be 9c a1 d9 be 8b bf 83 3e 07 78 cb bd
       -0.36118078 -0.4250611 0.25732073 -0.09935003
000280 95 14 ed 3e e4 38 07 3b af 33 04 3f 3d 75 6d 3e
       0.46304765 0.0020633275 0.5164136 0.23189254
000290 72 a2 8b 3e 2d b1 0b 3e 0c 47 e6 3d 68 ff a1 bc
       0.27272373 0.13641806 0.1124402 -0.019775108
0002a0 ea 6c 19 3d 74 a6 8e 3e 47 9c b3 be e9 cb 2f 3f
       0.037457384 0.2786137 -0.35080168 0.6867052
0002b0 6b 25 1b 3e 78 56 e3 3e 90 73 13 3d cc 75 c7 bd
       0.15150993 0.44401908 0.03599888 -0.09739265
0002c0 9e 1a 36 be 91 95 ec be 01 0d fa be 97 df bd 3e
       -0.17783591 -0.4620786 -0.48838046 0.37084648
0002d0 05 86 e6 3d 35 2c 7d be c3 31 9e 3c e6 87 06 bf
       0.11256031 -0.24723895 0.019310838 -0.52551115
0002e0 52 21 01 bf de b3 35 be 15 f5 b6 3e ea f8 e0 3b
       -0.5044147 -0.17744395 0.35733858 0.0068656104
0002f0 9d 0e bf bc 25 a9 9b 3e b4 1e 97 3e 09 62 11 bc
       -0.023322398 0.30402485 0.29515612 -0.008873471

fc1.bias f4 [64]
000000 16 bc c3 3f 4c 5f 5e 40 17 f0 81 40 77 2c ae be
       1.5291774 3.4745665 4.060558 -0.340183
000010 12 c4 44 c0 74 f9 56 40 f3 35 84 40 f7 d7 83 40
       -3.0744672 3.3589754 4.1315856 4.120113
000020 9f 8a 14 c0 f1 34 32 40 77 04 77 40 78 57 12 40
       -2.3209608 2.7844813 3.8596475 2.2865887
000030 2a 5c 5c 40 3d 21 3c 40 d7 d1 4b 40 61 78 4c bf
       3.4431252 2.9395287 3.1846826 -0.79871184
000040 59 b2 24 40 16 37 7b 40 5a 66 18 be d9 83 29 40
       2.5733855 3.9252372 -0.14882794 2.6486723
000050 fe 7a d6 be 15 f1 c2 3f 82 21 07 3f e0 ee 10 c0
       -0.4189071 1.5229822 0.52785504 -2.2645798
000060 36 71 53 40 98 15 b6 bd 0a e5 7c 40 4f 76 3d 40
       3.3037848 -0.088908374 3.9514794 2.960346
000070 5e 5d 62 c0 5d 22 60 40 9d ed 0f 40 f9 e1 36 40
       -3.5369487 3.5020974 2.2488778 2.8575423
000080 3a 05 86 3d dd f3 eb bf 08 4a 04 bf 5f eb 07 3e
       0.06543966 -1.8433796 -0.5167546 0.1327338
000090 5e 54 1e 40 2a 40 3b be 1d b0 56 c0 27 de 38 bf
       2.4738994 -0.18286195 -3.354499 -0.7221398
0000a0 73 7a 07 40 3d 87 5e 40 52 4d ca 3f a2 97 75 bf
       2.1168487 3.4770043 1.5804846 -0.959345
0000b0 85 eb c8 3f 54 c4 2b 40 5f 00 26 40 0e 87 c6 3f
       1.5696875 2.683858 2.5937726 1.5509965
0000c0 dd 95 40 40 f7 cc 62 40 10 7c 5b 3e b4 70 e2 3e
       3.009147 3.54376 0.21434045 0.4422661
0000d0 1d af 54 c0 d0 a0 3d 40 a5 db 8b bf ee 56 6e 40
       -3.323188 2.9629402 -1.0926405 3.7240558
0000e0 11 76 5b 40 6f 57 26 c0 a2 8e 09 bf 26 8e 1d c0
       3.4290812 -2.5990865 -0.53733265 -2.461801
0000f0 9c 86 04 40 00 45 44 bd 1f 64 72 40 13 98 37 40
       2.070716 -0.047917366 3.787361 2.8686569

fc2.weight f4 [64, 64]
000000 29 25 e9 bc 11 0e 59 3e 3b 7e a7 3f cc 43 47 3d
       -0.028460102 0.21196772 1.3085397 0.04864864
000010 90 48 74 bd f7 92 1b 3e 08 8e 93 be 56 53 d2 3f
       -0.059639513 0.15192781 -0.288193 1.6431682
000020 9f c6 fc bd 50 fe 82 3d cc f5 a6 3e 2b 01 b7 3c
       -0.123425715 0.063961625 0.32609403 0.022339424
000030 13 5c f2 3e a6 6f f0 3e 32 01 cf 3e a2 4a fb 3d
       0.47335872 0.4696018 0.404306 0.122700945
000040 e1 8b 6f 3d 59 f9 2c bd 56 8e e7 3d f7 2b 1b 3e
       0.05848301 -0.042229984 0.11306445 0.1515349
000050 00 d9 20 3a 38 8b 0c 3e d7 07 07 3e d4 d3 d9 3d
       0.0006135851 0.13724983 0.13186584 0.10636106
000060 e7 67 a0 3e b2 83 8b 3d 53 a6 6c 3f 8f bd 22 3f
       0.3132927 0.06812228 0.9244129 0.63570493
000070 d6 1b 02 be 84 f6 ba 3e a6 59 07 3c 3e de 27 3d
       -0.12705931 0.36516201 0.00826112 0.04098343
000080 71 45 ee 3d b1 cf 06 3e da 31 15 3c 42 1c c4 bd
       0.11634339 0.13165165 0.009106124 -0.09575702
000090 aa 65 c1 bd f0 22 64 3c 09 e0 b6 be 05 69 f4 b9
       -0.09443219 0.013924345 -0.357178 -0.00046617552
0000a0 32 21 49 3d 83 e6 a7 3e 96 dd 5a be 2f 61 68 3d
       0.049103923 0.32793054 -0.21373591 0.056733306
0000b0 ce 30 16 bc 34 8c a5 3e 2a 77 35 3f b8 4f 2c 3e
       -0.009166909 0.3233353 0.70884955 0.16827285
0000c0 ca fe 20 3f 7c 1e 88 bc f7 b5 d3 bd c8 75 2c 3d
       0.6288878 -0.016616099 -0.103374414 0.042104512
0000d0 8b d4 c7 bd b4 21 8b 3e 67 e5 a0 3d f3 cf d6 3e
       -0.09757336 0.2717415 0.07856255 0.41955528
0000e0 9a a6 bb bd 4f 03 6f bd 07 d2 dc 3d 6b e7 de bc
       -0.09162636 -0.058352765 0.10782247 -0.027209958
0000f0 1a 31 77 3a c0 4f 85 bb 5d fa 30 3f 5a ed 13 3e
       0.0009429619 -0.004068345 0.69132024 0.14446011
000100 24 66 e7 bd aa 8b 89 bd 40 5f a6 3d 00 ef 5f 3d
       -0.11298779 -0.06716092 0.08123636 0.054671288
000110 2c 08 f4 bd 00 47 a9 bd 24 f8 21 3d 60 f1 b9 3d
       -0.11915621 -0.08265495 0.039543286 0.09079242
000120 e2 24 d7 bd 3c 5a 56 3d 6c 97 1b 3d 00 73 4d bd
       -0.10505082 0.052332148 0.037986204 -0.0501585
000130 c8 25 8b 3c 98 69 38 bd 12 48 a4 bd 72 28 bf bd
       0.016985789 -0.045022577 -0.08021559 -0.09333886
000140 b0 da e8 3d 7a c7 a9 bd df ca 49 bd 90 3a 5c 3c
       0.11369836 -0.0829 -0.04926574 0.013441697
000150 da 24 b0 bd 60 8f d8 bd ea 2f eb 3d 92 74 ed bd
       -0.08600779 -0.105742216 0.11483748 -0.115945
000160 1a 27 9b bd 3c 5b b8 3d d6 6f f7 3d 06 5c df bd
       -0.075758174 0.090017766 0.12081878 -0.10906224
000170 28 7f bf bc c0 36 53 3b 80 47 81 bc d8 c8 12 bd
       -0.023376063 0.0032228678 -0.015781164 -0.03583607
000180 bc 63 cb bd 4a 18 d6 3d f8 5f db 3c 5c c7 ff 3c
       -0.09931132 0.104538515 0.02677916 0.031222992
000190 3a 7e 97 3d f0 a8 c6 3c a8 3a 13 bd 98 98 49 bd
       0.07397123 0.024250478 -0.03594461 -0.04921779
0001a0 c0 8e 68 bb 40 a8 05 bd 40 f4 6b 3c 88 7f 8b bc
       -0.0035485476 -0.03263116 0.014401495 -0.017028585
0001b0 e6 8e 80 3d 20 2c af bd 42 ea fe 3d a0 97 46 3d
       0.06277256 -0.08553338 0.12447025 0.048484445
0001c0 78 d2 67 bc 20 69 53 bd c8 55 d9 bc aa d3 b8 bd
       -0.014149301 -0.051613927 -0.026530161 -0.09024747
0001d0 e0 0b a3 bc 60 4e f3 3c 20 3a e7 3d 54 fe 0f bd
       -0.019903123 0.029700458 0.11290383 -0.035154656
0001e0 38 96 d9 bc 0c 47 46 bd c8 50 b4 3d 60 d5 47 bc
       -0.026560888 -0.0484076 0.0880447 -0.012196869
0001f0 72 0a ff bd d4 77 04 3d e8 9b 81 bc d8 94 af bd
       -0.12453164 0.03234084 -0.015821412 -0.085733116
000200 b8 a0 05 3e 2e af cb 3e b7 10 58 3f 84 f3 98 bd
       0.1304959 0.3978209 0.84400505 -0.07468322
000210 61 15 7e bd bf 46 6c 3e 0c 70 56 bf 82 4a 99 3f
       -0.062032107 0.23073862 -0.8376472 1.1975863
000220 1e 22 64 bd 60 69 a2 bd 10 02 91 3e eb e9 1b bc
       -0.0556966 -0.07930255 0.28321886 -0.00951622
000230 20 ae e9 3e 5d 45 8a 3d 65 92 9c 3e f9 f3 cf 3d
       0.4564066 0.06751511 0.3058044 0.10153956
000240 d4 3c 1c 3e 3e 6d 03 bf 30 43 03 bd 45 70 5b 3e
       0.15257579 -0.51338565 -0.032046497 0.21429546
000250 68 27 3d 3d ed 12 98 3d 04 a4 84 3d cd 64 38 3d
       0.04618016 0.07425485 0.06476596 0.045018006
000260 7c 12 8a 3e 4c d5 20 bd 90 c5 5e 3f 03 3a 40 3d
       0.26967227 -0.039265916 0.87020206 0.046930324
000270 66 a7 27 be 9c ea e4 3e 61 dc 1b 3e e5 40 f6 3d
       -0.16372451 0.44710243 0.15220787 0.120240964
000280 4e f7 a1 3c c2 5c e8 3d 88 8c b9 3c 00 44 4e 3a
       0.019771244 0.11345817 0.022650018 0.0007868409
000290 88 83 3d be 70 b5 e5 bc 32 6e 9f be a3 43 12 3e
       -0.18507206 -0.028040618 -0.3113876 0.14283614
0002a0 49 2a 49 3d 04 19 96 3e aa 2d 0e be 76 5d 0f bc
       0.049112592 0.2931596 -0.13884607 -0.00875031
0002b0 26 e1 34 bd 3f 36 08 3f f8 e7 52 3f 4e 6e 56 bd
       -0.04416003 0.5320777 0.82385206 -0.05235129
0002c0 68 46 6a 3e 08 8f ce bd da b1 9e bd bc d6 f4 bd
       0.2287842 -0.10085875 -0.07748766 -0.1195502
0002d0 34 cf 1f be aa 37 be 3e 9c 57 05 3e 7a 74 52 3e
       -0.15606385 0.37151843 0.13021702 0.20552245
0002e0 0c e1 d4 be be f8 db 3c f8 6f bb 3d 53 7b 0a be
       -0.41577947 0.026852008 0.09152216 -0.13523607
0002f0 98 08 0d bd 80 cd 38 3b f7 9a aa 3e ec 5c 7c 3e
       -0.034432024 0.002819866 0.33321354 0.24644822
000300 52 84 af bd b8 0d 97 bd b4 52 c4 bd e0 18 44 3c
       -0.0857016 -0.073756635 -0.09586087 0.011968821
000310 f0 65 8a bc 2e d4 f7 3d ac f5 bc 3d e8 80 18 bd
       -0.01689431 0.12101017 0.09226546 -0.03723231
000320 70 6d 9c bd 00 c6 af 3c 19 f8 d5 bc 78 d6 f3 bc
       -0.07638061 0.021456718 -0.026119279 -0.029765353
000330 20 df ed 3b 30 00 33 3c 20 27 51 bd 53 fe 7d 3d
       0.0072592646 0.010925338 -0.051062703 0.06201012
000340 49 b8 fb bc 70 f0 1b 3c c5 14 f7 bc 52 37 ab 3d
       -0.030727522 0.009517774 -0.03016127 0.08360161
000350 18 18 65 bd d0 36 b8 bc 54 80 0e bd 88 17 bd bd
       -0.05593118 -0.022487074 -0.034790352 -0.09233004
000360 18 6f ce 3d 22 e4 8f 3d 6a 36 82 3d 00 88 14 b9
       0.10079783 0.07025935 0.06358035 -0.00014165044
000370 3c 8d a8 3d c0 e4 12 bb 88 58 ca 3d 6c 6f aa 3d
       0.08230063 -0.0022414178 0.09880167 0.08322033
000380 f8 3b cf 3c 92 cd ea 3d c0 f4 6a 3d b2 f4 fc bc
       0.02529715 0.11464991 0.057362318 -0.030878399
000390 80 3b 46 3c f4 1e 78 3d 80 d0 cc 3d 30 f7 7d bd
       0.012099147 0.060576394 0.10000706 -0.062003314
0003a0 48 99 96 3d 70 bf f1 bc f9 0e 93 3c 58 10 9e 3d
       0.07353455 -0.02951023 0.017951475 0.07717961
0003b0 38 1f 21 3d 54 df 52 bd a0 20 4b 3d ec 8d fc bd
       0.039336413 -0.051482514 0.04959166 -0.12331757
0003c0 50 d7 2e bc a6 9e e7 bd 76 33 b1 bd 50 8f ee 3d
       -0.010671452 -0.11309557 -0.086523935 0.116484284
0003d0 9e 95 db 3c 98 af 04 bd d0 51 b1 bd 3c d4 07 bd
       0.026804741 -0.03239402 -0.086581826 -0.033161387
0003e0 10 70 b6 bc 04 ba 2e bd 00 82 d2 bd f8 7e d9 3c
       -0.022270232 -0.042657867 -0.10278702 0.026549801
0003f0 ac 57 57 3d 80 ef 0f bc 6c c9 d0 bd 0a c6 b9 bd
       0.052573845 -0.008785129 -0.10194668 -0.09070976

fc2.bias f4 [64]
000000 42 0a eb 3f d0 b9 37 bd c2 20 c8 3f 34 c0 ec bd
       1.8362505 -0.04485494 1.5634997 -0.11560097
000010 fc 59 07 40 4d 18 53 3f 1c f8 8e bd 96 94 c9 3d
       2.1148672 0.82458955 -0.06980917 0.09842794
000020 93 a3 2d 3c 5f 10 5d 3d 80 02 8d 3f d0 4e cf 3f
       0.010598081 0.05397069 1.1016388 1.6195927
000030 56 78 fb 3c b1 59 b0 3e 55 ca 0c 40 0f 6d d4 3f
       0.03069703 0.3444343 2.1998494 1.6595782
000040 a9 73 0a 40 ed a7 2b bd e6 af fd bf 14 c1 0d 40
       2.1633093 -0.041908193 -1.9819305 2.2149096
000050 f3 db 0a 40 14 9c 8f 3d 1e d4 0b 3c ed 35 a2 bd
       2.1696746 0.070121914 0.008534459 -0.07920442
000060 92 74 bc 3c 6b d4 e1 bd fd 40 b5 3d 62 e4 01 be
       0.023004804 -0.11026844 0.08850286 -0.12684777
000070 88 54 4b bd 9d ac da bf 85 4a d0 3f e1 30 c4 3f
       -0.049641162 -1.7083927 1.6272742 1.5327417
000080 86 7b aa bd c8 18 01 40 79 35 0d 40 a4 ed da 3d
       -0.083243415 2.0171375 2.2063887 0.106898576
000090 ef 1b 07 3f 52 a6 8c 3c 9a 9a 84 bd df 39 61 3f
       0.52777 0.017169151 -0.064748004 0.8797893
0000a0 d7 35 8c 3f 1a 83 65 39 18 f6 80 3d 32 14 46 bd
       1.0953931 0.00021887981 0.06296939 -0.048359104
0000b0 c2 6c bc 3f f1 9b d0 3f 78 57 27 3d f8 1d 6f 3f
       1.472069 1.629759 0.0408549 0.93405104
0000c0 0a 39 8e 3f 99 37 9b 3f 5e a8 0f 40 56 3b 88 bd
       1.1111157 1.2126342 2.2446513 -0.066519424
0000d0 2a fc ce 3f 91 91 00 c0 49 71 00 bd b3 02 97 3d
       1.6170704 -2.0088847 -0.031358037 0.07373562
0000e0 7c af 7a 3e cb 8d ee 3f dd 27 51 bc 38 a1 53 bd
       0.24481004 1.8637022 -0.012765852 -0.051667422
0000f0 15 d8 95 3f dc 8b cf 3f 6d e9 65 3d 9c 76 eb bd
       1.1706568 1.6214557 0.056130815 -0.11497232

fc3.weight f4 [20, 64]
000000 a6 1e bb 3e dc f3 a3 3d 4c aa 68 3e 94 1d 47 bd
       0.3654682 0.08005497 0.22721213 -0.048612192
000010 13 46 09 3f 78 3f cc bd c1 96 1c 3d e3 3a 45 3d
       0.5362255 -0.09973043 0.038229708 0.048151862
000020 e2 a4 d7 3d 03 a1 31 bd 11 ac 75 3d 2a da 92 3e
       0.10529496 -0.043366443 0.05997855 0.2868207
000030 9f 33 41 bd c7 79 a8 be 24 8a ba bf 84 2f a5 be
       -0.04716837 -0.3290541 -1.4573407 -0.32262814
000040 0f a3 02 3f 34 e1 3a 3d 01 c8 f2 be 45 37 6c 3f
       0.5103006 0.045624927 -0.47418216 0.92271835
000050 22 92 ce 3e f9 db 53 3d 62 e3 92 bd 40 d6 52 bd
       0.40345865 0.051723454 -0.07172276 -0.051473856
000060 50 f8 37 3d 98 63 d0 bd c2 90 97 bd 34 73 59 bd
       0.044914544 -0.10175246 -0.07400657 -0.053088382
000070 d9 1d fc 3d a7 9a 0d bf d1 56 6c 3e c8 f3 7c 3e
       0.123103805 -0.55314106 0.23079993 0.2470237
000080 ee bd 19 3d cb 5f 26 bf 43 cb 06 3f f5 ae 86 bd
       0.037534647 -0.6498992 0.526539 -0.06576339
000090 f8 b8 08 3f 4d 37 98 3d 1c be c7 3d 7d 84 11 3e
       0.5340724 0.07432423 0.09753057 0.14210697
0000a0 69 53 c7 3d e9 6b 12 3c 75 c6 a2 bd bc d3 ec bd
       0.09732706 0.008936861 -0.07948009 -0.115638226
0000b0 ea 6a 73 3e 1e 56 89 3e 38 64 d0 3c 8f 3a 32 3e
       0.23771253 0.26823515 0.025438413 0.17405151
0000c0 5b ff d3 3d 02 b7 06 3e 30 9f 21 3f 3c 0a ef 3d
       0.103514396 0.1315575 0.63133526 0.11671874
0000d0 92 cc 9a 3e e0 b9 34 bf a0 21 fb 3b 8c 81 13 3d
       0.302342 -0.7059612 0.0076639205 0.036012217
0000e0 f2 27 da bc 7f de 13 3f a3 f4 81 bb 00 f8 be 3a
       -0.026630376 0.5776138 -0.0039659305 0.0014569759
0000f0 31 30 0e 3e f9 65 be bf 35 c3 8f bd 89 e8 71 3d
       0.13885571 -1.487487 -0.07019655 0.059059653
000100 67 fc 40 3e 4c 82 bd bd 50 19 7b 3e 40 7a b7 bb
       0.18846284 -0.09253368 0.24521375 -0.00559929
000110 d4 e7 28 3f d1 27 d5 bd d8 ec ab 3b 08 d7 f6 3d
       0.6597874 -0.10407985 0.00524674 0.12052733
000120 12 55 b1 bc 20 74 9c bd e9 12 36 3e b6 d5 35 3e
       -0.02164701 -0.076393366 0.17780651 0.17757306
000130 46 13 c9 3c ac 09 45 be 4d ef 77 bf 77 1a 06 bf
       0.024545323 -0.19241971 -0.9684952 -0.5238413
000140 cc 2d d7 3e bb 4b 75 3d 9b 21 ca be 89 21 20 3f
       0.42027128 0.059886675 -0.39478764 0.6255117
000150 ab ed 96 3e e0 b5 56 bd cf 6d 0a 3e d1 ce 9e bd
       0.294782 -0.052419543 0.13518451 -0.07754291
000160 85 0f 0f 3d 24 aa ce bd 6a ab e9 3d f0 29 0b 3c
       0.03492691 -0.100910455 0.11409648 0.008493885
000170 f9 19 0a 3e 5f 6e 8a be e9 91 51 3e 43 7f 3e 3e
       0.1348647 -0.2703733 0.20465817 0.18603234
000180 32 5a 90 3d ee 0f 57 bf 54 03 0a 3f ed 46 98 3d
       0.070484534 -0.8400868 0.5391133 0.07435403
000190 77 f4 33 be 20 2f ad bb d7 22 ad 3d e0 ba fe 3d
       -0.17573725 -0.0052851588 0.08453911 0.12437987
0001a0 ff 25 69 bd 40 72 61 3b 2c e9 17 bd 78 d3 ac 3d
       -0.056921 0.0034400374 -0.037087604 0.08438772
0001b0 ec f9 8c 3d 9c a9 5a 3e 8a 52 e3 bd d8 c7 3a 3e
       0.06883606 0.21353763 -0.110997275 0.18240297
0001c0 33 7b 0c 3e e6 98 7b 3e 8c 73 19 3f 50 f6 72 bc
       0.13718872 0.24570045 0.59941936 -0.014829233
0001d0 f2 b8 06 3e 77 ea b6 be e8 1d 1e bd 10 00 e6 bc
       0.13156489 -0.35725757 -0.03860274 -0.028076202
0001e0 e8 e6 6e 3d 84 e7 bd 3e f2 43 03 bd f2 c1 8a 3d
       0.058325678 0.37090695 -0.03204722 0.067752734
0001f0 ce 0e 5a bd 46 f7 2e bf 3c 28 5b bd c6 90 cc 3d
       -0.053236775 -0.6834606 -0.053505167 0.09988551
000200 c1 cc 80 3e d0 f6 13 3d 9d 36 b3 3e e0 40 89 bb
       0.25156215 0.03612405 0.35002604 -0.004188642
000210 36 b4 1e 3f 9f 20 ab bd 12 ee 9e bd 5a 83 e0 bc
       0.6199373 -0.08355831 -0.07760252 -0.027406383
000220 34 2c 23 bd bb 8e 23 bd 2e 96 08 be 26 9d 88 3e
       -0.039837077 -0.03993104 -0.13338539 0.26682395
000230 dc 9c 98 bc e0 7c 4b be 96 0a 67 bf 5c f6 f5 be
       -0.018629484 -0.19871855 -0.9025053 -0.4803952
000240 f6 ca bc 3e 44 69 66 bd 90 a4 a1 be 72 c6 1b 3f
       0.36873597 -0.056252733 -0.31570864 0.6084968
000250 b3 35 a9 3e e0 da 02 3d 95 7a 2f bd 01 4c f3 bc
       0.33048782 0.031947017 -0.042841513 -0.029699327
000260 89 0d 01 be 2e c4 ec bd f9 ff f1 3d e8 c9 ac 3c
       -0.1260282 -0.11560856 0.11816401 0.02109237
000270 3d a9 05 3d 9d 4a d5 be 4a 31 a2 3e 42 f9 07 3e
       0.0326321 -0.41658488 0.3167823 0.13278678
000280 ee bf c8 bd 7c 45 4d bf 54 9c 1a 3f d4 eb d9 bd
       -0.09802233 -0.8018415 0.6039479 -0.10640684
000290 10 54 35 3e 3e 5a b6 bd 80 7c 7b bb 00 3d 59 3c
       0.17707849 -0.08903931 -0.0038373768 0.013259172
0002a0 57 7e 02 be e4 61 60 3d 5b 24 07 bc 16 d9 d6 bd
       -0.12743507 0.054780856 -0.008248414 -0.104906246
0002b0 c6 db 88 3d 38 d7 ca 3d 4e 24 d0 3d 70 ff ed 3c
       0.066825435 0.09904331 0.101631746 0.029052466
0002c0 04 53 7a 3e f8 a4 8e 3d 1e 07 fb 3e 2a 67 d0 3d
       0.2444573 0.06965059 0.49028867 0.10175927
0002d0 30 5f 47 3e c2 ff c4 be bc cc ef ba ae c1 b2 bd
       0.19469905 -0.38476378 -0.0018295269 -0.08728348
0002e0 44 68 8b 3e d1 51 c1 3e 8e 57 e6 3d d8 21 82 bd
       0.27227986 0.37757733 0.112471685 -0.063541114
0002f0 6b 12 ea 3c 71 e9 67 bf 9b 7a 75 bd 8e 17 ba 3d
       0.028573235 -0.9059058 -0.05993138 0.09086524
000300 3a fd 24 3e 8f 9a b7 3d d8 af 96 3e 68 8c 10 3d
       0.16112223 0.089650266 0.29431033 0.03529015
000310 dd 06 24 3f aa 1b 6b 3e cb 43 3d 3d 40 da a1 bb
       0.6407297 0.22959772 0.04620723 -0.0049393475
000320 d4 38 05 bd e8 32 38 be 6f 47 9e 3d 39 5d 74 3d
       -0.0325249 -0.17988169 0.077284686 0.059659217
000330 02 17 bc 3d 83 ac 99 be be 34 4d bf d2 ff 27 bf
       0.09184076 -0.30014428 -0.80158603 -0.65624726
000340 9b 66 d6 3e 9a 4c 87 3d 5b 4b 1b bf 4f 11 07 3f
       0.41875157 0.066064075 -0.6066186 0.52760786
000350 0a fb c8 3e 8e e8 9e 3b 9b 30 39 bd 80 b4 8a 3d
       0.39254028 0.0048495 -0.04521237 0.06772709
000360 fc dc 06 3c 73 de 9e 3d 70 93 71 bd a1 8b ec 3b
       0.008231398 0.077572726 -0.058978498 0.0072187935
000370 fc 51 ab 3d 71 87 01 bf 79 dc 54 3e eb e7 89 3e
       0.08365247 -0.5059729 0.20787229 0.26934752
000380 a0 97 ef bc c2 89 31 bf cb 81 0b 3f bb 12 d2 bc
       -0.029247105 -0.69350827 0.54494923 -0.025643697
000390 bf 79 9a 3d 09 a2 9d 3d 40 68 5f bc 31 04 e4 3d
       0.075427525 0.076969214 -0.013635695 0.11133612
0003a0 ae ba f7 bd ff 7d 87 3d 0f 83 9b 3d 20 20 ad bc
       -0.12096153 0.06615829 0.07593357 -0.021133482
0003b0 3d 6f 7f bd 87 27 ee 3d 94 19 ac bd d7 24 d8 bb
       -0.062361944 0.11628633 -0.08403316 -0.0065961885
0003c0 6e 1b 9b 3e 66 fc 84 3e c2 1b 23 3f 3a af ae 3d
       0.30294365 0.25973815 0.6371423 0.085295156
0003d0 6c c1 07 3d 96 81 f8 be 68 2f c2 bd b8 ac 2e bd
       0.033143446 -0.48536366 -0.09481698 -0.042645186
0003e0 b7 2a 84 3e 80 7c 36 3e b8 88 80 3c 30 ea 27 bd
       0.2581384 0.1782093 0.015690193 -0.040994823
0003f0 2b 40 d3 bc 79 56 32 bf 5f be a4 3d 58 f2 80 bd
       -0.025787434 -0.69663197 0.08044123 -0.062962234

fc3.bias f4 [20]
000000 62 03 ca 3f b8 ea 5c 3f 82 0d 3b 3f 94 b6 32 3f
       1.5782282 0.8629565 0.73067486 0.6980984
000010 3a db 26 3f 62 ad e9 3e e4 b7 ae 3e 64 fb f7 3e
       0.65178263 0.45640093 0.34124672 0.48433983
000020 97 51 17 3e c5 27 c2 3d e4 26 90 3e 4b 42 e2 3d
       0.14777218 0.09480242 0.2815467 0.11047801
000030 0a 58 1a 3e fe d5 75 3d 75 88 ea bd c9 1c 8a be
       0.15072647 0.060018532 -0.11451808 -0.26975086
000040 c9 10 1a be a6 ba 19 be f9 0b 41 be 80 c4 86 be
       -0.15045466 -0.15012607 -0.18852223 -0.26321793
