beergame/baseline/models/dqn_agent_firm_1_episode_4000.pth (torch, 101224 bytes, 24 tensors)

fc1.weight f4 [64, 3]
000000 10 78 cb bd 33 24 37 3e 46 3a ab 3e fd b1 8b be
       -0.099350095 0.17884903 0.33442897 -0.27284232
000010 fd 77 f9 3e 86 a2 37 3e 9c 70 e2 be 90 14 93 be
       0.48724356 0.17933092 -0.4422654 -0.28726625
000020 79 9e 25 3d e0 25 5e bd 42 c0 16 be d0 19 80 bd
       0.040434334 -0.05423534 -0.14721778 -0.06254923
000030 86 36 54 bf 9d 1d 30 bf 80 f2 74 3e 72 f5 60 be
       -0.82895696 -0.68795186 0.23920631 -0.2196863
000040 d8 92 a3 be 7f 6d 36 bd bb 91 38 3e 6c e1 49 3e
       -0.3194797 -0.044538017 0.18024342 0.19714898
000050 a0 8b ee bd 7b bf 9b be 96 e0 87 be be 14 68 bb
       -0.11647725 -0.30419526 -0.26538533 -0.0035412754
000060 da d7 02 3f c9 55 e7 3e a4 b0 df 3d 83 33 b7 be
       0.51110613 0.45182636 0.109223634 -0.35781488
000070 5d 69 81 3c fd 56 09 bf a1 6a 27 3d cb f7 8a 3d
       0.015797311 -0.5364836 0.040873174 0.06785544
000080 f2 78 ec be 12 63 24 be 09 52 a8 be d7 8f 64 bd
       -0.46186024 -0.16053417 -0.32875088 -0.05580124
000090 68 23 67 be 23 1c 5e bd 3a c7 a1 bd a6 ec 03 3f
       -0.225721 -0.054226052 -0.078993276 0.5153297
0000a0 98 9d 48 be f6 4c 21 3e 17 e3 ba bd 7a 7f 20 be
       -0.19591367 0.15752015 -0.09125345 -0.15673628
0000b0 23 6e 64 3d 8a 1a 11 be e0 f5 cc 3e d9 ff 8c 3e
       0.055769097 -0.1417028 0.40031338 0.27538946
0000c0 d4 91 99 be fa 2b 6a bd ca d2 18 3e c3 53 60 3e
       -0.2999407 -0.057170846 0.1492416 0.21906953
0000d0 75 b3 0a 3e 5f 1f 19 be ad 02 b8 3e 2a 94 f3 be
       0.1354502 -0.14953373 0.3593954 -0.47573978
0000e0 6c d6 40 be 0c 66 b0 bd 1f 4a 6f 3e 54 1b 8d 3d
       -0.18831795 -0.08613214 0.23368119 0.06889978
0000f0 5a 97 b4 be eb 7d 13 bf f0 28 8a be c2 11 fe be
       -0.35271722 -0.5761401 -0.26984358 -0.49622923
000100 10 01 22 be 00 6f be be e3 db e2 3d 04 44 f0 3e
       -0.15820718 -0.3719406 0.11077096 0.46926892
000110 09 fd f7 3d 9d fe b1 3e ff e0 08 be 75 e9 9c 3e
       0.121088095 0.34764567 -0.13367079 0.30646864
000120 2e 2c f5 be 24 6d 4c be de b1 83 bd 7b b1 8d be
       -0.4788527 -0.19963509 -0.0643041 -0.2767447
000130 ae 49 7a be bc d1 11 bf f1 b6 e5 be 94 62 ac be
       -0.24442169 -0.56960654 -0.44866136 -0.3366896
000140 a8 2d 86 3d 57 84 c5 3e e7 ea 93 be dd 3a dd 3d
       0.06551677 0.3857753 -0.28890154 0.10802243
000150 c7 8a 9f bf 57 22 e1 be c1 4f c5 3d 23 11 c8 3c
       -1.2464226 -0.43971512 0.096343525 0.024422234
000160 19 32 ea be 34 0b 7e 3e fb 7f 9b be fb 95 87 bb
       -0.45741346 0.24808961 -0.3037108 -0.004137752
000170 78 9d 0b 3e 9c dd 96 be 6c 13 3d bf 6b cb 63 bd
       0.13634288 -0.2946595 -0.7385776 -0.055613916
000180 12 6e 6e be f2 eb 49 3e 71 1f 66 be b7 64 ab bd
       -0.23284176 0.19718912 -0.22472931 -0.08368819
000190 46 34 a5 be 63 b1 bc 3e 40 a3 34 3e 57 20 a4 be
       -0.32266444 0.36854085 0.176404 -0.32055923
0001a0 45 0a 82 be 86 8c b4 be f6 20 61 be b6 b7 68 be
       -0.2539846 -0.3526346 -0.2198523 -0.2272633
0001b0 74 c1 54 bd 57 f3 08 bf 14 10 cf bc 2c 2f 6e 3e
       -0.051942304 -0.5349631 -0.025276221 0.23260182
0001c0 00 b0 7e 3a b0 9b 6b be 98 7d a8 bf df 63 7d be
       0.0009715557 -0.23008609 -1.3163328 -0.24745129
0001d0 1b 9e 0b 3e d3 83 b7 bd f3 77 97 3e c1 66 1f 3e
       0.13634531 -0.0896069 0.29583701 0.15566541
0001e0 4f 1e be be 0d 43 5c bf 7b 3c 2e bd f9 20 9d 3d
       -0.371325 -0.8603981 -0.042538147 0.07672305
0001f0 d9 68 64 3e bf 45 96 3d 10 c3 32 3e 45 2f 2c be
       0.22305621 0.07337522 0.17457223 -0.16814907
000200 a4 4a 8e bd b9 3d a6 3e f5 51 a0 3e 87 44 42 3e
       -0.0694783 0.32468966 0.31312528 0.18971454
000210 5d 71 3a be a7 d6 b5 be e9 d8 87 bd 09 0a 7b be
       -0.18207307 -0.3551533 -0.06633169 -0.24515547
000220 7d 59 f6 3d f9 f9 d5 3d 09 74 1e 3e ab 2c 9f be
       0.12028787 0.10448069 0.15473951 -0.31088766
000230 19 1f 43 bf 3d 56 9b be 2a 50 5b 3d f5 b1 31 be
       -0.76219326 -0.30339232 0.053543247 -0.17353041
000240 78 19 6b bd 74 59 49 be ab 37 9a 3d 69 e0 18 3e
       -0.057397336 -0.1966303 0.07530149 0.14929356
000250 ab 14 75 3e 51 00 78 be 80 c9 e8 3c f1 03 bd be
       0.23933665 -0.2421887 0.028416395 -0.3691707
000260 60 e7 fd bc 8d 7b d3 be aa 75 13 be f3 ba 05 bf
       -0.030994117 -0.413052 -0.14400354 -0.52238387
000270 69 14 01 bf 35 df 0e bf c7 b0 fb 3d e8 f6 02 be
       -0.5042177 -0.55809337 0.12289577 -0.127895
000280 4c 25 a8 3e fd 13 c7 3d 9f 90 08 3f e4 65 5b 3e
       0.32840955 0.09720609 0.53345674 0.21425587
000290 36 6a 92 3e 4c 57 39 3d 73 33 2c bd 42 03 a9 3d
       0.28596658 0.04524927 -0.042041253 0.082525745
0002a0 15 f2 d6 3d 84 0d 4f 3e 1d df d7 be 25 c8 3e 3f
       0.10495392 0.2022 -0.4216241 0.74524146
0002b0 27 d3 44 3e ca dd e3 3e 90 73 13 3d cc 75 c7 bd
       0.19221173 0.4450515 0.03599888 -0.09739265
0002c0 9e 1a 36 be 49 72 92 be ba fb 17 bf 5e d2 81 3e
       -0.17783591 -0.28602818 -0.5936848 0.2535581
0002d0 ca 08 f2 3d 51 11 65 be 80 88 17 be 92 87 06 bf
       0.11818083 -0.22369887 -0.14798164 -0.52550614
0002e0 52 21 01 bf de b3 35 be e4 d0 8a 3e 07 3a d0 bd
       -0.5044147 -0.17744395 0.27112496 -0.10167318
0002f0 d0 73 be 3d 8e dd 77 3e 88 ea 40 3e 41 2a d0 3d
       0.09299433 0.2420561 0.18839467 0.10164309

fc1.bias f4 [64]
000000 50 f4 a4 3f 71 1a 55 40 b0 86 7a 40 6b 2c ae be
       1.2887058 3.3297389 3.9144707 -0.34018263
000010 d7 ec 48 c0 fd 13 43 40 9b 7e 8f 40 3a f7 84 40
       -3.1394556 3.048095 4.484205 4.155179
000020 b4 cd 21 c0 28 b9 3b 40 7e 02 80 40 31 16 2b 40
       -2.5281801 2.933176 4.000304 2.6732295
000030 94 3b 55 40 b5 37 36 40 b7 b1 36 40 3e 53 68 bf
       3.3317614 2.84715 2.8545969 -0.9075202
000040 66 3a 17 40 41 9b 85 40 de 56 5c be 6c b9 14 40
       2.3629394 4.175202 -0.21517512 2.3238173
000050 fe 7a d6 be c5 3b a8 3f 0a 76 92 3e d0 2b 1c c0
       -0.4189071 1.314324 0.28605682 -2.440174
000060 ee c5 5f 40 98 15 b6 bd 39 bf 6f 40 a8 fb 2f 40
       3.4964557 -0.088908374 3.7460463 2.7497349
000070 40 be 78 c0 f8 46 3f 40 7e 3a fa 3f c5 28 2d 40
       -3.886612 2.9887066 1.95491 2.7056134
000080 18 da 6b be 41 58 f1 bf 08 4a 04 bf f4 ea 07 3e
       -0.23032415 -1.8855058 -0.5167546 0.13273221
000090 fe a8 27 40 00 40 3b be 44 b0 69 c0 af d4 60 bf
       2.6196895 -0.18286133 -3.6513834 -0.8782453
0000a0 8f 8c ce 3f d4 4b 4e 40 85 cb 04 40 6e 5c 94 bf
       1.6136645 3.2233782 2.0749218 -1.1590707
0000b0 67 f8 de 3f 29 28 1a 40 0c 81 22 40 20 19 9d 3f
       1.7419556 2.4087012 2.5391264 1.2273293
0000c0 5d 7b 2e 40 36 5e 77 40 10 7c 5b 3e b4 70 e2 3e
       2.7262795 3.8651252 0.21434045 0.4422661
0000d0 f1 c4 61 c0 84 99 2f 40 ee 4d a4 bf 59 c9 60 40
       -3.5276453 2.7437449 -1.2836282 3.5122893
0000e0 24 5f 6e 40 cc 5b 30 c0 a2 8e 09 bf cd ba 16 c0
       3.724557 -2.7556028 -0.53733265 -2.3551514
0000f0 fb b8 10 40 00 45 44 bd 05 7e 67 40 d6 c6 2d 40
       2.2612903 -0.047917366 3.6170666 2.715261

fc2.weight f4 [64, 64]
000000 d6 24 13 bd 6b 2f c8 3d 32 a5 95 3f cc 43 47 3d
       -0.0359238 0.09774669 1.1691039 0.04864864
000010 5d 55 f5 bd 84 19 3d be 5d 9d 3e bf 92 b9 ae 3f
       -0.119791724 -0.18466765 -0.7445887 1.3650382
000020 a4 48 45 be bc ad db bc 6c 73 92 3f 37 0c 8f be
       -0.19265991 -0.026816241 1.1441474 -0.27939007
000030 86 3f 94 3e 37 2d 83 3e b7 2d 3d bb be bc 05 3e
       0.28954715 0.25620434 -0.002886636 0.1306028
000040 7a c2 80 bc 74 8a d4 be 72 a4 1b be 99 bf e1 bd
       -0.015717734 -0.4151188 -0.1519945 -0.110228725
000050 00 d9 20 3a a4 54 58 3c 2d 3f 36 3c 62 2a 0d 3e
       0.0006135851 0.013203774 0.011123461 0.13785699
000060 f6 89 10 be b2 83 8b 3d 29 5f 29 3f 36 1d ab 3e
       -0.14115128 0.06812228 0.6616083 0.33420724
000070 be f3 67 be b9 1b a1 3e bb 6e 04 be ba c6 0c be
       -0.22651574 0.31466463 -0.12932865 -0.13747683
000080 71 c6 64 3e 58 27 24 3e 60 31 15 3c 42 1c c4 bd
       0.22341324 0.16030633 0.00910601 -0.09575702
000090 35 27 98 be f0 22 64 3c b3 ac ce be 86 c2 1b bd
       -0.29717413 0.013924345 -0.40366134 -0.03802731
0000a0 17 2f 02 bd 5f 40 32 3d b3 eb 1e bf 8a 1e d8 3a
       -0.03178319 0.04351842 -0.620784 0.0016488594
0000b0 df a0 98 be 58 1e ec 3d 60 97 aa 3e a6 61 c0 3e
       -0.29810235 0.11529225 0.33318615 0.375745
0000c0 02 0c 61 3e 40 bd ae be da b5 d3 bd c8 75 2c 3d
       0.21977237 -0.3412876 -0.1033742 0.042104512
0000d0 75 ab f9 bd 7f 22 fb 3c 9e 06 62 3d 5a 58 ad 3d
       -0.12190906 0.030656097 0.055182092 0.08464117
0000e0 d6 7f b2 be 2c 2f 03 bd da d1 dc 3d 2d ae f3 bc
       -0.34863156 -0.03202741 0.107822135 -0.02974614
0000f0 ee bb 65 be c0 4f 85 bb da c6 bd 3e 31 04 fb bd
       -0.2243497 -0.004068345 0.37065774 -0.12256659
000100 24 66 e7 bd aa 8b 89 bd 40 5f a6 3d 00 ef 5f 3d
       -0.11298779 -0.06716092 0.08123636 0.054671288
000110 2c 08 f4 bd 00 47 a9 bd 24 f8 21 3d 60 f1 b9 3d
       -0.11915621 -0.08265495 0.039543286 0.09079242
000120 a2 24 d7 bd 3c 5a 56 3d 6c 97 1b 3d 00 73 4d bd
       -0.10505034 0.052332148 0.037986204 -0.0501585
000130 c8 25 8b 3c 28 69 38 bd 12 48 a4 bd 72 28 bf bd
       0.016985789 -0.04502216 -0.08021559 -0.09333886
000140 b0 da e8 3d 7a c7 a9 bd 88 ca 49 bd 90 3a 5c 3c
       0.11369836 -0.0829 -0.049265414 0.013441697
000150 da 24 b0 bd 60 8f d8 bd ea 2f eb 3d 92 74 ed bd
       -0.08600779 -0.105742216 0.11483748 -0.115945
000160 1a 27 9b bd 3c 5b b8 3d d6 6f f7 3d 06 5c df bd
       -0.075758174 0.090017766 0.12081878 -0.10906224
000170 28 7f bf bc c0 36 53 3b 80 47 81 bc d8 c8 12 bd
       -0.023376063 0.0032228678 -0.015781164 -0.03583607
000180 bc 63 cb bd 4a 18 d6 3d f8 5f db 3c 40 c7 ff 3c
       -0.09931132 0.104538515 0.02677916 0.03122294
000190 3a 7e 97 3d f0 a8 c6 3c a8 3a 13 bd 98 98 49 bd
       0.07397123 0.024250478 -0.03594461 -0.04921779
0001a0 c0 8e 68 bb 40 a8 05 bd 40 f4 6b 3c 88 7f 8b bc
       -0.0035485476 -0.03263116 0.014401495 -0.017028585
0001b0 e6 8e 80 3d 20 2c af bd 42 ea fe 3d a0 97 46 3d
       0.06277256 -0.08553338 0.12447025 0.048484445
0001c0 10 d2 67 bc 20 69 53 bd c8 55 d9 bc aa d3 b8 bd
       -0.014149204 -0.051613927 -0.026530161 -0.09024747
0001d0 e0 0b a3 bc 60 4e f3 3c 1e 3a e7 3d 54 fe 0f bd
       -0.019903123 0.029700458 0.11290382 -0.035154656
0001e0 38 96 d9 bc 0c 47 46 bd c8 50 b4 3d 60 d5 47 bc
       -0.026560888 -0.0484076 0.0880447 -0.012196869
0001f0 72 0a ff bd d4 77 04 3d e8 9b 81 bc d8 94 af bd
       -0.12453164 0.03234084 -0.015821412 -0.085733116
000200 13 aa 16 3e 93 7d 9b 3e 32 9f 1e 3f 84 f3 98 bd
       0.14713316 0.30369243 0.6196166 -0.07468322
000210 37 29 16 be e5 6f e2 bd f2 c5 7e bf c3 1e 41 3f
       -0.1466416 -0.110564984 -0.9952079 0.75437564
000220 6d c2 b4 3b 62 23 1e be 32 cb 08 3f 32 d2 14 bf
       0.0055163414 -0.15443185 0.5343505 -0.5813323
000230 23 31 7b 3e 25 37 4f bd 80 79 b3 bc 3b b2 09 3e
       0.24530463 -0.0505897 -0.021908522 0.13446896
000240 ae 3f 15 3d ad 6d 11 bf 16 55 a1 bc db 2b 6b 3c
       0.036437683 -0.56807977 -0.019693892 0.014353718
000250 68 27 3d 3d f8 d5 33 bd 95 01 7d 3c bd 49 e3 3d
       0.04618016 -0.04390523 0.015442272 0.11098049
000260 c4 5d 98 be 4c d5 20 bd cc 82 04 3f 2f 60 05 be
       -0.29759037 -0.039265916 0.5176208 -0.13024972
000270 61 2b 90 be 92 82 c4 3e 34 6d b2 bc ef fa 6d be
       -0.28158095 0.38380867 -0.021780588 -0.23240255
000280 8b bc 6b be 8c cc 11 3e 88 8c b9 3c 00 44 4e 3a
       -0.23021142 0.14238185 0.022650018 0.0007868409
000290 c2 71 a8 be 70 b5 e5 bc 1d 4b bc be 07 be fa 3d
       -0.3289929 -0.028040618 -0.36776057 0.12243276
0002a0 f9 60 eb bd e9 b1 df 3d 5d 3a 7f be 6d 04 95 3c
       -0.114931054 0.109226055 -0.24924608 0.018190587
0002b0 90 76 c3 be f6 1d a1 3e 32 e8 3b 3f b7 f2 f8 3b
       -0.38176394 0.3146817 0.73401177 0.0075972932
0002c0 f0 d1 01 be 80 68 19 be da b1 9e bd bc d6 f4 bd
       -0.12677741 -0.1498127 -0.07748766 -0.1195502
0002d0 e7 b0 51 be ce 64 37 3e 53 7d 42 3e ea 75 5f bd
       -0.20477639 0.17909548 0.1899312 -0.05455581
0002e0 1c ef d6 be 3c 1e 0a 3e f8 6f bb 3d 11 55 1c be
       -0.419793 0.13488096 0.09152216 -0.15266825
0002f0 62 95 6f bd 80 cd 38 3b 13 a5 fb 3d c1 74 b8 3d
       -0.058492072 0.002819866 0.12287345 0.09006644
000300 52 84 af bd b8 0d 97 bd b4 52 c4 bd e0 18 44 3c
       -0.0857016 -0.073756635 -0.09586087 0.011968821
000310 f0 65 8a bc 9e d3 f7 3d 80 f5 bc 3d e8 80 18 bd
       -0.01689431 0.1210091 0.09226513 -0.03723231
000320 08 6d 9c bd 00 c6 af 3c 18 f8 d5 bc 78 d6 f3 bc
       -0.076379836 0.021456718 -0.026119277 -0.029765353
000330 20 df ed 3b 30 00 33 3c 20 27 51 bd dc fd 7d 3d
       0.0072592646 0.010925338 -0.051062703 0.062009677
000340 78 b7 fb bc 20 f0 1b 3c b8 14 f7 bc 52 37 ab 3d
       -0.030727133 0.0095176995 -0.030161247 0.08360161
000350 18 18 65 bd d0 36 b8 bc 54 80 0e bd 88 17 bd bd
       -0.05593118 -0.022487074 -0.034790352 -0.09233004
000360 18 6f ce 3d 22 e4 8f 3d 5a 36 82 3d 00 88 14 b9
       0.10079783 0.07025935 0.06358023 -0.00014165044
000370 3c 8d a8 3d c0 e4 12 bb 88 58 ca 3d 40 6f aa 3d
       0.08230063 -0.0022414178 0.09880167 0.083220005
000380 f8 3b cf 3c 92 cd ea 3d c0 f4 6a 3d 90 f4 fc bc
       0.02529715 0.11464991 0.057362318 -0.030878335
000390 80 3b 46 3c f4 1e 78 3d 80 d0 cc 3d 30 f7 7d bd
       0.012099147 0.060576394 0.10000706 -0.062003314
0003a0 48 99 96 3d 70 bf f1 bc b8 0e 93 3c 58 10 9e 3d
       0.07353455 -0.02951023 0.017951354 0.07717961
0003b0 38 1f 21 3d 54 df 52 bd a0 20 4b 3d ec 8d fc bd
       0.039336413 -0.051482514 0.04959166 -0.12331757
0003c0 50 d7 2e bc a6 9e e7 bd 76 33 b1 bd 50 8f ee 3d
       -0.010671452 -0.11309557 -0.086523935 0.116484284
0003d0 e8 94 db 3c 98 af 04 bd d0 51 b1 bd 3c d4 07 bd
       0.026804402 -0.03239402 -0.086581826 -0.033161387
0003e0 10 70 b6 bc 04 ba 2e bd 00 82 d2 bd f8 7e d9 3c
       -0.022270232 -0.042657867 -0.10278702 0.026549801
0003f0 ac 57 57 3d 80 ef 0f bc 6c c9 d0 bd 0a c6 b9 bd
       0.052573845 -0.008785129 -0.10194668 -0.09070976

fc2.bias f4 [64]
000000 06 40 df 3f c8 b9 37 bd 9e 1b bf 3f b4 bf ec bd
       1.7441413 -0.04485491 1.4930303 -0.11560002
000010 0c 22 08 40 4c 34 3f 3f 91 47 95 bd 96 94 c9 3d
       2.127078 0.74689174 -0.07289041 0.09842794
000020 9c f7 c7 bb 97 e7 5c 3d 2b bf 8b 3f 98 a9 de 3f
       -0.0061025154 0.0539318 1.0917715 1.7395506
000030 1e 6d 8c ba eb 19 fc bd 8b c6 05 40 13 01 de 3f
       -0.0010713672 -0.12309631 2.090243 1.7344078
000040 54 c4 0a 40 cb d0 8d bd 65 20 06 c0 a4 18 15 40
       2.168233 -0.0692459 -2.0957272 2.329629
000050 47 4f 09 40 4c 19 49 3d 23 61 07 3c 86 35 a2 bd
       2.1454637 0.04909639 0.008262905 -0.07920365
000060 8a 6e bc 3c fe 1c e2 bd c9 58 66 3d 30 e4 01 be
       0.023001928 -0.11040686 0.056237016 -0.12684703
000070 14 57 4b bd 81 07 ec bf 17 f7 c3 3f 10 09 b6 3f
       -0.04964359 -1.843979 1.5309781 1.4221516
000080 ae 89 eb bd ba f3 05 40 14 6a 0e 40 2f ea da 3d
       -0.1150087 2.093001 2.2252245 0.10689198
000090 2c 86 e5 3e f1 b3 a1 ba 9a 9a 84 bd ae f3 53 3f
       0.44828928 -0.0012336952 -0.064748004 0.827937
0000a0 4d db 64 3f fb 91 bd b9 f4 f3 80 3d 71 44 47 bd
       0.89397126 -0.00036157653 0.0629653 -0.048649255
0000b0 24 81 c4 3f 2d ab c7 3f 78 57 27 3d 2d 62 56 3f
       1.535191 1.5599114 0.0408549 0.83743554
0000c0 f9 45 56 3f f5 53 88 3f 88 8c 12 40 56 3b 88 bd
       0.8370052 1.0650622 2.2898273 -0.066519424
0000d0 df 32 bc 3f 83 be 08 c0 77 74 00 bd b4 fe 96 3d
       1.4703025 -2.136628 -0.03136107 0.073727995
0000e0 03 f0 54 3e 01 a7 f0 3f 78 32 51 bc 38 a1 53 bd
       0.20794682 1.8800966 -0.01276838 -0.051667422
0000f0 c5 28 7a 3f 8a 2f c2 3f 63 e4 65 3d 38 78 eb bd
       0.9771846 1.5170758 0.05612601 -0.11497539

fc3.weight f4 [20, 64]
000000 7a c9 83 3e dc f3 a3 3d d5 fe 47 3e 94 1d 47 bd
       0.25739652 0.08005497 0.19530804 -0.048612192
000010 15 54 09 3f 68 74 00 bf cd a2 0e 3d 58 3a 45 3d
       0.53643924 -0.5017762 0.034823228 0.048151344
000020 4e 70 b5 3d 63 9b 31 bd 97 21 14 3e 01 b5 51 3d
       0.08859311 -0.04336108 0.14465939 0.05119801
000030 86 53 7c bc 11 76 5d bc d2 fa 99 bf 76 19 5f be
       -0.015400773 -0.013516919 -1.2029669 -0.21787056
000040 0f ea f5 3e 34 e1 3a 3d 9e 11 b5 be a6 5f 4d 3f
       0.48030135 0.045624927 -0.35365003 0.8022407
000050 14 89 cf 3e 9a 16 26 3c 04 ca 92 bd 40 d6 52 bd
       0.4053427 0.010137225 -0.07167438 -0.051473856
000060 5f f8 37 3d 98 63 d0 bd b8 04 2d bd 34 73 59 bd
       0.0449146 -0.10175246 -0.04224083 -0.053088382
000070 9a 1f fc 3d 60 37 ea be 8c 98 7f 3d 57 a9 53 3d
       0.12310715 -0.45745373 0.06240134 0.051675167
000080 d0 bd 19 3d 83 fc 09 bf 43 44 08 3f 1f ae 86 bd
       0.037534535 -0.5390093 0.5322916 -0.0657618
000090 42 f6 6c 3e 71 51 3b 3d 1c be c7 3d a2 3e 35 3e
       0.23140815 0.045731965 0.09753057 0.17699674
0000a0 b6 53 d6 be 2e ed 1b 3c 11 c5 a2 bd 1c d3 ec bd
       -0.4186074 0.009516997 -0.07947744 -0.115637034
0000b0 68 97 a3 bd bb 3a 18 3e 38 64 d0 3c a3 de 67 be
       -0.07987863 0.14866154 0.025438413 -0.22643523
0000c0 64 ea a3 3c 3f f6 d6 3d 59 e8 1d 3f 3c 0a ef 3d
       0.020009227 0.104961865 0.6168266 0.11671874
0000d0 70 e2 e6 3d 41 36 16 bf a0 21 fb 3b 85 7d 13 3d
       0.11273658 -0.58676535 0.0076639205 0.036008377
0000e0 de 16 db bc 96 7c f2 3e c8 e4 81 bb 00 f8 be 3a
       -0.026744302 0.47360677 -0.0039640404 0.0014569759
0000f0 1f ef ec 3d 27 54 6e bf 0a bf 8f bd 44 e8 71 3d
       0.11569046 -0.93097156 -0.0701886 0.059059396
000100 34 c6 95 3e d0 81 bd bd e2 7e 6e 3e 40 7a b7 bb
       0.2925278 -0.092532754 0.2329059 -0.00559929
000110 9a 66 2b 3f 57 18 dd bd a6 12 ab 39 08 d7 f6 3d
       0.6695343 -0.10795658 0.00032629556 0.12052733
000120 e0 54 b1 bc 99 5f 9c bd 19 ef d1 bd 37 56 6a 3c
       -0.021646917 -0.07635421 -0.102506824 0.014302782
000130 34 13 c9 3c 2b 6f 31 be 98 2c 7e bf 32 18 96 be
       0.02454529 -0.17327563 -0.99286795 -0.29315335
000140 70 70 d5 3e fc 4a 75 3d 68 e6 fd be 0d ba 12 3f
       0.41687346 0.059885964 -0.4958985 0.5731514
000150 e6 ac a5 3e 51 6b 0c 3b ce 95 0a 3e 4f cc 9e bd
       0.32358474 0.002142627 0.13533708 -0.077538125
000160 de 10 0f 3d 24 aa ce bd d8 e5 12 3e f0 29 0b 3c
       0.034928195 -0.100910455 0.14345491 0.008493885
000170 11 1d 0a 3e d2 f9 c5 be 81 05 39 3e 3d 1a 0d 3e
       0.1348765 -0.3866716 0.18068506 0.1377954
000180 32 5a 90 3d 4a d4 2f bf 87 4a 0e 3f 38 48 98 3d
       0.070484534 -0.686833 0.5558247 0.0743565
000190 40 ce 18 3d 20 2f ad bb 92 22 ad 3d 4a 20 ea 3e
       0.03730607 -0.0052851588 0.084538594 0.4572776
0001a0 ba 48 4c bf 40 72 61 3b 6a e5 17 bd 78 d3 ac 3d
       -0.7979847 0.0034400374 -0.03708402 0.08438772
0001b0 44 98 17 3e e0 21 9b 3d 8a 52 e3 bd 8a 18 8e 3e
       0.14804178 0.075748205 -0.110997275 0.27753097
0001c0 bf b6 1c 3e 3c a3 03 3e 54 12 1e 3f 50 f6 72 bc
       0.15304087 0.12855238 0.61746716 -0.014829233
0001d0 6f 98 41 3e c1 f4 eb be e8 1d 1e bd 10 00 e6 bc
       0.18905805 -0.4608517 -0.03860274 -0.028076202
0001e0 55 23 70 3d ad 22 ba 3e 6d 43 03 bd d0 c1 8a 3d
       0.058627445 0.3635458 -0.032046724 0.06775248
0001f0 e3 70 50 be 60 46 23 bf 64 25 5b bd c6 90 cc 3d
       -0.20355563 -0.6377926 -0.053502455 0.09988551
000200 c7 67 8d 3e d0 f6 13 3d 82 1b 93 3e e0 40 89 bb
       0.27618238 0.03612405 0.28731924 -0.004188642
000210 17 38 1f 3f f0 7a d7 be b1 ec 9e bd 30 83 e0 bc
       0.6219496 -0.4208598 -0.07759989 -0.027406305
000220 34 2c 23 bd 57 94 23 bd 86 e4 60 bf 68 7e 28 3e
       -0.039837077 -0.03993639 -0.878487 0.1645447
000230 6f 9a 98 bc 1e b8 7d bd b7 48 56 bf 5f af 34 be
       -0.018628327 -0.061943166 -0.83704704 -0.17645024
000240 16 ba b9 3e 44 69 66 bd 57 97 14 be b7 ed 13 3f
       0.36274785 -0.056252733 -0.14510857 0.577846
000250 45 f3 af 3e 6e f4 0d 3b 63 7f 2f bd 5c 48 f3 bc
       0.34365287 0.0021660584 -0.042846095 -0.02969759
000260 8c 10 01 be 2e c4 ec bd 46 ff f1 3d e8 c9 ac 3c
       -0.12603968 -0.11560856 0.11816268 0.02109237
000270 41 ab 05 3d 52 60 78 be 4a d8 75 3e 55 25 3b 3e
       0.032634024 -0.24255493 0.24008289 0.1827596
000280 ee bf c8 bd b2 be 34 bf c9 bb 1c 3f 2e ee d9 bd
       -0.09802233 -0.7060348 0.6122404 -0.10641132
000290 cf 08 21 be 0d 5c b6 bd 80 7c 7b bb b8 22 a4 3d
       -0.15726016 -0.08904276 -0.0038373768 0.080144346
0002a0 4a 38 9d be e4 61 60 3d 9f 27 07 bc 16 d9 d6 bd
       -0.30707008 0.054780856 -0.0082491925 -0.104906246
0002b0 49 73 8d 3e 5c 0d c4 3d 4e 24 d0 3d 18 c9 cd bd
       0.27627018 0.095728606 0.101631746 -0.10048121
0002c0 d4 27 8a 3e a5 4d 31 3e e5 99 00 3f 2a 67 d0 3d
       0.2698351 0.17314775 0.50234824 0.10175927
0002d0 6e ce 18 3e 29 61 55 be 00 ed ef ba ae c1 b2 bd
       0.14922497 -0.20837845 -0.0018304884 -0.08728348
0002e0 57 be 8b 3e ba 89 c1 3e 5f 53 e6 3d d8 21 82 bd
       0.27293655 0.3780039 0.112463705 -0.063541114
0002f0 0e 13 2e be 4e 25 47 bf 52 79 75 bd 8e 17 ba 3d
       -0.16999456 -0.777913 -0.059930153 0.09086524
000300 12 86 16 3e f6 99 b7 3d 46 94 b5 3e 68 8c 10 3d
       0.14699581 0.089649126 0.35464686 0.03529015
000310 31 69 22 3f 4a 5c b0 3e 56 42 3d 3d 40 da a1 bb
       0.6344176 0.3444541 0.04620584 -0.0049393475
000320 d4 38 05 bd bb 34 38 be 5e 81 ff bd 5a 27 22 3e
       -0.0325249 -0.17988865 -0.12475847 0.15835324
000330 27 14 bc 3d 51 94 0a be 69 6b 61 bf bb 6b 83 be
       0.09183531 -0.1353314 -0.8805452 -0.2566813
000340 d9 f1 c9 3e 9a 4c 87 3d 7e 69 15 bf 70 54 04 3f
       0.39442328 0.066064075 -0.58364093 0.5169134
000350 2e 25 d5 3e 68 44 d5 3c 19 e3 39 bd 80 b4 8a 3d
       0.41629928 0.026033595 -0.045382593 0.06772709
000360 50 d8 06 3c 2a de 9e 3d 70 93 71 bd 2d 82 ec 3b
       0.008230284 0.07757218 -0.058978498 0.0072176666
000370 d1 4d ab 3d c1 99 d2 be 9e b8 19 3e 2e 08 94 3e
       0.08364452 -0.4113293 0.15011832 0.2891249
000380 a0 97 ef bc 18 2c 29 bf e9 1d 0c 3f e0 13 d2 bc
       -0.029247105 -0.66082907 0.5473314 -0.025644243
000390 96 39 5d 3e 51 9f 9d 3d 40 68 5f bc bb e1 c5 3e
       0.21603999 0.07696403 -0.013635695 0.3864878
0003a0 bf 06 73 be c4 7d 87 3d 13 7f 9b 3d 20 20 ad bc
       -0.23733042 0.06615785 0.07592597 -0.021133482
0003b0 1f e8 f9 3d 3c f8 54 bd 94 19 ac bd a4 16 04 bd
       0.12202477 -0.051994547 -0.08403316 -0.032248154
0003c0 59 14 8a 3e 2d 9b aa 3e 74 9b 23 3f 3a af ae 3d
       0.2696865 0.33321515 0.6390908 0.085295156
0003d0 b5 66 14 3d 51 58 a0 be 68 2f c2 bd b8 ac 2e bd
       0.03623076 -0.3131738 -0.09481698 -0.042645186
0003e0 72 62 84 3e b0 8c fb 3d f0 87 80 3c 30 ea 27 bd
       0.25856358 0.122826934 0.01568982 -0.040994823
0003f0 13 b9 3a 3d 62 bf 1c bf 7e bb a4 3d 58 f2 80 bd
       0.045586657 -0.61229527 0.08043574 -0.062962234

fc3.bias f4 [20]
000000 f2 35 f5 3f ed 4c 4f 3f 63 e7 46 3f 6f 7f 15 3f
       1.9157088 0.80976754 0.7769682 0.58397573
000010 52 17 28 3f d4 c5 e7 3e e7 82 b1 3e 48 83 11 3f
       0.65660584 0.45268118 0.34670183 0.56840944
000020 cb 89 02 3e 1e 55 ee 3d 64 35 9e 3e d1 79 6f 3d
       0.12747876 0.116373286 0.3090011 0.058465783
000030 1f ab 66 3e 21 8a 2c 3e 31 9f cf bd ff 65 a6 be
       0.22526215 0.16849567 -0.10137785 -0.32499692
000040 3d 8e 0a be ad 8c 39 be 9b e7 aa be 8d 2f 5a be
       -0.13530822 -0.1812007 -0.33379826 -0.21307202

fc1.weight f4 [64, 3]
000000 be 64 d3 bd e0 5e 34 3e e4 0e aa 3e 20 53 8f be
       -0.103219494 0.17614317 0.33214486 -0.27993107
000010 f6 d6 fb 3e 6a 5d 32 3e 54 27 e6 be 28 29 82 be
       0.4918744 0.17418447 -0.4495188 -0.25422025
000020 17 1f 52 3d e0 25 5e bd 4c c0 16 be d0 19 80 bd
       0.05129918 -0.05423534 -0.14721793 -0.06254923
000030 c7 68 37 bf 35 cc 4a bf 16 f8 62 3e ab ad 28 be
       -0.7164425 -0.79217845 0.2216495 -0.16472499
000040 0e 00 b2 be b1 c4 3c bd 23 22 3d 3e f7 dd 49 3e
       -0.34765667 -0.046086017 0.18470053 0.19713579
000050 c1 0f fd bd 5e a7 be be cf 40 70 be c5 28 ab bb
       -0.123565204 -0.37237066 -0.23462223 -0.005223366
000060 24 cb 02 3f de 62 e5 3e 1b 01 dc 3d 22 4b b0 be
       0.5109122 0.44801992 0.10742398 -0.34432322
000070 4d 62 d2 3a 73 5f f9 be f4 0c a9 bc 09 ae 80 3d
       0.0016051024 -0.48705634 -0.02063606 0.062831946
000080 b6 88 f2 be cf 40 dd bd f0 45 c8 be 8a 58 a9 bd
       -0.47369927 -0.10803377 -0.39115858 -0.082688406
000090 0d 83 4f be 20 f8 8c bd 8b 28 2e bd e0 56 02 3f
       -0.20264836 -0.068832636 -0.042519134 0.5091381
0000a0 29 85 45 be 7f 66 1a 3e 11 07 af bd d0 3b f8 bd
       -0.19289078 0.15078162 -0.0854627 -0.12120783
0000b0 b9 51 61 3d e8 df 15 be 73 9f c9 3e 60 6c 8b 3e
       0.055009577 -0.14636195 0.39379463 0.2723112
0000c0 36 ad ba be 91 8e 53 bd f1 03 17 3e f3 1a 63 3e
       -0.36460274 -0.051649634 0.14747597 0.22178249
0000d0 0d f7 0f 3e fc 0f 26 be 9b 0d c5 3e a4 29 e2 be
       0.14059086 -0.16217035 0.38486943 -0.44172394
0000e0 a3 89 1a be 5f 5b a3 bd a7 c5 83 3e 76 ca 8f 3d
       -0.15091567 -0.07976412 0.25736734 0.07021038
0000f0 5a 97 b4 be eb 7d 13 bf f0 28 8a be 22 fc fd be
       -0.35271722 -0.5761401 -0.26984358 -0.49606425
000100 bc df 21 be 36 5a be be 44 f3 e3 3d f2 40 f0 3e
       -0.15808004 -0.371782 0.111303836 0.4692455
000110 64 50 f5 3d 2e dd af 3e 24 b9 21 be 7d dc 9c 3e
       0.11978224 0.34348434 -0.15793282 0.3063697
000120 00 71 04 bf dc 88 3d be 0b f5 b6 bd 7b b1 8d be
       -0.51734924 -0.18509239 -0.08933457 -0.2767447
000130 ae 49 7a be bc d1 11 bf 30 cc bd be d6 30 9d be
       -0.24442169 -0.56960654 -0.37069845 -0.3070132
000140 b3 0a 9c 3d a6 8f c5 3e 72 c8 89 be 56 91 d0 3d
       0.07619228 0.38586158 -0.2691074 0.10183971
000150 c6 d1 92 bf 09 09 dc be 33 df dc 3d 53 8c ca 3b
       -1.1470268 -0.42975643 0.10784759 0.0061812787
000160 20 90 e3 be 9c 98 76 3e b5 bf ac be 7a 7b 1c 3c
       -0.44445896 0.24081653 -0.3374001 0.0095509235
000170 3d 30 0a 3e 0e 07 87 be f6 6b 3a bf c8 0a 5e bd
       0.13494964 -0.2637257 -0.72820985 -0.0542095
000180 06 fd 50 be 3a e9 2c 3e 2b 3b 3f be f2 bb a9 bd
       -0.20409021 0.16885844 -0.18674915 -0.08287801
000190 e2 a8 a6 be 25 8b bd 3e 40 a3 34 3e 57 20 a4 be
       -0.32550722 0.3702022 0.176404 -0.32055923
0001a0 45 0a 82 be 86 8c b4 be f6 20 61 be b6 b7 68 be
       -0.2539846 -0.3526346 -0.2198523 -0.2272633
0001b0 df 09 bf bd a4 ba f4 be 5b ef dc 3a 65 2f 6e 3e
       -0.09328055 -0.47798645 0.0016856001 0.23260267
0001c0 00 b0 7e 3a b0 9b 6b be 91 99 98 bf 06 90 87 be
       0.0009715557 -0.23008609 -1.1921865 -0.2647707
0001d0 b4 fe 12 3e f7 c5 bd bd e8 18 95 3e ea a5 1f 3e
       0.14354974 -0.092662744 0.29120564 0.15590635
0001e0 3b 37 c3 be 53 d3 5e bf a7 4e 03 bd 38 3d a3 3d
       -0.38128075 -0.87041205 -0.03205743 0.07970661
0001f0 84 50 76 3e bf c9 8c 3d 42 75 47 3e 75 f6 f5 bd
       0.24054152 0.068744175 0.19478324 -0.120098986
000200 cc ae 83 bd f4 27 a5 3e 28 06 9f 3e 48 29 40 3e
       -0.06429824 0.32257044 0.31059384 0.18765748
000210 28 7e 23 be 0b 54 b3 be 3b e7 7f bd 1c ca 81 be
       -0.15966094 -0.35025057 -0.062476378 -0.2534951
000220 13 08 09 3e 60 a9 d0 3d 6c 74 33 3e bc ee 94 be
       0.13381986 0.10188556 0.1752488 -0.2908839
000230 98 de 3d bf db 5b 8c be 24 c2 fb 3c f7 ba 0c be
       -0.74167776 -0.2741383 0.030732222 -0.13743196
000240 be f1 96 bd 32 f7 23 be a4 f6 91 3d 28 f2 12 3e
       -0.073703274 -0.16012266 0.07127121 0.14350188
000250 4a e2 77 3e 15 68 88 be 80 c9 e8 3c f1 03 bd be
       0.24207416 -0.26641908 0.028416395 -0.3691707
000260 60 e7 fd bc 8d 7b d3 be aa 75 13 be f3 ba 05 bf
       -0.030994117 -0.413052 -0.14400354 -0.52238387
000270 86 46 e9 be 0d 26 18 bf c1 30 13 3e 16 1a 04 be
       -0.45561618 -0.5943306 0.14374067 -0.12900576
000280 07 f2 ad 3e 50 c8 be 3d b9 c1 07 3f f7 10 56 3e
       0.33973715 0.0931555 0.5302997 0.20904909
000290 e2 a9 90 3e 97 b7 35 3d 42 a7 c0 bc 8b 99 9f 3d
       0.2825461 0.044364538 -0.023517255 0.07792958
0002a0 fd ca c4 3d 14 66 54 3e c0 16 d7 be d5 b3 3d 3f
       0.096090294 0.20742065 -0.42009544 0.74102527
0002b0 22 63 3f 3e a1 56 e2 3e 90 73 13 3d cc 75 c7 bd
       0.1869016 0.44206718 0.03599888 -0.09739265
0002c0 9e 1a 36 be ec 48 85 be e2 50 0e bf b4 b6 8d 3e
       -0.17783591 -0.26032197 -0.5559217 0.27678454
0002d0 3a 78 05 3e 46 50 69 be 0d a2 f2 bd e6 87 06 bf
       0.13034144 -0.22784528 -0.11847315 -0.52551115
0002e0 52 21 01 bf de b3 35 be d2 73 89 3e ce f4 b9 bd
       -0.5044147 -0.17744395 0.26846176 -0.09079896
0002f0 30 24 b1 3d 15 9a 77 3e 3d 74 4a 3e d7 06 c6 3d
       0.0864948 0.24179871 0.19770904 0.09669273

fc1.bias f4 [64]
000000 1b 49 a7 3f 0b 80 56 40 54 ea 7b 40 77 2c ae be
       1.3069185 3.3515651 3.9361773 -0.340183
000010 db fe 4a c0 45 e6 41 40 f3 9d 8e 40 21 2c 85 40
       -3.1718051 3.0296795 4.456781 4.161637
000020 62 ce 20 c0 de bd 3b 40 9f f0 7d 40 08 c1 27 40
       -2.5125966 2.9334636 3.9678113 2.6211567
000030 b0 ba 56 40 a3 9e 37 40 aa b9 39 40 e9 34 65 bf
       3.3551445 2.8690574 2.901957 -0.8953386
000040 f7 ab 18 40 00 aa 84 40 f6 35 40 be e2 b8 17 40
       2.385496 4.145752 -0.18770584 2.3706594
000050 fe 7a d6 be c7 40 a8 3f 70 21 9d 3e b7 af 1b c0
       -0.4189071 1.3144768 0.30689573 -2.4325998
000060 29 de 5d 40 98 15 b6 bd 5a 5e 71 40 f1 0c 32 40
       3.4666846 -0.088908374 3.7713838 2.7820399
000070 fe 40 78 c0 49 73 42 40 d0 cd fe 3f 84 1d 2c 40
       -3.8789668 3.0382864 1.9906559 2.6893015
000080 3b 96 74 be 69 4f f0 bf 08 4a 04 bf 5f eb 07 3e
       -0.23885433 -1.8774234 -0.5167546 0.1327338
000090 e2 6a 26 40 2a 40 3b be a2 8d 68 c0 d7 cc 5c bf
       2.6002736 -0.18286195 -3.6336446 -0.8625006
0000a0 17 67 ce 3f aa 97 50 40 a1 e1 03 40 57 35 92 bf
       1.612521 3.2592568 2.0606463 -1.1422528
0000b0 ab fb dc 3f a3 4a 1c 40 fd ce 23 40 9d 3a 9d 3f
       1.7264303 2.4420555 2.5595086 1.2283512
0000c0 34 3b 31 40 8e c7 74 40 10 7c 5b 3e b4 70 e2 3e
       2.7692385 3.8246799 0.21434045 0.4422661
0000d0 40 e9 60 c0 4c 87 31 40 75 63 a2 bf 6d f1 62 40
       -3.5142365 2.7738829 -1.2686602 3.5459855
0000e0 82 e6 6c 40 e6 8a 2f c0 a2 8e 09 bf e9 2f 17 c0
       3.701569 -2.7428527 -0.53733265 -2.3622992
0000f0 16 6d 11 40 00 45 44 bd 25 45 69 40 f3 7d 2f 40
       2.272283 -0.047917366 3.6448452 2.7420623

fc2.weight f4 [64, 64]
000000 ef a1 23 bd b7 77 bc 3d bf 91 96 3f cc 43 47 3d
       -0.039949354 0.09202521 1.1763228 0.04864864
000010 ed 3c ee bd 11 60 e0 bd 7d 02 3b bf b9 bc b0 3f
       -0.116327144 -0.10955823 -0.7305067 1.3807594
000020 9e 67 4d be 6f 2a 61 be e5 dc 6f 3f a8 74 94 be
       -0.20059058 -0.21988843 0.93696433 -0.28995252
000030 ff 70 91 3e a7 1d 89 3e e8 b4 a3 3c 34 7a fa 3d
       0.28406522 0.26780435 0.019983724 0.1223034
000040 e2 2e 46 bc b7 5e cc be 00 9a 0c be d4 a1 de bd
       -0.012096139 -0.39916012 -0.13730621 -0.1087071
000050 00 d9 20 3a b0 8a 56 3c 07 3d 8e 3b 61 cc 0c 3e
       0.0006135851 0.013094589 0.004340771 0.1374984
000060 ff a0 e5 bd b2 83 8b 3d 74 66 2c 3f b8 87 b5 3e
       -0.11212348 0.06812228 0.6734383 0.35455108
000070 f8 1c 6b be e9 28 a5 3e d4 71 00 be 2d 44 02 be
       -0.2296027 0.32257774 -0.12543422 -0.1272132
000080 61 b9 dc 3d 92 a0 24 3e da 31 15 3c 42 1c c4 bd
       0.10777546 0.16076878 0.009106124 -0.09575702
000090 66 2d 91 be f0 22 64 3c 13 f3 c7 be 73 36 38 bd
       -0.2835495 0.013924345 -0.39052638 -0.0449738
0000a0 33 08 05 bd 2e 54 44 3d b6 2d 17 bf fa 35 2d bb
       -0.032478523 0.047931843 -0.59054124 -0.0026429878
0000b0 21 d0 83 be 32 47 f2 3d 5f 42 a0 3e 77 7b 79 3e
       -0.25744727 0.11829986 0.31300637 0.24363504
0000c0 36 c8 77 3e 45 ed b6 be f7 b5 d3 bd c8 75 2c 3d
       0.24197468 -0.35727897 -0.103374414 0.042104512
0000d0 0e 09 01 be 5d ad ef 3c 68 1c 56 3d 43 c8 c8 3d
       -0.1260111 0.02925747 0.052273184 0.09803822
0000e0 77 fe c9 be 8a c5 13 bd 07 d2 dc 3d 48 a7 d6 bc
       -0.39451954 -0.03607706 0.10782247 -0.026202813
0000f0 b0 06 6f be c0 4f 85 bb af 70 c5 3e 08 d7 f1 bd
       -0.23342395 -0.004068345 0.38562533 -0.11808592
000100 24 66 e7 bd aa 8b 89 bd 40 5f a6 3d 00 ef 5f 3d
       -0.11298779 -0.06716092 0.08123636 0.054671288
000110 2c 08 f4 bd 00 47 a9 bd 24 f8 21 3d 60 f1 b9 3d
       -0.11915621 -0.08265495 0.039543286 0.09079242
000120 e2 24 d7 bd 3c 5a 56 3d 6c 97 1b 3d 00 73 4d bd
       -0.10505082 0.052332148 0.037986204 -0.0501585
000130 c8 25 8b 3c 98 69 38 bd 12 48 a4 bd 72 28 bf bd
       0.016985789 -0.045022577 -0.08021559 -0.09333886
000140 b0 da e8 3d 7a c7 a9 bd df ca 49 bd 90 3a 5c 3c
       0.11369836 -0.0829 -0.04926574 0.013441697
000150 da 24 b0 bd 60 8f d8 bd ea 2f eb 3d 92 74 ed bd
       -0.08600779 -0.105742216 0.11483748 -0.115945
000160 1a 27 9b bd 3c 5b b8 3d d6 6f f7 3d 06 5c df bd
       -0.075758174 0.090017766 0.12081878 -0.10906224
000170 28 7f bf bc c0 36 53 3b 80 47 81 bc d8 c8 12 bd
       -0.023376063 0.0032228678 -0.015781164 -0.03583607
000180 bc 63 cb bd 4a 18 d6 3d f8 5f db 3c 5c c7 ff 3c
       -0.09931132 0.104538515 0.02677916 0.031222992
000190 3a 7e 97 3d f0 a8 c6 3c a8 3a 13 bd 98 98 49 bd
       0.07397123 0.024250478 -0.03594461 -0.04921779
0001a0 c0 8e 68 bb 40 a8 05 bd 40 f4 6b 3c 88 7f 8b bc
       -0.0035485476 -0.03263116 0.014401495 -0.017028585
0001b0 e6 8e 80 3d 20 2c af bd 42 ea fe 3d a0 97 46 3d
       0.06277256 -0.08553338 0.12447025 0.048484445
0001c0 78 d2 67 bc 20 69 53 bd c8 55 d9 bc aa d3 b8 bd
       -0.014149301 -0.051613927 -0.026530161 -0.09024747
0001d0 e0 0b a3 bc 60 4e f3 3c 20 3a e7 3d 54 fe 0f bd
       -0.019903123 0.029700458 0.11290383 -0.035154656
0001e0 38 96 d9 bc 0c 47 46 bd c8 50 b4 3d 60 d5 47 bc
       -0.026560888 -0.0484076 0.0880447 -0.012196869
0001f0 72 0a ff bd d4 77 04 3d e8 9b 81 bc d8 94 af bd
       -0.12453164 0.03234084 -0.015821412 -0.085733116
000200 f3 36 18 3e 07 50 9f 3e ec a0 1f 3f 84 f3 98 bd
       0.14864711 0.31115744 0.6235492 -0.07468322
000210 fb 86 14 be 8c 78 1d bd 0f 4d 7f bf 93 a2 40 3f
       -0.14504616 -0.03844504 -0.9972696 0.7524807
000220 34 d9 c9 bb bb e7 cc bd ad 5e 0f 3f c9 35 11 bf
       -0.006159926 -0.100051366 0.5600384 -0.56722695
000230 44 1d 8c 3e 15 c8 4f bd 5c 10 a3 b9 c5 c5 09 3e
       0.27366078 -0.050727922 -0.0003110197 0.1345435
000240 14 13 5a 3d 36 dc 12 bf 26 3c b4 bc 06 d9 da 3c
       0.05324085 -0.57367265 -0.022001337 0.026714813
000250 68 27 3d 3d e5 72 34 bd fc 87 7b 3c 72 92 da 3d
       0.04618016 -0.044054884 0.015352245 0.106724635
000260 a6 ad 9b be 4c d5 20 bd 49 2a 07 3f b5 09 ff bd
       -0.3040592 -0.039265916 0.527989 -0.12453023
000270 e2 11 93 be b0 a7 c7 3e dc 57 74 bb fa 41 33 be
       -0.2872458 0.38995123 -0.0037283814 -0.17505637
000280 a5 d1 2b be f9 b9 13 3e 88 8c b9 3c 00 44 4e 3a
       -0.16779192 0.14426412 0.022650018 0.0007868409
000290 91 2a a0 be 70 b5 e5 bc c7 e9 b5 be aa 4c 01 3e
       -0.31282476 -0.028040618 -0.3552992 0.12626901
0002a0 1f 6b ec bd 6d fe ef 3d e0 2a 76 be e3 bb 4d 3c
       -0.11543869 0.1171845 -0.24039793 0.012557003
0002b0 f1 1b b0 be 9a 2c ab 3e 52 a9 36 3f df e6 95 3c
       -0.34396318 0.33432466 0.7135211 0.018298564
0002c0 00 2c d5 bd 78 bd 22 be da b1 9e bd bc d6 f4 bd
       -0.10408783 -0.15892589 -0.07748766 -0.1195502
0002d0 5b a1 57 be 6e 28 42 3e f7 85 3a 3e 65 0c 27 bd
       -0.21057646 0.18960735 0.18215166 -0.040783305
0002e0 05 ed da be 26 9e ff 3d f8 6f bb 3d 40 2e 17 be
       -0.42758957 0.12481336 0.09152216 -0.14763737
0002f0 45 c1 a5 bd 80 cd 38 3b 04 04 05 3e f1 cf be 3d
       -0.08093504 0.002819866 0.12989813 0.093170054
000300 52 84 af bd b8 0d 97 bd b4 52 c4 bd e0 18 44 3c
       -0.0857016 -0.073756635 -0.09586087 0.011968821
000310 f0 65 8a bc 2e d4 f7 3d ac f5 bc 3d e8 80 18 bd
       -0.01689431 0.12101017 0.09226546 -0.03723231
000320 70 6d 9c bd 00 c6 af 3c 19 f8 d5 bc 78 d6 f3 bc
       -0.07638061 0.021456718 -0.026119279 -0.029765353
000330 20 df ed 3b 30 00 33 3c 20 27 51 bd 53 fe 7d 3d
       0.0072592646 0.010925338 -0.051062703 0.06201012
000340 49 b8 fb bc 70 f0 1b 3c c5 14 f7 bc 52 37 ab 3d
       -0.030727522 0.009517774 -0.03016127 0.08360161
000350 18 18 65 bd d0 36 b8 bc 54 80 0e bd 88 17 bd bd
       -0.05593118 -0.022487074 -0.034790352 -0.09233004
000360 18 6f ce 3d 22 e4 8f 3d 6a 36 82 3d 00 88 14 b9
       0.10079783 0.07025935 0.06358035 -0.00014165044
000370 3c 8d a8 3d c0 e4 12 bb 88 58 ca 3d 6c 6f aa 3d
       0.08230063 -0.0022414178 0.09880167 0.08322033
000380 f8 3b cf 3c 92 cd ea 3d c0 f4 6a 3d b2 f4 fc bc
       0.02529715 0.11464991 0.057362318 -0.030878399
000390 80 3b 46 3c f4 1e 78 3d 80 d0 cc 3d 30 f7 7d bd
       0.012099147 0.060576394 0.10000706 -0.062003314
0003a0 48 99 96 3d 70 bf f1 bc f9 0e 93 3c 58 10 9e 3d
       0.07353455 -0.02951023 0.017951475 0.07717961
0003b0 38 1f 21 3d 54 df 52 bd a0 20 4b 3d ec 8d fc bd
       0.039336413 -0.051482514 0.04959166 -0.12331757
0003c0 50 d7 2e bc a6 9e e7 bd 76 33 b1 bd 50 8f ee 3d
       -0.010671452 -0.11309557 -0.086523935 0.116484284
0003d0 9e 95 db 3c 98 af 04 bd d0 51 b1 bd 3c d4 07 bd
       0.026804741 -0.03239402 -0.086581826 -0.033161387
0003e0 10 70 b6 bc 04 ba 2e bd 00 82 d2 bd f8 7e d9 3c
       -0.022270232 -0.042657867 -0.10278702 0.026549801
0003f0 ac 57 57 3d 80 ef 0f bc 6c c9 d0 bd 0a c6 b9 bd
       0.052573845 -0.008785129 -0.10194668 -0.09070976

fc2.bias f4 [64]
000000 df 41 e0 3f d0 b9 37 bd 7c 83 c0 3f 34 c0 ec bd
       1.7520102 -0.04485494 1.5040126 -0.11560097
000010 9e 0f 09 40 24 dd 38 3f 62 45 95 bd 96 94 c9 3d
       2.1415782 0.72212434 -0.07288624 0.09842794
000020 1d f6 c7 bb 76 e9 5c 3d c1 5b 8f 3f 84 3a db 3f
       -0.006102337 0.053933583 1.1199876 1.7127233
000030 38 6b 8c ba ca 36 a8 bd 3d a3 05 40 82 fb dd 3f
       -0.0010713106 -0.08213575 2.0880883 1.7342379
000040 c1 7b 0b 40 3d 2b 8d bd 6e 1e 06 c0 16 cd 15 40
       2.1794283 -0.06893013 -2.0956073 2.3406425
000050 45 ed 09 40 15 1b 49 3d a6 62 07 3c ed 35 a2 bd
       2.1551068 0.049098093 0.008263266 -0.07920442
000060 da 70 bc 3c 83 1d e2 bd 75 63 66 3d 62 e4 01 be
       0.02300303 -0.11040785 0.056247193 -0.12684777
000070 68 55 4b bd b4 04 ec bf ed 46 c1 3f a2 26 b9 3f
       -0.049641997 -1.8438935 1.509977 1.4464915
000080 b3 87 eb bd d2 fd 04 40 98 55 0f 40 a4 ed da 3d
       -0.11500492 2.077992 2.2395992 0.106898576
000090 dc ed ea 3e 1d b1 a1 ba 9a 9a 84 bd 76 f4 53 3f
       0.45884597 -0.0012336109 -0.064748004 0.8279489
0000a0 2a 57 70 3f ec 91 bd b9 18 f6 80 3d 6d 42 47 bd
       0.93883 -0.0003615761 0.06296939 -0.048647333
0000b0 2c 7e c0 3f cf 9e c6 3f 78 57 27 3d c6 9c 56 3f
       1.5038505 1.5517215 0.0408549 0.8383297
0000c0 ac 4c 56 3f 21 6c 89 3f 56 19 13 40 56 3b 88 bd
       0.8371074 1.0736123 2.2984214 -0.066519424
0000d0 6a d8 be 3f 50 be 08 c0 49 71 00 bd b3 02 97 3d
       1.4909794 -2.1366158 -0.031358037 0.07373562
0000e0 83 f2 54 3e fd 93 f2 3f 6d 31 51 bc 38 a1 53 bd
       0.20795636 1.8951412 -0.012768132 -0.051667422
0000f0 d7 29 7a 3f 1e 1f c1 3f 45 e6 65 3d 13 78 eb bd
       0.9772009 1.5087621 0.056127805 -0.11497512

fc3.weight f4 [20, 64]
000000 33 8d 86 3e dc f3 a3 3d 83 82 47 3e 94 1d 47 bd
       0.262796 0.08005497 0.1948338 -0.048612192
000010 ab be 08 3f dd 83 00 bf 0c a6 0e 3d e3 3a 45 3d
       0.53415936 -0.5020121 0.034826323 0.048151862
000020 c5 73 b5 3d 49 9f 31 bd 4d 8d 1a 3e 0f a3 31 3d
       0.08859972 -0.043364797 0.15092964 0.043368395
000030 88 54 7c bc 78 72 42 bd f2 4e 98 bf 57 0c 56 be
       -0.015401013 -0.047472447 -1.1899092 -0.20903145
000040 92 00 f6 3e 34 e1 3a 3d 04 16 b5 be 44 d7 4e 3f
       0.4804731 0.045624927 -0.3536836 0.8079722
000050 2d dc cd 3e 08 1a 26 3c 8f cc 92 bd 40 d6 52 bd
       0.40207043 0.010138042 -0.07167923 -0.051473856
000060 50 f8 37 3d 98 63 d0 bd 4b 0f 2d bd 34 73 59 bd
       0.044914544 -0.10175246 -0.042250913 -0.053088382
000070 d9 1d fc 3d a9 3b ea be b2 36 98 3d 11 b3 9d 3d
       0.123103805 -0.45748642 0.07432307 0.0770017
000080 ee bd 19 3d 05 c2 04 bf 6d 88 07 3f f5 ae 86 bd
       0.037534647 -0.5185855 0.52942544 -0.06576339
000090 b0 c0 83 3e b2 53 3b 3d 1c be c7 3d fc 40 35 3e
       0.25732946 0.045734115 0.09753057 0.17700571
0000a0 23 1a d6 be 88 ec 1b 3c 75 c6 a2 bd bc d3 ec bd
       -0.41816816 0.009516843 -0.07948009 -0.115638226
0000b0 7f ec 88 bd 09 02 e1 3d 38 64 d0 3c 0c cd 18 be
       -0.06685733 0.10986716 0.025438413 -0.14921969
0000c0 79 05 a4 3c 1a b0 c5 3d 64 6f 1d 3f 3c 0a ef 3d
       0.02002214 0.09652729 0.61498094 0.11671874
0000d0 94 d1 fb 3d 92 37 16 bf a0 21 fb 3b 40 80 13 3d
       0.12295833 -0.58678544 0.0076639205 0.03601098
0000e0 b5 14 db bc 42 f5 f3 3e 49 e8 81 bb 00 f8 be 3a
       -0.026743272 0.47648054 -0.003964458 0.0014569759
0000f0 fb f2 ec 3d 1b 10 74 bf 35 c3 8f bd 89 e8 71 3d
       0.11569782 -0.95337075 -0.07019655 0.059059653
000100 7c 43 90 3e 4c 82 bd bd 24 92 70 3e 40 7a b7 bb
       0.28176486 -0.09253368 0.23493248 -0.00559929
000110 9d e5 2a 3f 5a c1 26 bd 7c 13 ab 39 08 d7 f6 3d
       0.6675661 -0.04071174 0.0003263018 0.12052733
000120 12 55 b1 bc b7 61 9c bd b8 62 00 be b0 12 b5 3d
       -0.02164701 -0.07635825 -0.12537658 0.08841455
000130 46 13 c9 3c 73 27 2e be 4a ba 7a bf ed a3 a2 be
       0.024545323 -0.17007236 -0.97940505 -0.3176569
000140 25 76 d6 3e bb 4b 75 3d e3 e6 fd be d8 02 12 3f
       0.41887012 0.059886675 -0.49590215 0.5703559
000150 0c 43 a3 3e a6 68 0c 3b 11 93 0a 3e d1 ce 9e bd
       0.3188709 0.002142468 0.13532664 -0.07754291
000160 85 0f 0f 3d 24 aa ce bd de e3 12 3e f0 29 0b 3c
       0.03492691 -0.100910455 0.14344737 0.008493885
000170 f9 19 0a 3e 4c fa c5 be 25 5b 5a 3e e4 e6 30 3e
       0.1348647 -0.38667524 0.21323831 0.17275578
000180 32 5a 90 3d 52 49 31 bf 92 81 0d 3f ed 46 98 3d
       0.070484534 -0.692525 0.55275834 0.07435403
000190 68 51 70 bd 20 2f ad bb d7 22 ad 3d 39 24 ea 3e
       -0.058671385 -0.0052851588 0.08453911 0.4573076
0001a0 18 35 4c bf 40 72 61 3b 2c e9 17 bd 78 d3 ac 3d
       -0.79768515 0.0034400374 -0.037087604 0.08438772
0001b0 8e 85 a6 3d 52 ea 12 3e 8a 52 e3 bd 2c cc 91 3e
       0.08130942 0.14347199 -0.110997275 0.28476083
0001c0 10 b9 1c 3e 3d 23 e4 3d 4e 01 1d 3f 50 f6 72 bc
       0.1530497 0.11139534 0.61330116 -0.014829233
0001d0 41 12 39 3e 14 f5 eb be e8 1d 1e bd 10 00 e6 bc
       0.1807337 -0.46085417 -0.03860274 -0.028076202
0001e0 67 23 70 3d b2 c8 b8 3e f2 43 03 bd f2 c1 8a 3d
       0.058627512 0.36090618 -0.03204722 0.067752734
0001f0 1c 6e 50 be 07 a1 24 bf 3c 28 5b bd c6 90 cc 3d
       -0.20354503 -0.6430821 -0.053505167 0.09988551
000200 c4 36 89 3e d0 f6 13 3d f8 69 96 3e e0 40 89 bb
       0.26799595 0.03612405 0.29377723 -0.004188642
000210 59 f8 21 3f 7f f8 d7 be 12 ee 9e bd 5a 83 e0 bc
       0.63269573 -0.42181775 -0.07760252 -0.027406383
000220 34 2c 23 bd 97 91 23 bd 8b 60 56 bf 72 ea 03 3e
       -0.039837077 -0.039933767 -0.8374106 0.12882403
000230 dc 9c 98 bc 19 da a0 bd a3 7e 5a bf 8f e8 51 be
       -0.018629484 -0.07854099 -0.8534948 -0.2049887
000240 1d 1b bd 3e 44 69 66 bd 81 99 14 be 78 b6 15 3f
       0.36934748 -0.056252733 -0.14511682 0.5848155
000250 9a bf b3 3e 43 f6 0d 3b 69 7c 2f bd 01 4c f3 bc
       0.35107118 0.0021661676 -0.042843256 -0.029699327
000260 89 0d 01 be 2e c4 ec bd f9 ff f1 3d e8 c9 ac 3c
       -0.1260282 -0.11560856 0.11816401 0.02109237
000270 3d a9 05 3d b5 64 78 be 51 9e 6a 3e f1 73 17 3e
       0.0326321 -0.24257167 0.22911955 0.14790322
000280 ee bf c8 bd 32 17 41 bf d3 91 1f 3f d4 eb d9 bd
       -0.09802233 -0.7542602 0.62331885 -0.10640684
000290 10 63 4e be 3e 5a b6 bd 80 7c 7b bb 4b 26 a4 3d
       -0.20154977 -0.08903931 -0.0038373768 0.08015116
0002a0 0e 0a 9d be e4 61 60 3d 0f 28 07 bc 16 d9 d6 bd
       -0.30671734 0.054780856 -0.008249297 -0.104906246
0002b0 4b c7 75 3e 10 da 97 3d 4e 24 d0 3d 70 72 b3 bd
       0.24001805 0.07414639 0.101631746 -0.087620616
0002c0 a4 22 8a 3e d4 2f 50 3e 27 79 02 3f 2a 67 d0 3d
       0.26979554 0.20330745 0.50966114 0.10175927
0002d0 2d 55 11 3e a8 63 55 be b7 ec ef ba ae c1 b2 bd
       0.14192648 -0.20838797 -0.00183048 -0.08728348
0002e0 f2 bb 8b 3e 40 d0 c3 3e 8e 57 e6 3d d8 21 82 bd
       0.27291828 0.3824482 0.112471685 -0.063541114
0002f0 1f 11 2e be dd 3b 53 bf 9b 7a 75 bd 8e 17 ba 3d
       -0.16998719 -0.8251322 -0.05993138 0.09086524
000300 7e 52 06 3e 8f 9a b7 3d b6 a4 b3 3e 68 8c 10 3d
       0.13117406 0.089650266 0.35086602 0.03529015
000310 df e2 21 3f d1 be b0 3e cb 43 3d 3d 40 da a1 bb
       0.632368 0.3452058 0.04620723 -0.0049393475
000320 d4 38 05 bd e8 32 38 be f3 f8 dd bd 05 6b 20 3e
       -0.0325249 -0.17988169 -0.10838499 0.15665825
000330 02 17 bc 3d d7 df 10 be c9 ed 60 bf fc 8c a3 be
       0.09184076 -0.14147888 -0.8786283 -0.319435
000340 fa cc c9 3e 9a 4c 87 3d 72 6c 15 bf ee 22 03 3f
       0.39414197 0.066064075 -0.583686 0.51225173
000350 84 4e d3 3e 68 44 d5 3c 99 e0 39 bd 80 b4 8a 3d
       0.4127084 0.026033595 -0.04538021 0.06772709
000360 ed d9 06 3c 73 de 9e 3d 70 93 71 bd 9b 85 ec 3b
       0.0082306685 0.077572726 -0.058978498 0.0072180755
000370 fc 51 ab 3d b5 9c d2 be 20 61 e3 3d d5 57 8f 3e
       0.08365247 -0.41135183 0.111025095 0.27996698
000380 a0 97 ef bc cb 8c 2c bf af 90 0b 3f fe 13 d2 bc
       -0.029247105 -0.67402333 0.54517645 -0.025644299
000390 a5 eb 99 3e 09 a2 9d 3d 40 68 5f bc f3 de c5 3e
       0.30062595 0.076969214 -0.013635695 0.3864666
0003a0 74 df 72 be ff 7d 87 3d 0f 83 9b 3d 20 20 ad bc
       -0.23718053 0.06615829 0.07593357 -0.021133482
0003b0 c1 ac 3b 3e ec 16 c4 bc 94 19 ac bd 62 a1 0d bd
       0.18327619 -0.023936711 -0.08403316 -0.034577735
0003c0 47 1a 8a 3e 4b 61 b1 3e cc ee 22 3f 3a af ae 3d
       0.26973173 0.3464454 0.63645625 0.085295156
0003d0 64 04 fc 3c 5b 59 a0 be 68 2f c2 bd b8 ac 2e bd
       0.030763812 -0.31318173 -0.09481698 -0.042645186
0003e0 1c 61 84 3e 6c c0 f2 3d b8 88 80 3c 30 ea 27 bd
       0.2585534 0.11853108 0.015690193 -0.040994823
0003f0 72 b7 3a 3d 66 98 21 bf 5f be a4 3d 58 f2 80 bd
       0.045585103 -0.63123167 0.08044123 -0.062962234

fc3.bias f4 [20]
000000 df 67 f4 3f e6 26 50 3f f1 99 4c 3f fc e9 16 3f
       1.9094199 0.81309354 0.79922396 0.5895078
000010 38 e7 24 3f b3 c5 e6 3e 8c b3 b5 3e ec ad 0b 3f
       0.6441531 0.45072708 0.35488546 0.5456226
000020 5a 93 02 3e c4 03 fe 3d 88 84 a8 3e d8 36 7e 3d
       0.12751523 0.12403062 0.32913613 0.06206402
000030 01 2c 65 3e 5c e6 15 3e 8a ac ef bd 51 fe 96 be
       0.22380067 0.14638656 -0.11702831 -0.29490903
000040 9a 93 08 be 28 7d 27 be bd 8a 9c be 0c 52 7b be
       -0.13337556 -0.16356337 -0.305746 -0.24543017
