beergame/baseline/models/dqn_agent_firm_1_episode_500.pth (torch, 101190 bytes, 24 tensors)

fc1.weight f4 [64, 3]
000000 86 68 30 bd 36 64 a0 3e 8c 4a b4 3e b6 53 a2 be
       -0.04306843 0.31326455 0.35213125 -0.3170449
000010 85 a7 13 3f fc ae 93 3d fd a9 47 be 0c 9c 95 bb
       0.5767749 0.0721111 -0.19498439 -0.0045657214
000020 4a 0e 1a 3d e0 25 5e bd 42 c0 16 be d0 19 80 bd
       0.037611283 -0.05423534 -0.14721778 -0.06254923
000030 43 84 da be b3 3e dc be e9 5a be 3e 13 c5 7f 3e
       -0.42679033 -0.43016586 0.37178734 0.24977522
000040 ae d3 4e bd ad dc 26 3c 36 2d 08 3e 58 01 a6 3e
       -0.050494842 0.010184449 0.13298497 0.324229
000050 67 9b 90 be 7d 6a e9 bd 1a cd 08 be 66 4f c2 3c
       -0.28243563 -0.11397264 -0.1335949 0.0237195
000060 c0 b1 08 3f a9 05 f6 3e 98 e5 ee 3d 51 41 48 bf
       0.53396225 0.48051193 0.11664885 -0.78224665
000070 87 40 7e 3d 3e 74 47 3d 6e 66 1e bd 13 e2 1d 3e
       0.062073257 0.04869484 -0.038671903 0.15418272
000080 56 44 44 bf b3 56 2b 3e c7 57 d8 be c3 d1 3c 3e
       -0.7666677 0.16732292 -0.4225447 0.18439393
000090 6b a1 00 be 10 f7 c2 bd 63 b9 18 3d fc 93 0f 3f
       -0.12561576 -0.0951978 0.037286174 0.5608518
0000a0 3c 78 53 be 8c 13 e8 3c 22 a4 59 3e ec f6 da 3d
       -0.20651335 0.028329633 0.21254018 0.10691628
0000b0 24 35 2f bd a4 fc 9c be a3 2d a9 3e cf e4 97 3e
       -0.04277529 -0.306615 0.3304263 0.29666755
0000c0 14 c8 49 bf 2f a1 87 3d 68 ec 06 3e 7f 57 23 3e
       -0.7882092 0.0662254 0.1317612 0.15951346
0000d0 01 6d 4a 3e bd 0f b3 be 2a 73 e6 3e 5f 0b b6 bd
       0.19768144 -0.34972945 0.45009738 -0.088888876
0000e0 0b d5 ef 3d 83 15 97 3c a4 17 f5 3e 89 d8 01 bd
       0.117105566 0.018442875 0.478696 -0.031700645
0000f0 5a 97 b4 be eb 7d 13 bf f0 28 8a be e6 97 08 3e
       -0.35271722 -0.5761401 -0.26984358 0.13339195
000100 46 56 61 3e 7f 36 66 3d c6 ad 27 3e ae 6b 17 3f
       0.22005567 0.056204315 0.16374883 0.5914868
000110 9a 2d 32 3e 5a a5 ce 3e d1 57 de be e2 df ff 3e
       0.17400208 0.40360528 -0.43426374 0.49975497
000120 25 8f 89 3b 98 ea 0c be 31 f4 eb 3b 7b b1 8d be
       0.0041979724 -0.13761365 0.0072007407 -0.2767447
000130 ae 49 7a be bc d1 11 bf 25 7e b3 bd 92 73 d1 bd
       -0.24442169 -0.56960654 -0.087642945 -0.102271214
000140 0c d3 43 3c 60 5f 19 3f 1b 5f f6 bd c4 29 58 ba
       0.011952173 0.59911156 -0.12029859 -0.00082459697
000150 5d e8 dd 3d df 88 9f bc 4d 85 27 3e 7e 68 d9 bd
       0.108353354 -0.019474445 0.16359444 -0.106156334
000160 8b ca 03 bf dc d9 19 3e 88 2b 43 bf cf e3 0a 3e
       -0.5148093 0.15024513 -0.762383 0.13563465
000170 80 69 56 3d 9e 0d 9a 3e 80 5a c0 be 1d 85 04 3e
       0.052346706 0.30088514 -0.37569046 0.12941404
000180 e2 32 2b be 2f a3 02 3f d5 ee 74 3e b8 e6 cc bd
       -0.16718629 0.5103025 0.23919232 -0.100049436
000190 81 41 bf be 93 f9 f2 3e 40 a3 34 3e 57 20 a4 be
       -0.37354663 0.47456035 0.176404 -0.32055923
0001a0 45 0a 82 be 86 8c b4 be f6 20 61 be b6 b7 68 be
       -0.2539846 -0.3526346 -0.2198523 -0.2272633
0001b0 41 5e c3 3e 39 a2 7b 3e c4 27 ce bd 2c 2f 6e 3e
       0.38157848 0.24573602 -0.100661784 0.23260182
0001c0 00 b0 7e 3a b0 9b 6b be d3 b9 3f be 0d 86 fa bd
       0.0009715557 -0.23008609 -0.1872323 -0.122325994
0001d0 45 98 44 3e 3e ed 6f be 2d 04 94 3e be c3 69 3e
       0.19198711 -0.23430344 0.28909436 0.22828576
0001e0 30 cb 6b be 47 0b ae be 60 53 77 3e 29 04 66 3e
       -0.23026729 -0.3399298 0.24152899 0.22462524
0001f0 5a cc e4 3e 58 26 3a bd ca ca 00 3f a1 66 a5 3e
       0.44687158 -0.045446724 0.5030943 0.32304862
000200 e4 c8 ab bd 5c df b0 3e 84 12 ad 3e 3f 50 c3 3e
       -0.08387926 0.3454541 0.3380319 0.3814716
000210 fe 2d ec 3e 74 cc d8 3c 88 71 83 bc ee 71 20 be
       0.4612884 0.026464678 -0.016045347 -0.1566846
000220 38 42 af 3e 3a 2a f3 3c 7c 4f cd 3e 55 33 28 bd
       0.34230208 0.029683221 0.40099704 -0.04106458
000230 12 53 18 bf c9 35 8d bd a1 2f f1 3e f4 27 97 3e
       -0.59501755 -0.06895024 0.4710665 0.2952267
000240 6a 53 1f 3e a3 64 3a 3d db 29 15 bd b1 91 42 3e
       0.15559164 0.04550613 -0.03641687 0.1900089
000250 69 92 44 3e 53 b0 03 bf 80 c9 e8 3c f1 03 bd be
       0.19196476 -0.51440924 0.028416395 -0.3691707
000260 60 e7 fd bc 8d 7b d3 be aa 75 13 be f3 ba 05 bf
       -0.030994117 -0.413052 -0.14400354 -0.52238387
000270 09 b0 35 be 51 32 91 be d5 45 a6 3e 37 77 ac bd
       -0.17742933 -0.283587 0.32475153 -0.08421176
000280 9e 72 f4 3e 23 09 b9 bb b4 68 12 3f 5e 5a 77 3e
       0.47743696 -0.005646841 0.57191014 0.24155566
000290 ed bd c7 3e 46 6d 26 3e 5a 76 05 3e 19 01 49 bd
       0.3901209 0.16252622 0.13033429 -0.049073312
0002a0 3a 84 42 bb 76 b1 a8 3e 67 6a f7 be 64 cd 30 3f
       -0.0029680864 0.32947892 -0.48323366 0.690634
0002b0 26 ce ee 3d bf 33 01 3f 90 73 13 3d cc 75 c7 bd
       0.116604134 0.50469583 0.03599888 -0.09739265
0002c0 9e 1a 36 be d6 b3 89 be c3 df c1 be a9 5c 02 3f
       -0.17783591 -0.26895016 -0.3786603 0.5092264
0002d0 28 4f 4b 3e 47 21 72 be 9f 4d b2 3d 92 87 06 bf
       0.19854414 -0.23645507 0.08706211 -0.52550614
0002e0 52 21 01 bf de b3 35 be ec 3f c9 3e ba d2 b0 3c
       -0.5044147 -0.17744395 0.3930658 0.021584857
0002f0 d3 af 2e bd d6 01 b1 3e 7b 51 a0 3e e2 90 1e bd
       -0.042648148 0.34571713 0.31312165 -0.03871239

fc1.bias f4 [64]
000000 00 6e c9 3f a9 7b 3e 40 d2 5c 5e 40 6b 2c ae be
       1.5736694 2.9762976 3.4744153 -0.34018263
000010 0c b2 05 c0 f1 b0 30 40 e6 4e 71 40 85 cf 60 40
       -2.088992 2.7607996 3.7704406 3.512666
000020 bf 89 cc bf 02 66 f9 3f 53 23 50 40 f3 30 e7 3f
       -1.5979537 1.9484255 3.252156 1.8061813
000030 d6 ca 30 40 c1 ed 18 40 20 49 26 40 0e 6b f4 be
       2.7623801 2.3895113 2.5982132 -0.47737926
000040 4b 89 f4 3f c0 8d 66 40 64 9e 3d 3e d1 c8 06 40
       1.9104398 3.6024017 0.18517452 2.1060069
000050 fe 7a d6 be 78 ba b7 3f 11 97 47 3f fe 5c c7 bf
       -0.4189071 1.4353781 0.77964884 -1.5575254
000060 a8 b4 2a 40 98 15 b6 bd ab 24 58 40 c1 70 18 40
       2.6672764 -0.088908374 3.377238 2.381882
000070 38 a5 31 c0 28 ad 35 40 6e ad d8 3f a6 15 13 40
       -2.7757092 2.8386936 1.6927927 2.2981963
000080 9a d7 c0 3e 92 a5 a1 bf 08 4a 04 bf f4 ea 07 3e
       0.3766449 -1.2628653 -0.5167546 0.13273221
000090 74 ee f7 3f 00 40 3b be f0 d7 27 c0 96 aa ca be
       1.9369645 -0.18286133 -2.6225548 -0.39583272
0000a0 cc 15 cf 3f 28 b7 3a 40 75 af ca 3f 9c 72 f3 be
       1.6178527 2.917429 1.5834795 -0.47548378
0000b0 75 fc a6 3f 55 c0 0a 40 e1 c8 14 40 48 03 cd 3f
       1.3045794 2.167989 2.3247607 1.6016626
0000c0 0c ee 1a 40 49 8a 42 40 10 7c 5b 3e b4 70 e2 3e
       2.4207792 3.0396903 0.21434045 0.4422661
0000d0 2a 05 17 c0 28 0d 1d 40 36 2e 13 bf 76 f9 48 40
       -2.3596902 2.453928 -0.5749239 3.140226
0000e0 c9 b5 3e 40 4b 0c f8 bf a2 8e 09 bf c1 84 d5 bf
       2.9798453 -1.9378752 -0.53733265 -1.6681138
0000f0 7c 0f c3 3f 00 45 44 bd 1e a0 4d 40 71 11 17 40
       1.52391 -0.047917366 3.2128978 2.3604395

fc2.weight f4 [64, 64]
000000 c0 b2 47 bd f5 39 28 3e df 09 93 3f cc 43 47 3d
       -0.048754454 0.16428359 1.1487387 0.04864864
000010 72 cd 44 bd c9 05 7b 3d 94 e0 25 3b b8 e3 b6 3f
       -0.04804749 0.061284814 0.002531086 1.4288244
000020 bc 25 d7 bd 13 53 b8 bb ea d4 ce 3e 7d a0 a8 bc
       -0.10505244 -0.0056251376 0.40396816 -0.02058434
000030 f8 8f a7 3e 64 62 dd 3e cd bd a8 3e b1 22 ca 3d
       0.32727027 0.4323913 0.32957307 0.09869898
000040 9e 7c 90 3b 2a 19 2b 3e 04 95 28 3e af 05 0e 3e
       0.004409387 0.16708818 0.16463095 0.13869356
000050 00 d9 20 3a 19 4b 20 3e 4d 14 02 3e 78 df ac 3d
       0.0006135851 0.15653647 0.12703057 0.08441061
000060 35 5b ce 3d b2 83 8b 3d cf d0 31 3f 48 90 1d 3f
       0.1007599 0.06812228 0.6945924 0.6154828
000070 6b db 49 bd 6b 31 89 3e 95 4c 29 bd f1 d6 ae bc
       -0.04928152 0.26795515 -0.0413328 -0.021342726
000080 14 6c e1 3d 33 b8 de 3d 60 31 15 3c 42 1c c4 bd
       0.110069424 0.10874977 0.00910601 -0.09575702
000090 88 b9 21 bd f0 22 64 3c 03 e9 96 be 83 63 a7 bc
       -0.039483577 0.013924345 -0.2947465 -0.020433193
0000a0 57 cb 83 3c 55 7b 92 3e 76 8d 6e bc ed 44 1e 3d
       0.01608817 0.2860972 -0.014560094 0.03863995
0000b0 04 0b 15 3d 0e 6a 94 3e 8f 6b d3 3e d6 32 20 3e
       0.03638746 0.28987163 0.41292998 0.15644392
0000c0 76 3e 0a 3f 6a 01 42 3e da b5 d3 bd c8 75 2c 3d
       0.5400156 0.18945852 -0.1033742 0.042104512
0000d0 fc 25 af bd 64 23 74 3e 77 62 7e 3d 8d 30 93 3e
       -0.08552167 0.23841625 0.062105622 0.2874798
0000e0 39 34 16 3e a0 9c 89 bd da d1 dc 3d 35 ed 22 bd
       0.14668359 -0.06719327 0.107822135 -0.039777
0000f0 dd 0b a5 bc c0 4f 85 bb 12 41 16 3f d8 9e 07 3e
       -0.020147258 -0.004068345 0.5869304 0.13244188
000100 24 66 e7 bd aa 8b 89 bd 40 5f a6 3d 00 ef 5f 3d
       -0.11298779 -0.06716092 0.08123636 0.054671288
000110 2c 08 f4 bd 00 47 a9 bd 24 f8 21 3d 60 f1 b9 3d
       -0.11915621 -0.08265495 0.039543286 0.09079242
000120 a2 24 d7 bd 3c 5a 56 3d 6c 97 1b 3d 00 73 4d bd
       -0.10505034 0.052332148 0.037986204 -0.0501585
000130 c8 25 8b 3c 28 69 38 bd 12 48 a4 bd 72 28 bf bd
       0.016985789 -0.04502216 -0.08021559 -0.09333886
000140 b0 da e8 3d 7a c7 a9 bd 88 ca 49 bd 90 3a 5c 3c
       0.11369836 -0.0829 -0.049265414 0.013441697
000150 da 24 b0 bd 60 8f d8 bd ea 2f eb 3d 92 74 ed bd
       -0.08600779 -0.105742216 0.11483748 -0.115945
000160 1a 27 9b bd 3c 5b b8 3d d6 6f f7 3d 06 5c df bd
       -0.075758174 0.090017766 0.12081878 -0.10906224
000170 28 7f bf bc c0 36 53 3b 80 47 81 bc d8 c8 12 bd
       -0.023376063 0.0032228678 -0.015781164 -0.03583607
000180 bc 63 cb bd 4a 18 d6 3d f8 5f db 3c 40 c7 ff 3c
       -0.09931132 0.104538515 0.02677916 0.03122294
000190 3a 7e 97 3d f0 a8 c6 3c a8 3a 13 bd 98 98 49 bd
       0.07397123 0.024250478 -0.03594461 -0.04921779
0001a0 c0 8e 68 bb 40 a8 05 bd 40 f4 6b 3c 88 7f 8b bc
       -0.0035485476 -0.03263116 0.014401495 -0.017028585
0001b0 e6 8e 80 3d 20 2c af bd 42 ea fe 3d a0 97 46 3d
       0.06277256 -0.08553338 0.12447025 0.048484445
0001c0 10 d2 67 bc 20 69 53 bd c8 55 d9 bc aa d3 b8 bd
       -0.014149204 -0.051613927 -0.026530161 -0.09024747
0001d0 e0 0b a3 bc 60 4e f3 3c 1e 3a e7 3d 54 fe 0f bd
       -0.019903123 0.029700458 0.11290382 -0.035154656
0001e0 38 96 d9 bc 0c 47 46 bd c8 50 b4 3d 60 d5 47 bc
       -0.026560888 -0.0484076 0.0880447 -0.012196869
0001f0 72 0a ff bd d4 77 04 3d e8 9b 81 bc d8 94 af bd
       -0.12453164 0.03234084 -0.015821412 -0.085733116
000200 25 38 e4 3d 66 81 a8 3e 84 36 2f 3f 84 f3 98 bd
       0.11143521 0.32911223 0.6844256 -0.07468322
000210 2e d3 c5 bc 44 54 37 3e 60 7e fc be 8b 39 80 3f
       -0.02414855 0.17903239 -0.49315166 1.0017561
000220 c3 63 28 bd 86 49 18 be fa ad 1f 3f 33 92 70 3b
       -0.041110765 -0.14871797 0.6237484 0.0036708235
000230 09 9d a2 3e 92 c1 b2 3d 5c 12 80 3e e4 d0 95 3d
       0.31760433 0.08728327 0.25014007 0.07315233
000240 42 6e bc 3d 11 76 85 be 27 1c 63 3d 24 d5 31 3e
       0.092007175 -0.2606664 0.05544677 0.17366463
000250 68 27 3d 3d e4 cf c9 3d 86 50 5e 3d 9d 06 68 3d
       0.04618016 0.09854105 0.054276012 0.056646932
000260 d0 03 d6 3d 4c d5 20 bd df d4 2a 3f c3 d0 90 3d
       0.10449946 -0.039265916 0.66731066 0.07071068
000270 0d df 26 bd d1 d9 cc 3e 7b 3f bd 3d 7e 48 00 3e
       -0.04074006 0.4000993 0.092406236 0.12527654
000280 df f1 0b 3c 84 8b e4 3d 88 8c b9 3c 00 44 4e 3a
       0.008541553 0.11159423 0.022650018 0.0007868409
000290 fe ab bb bd 70 b5 e5 bc 96 b0 63 be 89 3f f6 3d
       -0.09163664 -0.028040618 -0.22235331 0.12023837
0002a0 1e 11 12 3d ad ac 74 3e 8e 88 59 3d c2 82 b9 bc
       0.035660855 0.23893996 0.053108744 -0.022645358
0002b0 6d e1 32 3d dc 49 f4 3e 97 cc b9 3e d6 fc 8a bd
       0.043672014 0.477126 0.36288902 -0.06786506
0002c0 44 1a 2c 3e c7 aa 13 3e da b1 9e bd bc d6 f4 bd
       0.16806895 0.14420615 -0.07748766 -0.1195502
0002d0 12 6c f2 bd f7 68 9e 3e bc 30 fa 3d 5f 25 c6 3d
       -0.11837019 0.30939457 0.122163266 0.09675097
0002e0 af 16 87 bd 25 7f df 3c f8 6f bb 3d 12 71 03 be
       -0.065961234 0.027282307 0.09152216 -0.12836102
0002f0 86 fd da bb 80 cd 38 3b e7 2d 8b 3e 9a 89 6d 3e
       -0.0066830544 0.002819866 0.27183458 0.23197022
000300 52 84 af bd b8 0d 97 bd b4 52 c4 bd e0 18 44 3c
       -0.0857016 -0.073756635 -0.09586087 0.011968821
000310 f0 65 8a bc 9e d3 f7 3d 80 f5 bc 3d e8 80 18 bd
       -0.01689431 0.1210091 0.09226513 -0.03723231
000320 08 6d 9c bd 00 c6 af 3c 18 f8 d5 bc 78 d6 f3 bc
       -0.076379836 0.021456718 -0.026119277 -0.029765353
000330 20 df ed 3b 30 00 33 3c 20 27 51 bd dc fd 7d 3d
       0.0072592646 0.010925338 -0.051062703 0.062009677
000340 78 b7 fb bc 20 f0 1b 3c b8 14 f7 bc 52 37 ab 3d
       -0.030727133 0.0095176995 -0.030161247 0.08360161
000350 18 18 65 bd d0 36 b8 bc 54 80 0e bd 88 17 bd bd
       -0.05593118 -0.022487074 -0.034790352 -0.09233004
000360 18 6f ce 3d 22 e4 8f 3d 5a 36 82 3d 00 88 14 b9
       0.10079783 0.07025935 0.06358023 -0.00014165044
000370 3c 8d a8 3d c0 e4 12 bb 88 58 ca 3d 40 6f aa 3d
       0.08230063 -0.0022414178 0.09880167 0.083220005
000380 f8 3b cf 3c 92 cd ea 3d c0 f4 6a 3d 90 f4 fc bc
       0.02529715 0.11464991 0.057362318 -0.030878335
000390 80 3b 46 3c f4 1e 78 3d 80 d0 cc 3d 30 f7 7d bd
       0.012099147 0.060576394 0.10000706 -0.062003314
0003a0 48 99 96 3d 70 bf f1 bc b8 0e 93 3c 58 10 9e 3d
       0.07353455 -0.02951023 0.017951354 0.07717961
0003b0 38 1f 21 3d 54 df 52 bd a0 20 4b 3d ec 8d fc bd
       0.039336413 -0.051482514 0.04959166 -0.12331757
0003c0 50 d7 2e bc a6 9e e7 bd 76 33 b1 bd 50 8f ee 3d
       -0.010671452 -0.11309557 -0.086523935 0.116484284
0003d0 e8 94 db 3c 98 af 04 bd d0 51 b1 bd 3c d4 07 bd
       0.026804402 -0.03239402 -0.086581826 -0.033161387
0003e0 10 70 b6 bc 04 ba 2e bd 00 82 d2 bd f8 7e d9 3c
       -0.022270232 -0.042657867 -0.10278702 0.026549801
0003f0 ac 57 57 3d 80 ef 0f bc 6c c9 d0 bd 0a c6 b9 bd
       0.052573845 -0.008785129 -0.10194668 -0.09070976

fc2.bias f4 [64]
000000 43 fe bb 3f c8 b9 37 bd 6b 1c 9e 3f b4 bf ec bd
       1.468697 -0.04485491 1.2352422 -0.11560002
000010 eb 4e d6 3f 16 ed 3f 3f e6 04 35 bd 96 94 c9 3d
       1.6742834 0.7497114 -0.044194125 0.09842794
000020 c8 3b d2 3c 97 e7 5c 3d 74 95 86 3f 60 9b a1 3f
       0.025663272 0.0539318 1.051436 1.2625542
000030 bb 72 fb 3c 25 da e3 3e 08 5b fb 3f 6b 95 b0 3f
       0.030694356 0.4450237 1.9637156 1.3795599
000040 ad 6c de 3f b4 a7 2b bd 9f a3 b5 bf 9e 6e e7 3f
       1.7376915 -0.04190798 -1.4190558 1.8080633
000050 62 b7 dc 3f 52 9d 8f 3d 6d e2 85 3d 86 35 a2 bd
       1.7243464 0.07012428 0.06537328 -0.07920365
000060 8a 6e bc 3c fe 0e a1 bd e4 40 b5 3d 30 e4 01 be
       0.023001928 -0.07864188 0.088502675 -0.12684703
000070 14 57 4b bd 5d b0 97 bf 94 ef a3 3f 63 13 98 3f
       -0.04964359 -1.1850697 1.2807488 1.1880916
000080 86 7b aa bd 01 f7 e1 3f fe 44 e1 3f 2f ea da 3d
       -0.083243415 1.7653505 1.759918 0.10689198
000090 6f cb 92 3e 52 a2 8c 3c 9a 9a 84 bd fb d3 59 3f
       0.28670833 0.017167244 -0.064748004 0.8508908
0000a0 d9 f9 6e 3f 70 a0 00 3d f4 f3 80 3d 30 4f 8a bc
       0.9334999 0.031403005 0.0629653 -0.016883463
0000b0 6d cb 97 3f 23 c4 a6 3f 78 57 27 3d c0 c7 28 3f
       1.1858956 1.3028606 0.0408549 0.65929794
0000c0 e0 49 62 3f 73 51 70 3f f9 da e6 3f 56 3b 88 bd
       0.88393974 0.9387428 1.8035575 -0.066519424
0000d0 68 0b a2 3f 23 8d c1 bf 77 74 00 bd b4 fe 96 3d
       1.2659731 -1.5121197 -0.03136107 0.073727995
0000e0 a8 4a cd 3e f8 8f b7 3f 78 32 51 bc 38 a1 53 bd
       0.4009602 1.4340811 -0.01276838 -0.051667422
0000f0 de ff 7d 3f 76 f4 b9 3f 63 e4 65 3d 38 78 eb bd
       0.9921855 1.4527729 0.05612601 -0.11497539

fc3.weight f4 [20, 64]
000000 f0 3f 90 3e dc f3 a3 3d 11 e9 30 3e 94 1d 47 bd
       0.2817378 0.08005497 0.17276408 -0.048612192
000010 a0 e8 d6 3e 49 af 24 3e cf 5f 88 3d 58 3a 45 3d
       0.41974354 0.16082491 0.06658899 0.048151344
000020 a2 7e f6 3d 63 9b 31 bd eb 5f a0 3d 10 fa 62 3e
       0.12035872 -0.04336108 0.07830795 0.22165704
000030 e8 30 41 bd 67 84 80 be 55 1c 8b bf d1 7c d4 be
       -0.04716578 -0.25101015 -1.0868021 -0.41501477
000040 65 cd cf 3e 34 e1 3a 3d 0d 47 5f be cf e1 15 3f
       0.4058639 0.045624927 -0.21804447 0.5854768
000050 5e 1f 87 3e e1 d5 53 3d 09 25 a9 bd 40 d6 52 bd
       0.2639112 0.051717643 -0.08259017 -0.051473856
000060 5f f8 37 3d 98 63 d0 bd c2 90 97 bd 34 73 59 bd
       0.0449146 -0.10175246 -0.07400657 -0.053088382
000070 9a 1f fc 3d 76 74 90 be 6c 8d 24 3e 46 01 2f 3e
       0.12310715 -0.28213853 0.16069573 0.1709033
000080 d0 bd 19 3d 6f cd 00 bf 77 6b d2 3e 1f ae 86 bd
       0.037534535 -0.50313467 0.41097614 -0.0657618
000090 ff 97 15 3e 3c 37 98 3d 1c be c7 3d 83 21 99 3d
       0.14608763 0.0743241 0.09753057 0.07477095
0000a0 df 22 13 3e 48 3e b6 bc 11 c5 a2 bd 1c d3 ec bd
       0.14368771 -0.022246495 -0.07947744 -0.115637034
0000b0 0e 63 53 3e 0a c3 61 3e 38 64 d0 3c 6a 78 8b 3d
       0.20643255 0.22047058 0.025438413 0.068100765
0000c0 6b f5 cf 3d 10 35 1e 3e 61 33 04 3f 3c 0a ef 3d
       0.10154232 0.15449929 0.516409 0.11671874
0000d0 c5 6c 83 3e fb 43 c2 be a0 21 fb 3b 85 7d 13 3d
       0.25668922 -0.3794249 0.0076639205 0.036008377
0000e0 26 54 55 bc 2f ab f4 3e c8 e4 81 bb 00 f8 be 3a
       -0.013020551 0.47786853 -0.0039640404 0.0014569759
0000f0 1b 7b 3c 3e 9b 46 8a bf 0a bf 8f bd 44 e8 71 3d
       0.18406336 -1.0802797 -0.0701886 0.059059396
000100 6d 02 2d 3e d0 81 bd bd e5 cd 62 3e 40 7a b7 bb
       0.16895457 -0.092532754 0.22148855 -0.00559929
000110 79 74 16 3f 04 af ee 3a 10 52 3d 3d 08 d7 f6 3d
       0.58771473 0.0018210118 0.04622084 0.12052733
000120 e0 54 b1 bc 99 5f 9c bd 73 e7 56 3e 84 af 2a 3e
       -0.021646917 -0.07635421 0.20986728 0.16668516
000130 34 13 c9 3c ac 19 ba be 89 04 67 bf b5 48 0c bf
       0.02454529 -0.3634771 -0.90241295 -0.5479844
000140 43 d3 b9 3e fc 4a 75 3d 49 ba aa be da 63 d8 3e
       0.36293992 0.059885964 -0.3334525 0.4226368
000150 cf 62 55 3e e6 bc 56 bd d9 10 c9 3d 4f cc 9e bd
       0.20838474 -0.05242624 0.098176666 -0.077538125
000160 de 10 0f 3d 24 aa ce bd 6a ab e9 3d f0 29 0b 3c
       0.034928195 -0.100910455 0.11409648 0.008493885
000170 11 1d 0a 3e 9d ea 1d be 46 50 51 3e 06 c0 36 3e
       0.1348765 -0.15421529 0.20440778 0.17846689
000180 32 5a 90 3d 08 bc 32 bf 11 92 eb 3e 38 48 98 3d
       0.070484534 -0.6981816 0.46009877 0.0743565
000190 11 84 b1 3d 20 2f ad bb 92 22 ad 3d 71 0c 1f 3e
       0.08667768 -0.0052851588 0.084538594 0.1553209
0001a0 5b 7e 08 3e 40 72 61 3b 6a e5 17 bd 78 d3 ac 3d
       0.13329451 0.0034400374 -0.03708402 0.08438772
0001b0 4c c2 e6 3d fd 0d 54 3e 8a 52 e3 bd 4c cc 4f 3e
       0.11267528 0.20708461 -0.110997275 0.20292777
0001c0 3b 6a 00 3e 4b cc 48 3e b0 06 0a 3f 50 f6 72 bc
       0.12540524 0.19609182 0.53916454 -0.014829233
0001d0 53 23 d7 3d fc c9 7c be e8 1d 1e bd 10 00 e6 bc
       0.105047844 -0.24686426 -0.03860274 -0.028076202
0001e0 f0 62 c3 3c 20 1d b2 3e 6d 43 03 bd d0 c1 8a 3d
       0.023850888 0.34787846 -0.032046724 0.06775248
0001f0 d5 fb 7c 3d 9f fd 31 bf 64 25 5b bd c6 90 cc 3d
       0.061763603 -0.6952762 -0.053502455 0.09988551
000200 a1 2b 2e 3e d0 f6 13 3d 28 20 8a 3e e0 40 89 bb
       0.1700883 0.03612405 0.26977658 -0.004188642
000210 c2 d6 00 3f 0f a9 cc 3c b1 ec 9e bd 30 83 e0 bc
       0.50327694 0.024982957 -0.07759989 -0.027406305
000220 34 2c 23 bd 57 94 23 bd 49 3c 64 3c ed 6b 68 3e
       -0.039837077 -0.03993639 0.013930389 0.2269742
000230 6f 9a 98 bc 18 cf 1e be 5d 47 34 bf db cf 1d bf
       -0.018628327 -0.15508687 -0.7042139 -0.6164529
000240 f8 ca 75 3e 44 69 66 bd 8a 9a 2f be 1b 5f f4 3e
       0.24003208 -0.056252733 -0.17148796 0.4772881
000250 e1 58 6a 3e a6 e1 02 3d d3 0e 2b bd 5c 48 f3 bc
       0.22885467 0.031953476 -0.041762184 -0.02969759
000260 8c 10 01 be 2e c4 ec bd 46 ff f1 3d e8 c9 ac 3c
       -0.12603968 -0.11560856 0.11816268 0.02109237
000270 41 ab 05 3d 7e 8f 8b be b8 0b 6f 3e 2d 5a a3 3d
       0.032634024 -0.27257913 0.23344314 0.07976184
000280 ee bf c8 bd 9f d6 28 bf dd 0b f8 3e 2e ee d9 bd
       -0.09802233 -0.65952486 0.4844655 -0.10641132
000290 a1 f0 82 3d 0d 5c b6 bd 80 7c 7b bb eb d2 a0 3d
       0.063935526 -0.08904276 -0.0038373768 0.078527294
0002a0 92 12 e0 3c e4 61 60 3d 9f 27 07 bc 16 d9 d6 bd
       0.027352605 0.054780856 -0.0082491925 -0.104906246
0002b0 6f 19 bf 3d bb 5b 4a 3c 4e 24 d0 3d b1 09 aa 3c
       0.09331023 0.012350972 0.101631746 0.020756574
0002c0 fa a0 62 3e b4 d3 04 3e 79 66 c4 3e 2a 67 d0 3d
       0.2213172 0.12971383 0.3835943 0.10175927
0002d0 5b 67 ef 3d 5e 2b 71 be 00 ed ef ba ae c1 b2 bd
       0.11689635 -0.235517 -0.0018304884 -0.08728348
0002e0 05 8a 0d 3e d4 ed a0 3e 5f 53 e6 3d d8 21 82 bd
       0.13822182 0.31431448 0.112463705 -0.063541114
0002f0 b0 6a 30 3d a1 ce 2f bf 52 79 75 bd 8e 17 ba 3d
       0.043070495 -0.68674666 -0.059930153 0.09086524
000300 eb a0 db 3d f6 99 b7 3d 95 e7 52 3e 68 8c 10 3d
       0.10724052 0.089649126 0.20596154 0.03529015
000310 c4 0b 08 3f e5 f1 98 3d 56 42 3d 3d 40 da a1 bb
       0.5314295 0.07468013 0.04620584 -0.0049393475
000320 d4 38 05 bd bb 34 38 be 21 dc b8 3d ab b3 1a bd
       -0.0325249 -0.17988865 0.09026361 -0.037769
000330 27 14 bc 3d 9d 14 8f be 58 74 1a bf 56 1f 1a bf
       0.09183531 -0.27945414 -0.60333776 -0.60204065
000340 3e fd 9f 3e 9a 4c 87 3d f2 30 a4 be 7b 80 df 3e
       0.31247896 0.066064075 -0.32068592 0.4365271
000350 46 6d 92 3e a3 c8 9e 3b ac 46 8c bb 80 b4 8a 3d
       0.28598994 0.004845695 -0.0042808857 0.06772709
000360 50 d8 06 3c 2a de 9e 3d 70 93 71 bd 2d 82 ec 3b
       0.008230284 0.07757218 -0.058978498 0.0072176666
000370 d1 4d ab 3d 5e f5 6d be 3b a3 03 3e 1b 53 59 3e
       0.08364452 -0.23238131 0.12855236 0.21223108
000380 a0 97 ef bc 8d 3c 01 bf 40 51 de 3e e0 13 d2 bc
       -0.029247105 -0.5048302 0.43421364 -0.025644243
000390 86 75 df 3d 51 9f 9d 3d 40 68 5f bc 95 c7 4d bc
       0.10911088 0.07696403 -0.013635695 -0.012559791
0003a0 7b 93 cb bd c4 7d 87 3d 13 7f 9b 3d 20 20 ad bc
       -0.09940239 0.06615785 0.07592597 -0.021133482
0003b0 63 cc 17 bd 8e 37 fe 3c 94 19 ac bd 7e 37 c2 3d
       -0.037060153 0.03103235 -0.08403316 0.094832405
0003c0 df 05 47 3e 63 d2 81 bc f0 05 0b 3f 3a af ae 3d
       0.19435833 -0.01584739 0.54305935 0.085295156
0003d0 33 16 5e bd dc d5 26 be 68 2f c2 bd b8 ac 2e bd
       -0.05422039 -0.16292518 -0.09481698 -0.042645186
0003e0 f9 39 21 3e c7 15 e2 3d f0 87 80 3c 30 ea 27 bd
       0.15744771 0.1103931 0.01568982 -0.040994823
0003f0 da bb 19 bd de 8e 09 bf 7e bb a4 3d 58 f2 80 bd
       -0.037532665 -0.53733623 0.08043574 -0.062962234

fc3.bias f4 [20]
000000 da a1 93 3f 16 61 47 3f 36 d2 1e 3f e4 29 20 3f
       1.1533768 0.77882516 0.62039506 0.6256392
000010 63 d3 12 3f fc 19 cb 3e 38 16 92 3e b5 f4 d4 3e
       0.573538 0.39668262 0.28532577 0.41592947
000020 4a 73 95 3d ed 2c 17 3d 78 65 4d 3e f5 d7 e2 3c
       0.0729738 0.03690808 0.20058239 0.027690867
000030 be 05 65 3d e0 d5 25 bd f4 0d 73 be 86 c6 cb be
       0.05591368 -0.04048717 -0.23735791 -0.397999
000040 70 b1 87 be f4 fc 86 be 32 78 9c be de f8 c8 be
       -0.26502562 -0.26364863 -0.30560452 -0.3925237

fc1.weight f4 [64, 3]
000000 fb b1 ae bc a8 34 a1 3e 02 7c bb 3e 25 6f b1 be
       -0.021325102 0.31485486 0.36618048 -0.3465511
000010 aa c5 12 3f fb be 76 3d 7b ec 45 be eb ef 0f 3c
       0.5733286 0.060240727 -0.19328491 0.008785228
000020 67 25 c8 3c e0 25 5e bd 4c c0 16 be d0 19 80 bd
       0.024431897 -0.05423534 -0.14721793 -0.06254923
000030 a3 d7 f3 be 39 94 cd be a8 c7 c3 3e 79 36 98 3e
       -0.47625455 -0.40152147 0.38238263 0.2972906
000040 32 08 db bc 89 64 b4 3c fa ad 9d 3d 2c 75 ab 3e
       -0.026737306 0.022020595 0.07699199 0.33487833
000050 a8 30 b9 be 36 48 de bd 1f 6b 05 be c5 c8 1c 3c
       -0.36169934 -0.10853617 -0.13029145 0.009569352
000060 fd 99 04 3f 68 14 ed 3e 1a b0 08 3e 9a 84 26 bf
       0.5179747 0.4630463 0.13348427 -0.65046084
000070 ff 64 03 3e 0c 4c 97 3d c4 35 07 be a3 cc 5b 3e
       0.12831496 0.07387552 -0.13204104 0.21464781
000080 78 91 49 bf a3 0e 84 3e f8 1b d0 be 79 37 66 3e
       -0.7873759 0.25792417 -0.40646338 0.22482099
000090 ec ea 0c be f3 e5 a4 bd ef 42 0d 3d 2d 6e 11 3f
       -0.1376149 -0.08051672 0.03448766 0.5680874
0000a0 c7 f5 7d be 90 9e 02 bb f7 af 71 3e 68 67 fc 3d
       -0.24800788 -0.0019930936 0.23602282 0.12324411
0000b0 3c 72 26 bd 20 86 af be 2c 43 96 3e 95 39 a0 3e
       -0.040636286 -0.34282017 0.29348123 0.31293932
0000c0 dc ef 46 bf d7 34 ca 3d b9 7a f9 3d 40 2a 02 3e
       -0.77709746 0.0987336 0.121816106 0.1271143
0000d0 5f e6 4c 3e c2 26 c3 be 4e 75 f2 3e 0c 2f 22 be
       0.20009755 -0.38115507 0.4735512 -0.1583826
0000e0 58 17 50 3e 6e 59 2d 3d cd 54 f4 3e 40 1b 18 bd
       0.20321405 0.042321615 0.47720948 -0.037135363
0000f0 5a 97 b4 be eb 7d 13 bf f0 28 8a be 6a 50 2a 3e
       -0.35271722 -0.5761401 -0.26984358 0.16632238
000100 8f fa 80 3e 05 11 ae 3d b5 9d 32 3e 61 07 16 3f
       0.2519116 0.0849934 0.17442973 0.5860501
000110 75 95 51 3e b7 bb cf 3e dc 6d d5 be 50 4e 06 3f
       0.2046717 0.40572903 -0.4168538 0.52463245
000120 89 08 76 3d eb 32 f7 bd 01 b4 8a 3c 7b b1 8d be
       0.060066734 -0.12070259 0.016931536 -0.2767447
000130 ae 49 7a be bc d1 11 bf d6 de 8f bd 50 c6 b1 bd
       -0.24442169 -0.56960654 -0.070249245 -0.08680403
000140 a9 65 8e 3b 89 09 1c 3f e7 36 fd bd 48 52 cf bc
       0.004345615 0.6095205 -0.123639874 -0.02530779
000150 20 a4 a5 3d ec 66 4b bc a3 b0 31 3e 3d 52 df bd
       0.08087945 -0.012414675 0.17352538 -0.109043576
000160 77 69 03 bf 74 ab 13 3e 46 d3 2e bf e7 ad 60 3e
       -0.513328 0.14420873 -0.6829113 0.21941338
000170 f8 02 86 3d b8 b5 ba 3e df 4b c1 be f1 5a 17 3e
       0.06543535 0.36466765 -0.37753198 0.14780785
000180 45 7c 22 be 07 8f 08 3f 0b 4d a2 3e 55 5a 01 be
       -0.15867718 0.5334324 0.31699404 -0.12632115
000190 ce 45 c8 be f7 d3 f3 3e 40 a3 34 3e 57 20 a4 be
       -0.39115757 0.47622654 0.176404 -0.32055923
0001a0 45 0a 82 be 86 8c b4 be f6 20 61 be b6 b7 68 be
       -0.2539846 -0.3526346 -0.2198523 -0.2272633
0001b0 11 a3 d5 3e dc a8 6e 3e 66 7c b3 bd 65 2f 6e 3e
       0.41725972 0.23306602 -0.087639615 0.23260267
0001c0 00 b0 7e 3a b0 9b 6b be f9 f3 66 be 3a fe 01 be
       0.0009715557 -0.23008609 -0.22554006 -0.12694636
0001d0 68 ad 42 3e bc 17 8c be a1 54 8a 3e 39 d9 7a 3e
       0.19011462 -0.27361858 0.27017692 0.24496926
0001e0 5d d1 84 be f0 e9 b6 be 92 d1 80 3e 9f d6 7f 3e
       -0.25940982 -0.35725355 0.2515989 0.24984215
0001f0 77 2a ec 3e e7 8c 55 bd a0 c6 02 3f 48 8c 8a 3e
       0.46126148 -0.052136328 0.5108433 0.2706015
000200 c3 df eb bd 90 1b b2 3e b7 0a a9 3e 14 f5 da 3e
       -0.115172885 0.34786654 0.33015987 0.42765105
000210 be ae 02 3f aa 9d 62 3c 76 55 97 bc 38 bb 3a be
       0.51047885 0.013831535 -0.018473368 -0.18235481
000220 b8 57 af 3e 46 b5 18 3c 4e e7 d1 3e d2 3b ef bc
       0.34246612 0.009320563 0.40996784 -0.02920333
000230 87 49 19 bf c6 5a 64 bd e2 88 ff 3e 6e f7 ac 3e
       -0.5987782 -0.05575063 0.4990912 0.33782524
000240 d5 22 36 3e 94 f9 67 3d 28 bc 02 bd f3 f7 00 3e
       0.17786725 0.0566345 -0.03191772 0.12594585
000250 8f 69 69 3e 42 3a 10 bf 80 c9 e8 3c f1 03 bd be
       0.22794174 -0.56338894 0.028416395 -0.3691707
000260 60 e7 fd bc 8d 7b d3 be aa 75 13 be f3 ba 05 bf
       -0.030994117 -0.413052 -0.14400354 -0.52238387
000270 af 5f 81 be 4e e9 92 be 3f fa a6 3e 81 42 91 bd
       -0.25268313 -0.28693622 0.32612798 -0.07092763
000280 4e 9f f8 3e 21 68 bd bc 0f 9c 11 3f bb dc 79 3e
       0.4855904 -0.023120942 0.5687875 0.24400608
000290 8f 81 d7 3e dc e0 45 3e 08 f4 14 3e 6b ea 11 bd
       0.42091033 0.19324058 0.14546216 -0.03562395
0002a0 2a 35 80 3c 94 2c b1 3e e4 e3 04 bf 50 f2 2c 3f
       0.01565035 0.34604323 -0.51910233 0.6755724
0002b0 80 6c 9b 3d eb a7 04 3f 90 73 13 3d cc 75 c7 bd
       0.07589054 0.5181872 0.03599888 -0.09739265
0002c0 9e 1a 36 be b2 05 be be 42 84 ba be fe 3b 02 3f
       -0.17783591 -0.3711372 -0.3642903 0.5087279
0002d0 91 0f 66 3e 2d 10 5d be 70 f6 ea 3d e6 87 06 bf
       0.22466876 -0.21588202 0.114727855 -0.52551115
0002e0 52 21 01 bf de b3 35 be dd 0a d5 3e db 4b b1 3c
       -0.5044147 -0.17744395 0.4160985 0.021642616
0002f0 ef 6f 44 bd 8c 7f bc 3e 68 b4 a2 3e 83 82 2a bd
       -0.04795831 0.3681606 0.31778264 -0.041628372

fc1.bias f4 [64]
000000 14 42 c4 3f 55 2a 29 40 43 9c 47 40 77 2c ae be
       1.5332665 2.6432087 3.1189125 -0.340183
000010 c7 cf d8 bf b9 dc 16 40 c7 88 5b 40 97 7c 48 40
       -1.6938409 2.3572218 3.4302232 3.1326044
000020 96 72 a7 bf b1 f1 c6 3f 94 53 3d 40 cc 34 ce 3f
       -1.3081844 1.5542508 2.9582262 1.6109862
000030 9b 44 16 40 8e 3c 01 40 44 9a 0f 40 76 03 b3 be
       2.3479373 2.019321 2.2437906 -0.34963578
000040 7b 35 c6 3f 8b ca 53 40 d8 d1 b5 3e 77 2e df 3f
       1.5485071 3.3092372 0.3551166 1.7436055
000050 fe 7a d6 be e6 0d a6 3f f6 d5 4f 3f 16 10 8d bf
       -0.4189071 1.2972991 0.81185853 -1.1020534
000060 12 e3 12 40 98 15 b6 bd 4d 6f 40 40 a1 02 01 40
       2.2951093 -0.088908374 3.0067933 2.0157855
000070 e1 50 19 c0 b2 34 1d 40 95 dd ad 3f 65 4c ff 3f
       -2.3955615 2.4563413 1.3583246 1.9945189
000080 4e c2 f7 3e 35 85 70 bf 08 4a 04 bf 5f eb 07 3e
       0.4839043 -0.9395326 -0.5167546 0.1327338
000090 27 04 c4 3f 2a 40 3b be cb 58 10 c0 10 e1 95 be
       1.5313767 -0.18286195 -2.2554195 -0.29273272
0000a0 a6 32 b8 3f 59 f6 23 40 4c 46 9b 3f 2c 31 91 be
       1.4390457 2.5619109 1.2130828 -0.28357828
0000b0 84 56 88 3f c5 b4 eb 3f 64 52 02 40 b9 04 c7 3f
       1.0651402 1.8414541 2.0362787 1.5548316
0000c0 8e 24 05 40 2d 12 2f 40 10 7c 5b 3e b4 70 e2 3e
       2.0803561 2.7354844 0.21434045 0.4422661
0000d0 fa b1 fa bf 39 2c 08 40 b8 3b b7 be 96 67 32 40
       -1.9585564 2.1276991 -0.3578775 2.7875724
0000e0 f3 f2 2e 40 6e ea ce bf a2 8e 09 bf df 44 a1 bf
       2.7335784 -1.6165292 -0.53733265 -1.2599143
0000f0 09 2b af 3f 00 45 44 bd 1b 76 37 40 e5 40 03 40
       1.3685008 -0.047917366 2.8665836 2.0508358

fc2.weight f4 [64, 64]
000000 07 29 76 bd d3 56 18 3e 93 7e 84 3f cc 43 47 3d
       -0.06009772 0.14876871 1.0351127 0.04864864
000010 f7 13 3f bd d1 44 bf 3c 57 97 ba 3d 47 40 a0 3f
       -0.0466499 0.023348244 0.09110897 1.2519616
000020 38 a6 dc bd 35 0f 19 3c eb 9b 92 3e 67 fa 23 bd
       -0.10773891 0.009342005 0.2863458 -0.040033724
000030 f4 55 85 3e 05 16 c6 3e 67 41 91 3e 0d 78 be 3d
       0.2604214 0.38688675 0.2837021 0.093002416
000040 9e a2 7d 3c de 1f 85 3e f6 7b 14 3e be 97 16 3e
       0.0154806655 0.26000875 0.14500412 0.14706323
000050 00 d9 20 3a 0e 5b 19 3e f7 55 fb 3d 66 22 8b 3d
       0.0006135851 0.14976141 0.12272256 0.0679367
000060 c0 80 19 3d b2 83 8b 3d 3b 1b 13 3f 5c e6 0f 3f
       0.0374763 0.06812228 0.57463425 0.56210876
000070 30 d8 24 bd 5a 3b 5b 3e b2 2e 50 bc 69 b1 43 bd
       -0.040245235 0.2140936 -0.0127064455 -0.047776613
000080 6f c9 db 3d fa d1 c0 3d da 31 15 3c 42 1c c4 bd
       0.1073178 0.0941505 0.009106124 -0.09575702
000090 39 e9 48 bd f0 22 64 3c 02 4c 88 be 7e b8 c7 bc
       -0.049050543 0.013924345 -0.2662049 -0.024379965
0000a0 3d d7 66 bb 78 33 89 3e 37 a1 e0 bc ae 7e e6 3c
       -0.0035223507 0.2679708 -0.027420623 0.028136577
0000b0 90 15 9b 3c 1d 5f 8c 3e 2f 08 9a 3e 89 29 18 3e
       0.01893118 0.27416316 0.3008437 0.14859594
0000c0 67 46 fa 3e 7e fa 33 3e f7 b5 d3 bd c8 75 2c 3d
       0.48881838 0.17576024 -0.103374414 0.042104512
0000d0 d6 c9 aa bd 94 36 70 3e 9a 1f 4d 3d 72 5d 74 3e
       -0.083392784 0.2345832 0.050078966 0.23863772
0000e0 02 14 2a 3e 4a cf 9f bd 07 d2 dc 3d 40 c3 53 bd
       0.16609195 -0.07803209 0.10782247 -0.051699877
0000f0 aa 9c 39 bd c0 4f 85 bb d7 9c 05 3f 94 ae ee 3d
       -0.045315422 -0.004068345 0.52192444 0.11654392
000100 24 66 e7 bd aa 8b 89 bd 40 5f a6 3d 00 ef 5f 3d
       -0.11298779 -0.06716092 0.08123636 0.054671288
000110 2c 08 f4 bd 00 47 a9 bd 24 f8 21 3d 60 f1 b9 3d
       -0.11915621 -0.08265495 0.039543286 0.09079242
000120 e2 24 d7 bd 3c 5a 56 3d 6c 97 1b 3d 00 73 4d bd
       -0.10505082 0.052332148 0.037986204 -0.0501585
000130 c8 25 8b 3c 98 69 38 bd 12 48 a4 bd 72 28 bf bd
       0.016985789 -0.045022577 -0.08021559 -0.09333886
000140 b0 da e8 3d 7a c7 a9 bd df ca 49 bd 90 3a 5c 3c
       0.11369836 -0.0829 -0.04926574 0.013441697
000150 da 24 b0 bd 60 8f d8 bd ea 2f eb 3d 92 74 ed bd
       -0.08600779 -0.105742216 0.11483748 -0.115945
000160 1a 27 9b bd 3c 5b b8 3d d6 6f f7 3d 06 5c df bd
       -0.075758174 0.090017766 0.12081878 -0.10906224
000170 28 7f bf bc c0 36 53 3b 80 47 81 bc d8 c8 12 bd
       -0.023376063 0.0032228678 -0.015781164 -0.03583607
000180 bc 63 cb bd 4a 18 d6 3d f8 5f db 3c 5c c7 ff 3c
       -0.09931132 0.104538515 0.02677916 0.031222992
000190 3a 7e 97 3d f0 a8 c6 3c a8 3a 13 bd 98 98 49 bd
       0.07397123 0.024250478 -0.03594461 -0.04921779
0001a0 c0 8e 68 bb 40 a8 05 bd 40 f4 6b 3c 88 7f 8b bc
       -0.0035485476 -0.03263116 0.014401495 -0.017028585
0001b0 e6 8e 80 3d 20 2c af bd 42 ea fe 3d a0 97 46 3d
       0.06277256 -0.08553338 0.12447025 0.048484445
0001c0 78 d2 67 bc 20 69 53 bd c8 55 d9 bc aa d3 b8 bd
       -0.014149301 -0.051613927 -0.026530161 -0.09024747
0001d0 e0 0b a3 bc 60 4e f3 3c 20 3a e7 3d 54 fe 0f bd
       -0.019903123 0.029700458 0.11290383 -0.035154656
0001e0 38 96 d9 bc 0c 47 46 bd c8 50 b4 3d 60 d5 47 bc
       -0.026560888 -0.0484076 0.0880447 -0.012196869
0001f0 72 0a ff bd d4 77 04 3d e8 9b 81 bc d8 94 af bd
       -0.12453164 0.03234084 -0.015821412 -0.085733116
000200 9b c3 cd 3d 17 08 9b 3e fd b4 1b 3f 84 f3 98 bd
       0.100470744 0.3027961 0.6082304 -0.07468322
000210 69 8e 69 3b ac 68 21 3e 88 9c 98 be f2 0e 62 3f
       0.0035637862 0.15762585 -0.29806924 0.88304055
000220 fa b1 67 bd b0 04 12 be 31 0f bb 3e c5 f3 85 3b
       -0.056566216 -0.142596 0.36535028 0.0040878975
000230 43 47 92 3e 3e b9 b1 3d 05 ad 58 3e 9c 70 83 3d
       0.28569993 0.0867791 0.21159752 0.06417963
000240 4b 74 e0 3d 0b 92 cc bd 0d ad 39 3d ba db 15 3e
       0.10959681 -0.09988793 0.04533105 0.146346
000250 68 27 3d 3d 42 a2 b1 3d 1e 79 2a 3d ac 6c 46 3d
       0.04618016 0.08673526 0.041619413 0.04844348
000260 d2 c7 b1 3d 4c d5 20 bd 4b 37 18 3f 13 0e 61 3d
       0.08680691 -0.039265916 0.5945937 0.054945063
000270 09 96 09 bd d9 02 be 3e 62 4d d5 3d 32 31 fa 3d
       -0.03359035 0.37111548 0.1041515 0.122164145
000280 67 2c a9 b9 e1 1e da 3d 88 8c b9 3c 00 44 4e 3a
       -0.00032267274 0.10650421 0.022650018 0.0007868409
000290 fe 77 b1 bd 70 b5 e5 bc cc ea 2d be 9c ba e7 3d
       -0.08665465 -0.028040618 -0.16984099 0.1131489
0002a0 01 f7 1e 3d b5 6b 4f 3e fb 96 64 3d 3f e4 0a bd
       0.03880978 0.2025593 0.05580805 -0.03390908
0002b0 81 01 0a 3d dd 5e e4 3e d4 c8 63 3e 79 28 a2 bd
       0.03369284 0.44603625 0.22244579 -0.07917876
0002c0 88 37 04 3e a2 52 dc 3d da b1 9e bd bc d6 f4 bd
       0.12911808 0.107579485 -0.07748766 -0.1195502
0002d0 73 9a ca bd 48 77 8b 3e bc e2 e2 3d b1 35 55 3d
       -0.0989274 0.27239442 0.110784024 0.052053157
0002e0 5e 41 67 bd df 30 95 3c f8 6f bb 3d 98 cf 02 be
       -0.056458823 0.01821178 0.09152216 -0.12774503
0002f0 a4 09 6e bc 80 cd 38 3b d3 48 6e 3e d5 1c 4f 3e
       -0.014528666 0.002819866 0.23269968 0.20225842
000300 52 84 af bd b8 0d 97 bd b4 52 c4 bd e0 18 44 3c
       -0.0857016 -0.073756635 -0.09586087 0.011968821
000310 f0 65 8a bc 2e d4 f7 3d ac f5 bc 3d e8 80 18 bd
       -0.01689431 0.12101017 0.09226546 -0.03723231
000320 70 6d 9c bd 00 c6 af 3c 19 f8 d5 bc 78 d6 f3 bc
       -0.07638061 0.021456718 -0.026119279 -0.029765353
000330 20 df ed 3b 30 00 33 3c 20 27 51 bd 53 fe 7d 3d
       0.0072592646 0.010925338 -0.051062703 0.06201012
000340 49 b8 fb bc 70 f0 1b 3c c5 14 f7 bc 52 37 ab 3d
       -0.030727522 0.009517774 -0.03016127 0.08360161
000350 18 18 65 bd d0 36 b8 bc 54 80 0e bd 88 17 bd bd
       -0.05593118 -0.022487074 -0.034790352 -0.09233004
000360 18 6f ce 3d 22 e4 8f 3d 6a 36 82 3d 00 88 14 b9
       0.10079783 0.07025935 0.06358035 -0.00014165044
000370 3c 8d a8 3d c0 e4 12 bb 88 58 ca 3d 6c 6f aa 3d
       0.08230063 -0.0022414178 0.09880167 0.08322033
000380 f8 3b cf 3c 92 cd ea 3d c0 f4 6a 3d b2 f4 fc bc
       0.02529715 0.11464991 0.057362318 -0.030878399
000390 80 3b 46 3c f4 1e 78 3d 80 d0 cc 3d 30 f7 7d bd
       0.012099147 0.060576394 0.10000706 -0.062003314
0003a0 48 99 96 3d 70 bf f1 bc f9 0e 93 3c 58 10 9e 3d
       0.07353455 -0.02951023 0.017951475 0.07717961
0003b0 38 1f 21 3d 54 df 52 bd a0 20 4b 3d ec 8d fc bd
       0.039336413 -0.051482514 0.04959166 -0.12331757
0003c0 50 d7 2e bc a6 9e e7 bd 76 33 b1 bd 50 8f ee 3d
       -0.010671452 -0.11309557 -0.086523935 0.116484284
0003d0 9e 95 db 3c 98 af 04 bd d0 51 b1 bd 3c d4 07 bd
       0.026804741 -0.03239402 -0.086581826 -0.033161387
0003e0 10 70 b6 bc 04 ba 2e bd 00 82 d2 bd f8 7e d9 3c
       -0.022270232 -0.042657867 -0.10278702 0.026549801
0003f0 ac 57 57 3d 80 ef 0f bc 6c c9 d0 bd 0a c6 b9 bd
       0.052573845 -0.008785129 -0.10194668 -0.09070976

fc2.bias f4 [64]
000000 9f 61 a6 3f d0 b9 37 bd 75 b3 8b 3f 34 c0 ec bd
       1.2998542 -0.04485494 1.0914141 -0.11560097
000010 68 91 b5 3f 8e e1 33 3f 5e 15 31 bd 96 94 c9 3d
       1.4185 0.70266044 -0.043233268 0.09842794
000020 c8 3b d2 3c e0 ec 97 3d 76 44 86 3f f8 e2 8e 3f
       0.025663272 0.07418227 1.0489643 1.1163015
000030 31 e9 01 3d 5d df 83 3e 86 1f e2 3f 08 5b 9f 3f
       0.03171653 0.2575635 1.766587 1.2449656
000040 49 ab c0 3f ed a7 2b bd c7 ce 94 bf a9 98 c8 3f
       1.5052272 -0.041908193 -1.1625603 1.5671588
000050 95 cd b6 3f 9b 16 8b 3d 50 ff 86 3d 72 f3 a0 bd
       1.4281489 0.06791421 0.06591666 -0.078589335
000060 75 f4 c7 3c fe 0e a1 bd fd 40 b5 3d d4 66 01 be
       0.024408558 -0.07864188 0.08850286 -0.12636882
000070 8d c5 45 bd 3c 51 72 bf e0 2d 91 3f 02 f3 84 3f
       -0.048284102 -0.94655204 1.1342125 1.038666
000080 86 7b aa bd f5 5b cb 3f be a2 be 3f 28 71 dc 3d
       -0.083243415 1.5887438 1.4893415 0.1076377
000090 40 65 a0 3e 6d 73 8f 3c 9a 9a 84 bd 30 84 52 3f
       0.31327248 0.017511094 -0.064748004 0.8223295
0000a0 3d 3c 6f 3f 70 a0 00 3d 43 01 81 3d 30 4f 8a bc
       0.9345129 0.031403005 0.06299069 -0.016883463
0000b0 30 a1 8b 3f 11 16 97 3f 78 57 27 3d 91 e1 29 3f
       1.0908566 1.1803609 0.0408549 0.6635981
0000c0 3a 6c 52 3f 8a 26 6a 3f 7c cc c6 3f 56 3b 88 bd
       0.8219639 0.91465056 1.5531154 -0.066519424
0000d0 39 6c 8f 3f e5 da 9d bf ee 9c fc bc ae 1a 9a 3d
       1.1204902 -1.2332426 -0.030836549 0.0752462
0000e0 f9 40 f8 3e 1f 56 9f 3f ce 08 3a bc 38 a1 53 bd
       0.4848707 1.2448157 -0.011354638 -0.051667422
0000f0 1c 3c 71 3f f1 29 a4 3f 4a e0 6f 3d 83 ff e4 bd
       0.94232345 1.28253 0.058563508 -0.111815475

fc3.weight f4 [20, 64]
000000 3f 76 80 3e dc f3 a3 3d 93 29 12 3e 94 1d 47 bd
       0.25090215 0.08005497 0.14273672 -0.048612192
000010 93 13 bb 3e 9b 74 24 3e b6 87 86 3d e3 3a 45 3d
       0.3653837 0.16060106 0.065688536 0.048151862
000020 a2 7e f6 3d 88 8a 38 bd c3 ab 81 3d 46 7e 40 3e
       0.12035872 -0.04505399 0.06331589 0.1879817
000030 db 39 43 bd aa 31 6b be 3c 54 68 bf ff 97 cc be
       -0.047662597 -0.22968164 -0.9075353 -0.39959714
000040 24 f8 ba 3e 34 e1 3a 3d 1f 89 2d be 02 dd 03 3f
       0.3651744 0.045624927 -0.16946839 0.51509106
000050 d5 1d 4f 3e 03 17 5d 3d ad b9 aa bd 40 d6 52 bd
       0.20226224 0.053977024 -0.08336196 -0.051473856
000060 a0 ca 35 3d 98 63 d0 bd c2 90 97 bd 34 73 59 bd
       0.04438269 -0.10175246 -0.07400657 -0.053088382
000070 62 2a f9 3d db b7 6e be 63 f2 0b 3e fa e6 0b 3e
       0.12166287 -0.23312323 0.13666682 0.1366233
000080 ee bd 19 3d 3a a0 d4 be 02 8e b8 3e bc 1e 89 bd
       0.037534647 -0.41528493 0.36045843 -0.06695315
000090 03 03 8c 3d 4d 37 98 3d 1c be c7 3d 66 31 7a 3d
       0.06836512 0.07432423 0.09753057 0.061082266
0000a0 c5 71 f7 3d 48 3e b6 bc b0 20 a4 bd bc d3 ec bd
       0.12082247 -0.022246495 -0.08014047 -0.115638226
0000b0 61 38 33 3e 03 94 4f 3e 38 64 d0 3c ff cd 20 3d
       0.17501976 0.20271306 0.025438413 0.039258953
0000c0 a9 15 b4 3d 0a 67 bc 3d 08 ea e9 3e 3c 0a ef 3d
       0.08793194 0.09199341 0.45686364 0.11671874
0000d0 9c e8 72 3e e7 32 a5 be a0 21 fb 3b 69 b2 19 3d
       0.23721546 -0.32265398 0.0076639205 0.03752366
0000e0 ed fc f6 bb e1 c8 d5 3e 3c e5 9e bb 00 f8 be 3a
       -0.0075374753 0.4175482 -0.004849104 0.0014569759
0000f0 97 e3 28 3e 1f 8d 5f bf 6a 30 91 bd 89 e8 71 3d
       0.16493069 -0.8732471 -0.070893124 0.059059653
000100 55 4b f5 3d 4c 82 bd bd 27 fc 31 3e 40 7a b7 bb
       0.11977259 -0.09253368 0.17381345 -0.00559929
000110 70 6a 03 3f 6f 15 33 bd 36 49 3a 3d 08 d7 f6 3d
       0.51334286 -0.043721613 0.045479976 0.12052733
000120 12 55 b1 bc 93 95 c5 bd 26 e0 31 3e 40 12 14 3e
       -0.02164701 -0.0964767 0.17370662 0.14460087
000130 18 f1 c4 3c 54 cb 90 be e3 b0 3d bf b2 bb ff be
       0.024040744 -0.28280127 -0.7409803 -0.49947888
000140 20 ad 92 3e bb 4b 75 3d 1a b4 9a be b1 42 c4 3e
       0.2864771 0.059886675 -0.30215532 0.38332132
000150 53 e8 41 3e b1 d2 47 bd 33 c4 c7 3d 1c e3 9f bd
       0.18936281 -0.048784915 0.09754219 -0.078069896
000160 81 ff 0c 3d 24 aa ce bd 6a ab e9 3d f0 29 0b 3c
       0.034423355 -0.100910455 0.11409648 0.008493885
000170 bf cd 08 3e 8e dc 11 be 96 68 1e 3e 18 5e 1a 3e
       0.13359736 -0.14244291 0.15469584 0.15074956
000180 32 5a 90 3d dd 59 16 bf 89 a6 c3 3e 00 1a 97 3d
       0.070484534 -0.5873087 0.38212994 0.07378006
000190 63 76 84 3c 20 2f ad bb d7 22 ad 3d e9 9a d5 3d
       0.016169732 -0.0052851588 0.08453911 0.104299374
0001a0 b2 51 d1 3d 40 72 61 3b ff fc 18 bd 78 d3 ac 3d
       0.1022066 0.0034400374 -0.03735065 0.08438772
0001b0 06 2c c4 3d 1a f6 20 3e 8a 52 e3 bd 21 ca 31 3e
       0.09578709 0.1571888 -0.110997275 0.17362262
0001c0 a4 69 9e 3d 84 33 37 3e 00 6e f4 3e 50 f6 72 bc
       0.07734993 0.17890745 0.47740173 -0.014829233
0001d0 36 48 3c 3d a8 5b 5f be e8 1d 1e bd 10 00 e6 bc
       0.045967303 -0.21812308 -0.03860274 -0.028076202
0001e0 a3 d0 4e bb 52 c8 a2 3e 01 a8 06 bd f2 c1 8a 3d
       -0.0031557463 0.31793457 -0.032875065 0.067752734
0001f0 01 94 5f 3c de ac f0 be 07 f0 5d bd c6 90 cc 3d
       0.013646127 -0.47006887 -0.054183986 0.09988551
000200 94 3f 14 3e d0 f6 13 3d 2d 0a 7b 3e e0 40 89 bb
       0.14477378 0.03612405 0.245156 -0.004188642
000210 18 d1 e3 3e 25 60 b5 3c 4c 88 9f bd 5a 83 e0 bc
       0.44495463 0.022140572 -0.077896684 -0.027406383
000220 34 2c 23 bd 52 53 1a bd 68 16 f8 39 98 65 5d 3e
       -0.039837077 -0.037677117 0.0004731894 0.21620786
000230 c8 7b 99 bc 9e ad fe bd d2 a6 12 bf a9 f0 10 bf
       -0.018735781 -0.124354586 -0.572858 -0.5661722
000240 34 04 4b 3e 44 69 66 bd 21 54 f8 bd 36 4a d3 3e
       0.19825822 -0.056252733 -0.12125421 0.41267556
000250 66 32 43 3e ea d6 ef 3c ed 38 2c bd 32 9f f7 bc
       0.19062194 0.029277284 -0.042046476 -0.030227277
000260 c7 68 00 be 2e c4 ec bd f9 ff f1 3d e8 c9 ac 3c
       -0.1253997 -0.11560856 0.11816401 0.02109237
000270 55 d0 01 3d ed 57 6a be 39 bc 5e 3e dd 30 52 3d
       0.03169282 -0.22885104 0.21751489 0.05131613
000280 ee bf c8 bd 3d 72 11 bf ba b4 db 3e 7c ae d9 bd
       -0.09802233 -0.5681494 0.4291132 -0.106289834
000290 4e 03 3c 3d 8c db b5 bd 80 7c 7b bb 6a 62 83 3d
       0.04590159 -0.08879766 -0.0038373768 0.06415255
0002a0 6c 67 a0 3c e4 61 60 3d 5b 60 f7 bb 16 d9 d6 bd
       0.019580565 0.054780856 -0.0075493283 -0.104906246
0002b0 1b e3 ab 3d d8 0d 20 bc 4e 24 d0 3d f4 fc b1 3c
       0.08392926 -0.009768926 0.101631746 0.021727063
0002c0 d5 55 62 3e f8 7f 01 3e c0 14 a9 3e 2a 67 d0 3d
       0.22103055 0.12646472 0.33023643 0.10175927
0002d0 a7 4b c3 3d 09 b5 3e be 7a 17 ab ba ae c1 b2 bd
       0.09535914 -0.18623747 -0.0013053261 -0.08728348
0002e0 d8 84 26 3e f7 09 8d 3e 48 74 e6 3d d8 21 82 bd
       0.16261613 0.27546665 0.11252648 -0.063541114
0002f0 55 c2 15 3d 31 52 09 bf a7 46 77 bd 8e 17 ba 3d
       0.036562283 -0.5364104 -0.060370114 0.09086524
000300 53 5a a1 3d 8f 9a b7 3d c1 4e 3c 3e 68 8c 10 3d
       0.07878556 0.089650266 0.18389417 0.03529015
000310 ff 32 f0 3e a5 5c a7 3d b1 fb 40 3d 40 da a1 bb
       0.46913907 0.081719674 0.04711503 -0.0049393475
000320 d4 38 05 bd 70 97 35 be 1d 86 c8 3d 9e 56 06 bd
       -0.0325249 -0.1773355 0.09791205 -0.03279745
000330 43 48 bd 3d ad b7 8e be d1 a9 09 bf f2 3e f1 be
       0.092422985 -0.27874509 -0.53774744 -0.47118336
000340 82 f5 8a 3e 9a 4c 87 3d 4a 16 96 be d0 be c2 3e
       0.27140433 0.066064075 -0.2931388 0.38036203
000350 dd 91 78 3e e5 d6 de 3b 00 6f 62 bb 80 b4 8a 3d
       0.24274392 0.00680052 -0.0034551024 0.06772709
000360 c6 95 10 3c 73 de 9e 3d 70 93 71 bd b1 62 fc 3b
       0.008824771 0.077572726 -0.058978498 0.0077021946
000370 d0 46 ac 3d c1 b7 50 be cc 72 e7 3d 4d e9 44 3e
       0.08411944 -0.20382597 0.11301193 0.19229622
000380 a0 97 ef bc 8d 10 da be 37 c3 bb 3e 26 f0 cb bc
       -0.029247105 -0.42590752 0.36672375 -0.024894785
000390 c6 4f b6 3d d5 47 9e 3d 40 68 5f bc 09 15 d9 bb
       0.08901934 0.077285446 -0.013635695 -0.006624822
0003a0 1e f0 c7 bd ff 7d 87 3d f0 2e 9d 3d 20 20 ad bc
       -0.097625956 0.06615829 0.07674968 -0.021133482
0003b0 fd e2 e8 bc 43 4d bc 3c 94 19 ac bd 32 91 bb 3d
       -0.028428549 0.02298606 -0.08403316 0.09158553
0003c0 b2 66 3f 3e 9d 87 0e bc 94 6f f7 3e 3a af ae 3d
       0.18691519 -0.008699325 0.48327315 0.085295156
0003d0 df f3 71 bd a9 1f 0c be 68 2f c2 bd b8 ac 2e bd
       -0.059070464 -0.13683952 -0.09481698 -0.042645186
0003e0 eb 50 02 3e 1c 92 b1 3d 9e 06 82 3c 30 ea 27 bd
       0.1272618 0.08670446 0.015872296 -0.040994823
0003f0 f8 7b 18 bd 29 d2 ec be d0 25 a6 3d 58 f2 80 bd
       -0.0372276 -0.4625409 0.08112681 -0.062962234

fc3.bias f4 [20]
000000 7a ff 7f 3f 10 2f 32 3f 97 da 0e 3f 15 85 12 3f
       0.999992 0.6960306 0.5580229 0.5723432
000010 07 d0 fd 3e 00 7b a4 3e 79 f7 5a 3e c4 7a ac 3e
       0.49572775 0.32125092 0.21383466 0.33687413
000020 ad 61 61 3c 89 b5 ac bc f3 32 0f 3e cd 59 17 bd
       0.013756198 -0.021082656 0.1398428 -0.036950875
000030 c5 30 8d bc 12 a3 90 bd 87 b2 8a be a1 04 d7 be
       -0.01723517 -0.07062353 -0.2708933 -0.4199572
000040 df 21 a5 be 11 fe 9f be e2 50 b7 be 68 7b df be
       -0.32252404 -0.31248525 -0.35803896 -0.4364884
