beergame/baseline/models/dqn_agent_firm_1_episode_2500.pth (torch, 101224 bytes, 24 tensors)

fc1.weight f4 [64, 3]
000000 13 b3 cd bd 7e 69 56 3e 48 5f a5 3e 2c ab 93 be
       -0.10043921 0.2093868 0.32299256 -0.2884153
000010 d7 45 08 3f 30 59 fd 3d 41 d8 cb be df 0c 0b be
       0.5323157 0.12370527 -0.39813426 -0.13579129
000020 19 1a 8c 3d e0 25 5e bd 42 c0 16 be d0 19 80 bd
       0.06840915 -0.05423534 -0.14721778 -0.06254923
000030 a9 31 18 bf 61 d5 44 bf 16 65 58 3e be 35 87 3d
       -0.59450775 -0.7688809 0.21132311 0.066020474
000040 5f 95 41 be 02 6f 1e 3d 23 49 1a 3e af 5d 7b 3e
       -0.18904637 0.038680084 0.15066962 0.24547456
000050 22 18 0a be ab ac f6 be 2a 87 45 be d9 26 d4 3c
       -0.13485768 -0.4817861 -0.19289842 0.02589743
000060 64 2a 04 3f fc f9 ed 3e 6b 65 b6 3d 76 55 08 bf
       0.5162718 0.46479785 0.08906063 -0.53255403
000070 5f ae 61 bd 23 b7 4c bd 3f 1b a7 bd 88 db c9 3c
       -0.055097934 -0.04997934 -0.08159494 0.024640813
000080 41 a5 cd be 85 ae d5 be 03 c1 1b bf 55 7b c2 bc
       -0.4016514 -0.4173471 -0.6084139 -0.02374045
000090 ef 72 4e be d6 61 ce bd 92 77 17 3d 68 b3 04 3f
       -0.20161031 -0.100772545 0.036979266 0.5183625
0000a0 24 26 4a be 20 15 a6 3d 17 7d d9 3d a0 23 80 3c
       -0.19741112 0.08109498 0.10619562 0.015641987
0000b0 91 fb cc 3c 82 46 2d be 7f 34 c4 3e 18 4d 80 3e
       0.0250223 -0.16921428 0.383213 0.25058818
0000c0 93 8e d8 be bc 66 2e 3d d4 51 16 3e 57 a2 62 3e
       -0.42296275 0.042578444 0.14679652 0.2213224
0000d0 6b d4 3a 3e 91 b0 38 be 62 e2 80 3e 74 e2 c5 be
       0.18245094 -0.18036105 0.25172716 -0.38649333
0000e0 3f 2e 3d be 1f 3f d3 bc d4 97 c2 3e 7c fd 29 3d
       -0.18474673 -0.025786934 0.3800646 0.041501507
0000f0 5a 97 b4 be eb 7d 13 bf f0 28 8a be f8 93 67 be
       -0.35271722 -0.5761401 -0.26984358 -0.2261504
000100 d8 1d d9 3b 7a a5 18 be 7c f2 f9 3d 74 d6 01 3f
       0.006625872 -0.14906874 0.12204453 0.50717854
000110 c5 b9 d8 3d 8b 71 cc 3e 1e 33 86 be f1 ac ab 3e
       0.10582308 0.39930376 -0.26210874 0.3353038
000120 eb 00 04 bf 0b 1f 57 be 0e 69 07 bc 7b b1 8d be
       -0.515639 -0.21007936 -0.008264793 -0.2767447
000130 ae 49 7a be bc d1 11 bf 16 a0 22 be f8 25 3b be
       -0.24442169 -0.56960654 -0.1588138 -0.18276203
000140 51 1d 7b 3d 18 f2 f2 3e ec 63 35 be 0f 8d 40 3d
       0.061307255 0.47450328 -0.17713898 0.047009524
000150 2e 88 f1 be 03 a8 65 be 31 2f af 3d 85 eb 56 3d
       -0.4717421 -0.22427373 0.08553923 0.052470703
000160 83 03 05 bf 6e df 3a 3e 45 c5 db be dc 06 e0 3d
       -0.51958483 0.18249294 -0.42923942 0.10938808
000170 86 11 e3 3d 98 fc 02 3d e9 f5 0d bf 31 4e 32 3b
       0.11087327 0.031979173 -0.55453354 0.002720725
000180 39 35 19 bd dd ad a3 3e 97 bd 9d 39 e1 96 95 bd
       -0.037404273 0.31968585 0.0003008663 -0.073041685
000190 d4 e5 f6 be 92 40 b7 3e 40 a3 34 3e 57 20 a4 be
       -0.4822222 0.3579145 0.176404 -0.32055923
0001a0 45 0a 82 be 86 8c b4 be f6 20 61 be b6 b7 68 be
       -0.2539846 -0.3526346 -0.2198523 -0.2272633
0001b0 6b ae cd 3c 3d 09 6e bd 6e 4c a6 bd 2c 2f 6e 3e
       0.025107583 -0.05811428 -0.081200466 0.23260182
0001c0 00 b0 7e 3a b0 9b 6b be ad 50 35 bf de 69 c9 be
       0.0009715557 -0.23008609 -0.70826226 -0.39338583
0001d0 a9 08 cd 3d 89 9a d0 bd 0b e3 97 3e 54 dd 1f 3e
       0.100114174 -0.10185725 0.29665408 0.15611774
0001e0 4b 9f b8 bd e8 8d de be 97 16 fc 3d 75 bc 13 3e
       -0.09014758 -0.4346764 0.12308996 0.1442736
0001f0 e1 85 b5 3e b0 21 b2 3c 50 fa a3 3e fe 06 13 3e
       0.35453704 0.02174458 0.3202691 0.14358136
000200 4b a2 b0 bd d7 15 a3 3e 2c 8c a5 3e b7 44 30 3e
       -0.08624705 0.318526 0.32333505 0.17213713
000210 47 9c 97 3c eb 78 1a be ca 4d ce bc c3 2f 4e be
       0.018507136 -0.15085189 -0.025183577 -0.20135407
000220 61 7c 70 3e f6 7c 98 3d f6 d8 b7 3e 84 19 85 be
       0.23484947 0.074457094 0.35907716 -0.2599603
000230 48 fe 0e bf e5 7f 46 be 41 21 62 3e 83 d5 5d 3d
       -0.5585675 -0.19384725 0.22082998 0.0541587
000240 ba 27 88 3d 26 cf fc bc 96 f8 fa 3c 59 56 3a 3e
       0.06648202 -0.030860495 0.030636113 0.18197002
000250 a2 2c 62 3e e7 45 98 be 80 c9 e8 3c f1 03 bd be
       0.22087339 -0.2974083 0.028416395 -0.3691707
000260 60 e7 fd bc 8d 7b d3 be aa 75 13 be f3 ba 05 bf
       -0.030994117 -0.413052 -0.14400354 -0.52238387
000270 4d 1b 6b be 2d 41 23 bf 8b 2c 2e 3e 48 11 df bd
       -0.22959633 -0.63771325 0.1700918 -0.10891968
000280 e3 99 cf 3e 17 b9 3a 3d ac ef 06 3f fb 25 5b 3e
       0.40547094 0.04558667 0.5270946 0.21401207
000290 d4 14 86 3e fc b5 d7 3d da 07 8c 3d 02 99 e6 3c
       0.26187766 0.10532758 0.06837435 0.028149132
0002a0 a5 87 95 3d 55 b0 6c 3e fe ad b8 be c4 07 38 3f
       0.07301263 0.2311414 -0.36070246 0.7188685
0002b0 bd 8b 35 3e d2 9b d7 3e 90 73 13 3d cc 75 c7 bd
       0.17729087 0.4211107 0.03599888 -0.09739265
0002c0 9e 1a 36 be ce dc 94 be 27 d2 e9 be 84 de a8 3e
       -0.17783591 -0.2907471 -0.45668146 0.32982266
0002d0 03 55 19 3e f7 48 98 be af 76 4a bd 92 87 06 bf
       0.14973836 -0.29743168 -0.04942959 -0.52550614
0002e0 52 21 01 bf de b3 35 be 81 6d a6 3e 8c cb e0 bc
       -0.5044147 -0.17744395 0.3250542 -0.027440809
0002f0 d7 42 df 3c 47 68 8d 3e 00 f9 85 3e 16 33 2e 3d
       0.027253551 0.2761862 0.26166534 0.042529188

fc1.bias f4 [64]
000000 a8 6a b6 3f 7a 5d 5e 40 8d af 82 40 6b 2c ae be
       1.4251299 3.4744554 4.0839295 -0.34018263
000010 45 59 53 c0 59 8a 52 40 e4 c2 88 40 92 6f 85 40
       -3.3023236 3.289694 4.2737904 4.1698694
000020 c3 c2 1b c0 99 99 37 40 2c be 7b 40 41 81 17 40
       -2.4337623 2.8687499 3.9334822 2.367264
000030 f4 94 5e 40 af 53 3f 40 f2 e4 4b 40 d4 a2 58 bf
       3.4778414 2.9894826 3.1858487 -0.84623456
000040 74 1a 25 40 61 c0 80 40 b4 b9 99 be df 4a 27 40
       2.5797396 4.0234838 -0.30024493 2.6139448
000050 fe 7a d6 be 92 ab c7 3f a8 83 d9 3e 03 23 17 c0
       -0.4189071 1.5599234 0.42483258 -2.361512
000060 8f 7f 56 40 98 15 b6 bd 54 88 7d 40 d0 b1 3e 40
       3.3515356 -0.088908374 3.9614458 2.9796028
000070 54 2b 70 c0 d2 d6 61 40 33 50 0f 40 59 ce 34 40
       -3.7526445 3.5287366 2.23927 2.8250945
000080 20 6b 9f bc 14 53 f7 bf 08 4a 04 bf f4 ea 07 3e
       -0.01946026 -1.9322228 -0.5167546 0.13273221
000090 71 6b 1e 40 00 40 3b be 6a 0b 65 c0 bb 9a 47 bf
       2.4753077 -0.18286133 -3.5788217 -0.77970475
0000a0 3a 2b 00 40 cd e3 5d 40 13 f7 e0 3f 9a b9 87 bf
       2.0026383 3.4670289 1.7575401 -1.0603516
0000b0 24 72 d2 3f 81 59 2a 40 d2 0f 2a 40 2e d6 b3 3f
       1.6441083 2.661713 2.6572156 1.4049737
0000c0 7f 20 41 40 97 a7 6a 40 10 7c 5b 3e b4 70 e2 3e
       3.0176084 3.6664789 0.21434045 0.4422661
0000d0 d7 3b 62 c0 d3 e5 3c 40 82 37 98 bf e2 29 6f 40
       -3.5349023 2.9515274 -1.189194 3.7369313
0000e0 ba fc 64 40 e1 56 2c c0 a2 8e 09 bf 43 35 20 c0
       3.5779252 -2.6928027 -0.53733265 -2.5032508
0000f0 1c e6 09 40 00 45 44 bd c9 f4 73 40 4a 6c 38 40
       2.1546698 -0.047917366 3.8118155 2.8816094

fc2.weight f4 [64, 64]
000000 4f 99 e3 bc a9 8e 0c 3e 49 9b 9f 3f cc 43 47 3d
       -0.027783064 0.13726296 1.2469264 0.04864864
000010 6a a1 8d bd 1b 5d 0c 3d 83 cc 08 bf 68 0d c8 3f
       -0.06915553 0.03426848 -0.5343706 1.5629091
000020 cd 98 12 be 0b a6 94 bd 2b ea 8a 3e 96 85 9e 3d
       -0.14316101 -0.07258233 0.2713178 0.07740323
000030 76 61 da 3e e6 bc c7 3e d4 72 55 3e 34 c5 ff 3d
       0.42652482 0.39011306 0.20844585 0.124887854
000040 1d 21 fe 3c c2 39 84 be 34 09 8b 3b 46 93 a7 bb
       0.031021649 -0.25825316 0.0042430405 -0.005113992
000050 00 d9 20 3a b5 82 b0 bc 6a 50 74 3d 1b 20 1d 3e
       0.0006135851 -0.021546701 0.059647 0.15344279
000060 02 35 63 3e b2 83 8b 3d a6 fd 54 3f 10 86 04 3f
       0.2218819 0.06812228 0.83199537 0.51767063
000070 aa a1 cc bd 52 19 c1 3e 68 17 83 bd dd 8f b0 3b
       -0.099917725 0.3771463 -0.06400949 0.0053882436
000080 a9 0d e7 bc 19 91 2f 3e 60 31 15 3c 42 1c c4 bd
       -0.028204756 0.17145194 0.00910601 -0.09575702
000090 c1 4b 8d be f0 22 64 3c 7a ac b3 be 6b ac 97 bc
       -0.27596858 0.013924345 -0.35092527 -0.018514832
0000a0 b5 59 59 3d 4f bd 2c 3e ff 13 bc be 6b 0d 20 3d
       0.053064067 0.1686909 -0.36734006 0.039075296
0000b0 ab 48 c9 bd ee 87 55 3e 50 30 40 3e 80 fc ab 3d
       -0.098283134 0.20852634 0.1876843 0.0839777
0000c0 2b 0a dc 3e da 00 8c be da b5 d3 bd c8 75 2c 3d
       0.42976508 -0.273444 -0.1033742 0.042104512
0000d0 84 a3 c5 bd aa c4 f7 3d eb f8 a7 3d c9 fa 81 3e
       -0.09650329 0.120980576 0.08201774 0.25386646
0000e0 94 36 bc be 7a 5d d7 bc da d1 dc 3d 7f f0 23 3b
       -0.3676039 -0.02628969 0.107822135 0.0025015173
0000f0 96 52 0d be c0 4f 85 bb e9 60 0b 3f b0 c3 7f bb
       -0.13801035 -0.004068345 0.5444475 -0.003902655
000100 24 66 e7 bd aa 8b 89 bd 40 5f a6 3d 00 ef 5f 3d
       -0.11298779 -0.06716092 0.08123636 0.054671288
000110 2c 08 f4 bd 00 47 a9 bd 24 f8 21 3d 60 f1 b9 3d
       -0.11915621 -0.08265495 0.039543286 0.09079242
000120 a2 24 d7 bd 3c 5a 56 3d 6c 97 1b 3d 00 73 4d bd
       -0.10505034 0.052332148 0.037986204 -0.0501585
000130 c8 25 8b 3c 28 69 38 bd 12 48 a4 bd 72 28 bf bd
       0.016985789 -0.04502216 -0.08021559 -0.09333886
000140 b0 da e8 3d 7a c7 a9 bd 88 ca 49 bd 90 3a 5c 3c
       0.11369836 -0.0829 -0.049265414 0.013441697
000150 da 24 b0 bd 60 8f d8 bd ea 2f eb 3d 92 74 ed bd
       -0.08600779 -0.105742216 0.11483748 -0.115945
000160 1a 27 9b bd 3c 5b b8 3d d6 6f f7 3d 06 5c df bd
       -0.075758174 0.090017766 0.12081878 -0.10906224
000170 28 7f bf bc c0 36 53 3b 80 47 81 bc d8 c8 12 bd
       -0.023376063 0.0032228678 -0.015781164 -0.03583607
000180 bc 63 cb bd 4a 18 d6 3d f8 5f db 3c 40 c7 ff 3c
       -0.09931132 0.104538515 0.02677916 0.03122294
000190 3a 7e 97 3d f0 a8 c6 3c a8 3a 13 bd 98 98 49 bd
       0.07397123 0.024250478 -0.03594461 -0.04921779
0001a0 c0 8e 68 bb 40 a8 05 bd 40 f4 6b 3c 88 7f 8b bc
       -0.0035485476 -0.03263116 0.014401495 -0.017028585
0001b0 e6 8e 80 3d 20 2c af bd 42 ea fe 3d a0 97 46 3d
       0.06277256 -0.08553338 0.12447025 0.048484445
0001c0 10 d2 67 bc 20 69 53 bd c8 55 d9 bc aa d3 b8 bd
       -0.014149204 -0.051613927 -0.026530161 -0.09024747
0001d0 e0 0b a3 bc 60 4e f3 3c 1e 3a e7 3d 54 fe 0f bd
       -0.019903123 0.029700458 0.11290382 -0.035154656
0001e0 38 96 d9 bc 0c 47 46 bd c8 50 b4 3d 60 d5 47 bc
       -0.026560888 -0.0484076 0.0880447 -0.012196869
0001f0 72 0a ff bd d4 77 04 3d e8 9b 81 bc d8 94 af bd
       -0.12453164 0.03234084 -0.015821412 -0.085733116
000200 10 df 0b 3e 78 80 a8 3e cb c5 3e 3f 84 f3 98 bd
       0.1365931 0.32910514 0.7452056 -0.07468322
000210 e1 e0 ae bd cb 03 9e 3d 93 57 80 bf e2 35 87 3f
       -0.08538986 0.07715567 -1.0026726 1.0563319
000220 24 e1 44 bd 01 6a 91 be 3e 60 78 3e f0 07 b2 bd
       -0.048066273 -0.28401187 0.24255463 -0.0869292
000230 6a 0c c4 3e c7 ee d3 bc 56 b2 f3 3d 79 ca f3 3d
       0.3829072 -0.025870694 0.11899249 0.11903853
000240 8d 1a 01 3e 10 41 26 bf b4 82 d3 bd 65 d0 9d 3d
       0.12607785 -0.6494303 -0.10327664 0.07705764
000250 68 27 3d 3d 7d 29 99 be 85 c1 3a 3c 45 24 c7 3d
       0.04618016 -0.29914466 0.011398678 0.09723715
000260 11 e2 5f 3d 4c d5 20 bd 8c b9 38 3f 80 6a 95 bd
       0.054658953 -0.039265916 0.7215812 -0.07295704
000270 ff 69 0e be ad a1 e2 3e 5a 76 9c 3d ac 40 2e 3d
       -0.13907622 0.44263974 0.07639761 0.042542145
000280 e5 88 bf bd 8e 78 15 3e 88 8c b9 3c 00 44 4e 3a
       -0.093522824 0.14596769 0.022650018 0.0007868409
000290 60 82 af be 70 b5 e5 bc ee 6d 9c be 8d e2 0d 3e
       -0.34279156 -0.028040618 -0.3055262 0.13855954
0002a0 61 f4 d6 3c 15 88 1f 3e ea 02 7e be ff a9 31 bc
       0.026239576 0.15579255 -0.24805799 -0.010843753
0002b0 10 a6 f7 bd 66 d3 d4 3e 1a de c6 3e 41 38 04 be
       -0.12092221 0.41567534 0.38841325 -0.12912084
0002c0 c3 c1 e9 3c dd 7b 96 be da b1 9e bd bc d6 f4 bd
       0.028534776 -0.29391375 -0.07748766 -0.1195502
0002d0 94 d5 2d be b2 bd 70 3e bf a1 14 3e 08 60 1d 3d
       -0.16976005 0.23509863 0.14514826 0.03842166
0002e0 45 d4 1b bf 58 ba 93 3d f8 6f bb 3d 45 1a f6 bd
       -0.6087077 0.072132766 0.09152216 -0.12016729
0002f0 aa 04 f6 bd 80 cd 38 3b 18 49 3f 3e b6 0c f1 3d
       -0.12012608 0.002819866 0.18680227 0.117700025
000300 52 84 af bd b8 0d 97 bd b4 52 c4 bd e0 18 44 3c
       -0.0857016 -0.073756635 -0.09586087 0.011968821
000310 f0 65 8a bc 9e d3 f7 3d 80 f5 bc 3d e8 80 18 bd
       -0.01689431 0.1210091 0.09226513 -0.03723231
000320 08 6d 9c bd 00 c6 af 3c 18 f8 d5 bc 78 d6 f3 bc
       -0.076379836 0.021456718 -0.026119277 -0.029765353
000330 20 df ed 3b 30 00 33 3c 20 27 51 bd dc fd 7d 3d
       0.0072592646 0.010925338 -0.051062703 0.062009677
000340 78 b7 fb bc 20 f0 1b 3c b8 14 f7 bc 52 37 ab 3d
       -0.030727133 0.0095176995 -0.030161247 0.08360161
000350 18 18 65 bd d0 36 b8 bc 54 80 0e bd 88 17 bd bd
       -0.05593118 -0.022487074 -0.034790352 -0.09233004
000360 18 6f ce 3d 22 e4 8f 3d 5a 36 82 3d 00 88 14 b9
       0.10079783 0.07025935 0.06358023 -0.00014165044
000370 3c 8d a8 3d c0 e4 12 bb 88 58 ca 3d 40 6f aa 3d
       0.08230063 -0.0022414178 0.09880167 0.083220005
000380 f8 3b cf 3c 92 cd ea 3d c0 f4 6a 3d 90 f4 fc bc
       0.02529715 0.11464991 0.057362318 -0.030878335
000390 80 3b 46 3c f4 1e 78 3d 80 d0 cc 3d 30 f7 7d bd
       0.012099147 0.060576394 0.10000706 -0.062003314
0003a0 48 99 96 3d 70 bf f1 bc b8 0e 93 3c 58 10 9e 3d
       0.07353455 -0.02951023 0.017951354 0.07717961
0003b0 38 1f 21 3d 54 df 52 bd a0 20 4b 3d ec 8d fc bd
       0.039336413 -0.051482514 0.04959166 -0.12331757
0003c0 50 d7 2e bc a6 9e e7 bd 76 33 b1 bd 50 8f ee 3d
       -0.010671452 -0.11309557 -0.086523935 0.116484284
0003d0 e8 94 db 3c 98 af 04 bd d0 51 b1 bd 3c d4 07 bd
       0.026804402 -0.03239402 -0.086581826 -0.033161387
0003e0 10 70 b6 bc 04 ba 2e bd 00 82 d2 bd f8 7e d9 3c
       -0.022270232 -0.042657867 -0.10278702 0.026549801
0003f0 ac 57 57 3d 80 ef 0f bc 6c c9 d0 bd 0a c6 b9 bd
       0.052573845 -0.008785129 -0.10194668 -0.09070976

fc2.bias f4 [64]
000000 af b8 ec 3f c8 b9 37 bd 32 0f c3 3f b4 bf ec bd
       1.8493861 -0.04485491 1.5239012 -0.11560002
000010 38 24 0c 40 27 95 4c 3f 91 47 95 bd 96 94 c9 3d
       2.1897106 0.7991509 -0.07289041 0.09842794
000020 9c f7 c7 bb 97 e7 5c 3d 4a 3e 8c 3f bf 41 cf 3f
       -0.0061025154 0.0539318 1.0956509 1.6191939
000030 1e 6d 8c ba 8c 68 c6 3d f4 b5 0a 40 3e ab d8 3f
       -0.0010713672 0.096879095 2.1673555 1.6927259
000040 ac e4 0e 40 b4 a7 2b bd 65 20 06 c0 04 75 13 40
       2.232707 -0.04190798 -2.0957272 2.304017
000050 b8 dd 0d 40 4c 19 49 3d 23 61 07 3c 86 35 a2 bd
       2.2166576 0.04909639 0.008262905 -0.07920365
000060 8a 6e bc 3c fe 1c e2 bd e4 40 b5 3d 30 e4 01 be
       0.023001928 -0.11040686 0.088502675 -0.12684703
000070 14 57 4b bd 81 07 ec bf 83 7e ca 3f 53 4a bf 3f
       -0.04964359 -1.843979 1.5819858 1.4944557
000080 ae 89 eb bd 4e 2e 02 40 7c d6 11 40 2f ea da 3d
       -0.1150087 2.0340762 2.278716 0.10689198
000090 d0 20 e2 3e f1 b3 a1 ba 9a 9a 84 bd 19 65 5f 3f
       0.4416566 -0.0012336952 -0.064748004 0.8726364
0000a0 5c ed 8d 3f fb 91 bd b9 f4 f3 80 3d 71 44 47 bd
       1.1088061 -0.00036157653 0.0629653 -0.048649255
0000b0 78 3b bc 3f 35 6a c9 3f 78 57 27 3d 06 b4 75 3f
       1.4705648 1.5735537 0.0408549 0.9597782
0000c0 21 65 72 3f 85 d4 95 3f 1c 2b 15 40 56 3b 88 bd
       0.9468556 1.1705481 2.3307562 -0.066519424
0000d0 a8 b5 ce 3f 83 be 08 c0 77 74 00 bd b4 fe 96 3d
       1.6149187 -2.136628 -0.03136107 0.073727995
0000e0 33 77 75 3e 62 fb f8 3f 78 32 51 bc 38 a1 53 bd
       0.23971252 1.9451716 -0.01276838 -0.051667422
0000f0 c5 28 7a 3f 7d fd c0 3f 63 e4 65 3d 38 78 eb bd
       0.9771846 1.5077358 0.05612601 -0.11497539

fc3.weight f4 [20, 64]
000000 03 d8 a5 3e dc f3 a3 3d 15 51 50 3e 94 1d 47 bd
       0.32391366 0.08005497 0.2034343 -0.048612192
000010 e0 63 06 3f 23 e8 8e be cd a2 0e 3d 58 3a 45 3d
       0.5249615 -0.2791148 0.034823228 0.048151344
000020 4e 70 b5 3d 63 9b 31 bd 57 ea 5b 3e 2f 6a 70 3e
       0.08859311 -0.04336108 0.21476112 0.23478006
000030 86 53 7c bc 0a 2c 57 be 4b cb 99 bf da 32 79 be
       -0.015400773 -0.21012893 -1.2015165 -0.24335805
000040 e0 36 f9 3e 34 e1 3a 3d 9e 11 b5 be f7 d9 5c 3f
       0.4867468 0.045624927 -0.35365003 0.8627009
000050 47 c4 ca 3e 9a 16 26 3c 04 ca 92 bd 40 d6 52 bd
       0.39602873 0.010137225 -0.07167438 -0.051473856
000060 5f f8 37 3d 98 63 d0 bd c2 90 97 bd 34 73 59 bd
       0.0449146 -0.10175246 -0.07400657 -0.053088382
000070 9a 1f fc 3d 60 37 ea be 58 37 3b 3e 02 1b 4a 3e
       0.12310715 -0.45745373 0.1828283 0.19736865
000080 d0 bd 19 3d 10 b0 e9 be f9 86 04 3f 1f ae 86 bd
       0.037534535 -0.45642138 0.5176845 -0.0657618
000090 5d 0d bf 3e 71 51 3b 3d 1c be c7 3d 9b 5f 4c 3e
       0.37314883 0.045731965 0.09753057 0.19958346
0000a0 2f fb 72 be 2e ed 1b 3c 11 c5 a2 bd 1c d3 ec bd
       -0.23728631 0.009516997 -0.07947744 -0.115637034
0000b0 b9 15 8e bd 44 76 1e 3e 38 64 d0 3c e3 44 ad be
       -0.06937737 0.15474802 0.025438413 -0.3384162
0000c0 64 58 5e 3d cf 1b 03 3e 72 80 1d 3f 3c 0a ef 3d
       0.054283515 0.12803577 0.61524117 0.11671874
0000d0 67 74 7f 3e 41 36 16 bf a0 21 fb 3b 85 7d 13 3d
       0.24946748 -0.58676535 0.0076639205 0.036008377
0000e0 de 16 db bc cc 3d 07 3f c8 e4 81 bb 00 f8 be 3a
       -0.026744302 0.5282867 -0.0039640404 0.0014569759
0000f0 1f ef ec 3d 5c 60 99 bf 0a bf 8f bd 44 e8 71 3d
       0.11569046 -1.1982532 -0.0701886 0.059059396
000100 61 6f 31 3e d0 81 bd bd f6 64 8c 3e 40 7a b7 bb
       0.17327644 -0.092532754 0.27420777 -0.00559929
000110 0b 21 30 3f 39 e3 ef bd a6 12 ab 39 08 d7 f6 3d
       0.6880042 -0.11713261 0.00032629556 0.12052733
000120 e0 54 b1 bc 99 5f 9c bd 64 f3 b2 bc d6 a2 2d 3e
       -0.021646917 -0.07635421 -0.021844573 0.16956648
000130 34 13 c9 3c 2b f1 d9 bd 61 3f 80 bf 11 e5 de be
       0.02454529 -0.10641702 -1.0019342 -0.4353414
000140 ed 9f ec 3e fc 4a 75 3d 68 e6 fd be e5 48 09 3f
       0.46215764 0.059885964 -0.4958985 0.53626853
000150 93 5c a1 3e 51 6b 0c 3b ce 95 0a 3e 4f cc 9e bd
       0.3151594 0.002142627 0.13533708 -0.077538125
000160 de 10 0f 3d 24 aa ce bd 6a ab e9 3d f0 29 0b 3c
       0.034928195 -0.100910455 0.11409648 0.008493885
000170 11 1d 0a 3e d2 f9 c5 be 3f 4a 56 3e 56 83 31 3e
       0.1348765 -0.3866716 0.2092676 0.17335257
000180 32 5a 90 3d be ea 41 bf f8 79 11 3f 38 48 98 3d
       0.070484534 -0.75748813 0.56826735 0.0743565
000190 2c c5 de bd 20 2f ad bb 92 22 ad 3d 9b 0e ef 3e
       -0.10877451 -0.0052851588 0.084538594 0.4669083
0001a0 bb a1 f4 be 40 72 61 3b 6a e5 17 bd 78 d3 ac 3d
       -0.4777964 0.0034400374 -0.03708402 0.08438772
0001b0 85 8b 82 3d 57 b7 59 3e 8a 52 e3 bd 80 dd 05 3e
       0.063742675 0.21261345 -0.110997275 0.13072777
0001c0 6d e6 4a 3e 12 10 92 3e 5d 10 1d 3f 50 f6 72 bc
       0.19814463 0.28527886 0.61353093 -0.014829233
0001d0 a3 8d 22 3e c1 f4 eb be e8 1d 1e bd 10 00 e6 bc
       0.15874343 -0.4608517 -0.03860274 -0.028076202
0001e0 55 23 70 3d 27 5f bd 3e 6d 43 03 bd d0 c1 8a 3d
       0.058627445 0.36986658 -0.032046724 0.06775248
0001f0 e3 70 50 be 3c 9b 3b bf 64 25 5b bd c6 90 cc 3d
       -0.20355563 -0.73283744 -0.053502455 0.09988551
000200 69 a4 86 3e d0 f6 13 3d 7e f0 ab 3e e0 40 89 bb
       0.2629731 0.03612405 0.33581918 -0.004188642
000210 4c 98 21 3f d5 95 dc be b1 ec 9e bd 30 83 e0 bc
       0.6312301 -0.43083063 -0.07759989 -0.027406305
000220 34 2c 23 bd 57 94 23 bd 92 91 18 bf e5 a2 87 3e
       -0.039837077 -0.03993639 -0.5959712 0.26491466
000230 6f 9a 98 bc d6 ab ec bd 9b 3b 5e bf 94 86 b9 be
       -0.018628327 -0.115562126 -0.868097 -0.36235487
000240 3e 20 bd 3e 44 69 66 bd 57 97 14 be 10 a1 1f 3f
       0.3693866 -0.056252733 -0.14510857 0.62355137
000250 01 29 b2 3e 6e f4 0d 3b 63 7f 2f bd 5c 48 f3 bc
       0.34796908 0.0021660584 -0.042846095 -0.02969759
000260 8c 10 01 be 2e c4 ec bd 46 ff f1 3d e8 c9 ac 3c
       -0.12603968 -0.11560856 0.11816268 0.02109237
000270 41 ab 05 3d 52 60 78 be 94 77 97 3e 51 4b 13 3e
       0.032634024 -0.24255493 0.29583418 0.143842
000280 ee bf c8 bd c1 ae 4d bf 4e 88 1e 3f 2e ee d9 bd
       -0.09802233 -0.8034478 0.61926734 -0.10641132
000290 2c 56 4c 3e 0d 5c b6 bd 80 7c 7b bb a4 bf 81 3d
       0.19954747 -0.08904276 -0.0038373768 0.06335381
0002a0 58 99 85 bd e4 61 60 3d 9f 27 07 bc 16 d9 d6 bd
       -0.065233886 0.054780856 -0.0082491925 -0.104906246
0002b0 e1 79 ee bd 47 4b a7 3d 4e 24 d0 3d c9 89 3f ba
       -0.1164434 0.08168655 0.101631746 -0.00073066034
0002c0 05 f0 4f 3e 8f b0 48 3e 18 c9 01 3f 2a 67 d0 3d
       0.20306404 0.19598602 0.5069747 0.10175927
0002d0 87 4f 42 3e 29 61 55 be 00 ed ef ba ae c1 b2 bd
       0.1897565 -0.20837845 -0.0018304884 -0.08728348
0002e0 57 be 8b 3e 07 84 c7 3e 5f 53 e6 3d d8 21 82 bd
       0.27293655 0.38967916 0.112463705 -0.063541114
0002f0 0e 13 2e be 56 d9 57 bf 52 79 75 bd 8e 17 ba 3d
       -0.16999456 -0.84316003 -0.059930153 0.09086524
000300 3d 8d 02 3e f6 99 b7 3d e9 a5 98 3e 68 8c 10 3d
       0.1274919 0.089649126 0.2981408 0.03529015
000310 2a 9b 23 3f e1 8f e6 3e 56 42 3d 3d 40 da a1 bb
       0.63908637 0.45031646 0.04620584 -0.0049393475
000320 d4 38 05 bd bb 34 38 be fe 45 83 bd ce a7 2f 3d
       -0.0325249 -0.17988865 -0.06409834 0.04288464
000330 27 14 bc 3d af 71 25 be b9 81 55 bf d3 c1 03 bf
       0.09183531 -0.16156648 -0.83401066 -0.5146763
000340 68 17 d4 3e 9a 4c 87 3d 7e 69 15 bf fe 69 04 3f
       0.41424108 0.066064075 -0.58364093 0.5172423
000350 d8 61 c6 3e 68 44 d5 3c 19 e3 39 bd 80 b4 8a 3d
       0.38746524 0.026033595 -0.045382593 0.06772709
000360 50 d8 06 3c 2a de 9e 3d 70 93 71 bd 2d 82 ec 3b
       0.008230284 0.07757218 -0.058978498 0.0072176666
000370 d1 4d ab 3d c1 99 d2 be 94 03 2f 3e c5 a5 79 3e
       0.08364452 -0.4113293 0.17091209 0.24379642
000380 a0 97 ef bc 93 ec 34 bf 79 a3 0b 3f e0 13 d2 bc
       -0.029247105 -0.70673484 0.54546314 -0.025644243
000390 74 4f 41 bd 51 9f 9d 3d 40 68 5f bc fa 0f c7 3e
       -0.047194913 0.07696403 -0.013635695 0.38879377
0003a0 0c 3d 74 be c4 7d 87 3d 13 7f 9b 3d 20 20 ad bc
       -0.23851413 0.06615785 0.07592597 -0.021133482
0003b0 2d 40 fe bd 1a 9f 4a 3e 94 19 ac bd fd 77 c0 3c
       -0.12414584 0.19787255 -0.08403316 0.023494715
0003c0 cc 09 7a 3e aa f3 b0 3d 1d b6 20 3f 3a af ae 3d
       0.244178 0.08640225 0.6277788 0.085295156
0003d0 c1 a9 bf bb 51 58 a0 be 68 2f c2 bd b8 ac 2e bd
       -0.0058490937 -0.3131738 -0.09481698 -0.042645186
0003e0 72 62 84 3e fe 41 08 3e f0 87 80 3c 30 ea 27 bd
       0.25856358 0.13306424 0.01568982 -0.040994823
0003f0 13 b9 3a 3d 5e fb 29 bf 7e bb a4 3d 58 f2 80 bd
       0.045586657 -0.6639918 0.08043574 -0.062962234

fc3.bias f4 [20]
000000 e7 4d e3 3f df 8f 67 3f 3c bb 40 3f 69 c4 26 3f
       1.7758149 0.90453905 0.75285697 0.6514345
000010 9b 0b 2b 3f b2 6c ec 3e 70 9d a2 3e 06 da f8 3e
       0.66814584 0.46176678 0.3176074 0.4860384
000020 58 10 43 3e e6 6b e3 3d 42 d4 af 3e a0 9e d0 3d
       0.19049203 0.11104564 0.34341627 0.10186505
000030 db 66 4f 3e 79 bd 8e 3d af e6 c3 bd f6 f3 83 be
       0.2025408 0.06969733 -0.09565484 -0.25772065
000040 66 5a 20 be 0e c3 18 be aa 7e 51 be e3 17 8c be
       -0.15659484 -0.14918157 -0.20458475 -0.27361974

fc1.weight f4 [64, 3]
000000 f6 c2 db bd 04 71 5d 3e 01 7d a5 3e 27 a7 94 be
       -0.10730545 0.21625143 0.32321933 -0.29033777
000010 60 bd 0a 3f ea 2a ef 3d f6 51 c6 be df ba e5 bd
       0.54195213 0.11678107 -0.38734406 -0.112172835
000020 e1 1b 7d 3d e0 25 5e bd 4c c0 16 be d0 19 80 bd
       0.061794166 -0.05423534 -0.14721793 -0.06254923
000030 f3 0b 27 bf b1 7a 38 bf d8 33 64 3e 29 f3 b2 3d
       -0.6525261 -0.7206221 0.22285402 0.08737785
000040 09 52 2c be 9a 9d f5 3c 61 63 1a 3e af b5 80 3e
       -0.16828169 0.029982377 0.15076973 0.25138614
000050 12 9c 02 be 91 46 e1 be cc 41 46 be c4 54 db 3c
       -0.12754849 -0.4399915 -0.19361037 0.026773818
000060 f5 80 02 3f 39 5a ed 3e e3 9e b0 3d 04 d5 f4 be
       0.5097802 0.46357897 0.08624055 -0.47818768
000070 1f 10 7e bd 93 45 25 bd 7c 10 8a bd 80 18 41 3d
       -0.062027093 -0.040349554 -0.067414254 0.047142506
000080 bc 4f c1 be e5 6e ae be 93 af 15 bf 81 c0 41 bb
       -0.37756145 -0.3406898 -0.5847103 -0.0029564204
000090 21 e1 53 be 64 d0 d9 bd fa 82 05 3d 3d 91 05 3f
       -0.20691349 -0.106354505 0.032595612 0.5217474
0000a0 5e 8d 45 be 9e 27 90 3d 49 39 04 3e 11 02 2f 3d
       -0.19292209 0.070388064 0.12912478 0.04272658
0000b0 f5 6e 65 3c be 94 34 be 22 d9 c3 3e df c2 7e 3e
       0.014003505 -0.17634866 0.38251597 0.24879025
0000c0 82 96 db be f4 bb 4d 3d 0a 45 11 3e 89 6d 60 3e
       -0.42888266 0.050228074 0.14186493 0.21916784
0000d0 97 d1 4b 3e 3f b4 37 be aa 87 8e 3e 50 3b b5 be
       0.19904171 -0.17939852 0.27837878 -0.35396814
0000e0 37 33 15 be 6b 1b ca bc 9b c9 ca 3e 91 f4 07 3d
       -0.14570318 -0.024671277 0.39606938 0.03319222
0000f0 5a 97 b4 be eb 7d 13 bf f0 28 8a be d2 ea 51 be
       -0.35271722 -0.5761401 -0.26984358 -0.20499733
000100 a1 17 e2 bc 7d e9 b2 bd a6 80 f3 3d 9a a0 03 3f
       -0.027599158 -0.087359406 0.11889772 0.51416934
000110 2e 74 d2 3d 62 f3 c7 3e 9e 01 93 be b1 0f ae 3e
       0.10276066 0.39052874 -0.2871217 0.33996347
000120 a6 be f0 be d8 2b 4d be 93 31 bf bb 7b b1 8d be
       -0.47020453 -0.20036256 -0.005834767 -0.2767447
000130 ae 49 7a be bc d1 11 bf d6 32 12 be 6d 1c 22 be
       -0.24442169 -0.56960654 -0.14277205 -0.15831156
000140 bc b4 58 3d ba bb fb 3e 26 9f 21 be e3 c9 14 3d
       0.052906737 0.49166662 -0.15783367 0.036325347
000150 80 1a d6 be b0 a2 68 be e6 a8 b0 3d 87 51 1c 3d
       -0.41817093 -0.2271831 0.08625965 0.038163688
000160 54 0f 01 bf 61 83 30 3e 72 73 dc be cc 7e 07 3e
       -0.50414014 0.17237617 -0.43056828 0.13231963
000170 89 1f d7 3d 43 ae 3c 3d 0a 45 01 bf bd 2b b8 3c
       0.10504062 0.046064626 -0.5049597 0.022481794
000180 c4 8c 5d bd 9c b3 ad 3e 06 4b f8 3b 0e 8e 8a bd
       -0.054089323 0.33926094 0.007577303 -0.06765376
000190 f4 b0 f5 be 4c 8e b9 3e 40 a3 34 3e 57 20 a4 be
       -0.47986567 0.36241376 0.176404 -0.32055923
0001a0 45 0a 82 be 86 8c b4 be f6 20 61 be b6 b7 68 be
       -0.2539846 -0.3526346 -0.2198523 -0.2272633
0001b0 fa 8c e2 3c 9d c8 0b bd ff e3 89 bd 65 2f 6e 3e
       0.027655113 -0.034126867 -0.0673294 0.23260267
0001c0 00 b0 7e 3a b0 9b 6b be 47 c7 21 bf 38 be a6 be
       0.0009715557 -0.23008609 -0.631947 -0.32567
0001d0 ef 02 00 3e 23 72 de bd c5 d0 98 3e 93 74 1f 3e
       0.12501119 -0.108616136 0.2984678 0.15571813
0001e0 68 99 de bd 82 50 cb be da dd 0e 3e d0 e4 1c 3e
       -0.10869104 -0.3970986 0.13951817 0.1532166
0001f0 32 bd be 3e fb 3e 56 3c 20 ae 95 3e e9 00 01 3e
       0.3725372 0.013076539 0.2923441 0.12598003
000200 d3 10 91 bd 1c ec a0 3e a5 22 a7 3e 4a e8 30 3e
       -0.07083287 0.31430137 0.3264362 0.17276111
000210 e4 9f c1 bc 29 64 15 be d9 32 14 bd 02 08 4c be
       -0.023635812 -0.1458899 -0.036181305 -0.1992493
000220 a0 48 83 3e aa 90 89 3d f1 29 c2 3e 30 20 89 be
       0.25641346 0.067170456 0.37922624 -0.2678237
000230 91 d0 09 bf 2c 65 4a be e2 b9 77 3e db e3 80 3d
       -0.5383387 -0.19765157 0.24192002 0.0629346
000240 3c 9b a7 3d 43 3f 42 bb d3 49 a8 3c 7f ab 41 3e
       0.081839055 -0.0029639758 0.020543015 0.18913077
000250 fa 9e 66 3e 7b c6 95 be 80 c9 e8 3c f1 03 bd be
       0.22521582 -0.2925299 0.028416395 -0.3691707
000260 60 e7 fd bc 8d 7b d3 be aa 75 13 be f3 ba 05 bf
       -0.030994117 -0.413052 -0.14400354 -0.52238387
000270 b9 0b 9c be 45 45 1c bf b3 76 2c 3e f3 7b db bd
       -0.30477694 -0.61043197 0.16842155 -0.10717001
000280 64 3e d7 3e eb a0 1a 3d d2 b8 05 3f 3b 92 5d 3e
       0.42039788 0.03775112 0.5223514 0.21637814
000290 13 8f 85 3e d2 21 e7 3d f6 ac b0 3d 23 6a 99 3c
       0.2608572 0.112857476 0.0862674 0.018727368
0002a0 02 b3 6d 3d f8 81 75 3e 76 b4 b4 be 86 ce 35 3f
       0.058032043 0.2397536 -0.3529393 0.71018255
0002b0 b8 03 32 3e 60 ee d8 3e 90 73 13 3d cc 75 c7 bd
       0.17384231 0.42369366 0.03599888 -0.09739265
0002c0 9e 1a 36 be dd 7d a2 be 03 39 e5 be d4 de aa 3e
       -0.17783591 -0.3173665 -0.4477006 0.3337313
0002d0 9b 95 14 3e 0d 73 88 be 90 9f 39 bd e6 87 06 bf
       0.14510195 -0.26650277 -0.045318186 -0.52551115
0002e0 52 21 01 bf de b3 35 be ae 1e ac 3e d6 f9 05 bc
       -0.5044147 -0.17744395 0.33617157 -0.008177241
0002f0 02 0a 88 3c 8b b6 8f 3e 1b c4 8b 3e ba 5d 04 3d
       0.016606335 0.28068957 0.27298054 0.032315947

fc1.bias f4 [64]
000000 29 76 b8 3f 1e 73 5f 40 7c 28 83 40 77 2c ae be
       1.441106 3.4914012 4.098692 -0.340183
000010 7c 4a 54 c0 04 0f 55 40 3e 59 88 40 1a c6 85 40
       -3.3170462 3.3290415 4.260894 4.1804323
000020 a8 6d 1b c0 e9 a2 36 40 fb ec 7c 40 ef ba 19 40
       -2.428568 2.8536932 3.9519641 2.4020345
000030 b7 89 5f 40 d3 2e 40 40 07 8a 4d 40 14 34 57 bf
       3.4927804 3.002858 3.2115495 -0.8406384
000040 d7 8f 26 40 1b 33 80 40 86 fd 8d be 6b d7 28 40
       2.6025293 4.0062385 -0.27732486 2.638148
000050 fe 7a d6 be eb d0 c4 3f 05 22 e0 3e 3b 03 17 c0
       -0.4189071 1.5376257 0.43775955 -2.3595722
000060 7a 4c 57 40 98 15 b6 bd 44 f8 7e 40 ec 05 40 40
       3.3640428 -0.088908374 3.983903 3.0003614
000070 19 d0 6f c0 5d a2 63 40 0c 89 10 40 6b 95 37 40
       -3.7470763 3.5567849 2.2583647 2.8684947
000080 09 8d db bb c3 5e f6 bf 08 4a 04 bf 5f eb 07 3e
       -0.0067001623 -1.9247669 -0.5167546 0.1327338
000090 90 91 1e 40 2a 40 3b be 17 0e 63 c0 35 93 45 bf
       2.4776344 -0.18286195 -3.547735 -0.77177745
0000a0 d9 0b 03 40 68 71 5f 40 3e df dd 3f 60 5b 86 bf
       2.0475981 3.4912968 1.7333753 -1.0496635
0000b0 a7 1b cc 3f 95 e0 2b 40 5d c0 29 40 00 c2 b6 3f
       1.5945939 2.6855824 2.652366 1.4277954
0000c0 45 b0 42 40 75 95 69 40 10 7c 5b 3e b4 70 e2 3e
       3.0420086 3.6497471 0.21434045 0.4422661
0000d0 5b 4d 63 c0 f0 45 3e 40 cb fd 96 bf f0 7b 70 40
       -3.5515964 2.9730186 -1.1796201 3.7575645
0000e0 bd 30 64 40 27 f8 2b c0 a2 8e 09 bf fd 1f 21 c0
       3.5654747 -2.687021 -0.53733265 -2.5175774
0000f0 61 fa 08 40 00 45 44 bd bf 32 75 40 16 70 39 40
       2.140282 -0.047917366 3.8312223 2.8974662

fc2.weight f4 [64, 64]
000000 81 30 c9 bc 89 5b 23 3e 13 49 a0 3f cc 43 47 3d
       -0.024559261 0.15952887 1.25223 0.04864864
000010 39 34 a3 bd 7e 62 45 3d d3 6f 00 bf f8 b2 c9 3f
       -0.07968945 0.048189633 -0.5017063 1.5757742
000020 9a 8f fe bd 9b c2 3b bc 95 7f 66 3e e9 47 09 3d
       -0.124297336 -0.011459972 0.22509606 0.033515844
000030 ec db dc 3e d9 11 cd 3e b4 2a 74 3e 49 72 06 3e
       0.43136537 0.4005268 0.23844415 0.13129534
000040 aa c6 0e 3d 13 83 69 be 2b 4a b7 3c df 63 e6 3c
       0.03485743 -0.22803907 0.022374233 0.028123794
000050 00 d9 20 3a 17 d6 91 3d f2 0a a8 3d 07 84 16 3e
       0.0006135851 0.071209125 0.08205213 0.14698802
000060 34 dc 67 3e b2 83 8b 3d ed b5 58 3f ae 52 08 3f
       0.22642595 0.06812228 0.84652597 0.5325116
000070 62 51 fc bd c6 ff bd 3e 43 17 4b bd 32 75 71 ba
       -0.1232021 0.37109202 -0.04958273 -0.0009210884
000080 d7 1b 9d 3c 17 e1 24 3e da 31 15 3c 42 1c c4 bd
       0.019178314 0.1610149 0.009106124 -0.09575702
000090 54 7d 84 be f0 22 64 3c 88 98 b7 be c5 c4 f2 bb
       -0.25876868 0.013924345 -0.3585856 -0.0074087107
0000a0 75 5a 2d 3d 8b 0e 4e 3e b6 e2 af be cf 35 4c 3d
       0.042322595 0.20122735 -0.34352654 0.049856003
0000b0 0e 6a bb bd 11 c6 6f 3e 28 51 46 3e b6 94 e0 3d
       -0.09151088 0.234154 0.19366896 0.10965864
0000c0 5e d7 ea 3e f1 b3 80 be f7 b5 d3 bd c8 75 2c 3d
       0.45867437 -0.25137284 -0.103374414 0.042104512
0000d0 5d 63 e4 bd 32 15 1e 3e 06 b3 b0 3d dc f8 90 3e
       -0.111517645 0.15437773 0.08627896 0.28314865
0000e0 9c c0 b7 be 63 88 df bc 07 d2 dc 3d 80 03 03 bc
       -0.35889137 -0.027286714 0.10782247 -0.00799644
0000f0 0e 1e d1 bd c0 4f 85 bb 38 6a 11 3f 46 3f c0 3c
       -0.102108106 -0.004068345 0.568027 0.023467671
000100 24 66 e7 bd aa 8b 89 bd 40 5f a6 3d 00 ef 5f 3d
       -0.11298779 -0.06716092 0.08123636 0.054671288
000110 2c 08 f4 bd 00 47 a9 bd 24 f8 21 3d 60 f1 b9 3d
       -0.11915621 -0.08265495 0.039543286 0.09079242
000120 e2 24 d7 bd 3c 5a 56 3d 6c 97 1b 3d 00 73 4d bd
       -0.10505082 0.052332148 0.037986204 -0.0501585
000130 c8 25 8b 3c 98 69 38 bd 12 48 a4 bd 72 28 bf bd
       0.016985789 -0.045022577 -0.08021559 -0.09333886
000140 b0 da e8 3d 7a c7 a9 bd df ca 49 bd 90 3a 5c 3c
       0.11369836 -0.0829 -0.04926574 0.013441697
000150 da 24 b0 bd 60 8f d8 bd ea 2f eb 3d 92 74 ed bd
       -0.08600779 -0.105742216 0.11483748 -0.115945
000160 1a 27 9b bd 3c 5b b8 3d d6 6f f7 3d 06 5c df bd
       -0.075758174 0.090017766 0.12081878 -0.10906224
000170 28 7f bf bc c0 36 53 3b 80 47 81 bc d8 c8 12 bd
       -0.023376063 0.0032228678 -0.015781164 -0.03583607
000180 bc 63 cb bd 4a 18 d6 3d f8 5f db 3c 5c c7 ff 3c
       -0.09931132 0.104538515 0.02677916 0.031222992
000190 3a 7e 97 3d f0 a8 c6 3c a8 3a 13 bd 98 98 49 bd
       0.07397123 0.024250478 -0.03594461 -0.04921779
0001a0 c0 8e 68 bb 40 a8 05 bd 40 f4 6b 3c 88 7f 8b bc
       -0.0035485476 -0.03263116 0.014401495 -0.017028585
0001b0 e6 8e 80 3d 20 2c af bd 42 ea fe 3d a0 97 46 3d
       0.06277256 -0.08553338 0.12447025 0.048484445
0001c0 78 d2 67 bc 20 69 53 bd c8 55 d9 bc aa d3 b8 bd
       -0.014149301 -0.051613927 -0.026530161 -0.09024747
0001d0 e0 0b a3 bc 60 4e f3 3c 20 3a e7 3d 54 fe 0f bd
       -0.019903123 0.029700458 0.11290383 -0.035154656
0001e0 38 96 d9 bc 0c 47 46 bd c8 50 b4 3d 60 d5 47 bc
       -0.026560888 -0.0484076 0.0880447 -0.012196869
0001f0 72 0a ff bd d4 77 04 3d e8 9b 81 bc d8 94 af bd
       -0.12453164 0.03234084 -0.015821412 -0.085733116
000200 43 c2 10 3e 06 bf b1 3e 2c c2 42 3f 84 f3 98 bd
       0.14136605 0.34716052 0.7607753 -0.07468322
000210 d5 0f 8f bd 66 81 d5 3d 79 95 79 bf 81 fc 8b 3f
       -0.069854416 0.104250714 -0.974937 1.0936433
000220 d2 98 19 bd 3f 88 4c be df 38 68 3e fd ce 71 bd
       -0.037499256 -0.19973849 0.22677945 -0.05903529
000230 18 3a cc 3e 49 4d 04 bc 9b d8 18 3e 7b b0 fc 3d
       0.39888072 -0.008075067 0.14926378 0.123383485
000240 5f 73 04 3e 77 2e 1f bf a9 c6 c4 bd b9 0b d2 3d
       0.12934636 -0.62180275 -0.09608204 0.10256142
000250 68 27 3d 3d d3 4a 26 be 9b 22 de 3c 02 c4 c0 3d
       0.04618016 -0.1623948 0.02711611 0.094123855
000260 27 23 fa 3d 4c d5 20 bd b2 d8 3f 3f 7d 80 54 bd
       0.12213736 -0.039265916 0.74940026 -0.05188035
000270 77 84 08 be 54 63 e5 3e cf ea ae 3d b4 5b 9d 3d
       -0.13331781 0.44802344 0.0854088 0.076835066
000280 4a b6 82 bd f1 1d 18 3e 88 8c b9 3c 00 44 4e 3a
       -0.06382425 0.14855172 0.022650018 0.0007868409
000290 0c a6 a3 be 70 b5 e5 bc 48 a9 92 be f1 7c 16 3e
       -0.3196262 -0.028040618 -0.28644776 0.14696099
0002a0 a1 d5 19 3d 91 ae 39 3e c9 43 62 be 08 c4 23 bb
       0.037557248 0.18132998 -0.2209617 -0.002498867
0002b0 23 c2 f8 bd 10 f3 e0 3e 4b 05 d3 3e 56 a6 da bd
       -0.12146404 0.43935442 0.41214976 -0.10676257
0002c0 d2 d9 76 3d 6a f9 81 be da b1 9e bd bc d6 f4 bd
       0.060266323 -0.253856 -0.07748766 -0.1195502
0002d0 79 62 1e be d0 9a 85 3e 22 4d 19 3e 54 aa 8a 3d
       -0.15467252 0.26094675 0.1497083 0.06770769
0002e0 f8 f5 11 bf 13 c3 93 3d f8 6f bb 3d e5 99 e9 bd
       -0.57015944 0.07214942 0.09152216 -0.11406306
0002f0 ac d2 d4 bd 80 cd 38 3b 60 bc 59 3e bd 32 10 3e
       -0.10391745 0.002819866 0.21263266 0.14081855
000300 52 84 af bd b8 0d 97 bd b4 52 c4 bd e0 18 44 3c
       -0.0857016 -0.073756635 -0.09586087 0.011968821
000310 f0 65 8a bc 2e d4 f7 3d ac f5 bc 3d e8 80 18 bd
       -0.01689431 0.12101017 0.09226546 -0.03723231
000320 70 6d 9c bd 00 c6 af 3c 19 f8 d5 bc 78 d6 f3 bc
       -0.07638061 0.021456718 -0.026119279 -0.029765353
000330 20 df ed 3b 30 00 33 3c 20 27 51 bd 53 fe 7d 3d
       0.0072592646 0.010925338 -0.051062703 0.06201012
000340 49 b8 fb bc 70 f0 1b 3c c5 14 f7 bc 52 37 ab 3d
       -0.030727522 0.009517774 -0.03016127 0.08360161
000350 18 18 65 bd d0 36 b8 bc 54 80 0e bd 88 17 bd bd
       -0.05593118 -0.022487074 -0.034790352 -0.09233004
000360 18 6f ce 3d 22 e4 8f 3d 6a 36 82 3d 00 88 14 b9
       0.10079783 0.07025935 0.06358035 -0.00014165044
000370 3c 8d a8 3d c0 e4 12 bb 88 58 ca 3d 6c 6f aa 3d
       0.08230063 -0.0022414178 0.09880167 0.08322033
000380 f8 3b cf 3c 92 cd ea 3d c0 f4 6a 3d b2 f4 fc bc
       0.02529715 0.11464991 0.057362318 -0.030878399
000390 80 3b 46 3c f4 1e 78 3d 80 d0 cc 3d 30 f7 7d bd
       0.012099147 0.060576394 0.10000706 -0.062003314
0003a0 48 99 96 3d 70 bf f1 bc f9 0e 93 3c 58 10 9e 3d
       0.07353455 -0.02951023 0.017951475 0.07717961
0003b0 38 1f 21 3d 54 df 52 bd a0 20 4b 3d ec 8d fc bd
       0.039336413 -0.051482514 0.04959166 -0.12331757
0003c0 50 d7 2e bc a6 9e e7 bd 76 33 b1 bd 50 8f ee 3d
       -0.010671452 -0.11309557 -0.086523935 0.116484284
0003d0 9e 95 db 3c 98 af 04 bd d0 51 b1 bd 3c d4 07 bd
       0.026804741 -0.03239402 -0.086581826 -0.033161387
0003e0 10 70 b6 bc 04 ba 2e bd 00 82 d2 bd f8 7e d9 3c
       -0.022270232 -0.042657867 -0.10278702 0.026549801
0003f0 ac 57 57 3d 80 ef 0f bc 6c c9 d0 bd 0a c6 b9 bd
       0.052573845 -0.008785129 -0.10194668 -0.09070976

fc2.bias f4 [64]
000000 ab d7 ee 3f d0 b9 37 bd b3 e3 c5 3f 34 c0 ec bd
       1.8659567 -0.04485494 1.5460113 -0.11560097
000010 45 2d 0c 40 0b 7b 49 3f 05 44 95 bd 96 94 c9 3d
       2.190263 0.78703374 -0.07288364 0.09842794
000020 6f ea c6 bb 76 e9 5c 3d 73 a3 8d 3f c2 27 d0 3f
       -0.006070427 0.053933583 1.1065506 1.6262133
000030 5b 32 46 b9 0f 3b f2 3d 8f fe 0a 40 1b bc d7 3f
       -0.0001890151 0.11827671 2.171787 1.685428
000040 ab 30 0f 40 ed a7 2b bd fa 17 06 c0 86 8c 13 40
       2.2373455 -0.041908193 -2.0952134 2.3054519
000050 6a 41 0e 40 06 31 4f 3d a6 62 07 3c ed 35 a2 bd
       2.2227426 0.05058386 0.008263266 -0.07920442
000060 da 70 bc 3c 83 1d e2 bd fd 40 b5 3d 62 e4 01 be
       0.02300303 -0.11040785 0.08850286 -0.12684777
000070 68 55 4b bd d6 eb eb bf 8b 56 cd 3f ee 33 c2 3f
       -0.049641997 -1.8431346 1.6042036 1.5172098
000080 6d 11 eb bd 41 de 01 40 de 0c 12 40 a4 ed da 3d
       -0.11477933 2.0291903 2.2820354 0.106898576
000090 13 2d f9 3e f3 a8 3c ba 9a 9a 84 bd ed 6a 5f 3f
       0.486672 -0.0007196806 -0.064748004 0.8727253
0000a0 ab 3d 8f 3f ee fd bc b9 18 f6 80 3d 6d 42 47 bd
       1.1190695 -0.00036047347 0.06296939 -0.048647333
0000b0 a8 69 bd 3f 8d ea cd 3f 78 57 27 3d c9 4a 76 3f
       1.4797869 1.6087204 0.0408549 0.96207863
0000c0 e3 e0 75 3f 6f 03 96 3f 82 44 15 40 56 3b 88 bd
       0.96046275 1.1719798 2.3323064 -0.066519424
0000d0 68 1e d1 3f cb b0 08 c0 49 71 00 bd b3 02 97 3d
       1.6337404 -2.1357906 -0.031358037 0.07373562
0000e0 39 7b 75 3e 26 d8 f9 3f 6d 31 51 bc 38 a1 53 bd
       0.23972787 1.9519088 -0.012768132 -0.051667422
0000f0 5e 70 7d 3f 5e 52 c3 3f 45 e6 65 3d 13 78 eb bd
       0.98999584 1.5259511 0.056127805 -0.11497512

fc3.weight f4 [20, 64]
000000 af ed a7 3e dc f3 a3 3d 70 7b 51 3e 94 1d 47 bd
       0.32798526 0.08005497 0.20457244 -0.048612192
000010 dd 91 07 3f 00 1b 4c be 10 ab 0e 3d e3 3a 45 3d
       0.52956945 -0.19932175 0.034831107 0.048151862
000020 b3 82 b5 3d 49 9f 31 bd 69 b3 3f 3e 0a 96 65 3e
       0.088628195 -0.043364797 0.18720783 0.22420517
000030 b5 63 85 bc 6f 12 3f be c3 f6 9b bf 65 7e 77 be
       -0.016282896 -0.18659376 -1.2184681 -0.2416931
000040 42 52 fb 3e 34 e1 3a 3d ab 8a b5 be a0 e2 63 3f
       0.49086195 0.045624927 -0.35457358 0.8901768
000050 1f 03 cb 3e a0 a0 2c 3c 8f cc 92 bd 40 d6 52 bd
       0.3965082 0.010536343 -0.07167923 -0.051473856
000060 50 f8 37 3d 98 63 d0 bd c2 90 97 bd 34 73 59 bd
       0.044914544 -0.10175246 -0.07400657 -0.053088382
000070 d9 1d fc 3d 3d 95 ea be eb 87 3e 3e a4 3e 4d 3e
       0.123103805 -0.45816985 0.18606536 0.20043427
000080 ee bd 19 3d b1 a3 fc be df ac 05 3f f5 ae 86 bd
       0.037534647 -0.49343637 0.52216905 -0.06576339
000090 1c 4f bf 3e 04 97 3e 3d 1c be c7 3d 6a 23 38 3e
       0.37365043 0.04653074 0.09753057 0.1798226
0000a0 b9 2f 71 be 91 e9 1b 3c 75 c6 a2 bd bc d3 ec bd
       -0.23553361 0.009516136 -0.07948009 -0.115638226
0000b0 37 18 b5 bd 23 15 2b 3e 38 64 d0 3c c9 16 88 be
       -0.08842509 0.16707282 0.025438413 -0.26579884
0000c0 f8 c9 23 3d c7 61 d6 3d e3 53 1e 3f 3c 0a ef 3d
       0.039987534 0.10467868 0.6184675 0.11671874
0000d0 fa b4 81 3e 3b 82 16 bf a0 21 fb 3b 40 80 13 3d
       0.25333387 -0.58792466 0.0076639205 0.03601098
0000e0 b5 14 db bc 85 cf 07 3f 49 e8 81 bb 00 f8 be 3a
       -0.026743272 0.53051025 -0.003964458 0.0014569759
0000f0 80 12 ed 3d c5 c3 9e bf 35 c3 8f bd 89 e8 71 3d
       0.11575794 -1.2403494 -0.07019655 0.059059653
000100 4b 7a 35 3e 4c 82 bd bd bc 4f 8c 3e 40 7a b7 bb
       0.17722432 -0.09253368 0.27404583 -0.00559929
000110 a0 98 2d 3f e4 0d da bc c0 08 b0 39 08 d7 f6 3d
       0.6781101 -0.026617952 0.00033575855 0.12052733
000120 12 55 b1 bc b7 61 9c bd 3b 6a 20 3d 0c c1 50 3e
       -0.02164701 -0.07635825 0.03916381 0.20386142
000130 46 13 c9 3c a6 e2 2e be c3 fd 7d bf 2a 8e d8 be
       0.024545323 -0.17078647 -0.99215335 -0.42295963
000140 32 f8 e8 3e bb 4b 75 3d 15 c4 fd be da ed 08 3f
       0.45501858 0.059886675 -0.4956366 0.5348793
000150 b7 2d 9f 3e b3 8f a5 ba 11 93 0a 3e d1 ce 9e bd
       0.31089565 -0.0012631327 0.13532664 -0.07754291
000160 85 0f 0f 3d 24 aa ce bd 6a ab e9 3d f0 29 0b 3c
       0.03492691 -0.100910455 0.11409648 0.008493885
000170 f9 19 0a 3e 8c d6 c5 be 6b 55 5c 3e 4c 0f 3b 3e
       0.1348647 -0.3864025 0.2151696 0.18267554
000180 32 5a 90 3d 7f 7e 46 bf 82 d1 0e 3f ed 46 98 3d
       0.070484534 -0.7753677 0.55788434 0.07435403
000190 37 54 b9 bd 20 2f ad bb d7 22 ad 3d 48 92 ec 3e
       -0.09049266 -0.0052851588 0.08453911 0.46205354
0001a0 8e 6b cc be 40 72 61 3b 2c e9 17 bd 78 d3 ac 3d
       -0.39925808 0.0034400374 -0.037087604 0.08438772
0001b0 83 4c a5 3d d7 23 7c 3e 8a 52 e3 bd f1 e4 15 3e
       0.08071234 0.24623047 -0.110997275 0.14638115
0001c0 3d bb 71 3e a2 13 9e 3e f1 b0 1b 3f 50 f6 72 bc
       0.23606582 0.30874354 0.60816866 -0.014829233
0001d0 cd e3 28 3e 1d d3 eb be e8 1d 1e bd 10 00 e6 bc
       0.16493149 -0.46059504 -0.03860274 -0.028076202
0001e0 67 23 70 3d 1b 14 c0 3e f2 43 03 bd f2 c1 8a 3d
       0.058627512 0.3751534 -0.03204722 0.067752734
0001f0 14 c2 4b be cd 40 3a bf 3c 28 5b bd c6 90 cc 3d
       -0.19898254 -0.7275513 -0.053505167 0.09988551
000200 b8 9b 87 3e d0 f6 13 3d 93 2d ac 3e e0 40 89 bb
       0.2648599 0.03612405 0.3362852 -0.004188642
000210 d6 1f 22 3f 70 20 8d be 12 ee 9e bd 5a 83 e0 bc
       0.6332983 -0.2756381 -0.07760252 -0.027406383
000220 34 2c 23 bd 97 91 23 bd 85 dc da be 02 4d 83 3e
       -0.039837077 -0.039933767 -0.42746368 0.2564469
000230 dc 9c 98 bc c0 f5 0e be 83 f4 5f bf c6 0f da be
       -0.018629484 -0.13960934 -0.8748247 -0.4259016
000240 d9 dd bd 3e 44 69 66 bd c0 04 15 be b3 70 1e 3f
       0.3708332 -0.056252733 -0.14552593 0.61890715
000250 04 9c b3 3e 10 70 1d 3b 69 7c 2f bd 01 4c f3 bc
       0.35079968 0.0024023093 -0.042843256 -0.029699327
000260 89 0d 01 be 2e c4 ec bd f9 ff f1 3d e8 c9 ac 3c
       -0.1260282 -0.11560856 0.11816401 0.02109237
000270 3d a9 05 3d 95 d0 78 be 5e e8 98 3e 85 41 12 3e
       0.0326321 -0.24298318 0.29864782 0.14282806
000280 ee bf c8 bd f1 a8 4f bf 3f ec 1e 3f d4 eb d9 bd
       -0.09802233 -0.8111716 0.6207923 -0.10640684
000290 ae f5 57 3e 3e 5a b6 bd 80 7c 7b bb f5 d6 07 3e
       0.21089813 -0.08903931 -0.0038373768 0.13265593
0002a0 eb 13 d5 bd e4 61 60 3d 0f 28 07 bc 16 d9 d6 bd
       -0.1040419 0.054780856 -0.008249297 -0.104906246
0002b0 d6 76 a9 bd 6f 06 90 3d 4e 24 d0 3d fb e7 08 3c
       -0.08274619 0.07032477 0.101631746 0.00835609
0002c0 3a 0c 53 3e fc b7 46 3e 45 55 02 3f 2a 67 d0 3d
       0.20610133 0.19406122 0.5091136 0.10175927
0002d0 87 7a 42 3e 7b d2 55 be b7 ec ef ba ae c1 b2 bd
       0.18992053 -0.20881073 -0.00183048 -0.08728348
0002e0 f2 bb 8b 3e 48 66 ca 3e 8e 57 e6 3d d8 21 82 bd
       0.27291828 0.3953116 0.112471685 -0.063541114
0002f0 ae 6e 2c be 01 54 5d bf 9b 7a 75 bd 8e 17 ba 3d
       -0.16839096 -0.86456305 -0.05993138 0.09086524
000300 46 99 0f 3e 8f 9a b7 3d c6 e6 a0 3e 68 8c 10 3d
       0.14023313 0.089650266 0.31426066 0.03529015
000310 02 0a 25 3f 31 76 d3 3e cb 43 3d 3d 40 da a1 bb
       0.64468396 0.4130111 0.04620723 -0.0049393475
000320 d4 38 05 bd e8 32 38 be ff 06 9d bd 94 21 be 3d
       -0.0325249 -0.17988169 -0.0766735 0.09283748
000330 02 17 bc 3d 12 76 34 be 9f 0a 54 bf a6 d2 0b bf
       0.09184076 -0.17623165 -0.82828707 -0.546183
000340 70 87 d6 3e 9a 4c 87 3d 88 6d 15 bf 14 15 07 3f
       0.41900206 0.066064075 -0.58370256 0.5276654
000350 82 98 cc 3e 39 f6 d3 3c 99 e0 39 bd 80 b4 8a 3d
       0.39960104 0.025874244 -0.04538021 0.06772709
000360 ed d9 06 3c 73 de 9e 3d 70 93 71 bd 9b 85 ec 3b
       0.0082306685 0.077572726 -0.058978498 0.0072180755
000370 fc 51 ab 3d 98 07 d3 be 43 26 3b 3e 69 00 88 3e
       0.08365247 -0.4121673 0.18276314 0.26562813
000380 a0 97 ef bc 59 e1 34 bf 38 17 0d 3f fe 13 d2 bc
       -0.029247105 -0.70656353 0.55113554 -0.025644299
000390 ec bd 45 bd 09 a2 9d 3d 40 68 5f bc 6d e0 b3 3e
       -0.048276827 0.076969214 -0.013635695 0.3513216
0003a0 a2 d6 79 be ff 7d 87 3d 0f 83 9b 3d 20 20 ad bc
       -0.24398282 0.06615829 0.07593357 -0.021133482
0003b0 0c dc c5 bd b0 f2 35 3e 94 19 ac bd 26 d3 03 3d
       -0.09661111 0.17768359 -0.08403316 0.03218379
0003c0 41 49 90 3e fa 83 37 3e a1 13 23 3f 3a af ae 3d
       0.28180888 0.17921439 0.63701826 0.085295156
0003d0 39 53 19 3c e1 69 a1 be 68 2f c2 bd b8 ac 2e bd
       0.009358221 -0.31526092 -0.09481698 -0.042645186
0003e0 1c 61 84 3e 24 94 15 3e b8 88 80 3c 30 ea 27 bd
       0.2585534 0.14607292 0.015690193 -0.040994823
0003f0 3b dd 33 3d 95 89 2a bf 5f be a4 3d 58 f2 80 bd
       0.043912154 -0.66616184 0.08044123 -0.062962234

fc3.bias f4 [20]
000000 e3 8a e2 3f b3 13 60 3f d5 9c 42 3f 58 8d 27 3f
       1.7698635 0.8753006 0.76020557 0.6545005
000010 8a fa 29 3f ec cf ef 3e 15 19 a9 3e db 5c f9 3e
       0.6639792 0.4683832 0.3302695 0.48703656
000020 5b af 2f 3e a2 a3 db 3d bb 59 a8 3e 4f 75 d5 3d
       0.17156737 0.1072457 0.3288096 0.104227655
000030 ff 0b 4b 3e 63 ba 8b 3d e7 ad c5 bd af dd 81 be
       0.19828795 0.0682266 -0.0965231 -0.25364444
000040 f5 90 11 be 7b 7b 1c be eb 13 66 be 1f b9 88 be
       -0.14215453 -0.15281479 -0.22468536 -0.26703736
